Baseline_systems/SoMS/models/SoM_GRU_40/10_1.pth (torch, 10975 bytes, 3 tensors)

weight f4 [32, 64]
-0.10062598 0.08276952 0.096859075 -0.010903263 -0.053832226 0.071356505 0.10967385 0.06264718
-0.114116326 -0.079420224 -0.01163219 0.055862498 -0.08661912 -0.09239008 -0.020571753 -0.097156845
0.015383495 0.04186803 -0.12322564 -0.06976115 -0.036630597 -0.059311703 0.07228502 0.04790674
-0.05307225 -0.06489787 0.09814935 0.08604784 -0.1049691 0.0725504 0.024046801 0.0077896807
0.12210251 0.08749879 0.042396188 -0.01973614 0.0801584 -0.08882112 0.11981824 -0.0430496
0.045071043 0.001453104 -0.03910265 -0.043927465 -0.07579788 -0.0047781356 -0.101934 0.12463888
-0.120713286 -0.110652186 0.06205593 0.07401158 0.070565276 -0.061715264 0.023323298 -0.07894424
0.08721777 0.08463388 -0.0065913135 0.09849784 0.050008647 0.057871796 -0.022139652 0.087921165
0.07612159 -0.09747303 0.090521045 0.060550466 0.045806978 0.10869261 -0.015322552 -0.04128291
0.112959825 -0.05801036 0.11481897 -0.095240876 0.04074948 -0.016304992 0.0012190387 0.09612105
0.02955754 0.036602505 0.00027550609 -0.005604817 -0.1154375 0.015079431 -0.0868365 0.06308625
-0.04498196 -0.06713452 0.10733265 -0.07253894 0.04275621 -0.030644152 0.05087584 0.0407809
0.046072036 0.04912344 0.07795194 0.11996667 -0.029140227 0.12785496 -0.047288135 -0.059539724
0.010079205 -0.075281985 -0.054925304 0.06972145 -0.053007785 -0.0972308 -0.039983403 0.07467254
-0.115893394 0.10418133 -0.11646013 -0.061423 0.0817396 -0.039862875 -0.020789325 0.028385205
-0.036711566 -0.117539786 0.024375768 -0.05355541 0.10302048 -0.09973186 -0.014309645 -0.0070289033
0.065681525 -0.037005503 -0.0035496792 0.1090102 0.023754619 0.08812017 0.033705764 -0.09515917
-0.030191734 -0.08553764 -0.12928541 -0.033109523 0.10186062 -0.072121546 -0.05827623 0.07548654
0.08646514 0.0016755224 -0.05940024 -0.11523772 0.05923567 -0.053598907 -0.061644394 0.08840876
0.018482413 0.051532414 0.1254337 -0.08106163 0.049088694 -0.06915902 -0.03999482 -0.08970684
0.090654135 -0.115375005 -0.02177257 0.07089406 -0.069261715 -0.036120135 0.0572152 0.07816144
-0.08186013 -0.062434886 0.10544715 -0.062318448 -0.0011993347 -0.09331288 -0.099447004 -0.023662824
-0.10775191 0.07273645 0.046991035 -0.012740945 -0.04350965 -0.032013617 -0.03884135 -0.017469777
0.10913677 0.050558865 -0.052316055 -0.0537853 -0.015784401 -0.053364184 0.015207542 -0.06423198
0.11503414 0.080495164 0.11876578 0.110199235 0.05203607 0.015059318 0.10404342 -0.065747485
0.11256404 0.083473265 0.05764127 0.08093449 0.067363866 -0.10191427 -0.11068261 -0.093604065
-0.048605468 -0.07559942 -0.042486705 -0.12281284 -0.12967958 0.07987046 0.04917446 -0.039371837
0.05312107 -0.09384562 -0.031363957 -0.11017044 -0.048631288 -0.061184343 -0.016374735 0.093151435
-0.031888075 -0.00539985 0.07706784 -0.026814494 -0.051880844 -0.015231516 -0.11286858 0.010841632
-0.044610385 -0.011723632 -0.025351727 -0.11971052 -0.08822211 0.1240783 0.10496876 -0.09948523
-0.08098221 0.09152994 -0.09863619 -0.0558361 0.12930974 0.033469826 -0.033388097 -0.02665956
0.06292628 0.1198742 0.11355169 0.036338948 -0.024746487 0.12736171 0.09869098 0.0951395
00000000: fe14 cebd 1183 a93d 0d5e c63d 9aa3 32bc
00000010: 2e7f 5cbd 5c23 923d af9c e03d 2a4d 803d
00000020: d2b5 e9bd 12a7 a2bd f194 3ebc 13d0 643d
00000030: 5d65 b1bd 0337 bdbd 1886 a8bc 2bfa c6bd
00000040: 0e0b 7c3c d07d 2b3d b95d fcbd efde 8ebd
00000050: f709 16bd d4f0 72bd 2b0a 943d dc39 443d
00000060: 4a62 59bd 2de9 84bd 8702 c93d da39 b03d
00000070: 0afa d6bd 4e95 943d ccfd c43c 9440 ff3b
00000080: e110 fa3d 9132 b33d a0a7 2d3d afad a1bc
00000090: 162a a43d d9e7 b5bd 4463 f53d c754 30bd
000000a0: 6a9c 383d 1476 be3a 1a2a 20bd 49ed 33bd
000000b0: eb3b 9bbd e891 9cbb c6c2 d0bd ab42 ff3d
000000c0: 8738 f7bd 9d9d e2bd 5c2e 7e3d 6293 973d
000000d0: 8784 903d 25c9 7cbd 8010 bf3c 85ad a1bd
000000e0: 3b9f b23d 8754 ad3d f2fb d7bb 3cb9 c93d
000000f0: ded5 4c3d fa0a 6d3d 375e b5bc 0310 b43d
00000100: a3e5 9b3d f19f c7bd 1963 b93d c403 783d
00000110: 19a0 3b3d 3b9a de3d 710b 7bbc 4518 29bd
00000120: 7b57 e73d 459c 6dbd 3526 eb3d a60d c3bd
00000130: ede8 263d 0c92 85bc 27c8 9f3a 1ddb c43d
00000140: a722 f23c 82ec 153d cd71 9039 9da8 b7bb
00000150: 7f6a ecbd b80f 773c 56d7 b1bd 5d33 813d
00000160: 013f 38bd d37d 89bd 38d1 db3d 4c8f 94bd
00000170: 2321 2f3d 7209 fbbc 2f63 503d df09 273d
00000180: 08b6 3c3d a935 493d 44a5 9f3d 16b1 f53d
00000190: 7cb7 eebc 69ec 023e 34b1 41bd eddf 73bd
000001a0: 4023 253c 712d 9abd 5bf9 60bd 1fca 8e3d
000001b0: b11e 59bd f120 c7bd a3c5 23bd ebed 983d
000001c0: 8459 edbd 055d d53d a682 eebd af96 7bbd
000001d0: 1767 a73d 4147 23bd 604e aabc 1788 e83c
000001e0: de5e 16bd b3b8 f0bd b1af c73c eb5c 5bbd
000001f0: 67fc d23d 3840 ccbd 0073 6abc b752 e6bb
00000200: 0984 863d 1593 17bd bca1 68bb bd40 df3d
00000210: 0c99 c23c 5978 b43d 0e0f 0a3d d0e2 c2bd
00000220: a854 f7bc 5c2e afbd 6563 04be da9d 07bd
00000230: 4d9c d03d 76b4 93bd 0eb3 6ebd b098 9a3d
00000240: a314 b13d 349d db3a ab4d 73bd c101 ecbd
00000250: 1aa1 723d 878a 5bbd d57e 7cbd a70f b53d
00000260: 6e68 973c a713 533d b171 003e a403 a6bd
00000270: 3a11 493d 3fa3 8dbd 9cd1 23bd 38b8 b7bd
00000280: e0a8 b93d bb49 ecbd 645c b2bc e830 913d
00000290: 16d9 8dbd b5f2 13bd 7c5a 6a3d 1b13 a03d
000002a0: 49a6 a7bd b9bb 7fbd adf4 d73d a141 7fbd
000002b0: ff32 9dba d31a bfbd dfaa cbbd 8ad8 c1bc
000002c0: 09ad dcbd d9f6 943d ac79 403d 66bf 50bc
000002d0: 2d37 32bd b620 03bd 1b18 1fbd c71c 8fbc
000002e0: 1983 df3d d016 4f3d 5c49 56bd fa4d 5cbd
000002f0: 4a4e 81bc 6794 5abd 0e29 793c 0e8c 83bd
00000300: 0597 eb3d a6da a43d 793b f33d 23b0 e13d
00000310: c623 553d 5cbb 763c b714 d53d 9ea6 86bd
00000320: fa87 e63d 08f4 aa3d 4119 6c3d fbc0 a53d
00000330: 11f6 893d 6eb8 d0bd 90ad e2bd 7db3 bfbd
00000340: 8716 47bd ded3 9abd 8a06 2ebd 4c85 fbbd
00000350: b9ca 04be 2093 a33d 296b 493d 5d44 21bd
00000360: 7b95 593d 2232 c0bd 7e77 00bd 0aa1 e1bd
00000370: 9a31 47bd 6f9c 7abd 4f24 86bc 2ec6 be3d
00000380: 129d 02bd 3af1 b0bb bed5 9d3d 12aa dbbc
00000390: 0281 54bd 9c8d 79bc a427 e7bd 1aa1 313c
000003a0: 61b9 36bd 7a14 40bc 6dae cfbc ca2a f5bd
000003b0: cbad b4bd c41c fe3d dcf9 d63d eabe cbbd
000003c0: 00da a5bd 0d74 bb3d c501 cabd 65b4 64bd
000003d0: c669 043e a817 093d f5c1 08bd 2665 dabc
000003e0: 7edf 803d 9b80 f53d ca8d e83d 26d8 143d
000003f0: 25b9 cabc 1c6b 023e 7f1e ca3d 80d8 c23d

bias f4 [32]
0.008649917 0.06279476 0.094400026 0.07981582 0.07608529 0.078843385 -0.111336745 -0.09525229
0.06224501 0.097746804 0.10651964 -0.058768798 -0.048611246 0.09660231 0.038809333 -0.06428722
-0.064154364 -0.11514961 0.10049012 0.12222523 0.08455668 0.010779592 -0.051934026 -0.05394056
0.10784645 -0.105805084 -0.020759236 -0.06444634 -0.10129786 -0.071327366 0.047181476 0.046960335
00000000: 62b8 0d3c 8a9a 803d cd54 c13d 7a76 a33d
00000010: 9bd2 9b3d a478 a13d 8504 e4bd a213 c3bd
00000020: a0f4 7e3d 7a2f c83d f826 da3d 8db7 70bd
00000030: 961c 47bd 6fd7 c53d 89f6 1e3d 05a9 83bd
00000040: 5d63 83bd 8fd3 ebbd c4cd cd3d 3951 fa3d
00000050: 0d2c ad3d e39c 303c c6b8 54bd c7f0 5cbd
00000060: 99de dc3d 56b0 d8bd 460f aabc 71fc 83bd
00000070: 4175 cfbd 1514 92bd 5d41 413d 7b59 403d

weight f4 [1, 32]
-0.057449386 -0.0047815125 0.08412542 -0.023100665 0.055177398 0.09782764 0.019545067 0.08226746
0.007722634 0.103693604 -0.1132379 -0.10276749 -0.11959782 0.014801119 0.017825197 -0.13304427
-0.18351477 -0.13135855 -0.12860492 -0.16439609 -0.010721973 -0.053630553 -0.11177335 0.08546174
0.14331229 -0.08053648 0.14507553 0.013261698 0.10670834 0.14506783 -0.13688467 -0.12098324
00000000: 0c50 6bbd 3cae 9cbb f349 ac3d 9b3d bdbc
00000010: b201 623d dc59 c83d fa1c a03c d87b a83d
00000020: 260e fd3b 505d d43d 46e9 e7bd c377 d2bd
00000030: b4ef f4bd 6580 723c 2606 923c c23c 08be
00000040: 4ceb 3bbe db82 06be 02b1 03be 7357 28be
00000050: 37ab 2fbc b6ab 5bbd 6de9 e4bd 9106 af3d
00000060: 75c0 123e 4ff0 a4bd ae8e 143e 9847 593c
00000070: e789 da3d a98c 143e 7f2b 0cbe 10c6 f7bd
