Baseline_systems/SoMS/models/SoM_GRU_40/46_1.pth (torch, 10975 bytes, 3 tensors)

weight f4 [32, 64]
00000000: 6d64 f6bd 90ed c23d cdda f43d f0c8 5e3c
00000010: 302b 00bd 0c23 c23d 38b7 083e 1f50 ab3d
00000020: 6c7f bdbd 96f7 55bd 8c79 413c 9663 a73d
00000030: d956 f1bd b99b efbd c025 36bd 40b3 98bd
00000040: 1fd5 fcbb b4e8 903d 1f18 d5bd 51e4 adbd
00000050: 4d24 7abd 4f21 0cbd 1bc0 bf3d 3b98 d63c
00000060: 8b6a 05bd 7f2b b5bd 46d9 953d 5158 df3d
00000070: 46c5 a7bd 58fa c23d a1f9 433d a327 ff3c
00000080: cd45 023e 46a8 e63d 1aed 963c a25f 14bd
00000090: 54c3 6c3d 495b 85bd bdce c73d 0a14 7bbd
000000a0: 596d b13c 8ff6 babc ce4d 7dbd 3542 84bd
000000b0: c37f 46bd 3652 be3c f5ff fcbd 5d35 d43d
000000c0: 637b 12be bd7d 08be da65 1a3d 15f8 563d
000000d0: 53d0 bd3d 96e9 a7bd 5335 203a 1246 5ebd
000000e0: bbe0 843d fb52 dc3d 2831 8b3c 6651 993d
000000f0: 73af 913d be84 a63d c743 40bd ec84 e23d
00000100: 55ed 813d 1e4c bebd 52f2 e83d ddc4 aa3d
00000110: 6e3d 903d bcde 053e 1b7e fd3b 1883 b2bc
00000120: 2ff3 033e de31 debc 9ea9 0b3e 4651 89bd
00000130: db6c d83b a581 28bd 721c c3bc 3780 f13d
00000140: 281d 0b3c 94ad 763d 31ba d13c 64ce 0ebd
00000150: 191f 10be e883 273d e236 8abd 6644 273d
00000160: 55b2 d8bc d776 b3bd f28a aa3d 3ac3 45bd
00000170: cf55 823d 2d3f dbbb cb3d 993d e8e8 7c3d
00000180: ff2e 8f3d a615 9b3d 41c9 633d c7d7 c83d
00000190: e65a 52bd c336 193e f828 8ebd 82e2 89bd
000001a0: 9fad 68bc ecd2 d0bd 877d a0bd ae5e 493d
000001b0: 0d66 b5bc 247d 88bd 0b0c 75bd d745 603d
000001c0: 36b5 0bbe dfcf a53d ff87 10be 3ec2 a2bd
000001d0: 2fc0 d43d 3aca 87bd 7ec8 11bd 3c8f 6d3d
000001e0: 03f3 68bd ca64 bfbd 5fd1 3d3d 790d 9ebd
000001f0: bc8a fb3d 99a9 9bbd 1246 1cbd acdc 5f3c
00000200: d4b8 d03d 97e8 0cbd f368 10bd 8caa ac3d
00000210: cefe 653c c4d7 533d 508e 82ba 3ad7 06be
00000220: 93f5 88bd 0493 53bd 9db5 27be 84d9 8dbd
00000230: 2347 bc3d d722 14bd 2841 bbbc 18c0 883d
00000240: 0b7d fa3d 99b5 1a3d 79f0 2abd 9a40 17be
00000250: 9a2b 693d a383 b3bd 100e c7bd dd41 773d
00000260: 7d98 80bc 284d b63d 8e38 253e 0a5f 5ebd
00000270: 9d95 463c 6e6d d5bd bf57 98bd ea43 02be
00000280: 2362 f63d c318 1bbe ef57 833c b415 dc3d
00000290: bdea 10bd 25dc 94bd 7ab0 b63d 65ed e83d
000002a0: b588 e4bd e0cf bbbd 70b2 103e c2ba d4bc
000002b0: 5880 ef3c d5c0 97bd b575 86bd cd41 473c
000002c0: 288b 94bd 13a8 9c3d c025 aa3d b1b4 bb3c
000002d0: d9a5 a3bd 526f aabc b632 18bb 13ef 9cbc
000002e0: 12de 123e 5711 e63c 5121 b4bd 901d 8ebc
000002f0: cf9b 30bd c0ae b6bd ae12 4e3d ced7 c9bd
00000300: e02f cd3d d8ac ba3d 9b75 123e 2594 093e
00000310: 8ea1 9d3d da9b 1a3d de8a 033e 1f2b 47bd
00000320: 78af 023e 1a76 e73d b8cd 9c3d 38c9 da3d
00000330: 3d36 133d 031d 03be e782 0abe b8ae 8fbd
00000340: af69 90bd f789 48bd 231d 83bc 4eb7 1bbe
00000350: cff9 1ebe 443d d83d 5902 853d 1149 5dbd
00000360: 7031 933d 236f ecbd c0b7 60bd a71b adbd
00000370: c2cd d9bc 1f5f 16bd 2bc7 ef3b 8ed7 eb3d
00000380: 3844 01bc 480a a23c 5793 5f3d 7d68 2ebd
00000390: 82a3 97bd 9395 ed3b 991d 0bbe cbb9 e13b
000003a0: f4ad 8ebd 9c32 1bbd ebef 42bd 72b5 0fbe
000003b0: a3fa 6fbd af8e 1d3e a101 a93d 5fd4 f5bd
000003c0: ffc4 d1bd b522 873d fec4 fcbd 1d48 81bd
000003d0: d082 1c3e c90f e03b e444 2dbd 0214 463b
000003e0: fa76 2f3d df05 133e f5d4 053e 0bed 543c
000003f0: f803 47bb 43c1 1a3e 8afe 993d e251 f03d
-0.120308734 0.09517968 0.119557954 0.013597712 -0.031291187 0.09479341 0.13351142 0.08364891
-0.092528194 -0.05223807 0.011808764 0.081732914 -0.11784143 -0.116996236 -0.044469595 -0.07456064
-0.0077158357 0.070756346 -0.10404991 -0.084908135 -0.061069775 -0.034211453 0.09362813 0.026195636
-0.03257231 -0.08846187 0.07316832 0.10905517 -0.08191924 0.095204055 0.047845487 0.03114683
0.1272194 0.11262564 0.018423606 -0.036224015 0.057803467 -0.06511552 0.09756229 -0.061298408
0.021658586 -0.022822646 -0.06184178 -0.064579405 -0.048461687 0.02323256 -0.123535074 0.10361741
-0.14304881 -0.13329215 0.03769479 0.052482683 0.0926825 -0.0819885 0.00061114616 -0.054266043
0.064881764 0.10758015 0.016991213 0.07486229 0.071135424 0.08130787 -0.046939638 0.11060509
0.063440956 -0.09291862 0.11374344 0.0833833 0.07042967 0.13073248 0.00773598 -0.021791026
0.12885736 -0.027123388 0.13638923 -0.06704955 0.0066047735 -0.041139264 -0.023817275 0.11792033
0.008490838 0.06022413 0.025601478 -0.0348648 -0.14074363 0.04089728 -0.06748749 0.040836714
-0.026452223 -0.08762901 0.08327283 -0.048281886 0.06364023 -0.0066908807 0.07482489 0.061745554
0.06991386 0.075724885 0.055611853 0.09806781 -0.05135622 0.14962296 -0.06941408 -0.06732656
-0.014201551 -0.1019648 -0.078364424 0.04916256 -0.022143388 -0.06664494 -0.05982594 0.054754104
-0.13643345 0.08096289 -0.14114378 -0.07947205 0.103882186 -0.066303685 -0.035591595 0.057997927
-0.05687238 -0.09345396 0.04634225 -0.077174135 0.12282321 -0.076007076 -0.03815276 0.013663452
0.10191503 -0.034401502 -0.035256337 0.08430967 0.014037801 0.051719442 -0.0009960625 -0.1316804
-0.066874646 -0.051653877 -0.16377874 -0.069262534 0.09193256 -0.03616604 -0.022858217 0.06677264
0.12230881 0.03777084 -0.04173324 -0.14770737 0.056926347 -0.08765342 -0.09719479 0.060365546
-0.015697712 0.08901435 0.16134855 -0.054289855 0.0121206315 -0.10421263 -0.07438611 -0.1272122
0.12030437 -0.15146165 0.016033141 0.10746327 -0.035380114 -0.07268552 0.08920379 0.113734044
-0.11158887 -0.091705084 0.14130569 -0.02596796 0.029236004 -0.07409827 -0.065654196 0.012161684
-0.072531044 0.07649245 0.083079815 0.022913309 -0.07990617 -0.020805035 -0.0023223585 -0.019156968
0.14342526 0.02808444 -0.08795417 -0.01734808 -0.04311734 -0.0892005 0.050310783 -0.098556146
0.10018897 0.091149986 0.14302675 0.13435419 0.0769683 0.037746288 0.12845942 -0.048625108
0.12762249 0.11301823 0.07656425 0.10682911 0.035940398 -0.12804036 -0.13526498 -0.07015747
-0.070514075 -0.0489597 -0.016005104 -0.15206644 -0.15524982 0.105585605 0.064945884 -0.05402476
0.07187164 -0.11544635 -0.054862738 -0.0845254 -0.02658737 -0.03671181 0.007317444 0.11515723
-0.0078898 0.019780293 0.054583874 -0.042580117 -0.074042335 0.0072504967 -0.1358551 0.0068886033
-0.06966773 -0.03789006 -0.047592085 -0.1403406 -0.058588635 0.1538646 0.08252264 -0.12003397
-0.10242652 0.06598417 -0.12342261 -0.06312583 0.15284276 0.0068378192 -0.042302027 0.0030224328
0.042838074 0.14357708 0.13069518 0.012995969 -0.0030367356 0.15112786 0.075192526 0.11734368

bias f4 [32]
00000000: 601d e13c 7c04 ab3d 91b8 033e bea7 d33d
00000010: 650c e23d 1fdd e43d f285 99bd b697 95bd
00000020: e5ff c93d e670 093e bc49 003e c92d b0bd
00000030: a6de edbc 5c73 d63d 82ac 943d 61e5 32bd
00000040: 260b 35bd 26ed c3bd bd07 f23d 4d2e 143e
00000050: 9e3b 9b3d a74d f23c 5a86 0cbd 5543 26bd
00000060: 5609 103e 7616 b7bd 3e8e 5c3c df94 e5bc
00000070: e7b8 86bd 0e3d 1cbd a312 8e3d ba0e 773d
0.027479827 0.08350465 0.12863375 0.10334729 0.1103752 0.11174988 -0.07496251 -0.07304327
0.09863261 0.13421974 0.12528127 -0.08602483 -0.029036831 0.10471222 0.07259466 -0.043675784
-0.044200085 -0.09566717 0.11817882 0.14470787 0.075797305 0.029578043 -0.034307815 -0.040591557
0.14066061 -0.08939831 0.013461648 -0.028025089 -0.06578236 -0.038144164 0.069371484 0.06031678

weight f4 [1, 32]
00000000: 1e02 a3bd 0bb1 e4bc c18b f93d 9ea6 42bd
00000010: cc39 bf3d cffc 0a3e e43f 5a3d 9363 f13d
00000020: 6e58 353d 718f 123e 2700 0dbe 3872 b1bd
00000030: 41d8 13be cbad a73c 69a2 6a3d 25a3 21be
00000040: c2e0 54be 7647 1fbe 2b70 1cbe bf10 41be
00000050: 9e4a 983c 3445 9cbd d2a6 0bbe bc26 fd3d
00000060: 2dfe 383e 316e d0bd 753d 3b3e 4873 553d
00000070: d35c 153e b714 3d3e 5ef0 24be d5b9 13be
-0.07959388 -0.027916452 0.12184859 -0.04752218 0.09337196 0.13573001 0.053283587 0.117865704
0.044273786 0.14312531 -0.1376959 -0.086643636 -0.14437963 0.020468613 0.057283793 -0.15784891
-0.20788863 -0.15554604 -0.15277164 -0.18854044 0.018590268 -0.07630387 -0.13637856 0.123609036
0.1806571 -0.10177267 0.18285163 0.052111894 0.14586191 0.18464933 -0.16107318 -0.14426358
