Baseline_systems/SoMS/models/SoM_GRU_3/16_1.pth (torch, 10975 bytes, 3 tensors)

weight f4 [32, 64]
000000 61 46 fe 3d 44 02 f9 3a 82 20 97 bc b8 14 56 3d
       0.124157675 0.0018997868 -0.018448118 0.052265853
000010 72 53 b8 3d 71 25 19 bc 27 dc 95 bd 22 73 bf 3d
       0.09000291 -0.009347306 -0.07317381 0.09348132
000020 61 6f 0c 3e 94 26 85 3d 7f c3 61 3d 28 86 c5 bc
       0.13714363 0.06501499 0.05511808 -0.024111822
000030 57 ce 42 bd 3d bf 0f bd c0 38 a6 bb e7 41 64 bc
       -0.047560062 -0.03509449 -0.005072683 -0.013931728
000040 c3 fe 90 bc 30 dd b3 3c 1a 9f db 3c fb b5 cf 3d
       -0.017699605 0.021956056 0.026809264 0.10142132
000050 74 1e 90 3c cc 0a b2 3c f2 09 f1 3c 4b d0 e1 bd
       0.017592646 0.021733664 0.029423688 -0.11026057
000060 1b 5b 07 be 16 91 8d 3d 15 05 84 3d 17 93 b5 3c
       -0.13218348 0.069124386 0.06446282 0.022164864
000070 b2 a5 d6 3b 14 45 74 bb 3c db 55 bd 75 1f 54 3d
       0.006550514 -0.003727262 -0.05221103 0.051787812
000080 3e a0 29 3d 56 dd 55 bd 1a 5e a4 bd e9 81 c3 3d
       0.041412584 -0.052213036 -0.08025761 0.09546263
000090 5d e1 b6 bd 70 5b e4 3d 8b e8 08 3d 91 1f fe 3b
       -0.089297034 0.11150253 0.033424895 0.007755228
0000a0 b2 8a 55 bd 5c 63 89 3d ce 06 97 3d 26 7f ed bd
       -0.052134223 0.067084044 0.07374345 -0.11596517
0000b0 53 2d 1b 3d f6 fb 2f 3d 7d d9 a1 3d 39 83 bc 3a
       0.03788502 0.042964898 0.07902811 0.0014382369
0000c0 fc 8e e5 3d 8b ae 3a bd 3d dc 59 bb 4f ad ba bd
       0.11208913 -0.045576613 -0.0033242845 -0.09115087
0000d0 68 ad 64 3d 6b bb 1e 3c 2d 46 f2 bc f0 77 e5 3c
       0.055829436 0.009688239 -0.029574478 0.028011292
0000e0 41 82 43 bd ca bc 19 3c b4 0e c2 3d 30 cd f5 3b
       -0.04773164 0.00938339 0.09475461 0.007501267
0000f0 c5 b0 f9 3d d3 5f bb bc 16 2a f8 3d 97 5c 03 be
       0.12191919 -0.022872841 0.12117402 -0.12828289
000100 63 be 5f 3d 90 44 e3 3d db a3 d5 3d 87 3f 99 3d
       0.054624926 0.11097062 0.104316436 0.0748282
000110 05 e9 ed 3d 1c 22 49 3d 7c 8a 2a 3d bb bb 58 bd
       0.116167106 0.049104795 0.041635975 -0.05291341
000120 96 84 eb bd 4b b7 83 bd 24 3b 6a 3d 15 f0 85 bd
       -0.11499898 -0.06431445 0.057185307 -0.06539933
000130 42 0a 7c 3d 0c 51 0c 3c 0b 55 98 3d 0b 05 b2 3d
       0.06153322 0.008564245 0.07438096 0.08692368
000140 64 79 a2 bd 22 fe 8d bd d3 82 61 3d a6 8a 57 bd
       -0.0793331 -0.069332376 0.055056404 -0.05262246
000150 22 60 e6 bd 1f e7 b8 3d 37 22 cf 3b 5f a7 3b bd
       -0.11248805 0.09028458 0.0063212174 -0.045813914
000160 34 ef 8b 3d 47 0a 9e bd 92 42 d9 bd e7 eb 40 bd
       0.06832734 -0.07716804 -0.106084004 -0.047099974
000170 5f 08 80 bc 91 09 e7 3c 52 19 03 3e 27 4d 9d bd
       -0.015628992 0.028202804 0.12802628 -0.07680731
000180 19 19 55 3b fb 2b a4 bd 6c 30 40 3d 9f 4c 66 bc
       0.003251618 -0.08016201 0.04692118 -0.014056354
000190 cd dd da 3d e2 e6 6a bd d0 9f e0 bd 5e 89 80 3d
       0.106868364 -0.057349093 -0.10967982 0.06276201
0001a0 ff 2b 86 bd bf 95 b0 bd 97 a4 0a 3d e8 d5 b2 3d
       -0.0655136 -0.08622312 0.03384837 0.08732206
0001b0 d4 5e 81 bd b6 cf f7 3c 16 e5 0b bd 5d 7f e8 bd
       -0.06316915 0.030250411 -0.03415402 -0.113524176
0001c0 21 90 f3 bc 7a 2f 83 3d 36 3f b6 bd f5 99 b6 3b
       -0.029731812 0.0640554 -0.08898775 0.0055725523
0001d0 00 2b b5 bb 18 29 42 bc a7 48 8c 3d eb 29 71 bc
       -0.0055288076 -0.011850618 0.06849795 -0.014719467
0001e0 27 d2 b0 3d ed f5 66 3d 70 95 51 3b 63 e7 0a bd
       0.086338334 0.056386877 0.003197994 -0.033912074
0001f0 63 ee f8 bd df 98 8c bc a5 42 e6 3d 51 a2 9a bd
       -0.12154844 -0.017162738 0.1124318 -0.07550491
000200 2d a1 72 bd db 42 5c 3c 89 2a 01 3e 97 97 86 bd
       -0.05923574 0.013443674 0.12613882 -0.06571882
000210 a0 04 bc bd 5d 02 1c bd b9 e7 85 3d 91 87 8f 3d
       -0.0918057 -0.03808819 0.06538338 0.07008279
000220 1e a9 33 3d df 64 b7 3b e1 41 27 bd 16 7c 71 3c
       0.043862455 0.0055967416 -0.04083431 0.014739057
000230 ef 1c 1c bd bd e1 7e 3d 52 9d 8f 3d 2c 1b 08 3e
       -0.03811353 0.062227 0.07012428 0.13291615
000240 37 ea db bc 12 8f 56 bd 61 c1 a9 3d 70 bd a1 3d
       -0.02684508 -0.052382536 0.08288837 0.078974605
000250 0d c8 11 3d 74 3a 71 3c c5 45 8e bd 84 7e 41 3d
       0.035591174 0.014723409 -0.06946901 0.047239795
000260 e7 b4 13 bd 5c 9f ef 3d a9 b1 b9 bd 87 5e 10 bd
       -0.036061194 0.11700317 -0.09067089 -0.0352464
000270 f4 81 e8 bd 0a 6d fb bb af 24 c3 bd 61 48 97 3d
       -0.113529116 -0.0076729106 -0.09528481 0.07386852
000280 c9 ab 39 3d a3 d7 53 3d c0 08 e7 3d c8 5b b6 bd
       0.045329843 0.05171932 0.11280966 -0.08904225
000290 52 29 d4 3d ec 31 a4 3c 7c 7a 1b bc 2d 61 5a 3d
       0.10359444 0.020043336 -0.009489652 0.05331533
0002a0 c5 c7 85 bd 69 96 a2 3d a4 8f cb 3c 66 68 8f bd
       -0.06532244 0.07938845 0.024848767 -0.07002334
0002b0 70 66 a6 3d dc 70 ee 3c d5 8a d1 3d af cc 97 3d
       0.08125007 0.02910655 0.10231558 0.07412087
0002c0 59 fd cd 3d 18 da 19 3d e4 f5 26 bd 62 54 ed 3d
       0.10058088 0.037561506 -0.040761843 0.1158836
0002d0 66 c2 11 bd d0 d0 51 bd ca 63 ea 3d af 9b 55 3d
       -0.035585783 -0.05122453 0.114448145 0.052150425
0002e0 4d ee d9 3d 01 c5 a4 3d f5 f4 25 bd be b4 bd bd
       0.106411554 0.08045388 -0.040516812 -0.092629895
0002f0 8d 6a e6 3c c9 a2 f9 3c e4 9f 38 bb 73 da ad bc
       0.02812698 0.03047313 -0.0028171474 -0.021222329
000300 92 56 2c 3d b2 c4 32 3c c1 73 ff bd ce 4c d9 3d
       0.042074747 0.010911154 -0.1247325 0.106103525
000310 15 fa e4 bd 64 da b8 bd d2 39 07 be 57 1c c0 3d
       -0.11180512 -0.0902603 -0.1320565 0.093804054
000320 ca d0 34 bd b8 b5 03 be ab 6a 76 3d dd 3e 98 3d
       -0.04414443 -0.12862289 0.06016032 0.07433865
000330 19 53 ef bc 4d 26 3e 3d 8e 47 00 be 21 9f 05 3e
       -0.029214429 0.046423245 -0.12527296 0.13048984
000340 b2 09 cd 3d 47 09 21 3d 1d f5 b5 bd 12 f6 b1 bc
       0.10011615 0.03931549 -0.08884642 -0.02172378
000350 ac fd bb bc b0 ca 20 3d 49 6e d3 3c e5 8a e8 bc
       -0.022948109 0.039255798 0.025809424 -0.028386543
000360 26 9e 16 3d 53 6b 95 3d ed dc 74 bd ac dc aa 3b
       0.036771916 0.07295861 -0.059781004 0.0052142944
000370 3c b3 cf 3b 3b 85 85 bc 09 15 39 3d 57 10 02 3e
       0.006338505 -0.01629888 0.045186076 0.12701546
000380 fd cb b2 3d a6 e2 d2 bc 75 7e e8 3d 56 b7 8d 3d
       0.08730314 -0.02574284 0.11352245 0.06919734
000390 1b 69 2a 3d 40 88 b9 3c 45 21 c5 3b 0f 4d db bd
       0.041604143 0.022647977 0.006015929 -0.10708057
0003a0 0a a0 e5 3d 1e 8d f4 3c cc cc ca ba 5a 5f e8 3d
       0.11212166 0.029852446 -0.0015472411 0.11346312
0003b0 b0 bf fa 3d e7 66 32 bd 9d 97 f2 3d 85 88 0a bd
       0.12243593 -0.043555167 0.11845324 -0.0338216
0003c0 f6 91 02 bd da c1 94 bd 48 9b 01 3e e0 a4 81 3d
       -0.03187748 -0.07263537 0.12656891 0.063302755
0003d0 56 4d dc bc d7 cc ac 3d 28 23 a7 bc 79 de d1 bb
       -0.026892345 0.084375076 -0.020402506 -0.0064046946
0003e0 b5 29 a1 3d 5d 66 27 3d eb e6 40 bd ee 73 ad 3b
       0.07869283 0.040869106 -0.04709522 0.005293361
0003f0 2c 2e bb 3d ce a6 ea 3d 2d 5c 12 bb af 30 0c 3d
       0.09139666 0.11457597 -0.0022332773 0.034226116

bias f4 [32]
000000 14 c8 cc 3d 96 2f cf 3d 4a 25 14 bd a6 95 a9 3a
       0.099990994 0.10116498 -0.036168374 0.0012938275
000010 0b f8 c5 3d 98 3f b1 bd 90 35 22 3d 67 a6 a7 3c
       0.09666451 -0.08654708 0.039601862 0.020465089
000020 eb 1b 52 bd 86 7f 1e 3d 72 b9 c2 3c d8 9a 85 3a
       -0.051296156 0.038695835 0.023770068 0.0010193242
000030 7b 09 82 3d c6 4e 99 bd e7 66 5c 3d 7f 57 76 bc
       0.063494645 -0.07485728 0.053809073 -0.015035509
000040 3d eb 08 3d e4 05 97 bd 7c da 1d bd a2 5b 69 3b
       0.033427466 -0.073741704 -0.03853844 0.0035607596
000050 19 13 3f 3d f5 94 be bd 98 67 c2 3d 86 9b 03 3e
       0.046649072 -0.09305755 0.09492415 0.12852296
000060 44 9c 66 3d 07 be 2c 3d 6e 2c 00 3e 48 02 e8 bc
       0.05630137 0.04217341 0.12516949 -0.0283214
000070 57 2f 20 3d 36 1e 66 3d 9d ab 4a 3d ce 31 ca bd
       0.039107647 0.056181155 0.04948007 -0.09872781

weight f4 [1, 32]
000000 9b b2 a4 3d f2 aa 07 3e 71 e1 ab bd 62 b7 04 be
       0.08041879 0.13248804 -0.08392609 -0.1296058
000010 41 50 11 be c3 02 11 3e a8 65 05 be a8 57 c3 bd
       -0.1419077 0.1416121 -0.1302706 -0.095382035
000020 d8 7d e6 3d 07 a8 9c 3c 39 c7 05 be 0b 11 19 bd
       0.112544715 0.01912309 -0.13064279 -0.03736977
000030 18 85 03 be 57 64 72 bd f2 df 18 3e ca 2d 48 3d
       -0.1284374 -0.059177723 0.14929178 0.048871793
000040 fe 3b 31 be 8f 3f 03 be 24 a8 e4 3d aa e9 aa 3d
       -0.17308041 -0.12817214 0.11164883 0.08345349
000050 e4 5d 08 be e0 8b a9 3d 01 11 55 3d 18 18 36 3e
       -0.13317066 0.08278632 0.05201817 0.17782629
000060 76 c5 4a bd 2a 78 e5 3d 63 1a 9c 3d e6 ea 5e 3d
       -0.04950472 0.1120456 0.0762222 0.054423235
000070 d9 2b cc 3c 8d 96 fa bd b7 8d 36 be ea 8b 5e 3d
       0.024923252 -0.122357465 -0.17827497 0.05433265
