Baseline_systems/SoMS/models/SoM_GRU_3/48_1.pth (torch, 10975 bytes, 3 tensors)

weight f4 [32, 64]
0	0x3e201085	0.15631302
1	0xbcfb596e	-0.030682292
2	0xbc268c06	-0.01016522
3	0x3da8760d	0.082256414
4	0x3dfb5c14	0.12273422
5	0xbd2b9ee6	-0.041899584
6	0xbdd8a31b	-0.10577985
7	0x3e03d59c	0.12874454
8	0x3e2ec465	0.17067106
9	0x3dc75084	0.09732154
10	0x3cb46bdd	0.02202409
11	0xbd6f4ab4	-0.05842085
12	0xbda2eaf6	-0.079549715
13	0xbb49ef6a	-0.0030812868
14	0x3cd6f300	0.026238918
15	0xbd3d938d	-0.046283294
16	0xbd4b2ba5	-0.04960217
17	0x3d60e812	0.05490882
18	0xbbb58ad6	-0.005540232
19	0x3d8e29dd	0.069415785
20	0xbc7274d7	-0.014798365
21	0x3d5ba346	0.053622507
22	0x3d78e82a	0.060768284
23	0xbe11e88d	-0.14248867
24	0xbe287990	-0.16452622
25	0x3dceee44	0.10104039
26	0x3dc597cc	0.096480936
27	0xbc34cc5f	-0.011035054
28	0xbccdb536	-0.025110822
29	0xbd11b003	-0.03556825
30	0xbdb07135	-0.086153425
31	0x3c9a8cf0	0.018866032
32	0x3be21730	0.006899737
33	0xbc9f9354	-0.019479431
34	0xbd4044c7	-0.04694059
35	0x3e034a40	0.12821293
36	0xbdfa4755	-0.12220637
37	0x3e1402c5	0.14454181
38	0x3d86ea4e	0.06587659
39	0x3d274226	0.04083457
40	0xbdadb05f	-0.08480906
41	0x3d05a5f1	0.032628957
42	0x3dd97383	0.10617735
43	0xbe18078c	-0.14846629
44	0x3d922e1d	0.07137702
45	0x3c317d65	0.010833119
46	0x3d3b9af5	0.045802075
47	0x3d0b815a	0.034058906
48	0x3e14b0b6	0.14520535
49	0xbd9f12f5	-0.07767288
50	0xbd101d5f	-0.03518426
51	0xbdfd0815	-0.12355057
52	0x3cb6c9d0	0.022313029
53	0xbcc07444	-0.02349294
54	0xbd80b752	-0.062849656
55	0x3d7f60ba	0.062348105
56	0xbda32d31	-0.07967604
57	0xbcbe9437	-0.023264034
58	0x3e022773	0.12710361
59	0xbcc8f3e6	-0.024530362
60	0x3e1e0dca	0.15434948
61	0xbd601974	-0.054711774
62	0x3dba6e31	0.091030486
63	0xbe246566	-0.16054305
64	0x3d24ef46	0.04026725
65	0x3dfc953b	0.12333151
66	0x3dbafcae	0.09130226
67	0x3da29491	0.07938493
68	0x3dc561ac	0.0963777
69	0x3d8bad96	0.06820218
70	0x3d74ed1a	0.05979643
71	0xbd852a72	-0.065022364
72	0xbe0006d8	-0.1250261
73	0xbd99add1	-0.07503856
74	0x3d8c921f	0.06863808
75	0xbd3ef62f	-0.046621498
76	0x3d91423e	0.07092713
77	0xbab28028	-0.0013618516
78	0x3d813e4f	0.063107125
79	0x3dc8367a	0.097760156
80	0xbd848fe3	-0.06472757
81	0xbda8605d	-0.08221505
82	0x3d873eed	0.06603799
83	0xbd2d7451	-0.042347256
84	0xbdcca069	-0.09991533
85	0x3d90eac9	0.07076032
86	0xbc3c3c3d	-0.011488971
87	0xbd10a1d4	-0.03531058
88	0x3daae2ff	0.08344077
89	0xbdc38164	-0.09546164
90	0xbe001214	-0.12506896
91	0xbd10f3fd	-0.035388935
92	0x3ba33641	0.004980833
93	0x3d295385	0.041339416
94	0x3e0f9243	0.14020638
95	0xbd884133	-0.06653061
96	0x3c35f2c0	0.011105239
97	0xbdc0a956	-0.09407298
98	0x3ce13c0d	0.027494455
99	0xbcc18e50	-0.02362743
100	0x3df57e66	0.11986999
101	0xbd8c3c96	-0.06847493
102	0xbe0b7d74	-0.13622075
103	0x3d634bbc	0.055492148
104	0xbd67c4d4	-0.056584194
105	0xbd964b50	-0.073385835
106	0x3cd97b65	0.026548097
107	0x3dc95ad3	0.098317765
108	0xbdaf515a	-0.085604385
109	0x3d2bd552	0.041951485
110	0xbcd03e64	-0.025420375
111	0xbe02d6c7	-0.12777244
112	0xbd218783	-0.039435875
113	0x3dad9196	0.08475034
114	0xbda2eb2a	-0.0795501
115	0x3c890227	0.01672466
116	0x3b363c96	0.0027807108
117	0xbaa2c745	-0.0012419006
118	0x3dae214f	0.08502447
119	0xbd17d550	-0.037068665
120	0x3dcbdfb1	0.09954775
121	0x3d898ce0	0.06716323
122	0xbbc4fdb2	-0.006011688
123	0xbcd23f45	-0.025664935
124	0xbe0855d2	-0.13313988
125	0xbb59f0c4	-0.003325508
126	0x3df2ec14	0.118614346
127	0xbd784b74	-0.060618833
128	0xbd624831	-0.05524463
129	0x3c24ea32	0.010065602
130	0x3e0a53a4	0.13508469
131	0xbda30ae8	-0.079610646
132	0xbdab0bce	-0.08351861
133	0xbd53e5c6	-0.0517328
134	0x3d591a80	0.053003788
135	0x3d9c6e73	0.07638254
136	0x3d4a5555	0.049397785
137	0x3c08ebc5	0.008356993
138	0xbd3acb19	-0.045603845
139	0x3c0036cd	0.0078255655
140	0xbd2d19a6	-0.04226079
141	0x3d8436ea	0.064557865
142	0x3d94ab71	0.07259262
143	0x3e04aea6	0.12957248
144	0xbd02a876	-0.031898938
145	0xbd3e32fd	-0.046435345
146	0x3d97a8be	0.07405232
147	0x3d9ad64f	0.07560407
148	0x3d0239eb	0.031793516
149	0x3cd0821c	0.025452666
150	0xbd5485d5	-0.051885445
151	0x3d33d3bd	0.0439031
152	0xbd28ecc4	-0.041241422
153	0x3e094b7c	0.13407701
154	0xbda7a5dd	-0.08185933
155	0xbd3d1558	-0.046162933
156	0xbde558b0	-0.111985564
157	0xbc5aa118	-0.013344072
158	0xbdc84cf4	-0.09780303
159	0x3d935f71	0.071959384
160	0x3d655a14	0.05599411
161	0x3d68d89b	0.056847196
162	0x3e013a6e	0.12619945
163	0xbdaf13c9	-0.085486956
164	0x3dcef2dc	0.101049155
165	0x3cdc8221	0.026917519
166	0xbbc124fc	-0.0058943015
167	0x3d61224c	0.05496435
168	0xbd8cba70	-0.06871498
169	0x3d9b148c	0.075722784
170	0x3ce5383e	0.02798092
171	0xbd93ae35	-0.07210962
172	0x3dc16176	0.09442417
173	0x3cc0c7a6	0.0235327
174	0x3dcccfb2	0.10000552
175	0x3db08a3d	0.08620117
176	0x3dd6202d	0.10455356
177	0x3cbe521a	0.023232508
178	0xbd2dfa93	-0.042475294
179	0x3dddbf22	0.10827471
180	0xbd355e55	-0.044279415
181	0xbd67265c	-0.056433067
182	0x3dcea059	0.10089178
183	0x3d8f010c	0.069826216
184	0x3ddd2edd	0.10799954
185	0x3d9ef0d9	0.07760782
186	0xbd1a35a6	-0.03764882
187	0xbdbec6c3	-0.093152545
188	0x3d1b1447	0.037861135
189	0x3c9d79be	0.01922309
190	0xbb83065f	-0.003998562
191	0xbcf74983	-0.03018642
192	0x3d4482ca	0.047976293
193	0x3c068a0d	0.008211625
194	0xbdfbac6f	-0.122887485
195	0x3de53e78	0.111935556
196	0xbdd5a407	-0.10431676
197	0xbdfdb47b	-0.123879395
198	0xbe14df60	-0.14538336
199	0x3dc72fae	0.09725891
200	0xbd21ef13	-0.03953464
201	0xbe01db37	-0.1268128
202	0x3d689442	0.056782015
203	0x3d8d1448	0.06888634
204	0xbd03b233	-0.032152366
205	0x3d43d7eb	0.047813337
206	0xbe0143fa	-0.12623587
207	0x3e04598f	0.12924789
208	0x3dc48646	0.09595923
209	0x3d2e75a0	0.042592645
210	0xbdf5c6a2	-0.12000777
211	0xbcce984b	-0.025219103
212	0xbcde3a42	-0.027127389
213	0x3d81299d	0.06306765
214	0x3d64b0d5	0.055832703
215	0xbcfcf35f	-0.030877767
216	0x3ccb752f	0.02483615
217	0x3ddcf4f0	0.107889056
218	0xbd2b851c	-0.04187499
219	0xb99c52bc	-0.0002981628
220	0xbc917a30	-0.017758459
221	0xbcd6394a	-0.026150364
222	0x3d306ac2	0.043070562
223	0x3e006dcd	0.12541886
224	0x3d92ff03	0.07177546
225	0xbc9e23eb	-0.019304236
226	0x3e11d4d4	0.14241344
227	0x3d96013d	0.07324455
228	0x3d0edac2	0.034876592
229	0x3cdd4c44	0.027013905
230	0x3d116b35	0.03550263
231	0xbddaf32c	-0.106909126
232	0x3de4952f	0.11161267
233	0x3ce019c9	0.027356045
234	0xba75fd12	-0.0009383719
235	0x3de659cd	0.11247597
236	0x3e1e01a9	0.15430321
237	0xbd3d920e	-0.046281867
238	0x3df559b8	0.11980003
239	0xbcd3290d	-0.02577641
240	0xbcfdc8c4	-0.030979522
241	0xbdbf86a2	-0.09351851
242	0x3e01d20f	0.12677787
243	0x3d69a5dd	0.057042945
244	0xbd0824cd	-0.03323822
245	0x3da3ae17	0.079921894
246	0xbd5c50b3	-0.0537879
247	0x3ccd71c4	0.025078662
248	0x3d6ecb45	0.05829932
249	0x3d22cca2	0.039745934
250	0xbd3cb5b0	-0.04607171
251	0x3baa0ec5	0.005189749
252	0x3ddc23b0	0.10748994
253	0x3dd6a8b7	0.104813986
254	0xbc85055f	-0.016237913
255	0x3c87c18e	0.016571786

bias f4 [32]
0	0x3e07456f	0.1321008
1	0x3de87076	0.11349575
2	0xbd3dd952	-0.04634983
3	0x3b6de16b	0.003629769
4	0x3dca286b	0.0987099
5	0xbd8bcb15	-0.06825844
6	0x3d318440	0.043339014
7	0x3ca9b583	0.020716434
8	0xbc9e6179	-0.019333588
9	0x3d9390ec	0.07205376
10	0x3cd17a73	0.025571084
11	0xbb8f9910	-0.00438226
12	0x3d86eaf1	0.0658778
13	0xbd95baec	-0.07311043
14	0x3daf25a4	0.08552101
15	0x3c903652	0.017604027
16	0x3d0f9b73	0.035060357
17	0xbd90419c	-0.07043764
18	0xbbdf2042	-0.0068092654
19	0x3d11d501	0.035603527
20	0x3d4ee0d6	0.05050739
21	0xbd7cd084	-0.061722293
22	0x3e01cd5c	0.12675995
23	0x3e2408d5	0.16018994
24	0x3d67fd6a	0.05663816
25	0x3d979ca0	0.07402921
26	0x3e21c2f8	0.15797031
27	0x3b6d4b47	0.00362082
28	0x3d8a69ca	0.06758459
29	0x3d70f0b8	0.058823317
30	0x3d4af4d3	0.04954989
31	0xbd890bbb	-0.066916905

weight f4 [1, 32]
0	0x3de90853	0.11378541
1	0x3e16ef10	0.14739633
2	0xbd9a2a4d	-0.075275995
3	0xbe059d79	-0.13048352
4	0xbe0dac54	-0.13835269
5	0x3e20bd87	0.15697299
6	0xbe073f52	-0.13207749
7	0xbdbd0122	-0.09228732
8	0x3e1553af	0.14582704
9	0x3d59bc41	0.05315805
10	0xbe0803ce	-0.13282701
11	0xbcecb6b1	-0.028895708
12	0xbe031cb3	-0.12803917
13	0xbd767bf0	-0.06017679
14	0x3e3ab208	0.18231976
15	0x3da914ff	0.08255958
16	0xbe324612	-0.17409542
17	0xbe05195e	-0.12997958
18	0x3e146edd	0.14495416
19	0x3dee9350	0.116491914
20	0xbe0bfb59	-0.136701
21	0x3ded2899	0.11580009
22	0x3daee414	0.08539596
23	0x3e5832bd	0.21113105
24	0xbd38813a	-0.045045115
25	0x3e14edec	0.14543885
26	0x3de225b1	0.11042345
27	0x3db47fb2	0.088134184
28	0x3d676a51	0.056497876
29	0xbdfbb224	-0.12289837
30	0xbe366298	-0.17811048
31	0x3db36101	0.087587364
