Baseline_systems/SoMS/models/SoM_GRU_42/119_1.pth (torch, 10975 bytes, 3 tensors)

weight f4 [32, 64]
000000 21 20 6c bd b2 d4 49 3d 1f 54 b0 bd 00 ff 21 bd
       -0.057647828 0.049275108 -0.08609795 -0.039549828
000010 6a 3d fe 3d 71 e1 a2 3d a6 a5 14 3d ec 4d 6b ba
       0.124140576 0.07953156 0.036290787 -0.000897615
000020 26 06 eb 3d 67 02 8d bc 9a f7 f7 bd 52 77 8b bd
       0.11475782 -0.01721306 -0.12107773 -0.06809868
000030 3a 77 17 be 0c b2 80 bd f1 88 cd 3c b7 61 17 be
       -0.14791575 -0.0628396 0.025089713 -0.14783369
000040 6e 92 15 3d e3 11 9f 3d 94 79 21 be 62 cc 31 3d
       0.0365166 0.077670835 -0.15769035 0.043407805
000050 a0 19 90 bc ae ac 03 3e 9d 71 45 3d f8 6c 3c bd
       -0.017590344 0.12858841 0.048204053 -0.04600236
000060 03 c7 85 3d 92 48 bc bd 31 07 27 3b 06 30 03 3c
       0.06532099 -0.09193529 0.0025486464 0.008007055
000070 d1 11 63 bd 0f 24 82 3d 9a 68 a3 3c 06 a8 40 3d
       -0.055436913 0.06354534 0.019947339 0.04703524
000080 0a 84 fc bd 22 cd 43 bd ef 04 9f 3d 5e 52 0a 3e
       -0.12329872 -0.04780305 0.07764613 0.13507983
000090 57 9a 0d 3e df 77 bb bd 00 e9 4c be 88 78 f1 3c
       0.13828407 -0.09153723 -0.20010757 0.02947642
0000a0 bd 4f 0b 3e 6e 51 f5 3d fb 51 5b bd 86 84 49 bd
       0.13604636 0.11978422 -0.05354498 -0.04919865
0000b0 e3 99 0b 3e 79 48 17 be 3f 09 ac bd b1 35 8a bd
       0.13632922 -0.1477374 -0.08400201 -0.06748522
0000c0 69 6e d0 3c c3 31 a0 3d 56 1d a5 3c 86 27 92 3d
       0.025443273 0.07821991 0.02015559 0.07136445
0000d0 9f 6b 8c bb 2d 55 c3 bc 2a 84 47 3c a9 8f 26 be
       -0.0042852904 -0.023844326 0.012177506 -0.1626574
0000e0 dc b7 32 3e f5 15 f2 bd a0 4c 12 3e 19 19 86 bd
       0.1745295 -0.11820594 0.14287043 -0.06547756
0000f0 17 13 0f be 53 76 5a 3d 18 5e 51 3d b1 d0 94 3d
       -0.13972126 0.0533355 0.051115125 0.07266367
000100 05 3f cb 3d 6c ee 2c 3d e3 9c 29 bc 50 49 16 be
       0.099241294 0.042219564 -0.010352346 -0.14676404
000110 02 a5 fd 3b 9a 56 cb bd de e1 36 bd 3f e8 27 3d
       0.0077406177 -0.09928627 -0.044648997 0.04099297
000120 90 99 cf bc 2d 66 4c 3d dc 67 29 bd 3f 1d 14 3d
       -0.025341779 0.04990213 -0.041358814 0.036160704
000130 35 e0 d2 3d 0e 6e b1 bd b8 22 1b be 1d 73 8b 3d
       0.1029667 -0.086635694 -0.15149963 0.068090655
000140 91 f4 cd bc 70 f2 a7 bd 0d 97 b3 3d 91 8e b9 bd
       -0.025141032 -0.08200538 0.08769045 -0.090603955
000150 36 37 ed 3d ed 6d 7f 3d 68 c2 a1 bd 99 d6 09 be
       0.11582796 0.062360693 -0.07898408 -0.13460769
000160 3c 88 03 be 7a 2c 96 3d fe 1b 61 3a 8a 73 85 3c
       -0.12844938 0.07332702 0.000858724 0.016290445
000170 c8 f1 d3 bd 8a 1b c5 bc f2 64 bb 3d be 65 5b 3d
       -0.103488505 -0.024060983 0.09150113 0.053563826
000180 91 6b 41 3c 07 72 a9 bd d3 79 93 3d db fc 62 3c
       0.011805431 -0.08273702 0.072009705 0.013854231
000190 2e 84 0e bd 62 7e 08 3d 35 11 36 bd 9c bc 8c 3c
       -0.034794025 0.033323653 -0.044450004 0.01717978
0001a0 c9 e0 de bd 11 93 12 3e c2 5f 1e 3e 25 06 df bc
       -0.10882718 0.14313914 0.15466216 -0.02722461
0001b0 2a 06 92 3d ef 43 30 bd 3c 86 6b bd 34 33 ea 3d
       0.07130082 -0.043033537 -0.057501063 0.114355475
0001c0 b2 70 6c bb 72 8c 51 3c b2 4f 8c 3c 8c 21 0f 3e
       -0.0036077914 0.012789832 0.017127845 0.13977641
0001d0 fe 19 c9 3d eb d1 8c 3d a3 fe af bd 1c ef 71 3d
       0.09819411 0.06875976 -0.0859349 0.059065923
0001e0 c3 b2 91 bd 7a 73 25 3d 98 5c 0e bd c0 f2 f8 bd
       -0.07114174 0.04039333 -0.034756273 -0.12155676
0001f0 27 10 7f bd 09 57 ca 3d 02 28 83 3d ad ea 97 bd
       -0.062271263 0.09879882 0.06404115 -0.07417808
000200 2e 56 20 3e ba 53 23 bb 8a b3 0e bd dd 32 c6 bc
       0.15657875 -0.002492173 -0.03483919 -0.024194175
000210 c1 55 20 bd 46 d5 b4 3c 04 3c 0b 3d 8b 15 b2 3d
       -0.03914428 0.022074353 0.033992782 0.08695515
000220 03 77 ec 3c c3 c4 1b bd 6b 93 a8 3b 0e 7a e9 3d
       0.028865343 -0.038029443 0.0051445267 0.11400233
000230 d4 96 5e 3d dc e0 e6 bd 37 55 c4 3c ce 2b 6e bd
       0.05434306 -0.11273357 0.023966415 -0.058147244
000240 99 ee 58 bc 22 b4 99 bd 91 62 00 bd 74 af 8b bd
       -0.01324048 -0.07505061 -0.031344 -0.068205744
000250 9c f9 51 bd 7f 03 6a bd 97 23 2d bc 6e 5e 27 be
       -0.051263437 -0.05713224 -0.010567567 -0.16344616
000260 f0 7d 00 be 7a 04 b6 3d d0 4e 36 3e 22 3d f1 bd
       -0.12548041 0.088875726 0.17803502 -0.11779238
000270 34 76 d3 bd f3 80 c5 3b e9 9a 16 3e 19 41 a3 bc
       -0.1032528 0.006027335 0.14707531 -0.019928502
000280 ec e6 fb bc 46 8a eb bd 4f ae a8 bc fa 77 b8 bc
       -0.03074976 -0.11500983 -0.02059093 -0.022518147
000290 60 1b 40 be ce ad 91 bb 3a 58 df bc 71 7b fb bc
       -0.18760443 -0.004445768 -0.02726375 -0.03069851
0002a0 43 42 22 bd ec 0a 79 3c 9a ba bc 3c bc 1e e4 3b
       -0.039613973 0.015200358 0.023038197 0.0069616716
0002b0 9b c5 96 bd 17 ec ad 3d 2e 7e d8 3d 46 bb 84 bd
       -0.07361909 0.08492296 0.10570942 -0.06481032
0002c0 42 61 f4 3d 7d b2 35 bd aa f0 02 3c bb e2 57 3d
       0.11932613 -0.044359673 0.007991949 0.05270646
0002d0 0b 1e d7 bd 14 6c e7 ba 11 a3 13 bd 76 85 02 3c
       -0.10503777 -0.0017656111 -0.036044184 0.00796639
0002e0 5a 61 fa bd c3 4c 59 3d ad df 42 be 85 61 9b ba
       -0.122255996 0.05305172 -0.19030638 -0.0011854625
0002f0 86 eb 32 3d 27 95 da 3d 15 e2 51 bd 51 cb 9f 3b
       0.043681644 0.1067298 -0.051241 0.004876532
000300 6c b1 26 bd b0 7b 89 3d d8 fb 15 3c 37 f6 aa bd
       -0.040696546 0.06713045 0.0091542825 -0.08347743
000310 77 7c e6 3d 5f 7c d7 3d 8b f2 83 3d 0f f9 e1 bd
       0.112542085 0.10521769 0.06442746 -0.11033832
000320 11 09 3e bd 2c fa a0 bd 45 ed ae 3b f7 b4 b4 bd
       -0.046395365 -0.078602165 0.0053383433 -0.08823579
000330 f1 3e cf bd 74 c8 c1 bc 00 90 24 bd f2 a9 bd bd
       -0.10119427 -0.023655154 -0.04017639 -0.0926093
000340 88 9b 0b 3e 64 50 8d 3d 54 71 5b 3d 97 83 d8 3d
       0.13633549 0.06900099 0.053574875 0.10571974
000350 1d e4 27 3e 9b 2f bb bd d7 2f 11 be d7 e6 c4 3d
       0.16395612 -0.091399394 -0.14178406 0.09614342
000360 28 fb 54 bc b0 55 c8 bc 77 83 a7 3c 01 14 e4 bb
       -0.012999333 -0.024454921 0.02044843 -0.0069603925
000370 5a dd 38 bd c0 f4 73 bd 13 00 70 3c de b3 25 3e
       -0.045132972 -0.059559584 0.014648455 0.16181895
000380 97 8a b2 bb 75 69 59 bd 03 05 9d bd 7b fd 06 3d
       -0.00544865 -0.053079087 -0.076669715 0.03295658
000390 4a d3 fb 3d 8d ef ee 3d 0e 17 e4 bd 3a 1a 9a 3c
       0.122961596 0.116667844 -0.1113721 0.018811334
0003a0 e1 6a 94 3d 04 fb 8d 3d 75 ae 80 bc a6 ed c1 3d
       0.07246948 0.06932643 -0.015708188 0.09469156
0003b0 79 23 00 be 48 d8 7d 3d 9e 3d 2a 3d 50 1f 2d be
       -0.12513532 0.06197384 0.04156267 -0.16906476
0003c0 6c f4 1b 3e 9b b0 0e be d9 1e 23 3e de 2f bc bd
       0.15229958 -0.13934557 0.15929736 -0.091888174
0003d0 19 51 0b bd ca 0a d0 3d 2d c5 e7 3c 50 c0 76 bd
       -0.034012888 0.10158308 0.028292263 -0.060241997
0003e0 92 48 36 3e 41 79 07 be 44 48 22 bd 38 fe 80 bd
       0.17801121 -0.13229848 -0.0396197 -0.062984884
0003f0 76 0b cd 3b 13 4c 8a bd 0f 55 80 bd 70 24 63 3d
       0.0062574698 -0.06752791 -0.06266224 0.05545467

bias f4 [32]
000000 a3 f7 a6 bd 95 c1 fd 3c cf b1 8f bd bd d1 05 3d
       -0.08152702 0.030976096 -0.07016336 0.032670725
000010 71 7e cd bc 0c d2 ae 3d 31 8a 4f 3d e2 f6 71 bc
       -0.025084706 0.08536157 0.0506689 -0.014768334
000020 bc 84 25 3e 7b ac e5 bb cf 25 07 3d 0d f3 07 3e
       0.16163915 -0.0070090867 0.03299504 0.1327631
000030 00 38 e4 3d 59 fb b2 bb 6d 87 e6 3c a4 c6 e5 3c
       0.11143494 -0.005462092 0.028140748 0.02804882
000040 3d bc 60 bd 50 6f 5f 3d 46 39 cf 3c 4f 3a d4 3d
       -0.054867018 0.054549515 0.025295865 0.10362684
000050 6e be 90 3c b6 16 88 bd 7f a3 1c 3e ea 6c d6 ba
       0.017668929 -0.06644957 0.15296744 -0.0016359363
000060 ca 5e 04 3e cd b2 d0 3d 57 75 b4 3d e9 47 14 3e
       0.12926784 0.101903535 0.08811443 0.14480557
000070 4d fd e4 3d 62 ba 91 bd 53 f2 ea bd ae 20 a1 3d
       0.11181126 -0.07115628 -0.11472001 0.07867561

weight f4 [1, 32]
000000 68 7a 9e bd 8b 8f eb 3c 20 a8 34 3e 9b 89 15 be
       -0.07738191 0.02875497 0.1764226 -0.14603274
000010 7b 01 85 3d e2 80 55 3e c1 06 fe bd ad 53 22 be
       0.06494423 0.20849946 -0.12403632 -0.15852232
000020 e0 71 ac 3d 03 cc 32 3e 70 f0 c9 3d 75 8c 34 3d
       0.084201574 0.17460637 0.09860313 0.044079263
000030 5c af b1 3d 8a 77 26 3e 90 c6 af 3d f0 1e 33 3e
       0.08676025 0.16256538 0.08582795 0.1749227
000040 59 35 12 3e 99 b1 12 3e 83 cc a9 3d 8f 89 17 3e
       0.14278163 0.1432556 0.08290961 0.14798568
000050 c8 85 42 be a7 f3 90 3d 40 88 12 3e a4 18 55 be
       -0.18996346 0.07077723 0.14309788 -0.20810181
000060 6c c9 4b 3e 70 e9 b8 3d ed 6b 4c bd 8c 5a 15 be
       0.19901055 0.090289 -0.049907614 -0.14585322
000070 4c e3 29 be e5 e3 5c be 3d a4 28 be ee a2 48 3e
       -0.16590613 -0.2157131 -0.16468902 0.19593403
