Baseline_systems/SoMS/models/SoM_GRU_42/12_1.pth (torch, 10975 bytes, 3 tensors)

weight f4 [32, 64]
0	0xbc8c7ab6	-0.017148357
1	0x3ca370bb	0.019951215
2	0xbd820daa	-0.063502625
3	0x3a8a0a37	0.0010531609
4	0x3da8ad5f	0.08236193
5	0x3d47a103	0.048737537
6	0xba1df7bf	-0.0006025992
7	0x3d4f3707	0.050589588
8	0x3da5e6a8	0.08100635
9	0x3c3b56a2	0.011434229
10	0xbdca505a	-0.09878607
11	0xbd05585a	-0.03255496
12	0xbe07cc8d	-0.13261624
13	0xbdce6a6d	-0.10078893
14	0x3d9e8afe	0.077413544
15	0xbde910b0	-0.11380136
16	0x3da541bb	0.08069178
17	0x3d291378	0.041278332
18	0xbdfdfc97	-0.12401693
19	0x3b945a6b	0.00452738
20	0xbd8fcf62	-0.07021977
21	0x3d93fa80	0.072255135
22	0x3dedf923	0.11619785
23	0xbdc094ee	-0.09403406
24	0x3d1a7b8d	0.037715483
25	0xbd5e072a	-0.05420605
26	0x3d43c46a	0.047794737
27	0xbcceb151	-0.025231035
28	0xbda0b1c5	-0.07846407
29	0x3cfe43c3	0.03103817
30	0x3d50ec31	0.0510065
31	0x3c1f6d4b	0.009730647
32	0xbde29bff	-0.1106491
33	0xbdd1107c	-0.10208222
34	0x3e0324c6	0.12806997
35	0x3dfc1a0e	0.12309657
36	0x3dda4361	0.10657383
37	0xbdd7ee06	-0.10543446
38	0xbde8b9d3	-0.11363568
39	0xbd1f57fb	-0.038902264
40	0x3dde520e	0.108554944
41	0x3dc56acd	0.09639511
42	0xbdc6d7f4	-0.097091585
43	0xbdc93b52	-0.098257676
44	0x3dfa5f35	0.122251906
45	0xbdf2d47b	-0.11856934
46	0xbd626eb4	-0.055281356
47	0xbd041bbd	-0.032253016
48	0xbd3af6b0	-0.045645416
49	0x3ddc9f3c	0.10772559
50	0xbca6c789	-0.020358818
51	0x3dddd81d	0.10832236
52	0xbc9736b3	-0.0184587
53	0xbd7a9c84	-0.06118442
54	0xbb820284	-0.003967585
55	0xbdbbb655	-0.091656365
56	0x3e074166	0.13208541
57	0xbd89b342	-0.06723644
58	0x3de36ee6	0.111051366
59	0xbdd48a72	-0.10377969
60	0xbdd26b6a	-0.10274394
61	0x3da819a3	0.08208015
62	0x3da9cdb4	0.08291188
63	0x3d43a1ca	0.047761716
64	0x3da9858f	0.082774274
65	0x3d6ab93d	0.057305563
66	0xbcacea1f	-0.021107731
67	0xbdd78aee	-0.105245456
68	0x3d8df6a2	0.06931807
69	0xbdc81b0d	-0.097707845
70	0x3ca88d10	0.020575076
71	0x3dbe9ed9	0.093076415
72	0xbd3b9959	-0.04580054
73	0x3c1838a6	0.00929085
74	0x3c7b706b	0.015346627
75	0x3d0815fa	0.033224083
76	0x3dc42d99	0.095790096
77	0xbd86c24b	-0.06580027
78	0xbd866470	-0.06562126
79	0x3d7465e9	0.0596675
80	0xbcd81b65	-0.02638025
81	0xbcb779d4	-0.02239696
82	0x3da7c8f2	0.08192624
83	0xbd512148	-0.05105713
84	0x3c8580d7	0.016296787
85	0x3d7b55ec	0.06136124
86	0xbd986223	-0.07440593
87	0xbd853e79	-0.06506056
88	0xbdeb2689	-0.114819594
89	0x3d0631f8	0.032762498
90	0xbbdfd5d6	-0.006830911
91	0x3d20af60	0.03922975
92	0xbdc5143c	-0.09623
93	0xbc27f759	-0.010251843
94	0x3dc1c379	0.094611116
95	0x3d3b7314	0.045764044
96	0x3c8e7c05	0.017393121
97	0xbd6c77cd	-0.05773144
98	0x3d9cdc0d	0.07659159
99	0x3d0bc935	0.034127433
100	0xbc2e476f	-0.010637148
101	0xbbc5d754	-0.006037632
102	0xbcea14ce	-0.028574374
103	0x3d3d44cf	0.0462082
104	0xbde97f5d	-0.11401246
105	0x3dc03a20	0.093860865
106	0x3dc3a198	0.09552306
107	0x3c1a4e78	0.0094181225
108	0x3d7d7ece	0.06188851
109	0xbd4d7648	-0.05016163
110	0xbd85b396	-0.06528394
111	0x3de7079f	0.112807505
112	0xbd08a00b	-0.033355754
113	0xba540634	-0.00080880825
114	0x3c9b0f8b	0.01892831
115	0x3db3e9b1	0.087848075
116	0x3dca47ac	0.098769516
117	0x3db0cce8	0.08632833
118	0xbdadd666	-0.08488159
119	0x3d71ab45	0.059001226
120	0xbdaab09d	-0.083344676
121	0xbd407594	-0.04698713
122	0x3c9b1dfa	0.018935192
123	0xbdebab85	-0.11507324
124	0xbddbc066	-0.107300565
125	0x3d31ecd4	0.043438748
126	0x3d6c9837	0.05776235
127	0xbd89d310	-0.0672971
128	0x3db5d4ab	0.08878454
129	0x3cd6d857	0.026226206
130	0xbdb3e795	-0.08784405
131	0xbd43e45e	-0.04782521
132	0x3d3d2343	0.046176206
133	0x3d748863	0.05970038
134	0x3dc59fcc	0.096496195
135	0x3e0680a5	0.13135011
136	0x3d7e139b	0.062030416
137	0xbdd489f2	-0.103778735
138	0x3c955813	0.018230474
139	0x3d982802	0.07429506
140	0x3ba83e79	0.0051344004
141	0xbd2dedb3	-0.042463016
142	0x3cd87568	0.026423171
143	0xbdd04c72	-0.10170831
144	0x3cd3e42b	0.025865635
145	0x3cb6b953	0.022305166
146	0xbd9e2e4b	-0.077236734
147	0x3c761cd9	0.015021526
148	0xbdd75c24	-0.10515621
149	0xbdc18102	-0.094484344
150	0x3ce24254	0.027619518
151	0xbd801d37	-0.06255572
152	0xbd963aaa	-0.07335408
153	0x3c2a49ca	0.010393569
154	0x3e03f399	0.12885894
155	0xbd80ff42	-0.062986866
156	0xbd7a57f3	-0.06111903
157	0x3d6302ff	0.05542278
158	0x3ddec0d7	0.10876625
159	0x3cbf56ed	0.02335688
160	0xbd89e138	-0.0673241
161	0xbd7e9e58	-0.062162727
162	0x3be02c1b	0.0068411953
163	0x3d0f4503	0.034977924
164	0xbdf533f2	-0.119727984
165	0xbc3f7f01	-0.011687995
166	0xbcd104f7	-0.025515063
167	0x3d0c7602	0.03429223
168	0xbb092559	-0.0020926802
169	0xbd978a10	-0.0739938
170	0x3d5ae505	0.053441066
171	0x3dbcfead	0.09228263
172	0xbdfb727e	-0.12277697
173	0x3d21c994	0.03949888
174	0x3d5d18aa	0.0539786
175	0xbde0e059	-0.10980291
176	0x3dd29c78	0.1028375
177	0xbdcb5b6d	-0.099295475
178	0x3d35a68e	0.044348292
179	0xbd0c54c3	-0.034260523
180	0xbe04095b	-0.12894194
181	0x3d897ff1	0.06713856
182	0x3cd39f81	0.025832893
183	0xbb04278c	-0.0020165173
184	0xbdc28737	-0.094984464
185	0xbce8f1e9	-0.028435664
186	0xbde32684	-0.11091331
187	0x3d632ab9	0.055460665
188	0xbd1a178d	-0.037620116
189	0x3caeb343	0.021325713
190	0xbdc4727e	-0.0959215
191	0x3d45b927	0.04827228
192	0xbb84144c	-0.00403074
193	0x3d2bd986	0.041955493
194	0x3d257594	0.040395334
195	0xbd3e47b5	-0.046455104
196	0x3da217d4	0.07914701
197	0x3d974937	0.073870115
198	0x3d088604	0.033330932
199	0xbd9dd333	-0.07706299
200	0xbda3c582	-0.07996656
201	0xbd4a25f3	-0.049352597
202	0x3d0e3bfb	0.03472517
203	0xbd4c77dd	-0.049918998
204	0xbda3094e	-0.07960759
205	0xbd731812	-0.059349127
206	0x3afa9b37	0.0019119744
207	0xbd66df92	-0.056365557
208	0x3e0b6997	0.13614498
209	0x3d117f4f	0.0355218
210	0x3db7879c	0.08961412
211	0x3d94a5ea	0.07258208
212	0x3e04adc3	0.1295691
213	0xbdf34eb8	-0.11880249
214	0xbdd059d6	-0.10173385
215	0x3d85f40d	0.065406896
216	0xbd33e11e	-0.04391586
217	0x3ba9068e	0.005158252
218	0x3d822157	0.06354015
219	0xbd240861	-0.040047053
220	0xbd92a46b	-0.071602665
221	0xbdab469a	-0.083630756
222	0x3d441f9f	0.04788172
223	0x3e01629b	0.12635271
224	0x3c80fcb2	0.015745495
225	0xbdbfeb67	-0.09371071
226	0xbd6ae668	-0.05734864
227	0x3c8caa6b	0.017171105
228	0x3db8cb94	0.090232044
229	0x3ddc141c	0.10746023
230	0xbd81d04f	-0.0633856
231	0xbd0961a3	-0.03354038
232	0x3d25b316	0.040453993
233	0x3d8c041d	0.06836722
234	0xbd504bc7	-0.050853517
235	0x3d8c3a70	0.068470836
236	0xbdf8a150	-0.12140143
237	0x3dbf12f3	0.09329786
238	0x3d921d3c	0.07134482
239	0xbe090ebf	-0.13384531
240	0x3de6f137	0.11276477
241	0xbdddde9c	-0.10833475
242	0x3df6c6c2	0.12049629
243	0xbd711344	-0.058856264
244	0xbcd8f739	-0.026485072
245	0x3d89ea7d	0.06734178
246	0x3c0b5863	0.00850496
247	0xbc264fb0	-0.010150835
248	0x3e0bd37d	0.13654895
249	0xbdbfb813	-0.09361281
250	0xbd8b19d2	-0.06792034
251	0xbdcc8bf8	-0.099876344
252	0x3d0e4f2d	0.034743477
253	0xbd25015e	-0.040284507
254	0xbd176742	-0.03696371
255	0x3cbc896d	0.023014748

bias f4 [32]
0	0xbde1981b	-0.1101534
1	0x3c94bcf9	0.018156515
2	0xbd83ea03	-0.064411186
3	0x3c044d35	0.008075048
4	0xbd2226d7	-0.03958782
5	0x3d85631d	0.06513045
6	0x3cd30c22	0.025762621
7	0xbd1897b4	-0.03725405
8	0x3e08642a	0.1331946
9	0xbd1b945e	-0.03798329
10	0x3b9a3214	0.004705677
11	0x3ddf4cd3	0.10903325
12	0x3dbecb81	0.09316159
13	0xbced9d4d	-0.02900567
14	0x3bc69550	0.00606028
15	0x3c082862	0.008310409
16	0xbd998608	-0.074962676
17	0x3cb923dd	0.022600109
18	0x3b188691	0.0023273567
19	0x3da68439	0.08130688
20	0xbc1158ea	-0.008871296
21	0xbdb7cc9b	-0.08974572
22	0x3e07ff6b	0.13281028
23	0xbcdcd0dc	-0.02695506
24	0x3ddc06dd	0.107434966
25	0x3da6a08f	0.08136093
26	0x3d8a2f97	0.06747358
27	0x3dfef49e	0.12449001
28	0x3daff986	0.08592515
29	0xbdbbc347	-0.091681056
30	0xbdf74962	-0.120745435
31	0x3d4d5bf9	0.05013654

weight f4 [1, 32]
0	0xbd2f5da4	-0.042813912
1	0x3b91e9f7	0.0044529396
2	0x3df0a679	0.11750502
3	0xbdd7c4bb	-0.1053557
4	0x3d333fa8	0.04376188
5	0x3e30e1d5	0.17273648
6	0xbda92a37	-0.08260005
7	0xbdfe4c18	-0.124168575
8	0x3d4e5db2	0.050382324
9	0x3e085b28	0.13316023
10	0x3d99a4d6	0.07502143
11	0x3ca24c14	0.019811668
12	0x3d71cb51	0.05903179
13	0x3e0b659c	0.1361298
14	0x3d7e9aa1	0.062159184
15	0x3e13b80d	0.14425679
16	0x3e06e471	0.13173081
17	0x3d7aaf17	0.061202135
18	0x3d6099bf	0.054834124
19	0x3e01acf0	0.12663627
20	0xbe1afe75	-0.1513613
21	0x3d5b1250	0.05348426
22	0x3dea66e8	0.11445409
23	0xbe2d6705	-0.1693383
24	0x3e325285	0.17414291
25	0x3d62bf1f	0.05535805
26	0xbcb8cd17	-0.022558732
27	0xbdddfbf3	-0.10839071
28	0xbe039a94	-0.12851936
29	0xbe3245d0	-0.17409444
30	0xbe08ca21	-0.13358356
31	0x3e2c00e6	0.16797218
