Baseline_systems/SoMS/models/SoM_GRU_42/42_1.pth (torch, 10975 bytes, 3 tensors)

weight f4 [32, 64]
000000 d6 7e 46 bd 6a 71 50 3d fc 95 c2 bd 98 6b 00 bd
       -0.048460804 0.05088941 -0.095012635 -0.03135261
000010 62 4d e9 3d f4 87 a4 3d 49 44 01 3d 39 0b 9f 3c
       0.11391713 0.080337435 0.031559262 0.019414531
000020 d1 ac e7 3d 45 e8 9c bc 62 cb fc bd b2 e5 84 bd
       0.11312259 -0.019153723 -0.1234348 -0.064891234
000030 50 e4 22 be 15 ef 8f bd e7 5c 3a 3d 37 4a 15 be
       -0.15907407 -0.07028023 0.045498755 -0.14579092
000040 62 93 a2 3d d6 2a 8b 3d a7 de 20 be 52 39 13 3d
       0.07938267 0.0679528 -0.15709935 0.035943337
000050 0f e6 33 bd 49 27 92 3d 2d e9 e2 3d 26 af 91 bd
       -0.043920573 0.07136399 0.11079631 -0.07113485
000060 c6 6e 8b 3d 81 9c b0 bd 41 4c 78 3c e4 e7 c0 3b
       0.06808238 -0.08623601 0.015154899 0.0058870185
000070 65 b8 3f bd b5 61 76 3d df 8d a3 3c a3 1a 2d 3d
       -0.04680671 0.060151774 0.01996511 0.04226173
000080 5c 69 10 be 91 07 91 bd 74 a3 04 3e e9 58 1d 3e
       -0.14102691 -0.07081521 0.12952977 0.15365948
000090 d5 90 0e 3e a0 24 9f bd 01 c6 14 be 74 d4 bd bb
       0.13922437 -0.077706575 -0.14528657 -0.0057931487
0000a0 4d 95 0f 3e 9a dc b3 3d ed 0e 87 bd 2a f3 88 bd
       0.14021797 0.08782311 -0.06594644 -0.06687005
0000b0 e1 0d dc 3d bb 5f 1a be 8b 29 b2 bd 79 33 83 bd
       0.10744835 -0.15075581 -0.0869933 -0.06406302
0000c0 43 7a 6a bc bb e4 9b 3d ab 72 49 3c c8 a9 9a 3d
       -0.014311376 0.07611986 0.012295405 0.075519145
0000d0 fd 32 14 bd 6f 5d f0 bc 96 07 da 3c 0a 0c fd bd
       -0.03618144 -0.029341428 0.026614945 -0.12355812
0000e0 3f 29 28 3e 3a 39 ca bd a3 d2 11 3e 0d e1 93 bd
       0.16421984 -0.09874196 0.14240508 -0.072206594
0000f0 7e 89 08 be a2 dc 4e 3d 82 46 58 3d 99 56 a3 3d
       -0.13333699 0.05050338 0.052801616 0.079755016
000100 ca 9e b8 3d 07 52 3e 3d 66 84 26 bc fc bf e7 bd
       0.090146616 0.046464946 -0.010163402 -0.11315915
000110 67 64 69 3d 16 68 dc bd ba 96 16 3c b4 32 a5 3d
       0.056980517 -0.1076204 0.009191209 0.080663115
000120 7d 05 66 bd da 08 a5 3c f9 57 3d 3c dd c1 32 3d
       -0.056157578 0.020145822 0.011556619 0.043641914
000130 12 f5 d5 3d 81 5c 8c bd 8c 98 c5 bd ee e4 95 3d
       0.10447134 -0.06853581 -0.09648237 0.073190555
000140 d6 31 0d bd 00 a0 0b bd b1 86 be 3d 79 a6 70 bd
       -0.034471355 -0.034088135 0.09303034 -0.05875251
000150 87 d4 ea 3c 32 fc 88 3d 2d 0d ae bd 81 07 6e bd
       0.028665794 0.066887274 -0.08498607 -0.058112625
000160 ea 75 01 be 77 f3 32 3d 86 4a 84 3b 03 bb ef 3c
       -0.12642637 0.043689217 0.004037204 0.029263979
000170 c3 6f da bd 99 61 b3 bc ec 23 d2 3d f6 10 24 3d
       -0.10665848 -0.021897124 0.10260758 0.040055238
000180 d6 bd a8 3c d8 f7 32 bd a9 85 88 3d 43 c5 b9 3c
       0.020598333 -0.043693393 0.06666119 0.02267707
000190 44 c0 90 bc 84 0c 9d ba fb 1e 13 bd 82 c7 1b 3d
       -0.017669804 -0.0011981879 -0.035918217 0.038032062
0001a0 9c f4 f8 bd 3d 83 da 3d 29 7e ea 3d 52 d2 c3 3a
       -0.121560305 0.10669563 0.114498444 0.001494
0001b0 7e 5b 8f 3d 72 dd 22 bd 9d 09 61 bd 60 e3 f7 3d
       0.069998726 -0.039761968 -0.05494081 0.12103915
0001c0 6d be c5 bc 04 df 35 3c 86 ea f4 3b df bc ca 3d
       -0.024138654 0.011100534 0.0074742464 0.098993056
0001d0 40 de d8 3d a8 7b 9b 3d 2e 0b a3 bd 93 32 4e 3d
       0.10589266 0.07591945 -0.07961117 0.0503412
0001e0 2f 23 b5 bd 9b bb 0d bd 85 cd 2a 3c ea 74 fd bd
       -0.08844601 -0.034602743 0.010424976 -0.12375815
0001f0 c8 88 e9 bd da 37 4b 3d 9e 02 8c 3d 25 ff 9e bd
       -0.11403042 0.04961381 0.06836437 -0.07763509
000200 68 54 de 3d 6e f0 86 3c d1 cd 97 bd 8c fc f4 bc
       0.10855943 0.016472068 -0.07412303 -0.02990558
000210 43 dc c3 3c e0 85 26 3d 3a ce 98 3d f9 f6 18 3e
       0.02390874 0.040655017 0.074612096 0.14937963
000220 f2 01 21 3d 8f ed a8 bd 38 81 0a 3d 31 89 bc 3d
       0.039308496 -0.08248436 0.03381464 0.09205855
000230 56 c9 bf 3c 10 ee 7d bd 72 7d 30 3d 71 a5 a5 bd
       0.023411434 -0.061994612 0.043088384 -0.08088196
000240 a1 c4 62 3c 52 8a 19 3b 32 37 6d bd c8 af 9d bb
       0.013840825 0.0023428393 -0.057913966 -0.0048122145
000250 60 d8 f6 bd 60 54 af bd a2 5d 98 3c 04 32 a1 bd
       -0.12052989 -0.08561015 0.018599335 -0.07870868
000260 88 01 b9 bd 4e bc f9 3c 10 cb 17 3e e5 f5 a5 bd
       -0.09033495 0.030485298 0.14823556 -0.08103541
000270 b4 43 a1 bd 33 42 23 3d 91 03 04 3e 43 37 3d 3b
       -0.078742415 0.039858054 0.12891985 0.002887205
000280 07 7f 61 bd 37 ad a3 bd 45 58 c9 3b 6c 04 8c 3c
       -0.055052783 -0.079920225 0.0061445558 0.017091952
000290 87 78 0d be 78 37 fc bc 9f 46 13 bc 36 31 94 3c
       -0.13815509 -0.030788168 -0.008989005 0.018089872
0002a0 f8 24 b6 bc 9b 44 7c bd 3c 2c f8 3c d4 a0 9c 3d
       -0.022234425 -0.061588865 0.03029453 0.07647863
0002b0 8b 27 e8 bd e0 45 6c 3d 38 04 97 3d 69 63 b8 bd
       -0.11335667 0.057683825 0.073738515 -0.09003336
0002c0 5c 3e b4 3d ca 39 a0 bd fd c2 d0 3c 51 f3 47 bc
       0.088009566 -0.078235224 0.025483603 -0.012204007
0002d0 65 ad 02 be 31 1c 37 3d 10 b3 1b 3c b7 f1 ae 3c
       -0.12761457 0.04470462 0.009503141 0.021355493
0002e0 16 fc eb bd f4 cc 9d bc 3b 3b 06 be b0 fb 06 3d
       -0.11522691 -0.019262768 -0.13108532 0.03295487
0002f0 5e 84 52 bc e7 c3 25 3d ce 3f a5 bd 5a d4 f9 3c
       -0.012848942 0.04047003 -0.080688104 0.030496765
000300 46 29 0c bd 51 6b 80 3d 99 45 29 3c 32 bf 99 bd
       -0.03421905 0.06270469 0.010331535 -0.07507171
000310 e1 6c dc 3d 17 d5 d0 3d 84 77 81 3d 1a 73 c5 bd
       0.107629545 0.10196894 0.06321624 -0.096410945
000320 32 a2 4d bd 5d f4 a3 bd 84 1e f5 3b 23 cc a4 bd
       -0.05020351 -0.08005593 0.0074804444 -0.080467485
000330 35 98 c6 bd e4 cd ef bc de 13 dc bc ed bc ae bd
       -0.09697 -0.029272981 -0.026864942 -0.085321285
000340 31 e7 14 3e 1d f8 84 3d 02 27 73 3d 81 39 d2 3d
       0.14541318 0.06492636 0.059363373 0.10264874
000350 82 68 19 3e 47 6c f0 bd a0 6a df bd ac 8c ad 3d
       0.14981273 -0.11739402 -0.10909009 0.08474097
000360 fe a4 89 bc 36 31 c3 bc 36 9c 05 3d 37 70 32 bc
       -0.016802307 -0.023827177 0.032619677 -0.010891012
000370 27 eb 35 bd db 03 8a bd b5 f7 95 3c 55 0f 21 3e
       -0.044413712 -0.067390166 0.018306592 0.15728505
000380 ef 4a 22 bc 5d 9a 82 bd a3 63 83 bd e8 1f 29 3d
       -0.009905561 -0.06377099 -0.064154886 0.041290194
000390 de ed fa 3d 43 30 fc 3d 58 58 a3 bd 89 f3 3e bb
       0.12252401 0.12313893 -0.079758346 -0.0029136857
0003a0 da 2a 8d 3d 96 24 57 3d 12 a4 c5 bc 4f 65 b4 3d
       0.06892939 0.052525125 -0.024126086 0.088083856
0003b0 5d de 09 be ee 1e 83 3d 49 e0 2f 3d 34 17 26 be
       -0.13463731 0.06402384 0.042938504 -0.16219789
0003c0 b8 98 07 3e 48 77 0b be 39 18 19 3e ad a9 b5 bd
       0.13241851 -0.13619721 0.14950646 -0.08870254
0003d0 79 2c 3a bd 28 53 c8 3d 02 ac 08 3d 0d d4 14 bd
       -0.04545257 0.09781486 0.033367164 -0.03633504
0003e0 b1 3a 2b 3e d9 04 fb bd 37 f0 1d bd bd 2d 90 bd
       0.16721608 -0.12256784 -0.038559165 -0.07039974
0003f0 ec 66 05 3c a6 ac 8f bd 2e 45 6e bd d4 68 48 3d
       0.008142214 -0.07015352 -0.058171444 0.048928097

bias f4 [32]
000000 6d f8 a1 bd ae 8d e9 3c 73 ca a9 bd 13 b3 11 3d
       -0.079087116 0.028509941 -0.08290567 0.03557117
000010 af 64 dd bc 42 e0 a4 3d ff bf 59 3d d8 25 4a bc
       -0.027025549 0.08050586 0.053161617 -0.012338124
000020 2b a5 1a 3e e0 fb b3 bc db 11 bf 3c 6c d7 00 3e
       0.15102069 -0.02197069 0.023323944 0.12582177
000030 87 cd d8 3d 32 2f 2a bc 78 09 c7 3c aa 0f c6 3c
       0.10586076 -0.010387229 0.024296507 0.024177391
000040 53 65 6f bd 5c 3d aa 3c db f7 a2 3c 86 61 ca 3d
       -0.05844624 0.020781212 0.019893577 0.09881882
000050 da a0 8a 3c 6c 03 93 bd b4 80 14 3e 5f d7 14 bb
       0.016922403 -0.07178387 0.14502221 -0.002271138
000060 28 f5 fe 3d 23 79 bc 3d 14 13 b9 3d a7 80 19 3e
       0.124491036 0.092027925 0.09036842 0.14990483
000070 8e f9 e3 3d 56 fc 85 bd 14 03 dc bd a6 c0 8c 3d
       0.11131583 -0.0654227 -0.107427746 0.06872682

weight f4 [1, 32]
000000 ca c4 9a bd b7 fb a5 3c 4d 85 cf 3d fe 83 0d be
       -0.07557066 0.020261629 0.10132847 -0.13819882
000010 9d c7 5e 3d 22 39 3b 3e b8 51 ec bd cd 23 1e be
       0.054389585 0.18283513 -0.11539024 -0.15443344
000020 a4 dc 89 3d b4 2b 17 3e 8a 51 b8 3d 83 ce 08 3d
       0.06731537 0.14762765 0.08999927 0.03340007
000030 af 65 95 3d b3 d6 1a 3e 80 8a 9d 3d ed 29 22 3e
       0.07294785 0.15120964 0.076924324 0.15836306
000040 42 44 11 3e 03 1b 9d 3d fd 38 8f 3d f5 37 11 3e
       0.14186195 0.07671168 0.069932915 0.14181502
000050 0c a6 38 be d9 81 88 3d ae 43 06 3e 51 47 4d be
       -0.18032092 0.066653915 0.13111755 -0.20046736
000060 03 16 42 3e 4d 9d 8e 3d 42 9c 2d bd 7a 64 0f be
       0.1895371 0.069635965 -0.042385347 -0.14003173
000070 fb bf 24 be dc 05 54 be a3 54 1d be c1 2a 3d 3e
       -0.1608886 -0.2070536 -0.15364318 0.1847334
