Baseline_systems/SoMS/models/SoM_GRU_42/79_0.pth (torch, 189071 bytes, 8 tensors)

weight_ih_l0 f4 [192, 46]
000000 0c 82 1f 3d 1f 20 0b 3e 7e 97 ea bd 80 7c 14 3e
       0.03894238 0.13586472 -0.11454676 0.14500618
000010 2a b9 93 3d 07 6b 9b 3d 28 92 88 bc ed 5e 51 bd
       0.072130516 0.07588773 -0.016671255 -0.05111592
000020 02 4d a8 3d cd de e0 3c 77 30 d0 3d 9d b1 6b 3d
       0.08217813 0.02744999 0.10165494 0.057542432
000030 96 2f 9e ba 1e c4 6e 3d 00 5a 07 bb 76 f5 f2 bd
       -0.0012068625 0.0582925 -0.002065301 -0.11863224
000040 26 01 b1 3d db 84 3d bc 43 43 e1 bc dc 33 4b bd
       0.08642797 -0.01156732 -0.027497893 -0.049610004
000050 ce 11 d6 3d 93 25 af 3d a6 22 76 3d 7b 8d 81 bc
       0.10452615 0.085520886 0.060091637 -0.015814533
000060 7e c7 3b 3d 39 9e 0b bc dd a9 46 3d 56 3f 16 3d
       0.045844547 -0.00852161 0.048501838 0.036681496
000070 4b 38 9a bd e9 75 76 3b de 76 8a 3d 43 33 45 3e
       -0.07530268 0.00376069 0.06760953 0.19257836
000080 7c bc d0 3d e8 77 f8 3d 15 50 5e 3d 7f 77 12 bd
       0.101922005 0.12132245 0.05427559 -0.03575849
000090 9e 45 07 bd 1a 4e a6 3d 30 e1 fa 3d ed 3f 1c be
       -0.033025376 0.081203654 0.12249982 -0.15258761
0000a0 65 b0 31 3e 8e 85 7c bc 17 98 d6 3d 8c d1 0b be
       0.17352445 -0.015412701 0.104782276 -0.13654155
0000b0 b0 d7 f9 bd df e5 5f bd 35 fb b6 bd 1f 25 d7 3c
       -0.12199342 -0.05466258 -0.08934633 0.026262818
0000c0 88 e7 1b bd 1d d0 27 3d cd 04 9d 3d 56 29 70 3d
       -0.038062602 0.040969957 0.07666931 0.05863317
0000d0 2b 1a f2 3d 90 5c cd bc 00 ae d0 3d 25 41 98 3c
       0.118213974 -0.025068551 0.10189438 0.01858575
0000e0 1d 88 cc 3b 51 20 69 3d 90 c9 ce bd 99 e3 19 bd
       0.006241812 0.056915585 -0.10097039 -0.03757057
0000f0 5e a2 de 3d 5e de 71 bd 34 91 f1 bd 4e ae 26 3b
       0.10870813 -0.059049957 -0.117952734 0.0025433484
000100 62 16 cc 3d c2 6f f3 38 a1 79 47 3d 30 a3 05 be
       0.09965207 0.000116079595 0.04869998 -0.13050532
000110 f6 a6 7e 3d 04 4d 2d bb a9 46 40 bd 66 4a e1 bd
       0.062170945 -0.002644361 -0.046942387 -0.110005185
000120 8b 6e 05 3c a4 73 bd 3c 88 22 0a 3e 12 d0 b7 3d
       0.008144031 0.02312643 0.13489735 0.08975233
000130 4e 71 5e bd b8 8e 04 3e f8 92 7f 3c 89 a8 0a 3d
       -0.054307275 0.12945068 0.015599005 0.033852134
000140 3c a0 e1 bd af 11 c8 3c 07 bf 96 bd 73 0d e5 3d
       -0.110168904 0.024422495 -0.07360654 0.11184206
000150 d4 47 8f 3d 9b a5 ca bd d7 07 c8 3d f2 1a 50 bd
       0.06996122 -0.09894868 0.0976712 -0.050806947
000160 f2 bc de bd 5a 9d a0 bd 2f 3c 23 3e ba e7 a3 3b
       -0.10875882 -0.078425124 0.15940927 0.005001989
000170 fb 61 2d 3c 81 e8 d1 bb 8e e9 34 bd 6e 9c 9f bd
       0.010582442 -0.0064058905 -0.044168048 -0.077935085
000180 f2 26 b3 3d 43 3d b3 bd d7 49 af bd 71 52 e0 3d
       0.087476626 -0.08751919 -0.08559006 0.109532245
000190 ee b8 98 bc b8 fb 00 be ac 6d 03 be d1 d6 3b bd
       -0.018642869 -0.12596023 -0.12834805 -0.04585916
0001a0 89 35 b0 3d 43 47 d6 3d f5 82 a4 3d db 5c 75 3d
       0.08603961 0.10462811 0.080327906 0.059903007
0001b0 30 99 ca bd 18 76 bc 3d c6 13 08 3d cb e9 5b bd
       -0.098924994 0.09202212 0.033221982 -0.05368976
0001c0 32 b5 d4 3b 0c 3f ca bd 37 b8 4c bd 13 1b a7 bd
       0.0064913267 -0.098753065 -0.04998037 -0.08159461
0001d0 12 47 40 3d 3b 06 c8 3d 00 1a 95 bd 84 87 07 3d
       0.046942778 0.09766813 -0.0728035 0.033088222
0001e0 e2 2f 1b 3e ba 3b c5 3d 01 72 54 3d 8b b9 7d 3d
       0.15154985 0.096305326 0.051866535 0.061944526
0001f0 56 e4 bc bd e7 f0 72 bd ed 97 c0 bd 60 2a 2f 3d
       -0.09223239 -0.059311774 -0.094039775 0.04276502
000200 8c 52 b6 bd cb 6a c2 3d 8d e9 9b 3d 55 01 a9 3d
       -0.08902463 0.094930254 0.07612906 0.08252207
000210 46 9f 8c 3d ef 8b b7 3c a2 c8 65 3d 7a a8 9f 3d
       0.068663165 0.022405593 0.05609954 0.07795806
000220 29 10 fe 3c 76 dd 81 bd 05 72 86 bd b6 87 5e bc
       0.031013565 -0.063410684 -0.06564716 -0.013582161
000230 09 a7 ca 3c ab ce aa 3d 8e d3 10 3e 27 fa ce 3d
       0.024737852 0.083402 0.14143202 0.101063065
000240 5d 60 9b 3d 42 5a 08 3c 99 da 34 3c 3d fc 09 3e
       0.07586739 0.0083223 0.011038446 0.13475128
000250 3c 9d 20 be 49 97 33 3d 0b ec f7 3d 7e e1 2d bd
       -0.1568498 0.04384545 0.121055685 -0.042451374
000260 58 31 e8 bd d9 f7 d5 3d 42 5a 32 3c 07 48 d0 3b
       -0.113375366 0.10447664 0.010885777 0.0063562426
000270 03 ec 0d 3d 5c 89 db bd f2 06 26 be ce 16 1d bd
       0.034648906 -0.107195586 -0.16213587 -0.038351826
000280 bc bb a1 3c 31 27 7e bc 3d 25 d3 3c 60 d7 b7 3d
       0.019742839 -0.015512274 0.025774593 0.089766264
000290 78 27 8d bd e3 60 e9 3d 5d 28 89 3d 7c a9 f2 3c
       -0.06892294 0.11395433 0.06697152 0.029621832
0002a0 5d c6 22 bc 4c 71 85 bc cb cc c1 3d 90 c0 a3 bd
       -0.009934989 -0.016289376 0.09462889 -0.07995713
0002b0 ec 2b 1c be c4 bc 84 bd 00 40 9c bd 15 73 3d bd
       -0.1525113 -0.06481317 -0.076293945 -0.04625233
0002c0 be 90 70 3c 8e 62 63 bd 64 71 d8 3d f7 84 c0 bd
       0.014682947 -0.05551391 0.105685025 -0.09400361
0002d0 ca 33 fe bd fe f3 f9 bd b0 5c 6d bd d0 5f f6 bd
       -0.12412222 -0.12204741 -0.05794972 -0.120299935
0002e0 a6 20 0c be 94 5b 97 3d 70 65 b9 3d f3 81 0c bc
       -0.1368433 0.07390514 0.09052551 -0.008575904
0002f0 3c 0d 25 3d db 5d 89 bd 8f 7d 8b 3d 2c ba eb 3d
       0.040295824 -0.06707355 0.06811058 0.11510119
000300 80 e7 62 bd 3f c7 11 3e db ef 5f bd 4b dc 86 3d
       -0.055396557 0.14236163 -0.054672103 0.06584986
000310 81 08 55 bd 59 bf 1d 3d 60 97 87 3d 65 88 5c 3d
       -0.052010063 0.03851256 0.06620669 0.053841013
000320 c6 69 89 3d fe b5 08 bd 63 d8 a5 bc 36 22 ca 3d
       0.06709628 -0.033376686 -0.020244783 0.098698065
000330 05 98 4b 3c 08 a5 37 3d 9a 8a aa 3c a2 01 0c be
       0.012426381 0.04483512 0.020818044 -0.13672498
000340 98 54 e1 3b dd 1a 28 be c1 55 c0 bd b0 6b 4d 3d
       0.0068765394 -0.16416498 -0.09391356 0.050151527
000350 bf aa 36 bd f9 d8 0c 3d 5b 31 ee bd 7d 2b 19 be
       -0.04459643 0.03438661 -0.116305076 -0.14957996
000360 af a0 7b bc 94 6b 2d be 4d 3a 30 bd 6e 76 9f bc
       -0.015358134 -0.16935569 -0.04302435 -0.019465651
000370 2d 56 22 be 70 e0 b5 3d 5a d4 ff 3d a6 3c de 3c
       -0.15853186 0.08880699 0.12491675 0.027128529
000380 51 e1 02 be db 67 b7 3d ec a2 a3 bd d8 57 fb bc
       -0.12781264 0.08955356 -0.07990059 -0.030681536
000390 4a 06 0e 3b 03 92 25 bd db 25 25 be df 08 36 3a
       0.002167123 -0.04042245 -0.16127722 0.0006944071
0003a0 40 0e eb 3d fc 32 0a ba d4 8e b7 bd 16 d3 f3 bd
       0.11477327 -0.00052718795 -0.08962789 -0.11905496
0003b0 aa d7 0d be fb d4 82 3d 8b c6 e4 bc 58 ec 49 bb
       -0.138518 0.06388279 -0.027926704 -0.0030811038
0003c0 2d 21 92 3c fd 1f aa 3d 1e 38 93 3c ca d5 e0 bd
       0.017838085 0.083068825 0.017971095 -0.10978277
0003d0 08 35 9c 3c 02 ba a4 bc 5e b6 59 bd ec 66 6e 3d
       0.019068256 -0.020108227 -0.053152435 0.058203623
0003e0 f3 d9 12 3d 6d 72 1b 3e e4 d2 ef bd 12 e5 26 3e
       0.035852384 0.15180369 -0.11710146 0.16298321
0003f0 da 5d 6d 3d 83 43 07 be c9 44 e1 bd 7c 1e 96 3d
       0.057950832 -0.13209347 -0.10999448 0.07330033

weight_hh_l0 f4 [192, 64]
000000 e5 01 6c bc 2c 7a f6 3d 38 7c 94 3d 44 16 cb 3d
       -0.014404749 0.12035021 0.07250255 0.09916356
000010 69 69 dc bd de 96 94 bd 24 c3 a4 3d a2 20 32 bc
       -0.10762293 -0.07255338 0.080450326 -0.010872038
000020 4d 8e a1 3c 88 7f 89 ba 8c 67 7e 3c e4 88 55 bc
       0.019721175 -0.0010490278 0.015527617 -0.013033126
000030 fb 2c ac bd 2f 2e a7 3d 84 1e cb 3d 83 63 e6 3c
       -0.08407017 0.08163106 0.0991793 0.028123623
000040 53 5e 29 3c 31 62 e2 3b e1 11 67 3d 3a 98 1c 3d
       0.01033743 0.006908678 0.056413535 0.038231112
000050 f6 23 c3 3d b2 3a 65 3c 55 09 26 3e 45 55 4f 3d
       0.095283434 0.013991045 0.16214497 0.05061843
000060 b4 ea 93 bd ea e4 ef bb 40 62 cd bd 9e 9b dc 3c
       -0.072225004 -0.00732099 -0.10028505 0.026929673
000070 c7 54 b7 3c c6 37 f5 3d 69 47 f9 3d b4 8d 99 3d
       0.022379292 0.119735286 0.121718235 0.07497731
000080 45 97 71 3c 53 36 39 3d e7 d5 81 bd 70 d3 a5 bd
       0.014745538 0.045217823 -0.06339627 -0.08096969
000090 4f 58 aa bd ef 3e 17 bb fd 70 9b bc a3 46 b9 bd
       -0.08317625 -0.0023078283 -0.018974775 -0.09046676
0000a0 38 3d 8a bd 1a 9f bd 3b 74 b9 82 3d ce 48 0d bd
       -0.06749958 0.0057867886 0.063830286 -0.03449326
0000b0 db 9d c2 3d 58 0e b0 bd e7 80 40 3c d1 3f 0f 3d
       0.09502765 -0.08596486 0.011749483 0.03497297
0000c0 3e a6 7f bd 51 80 d4 3d 05 27 fc 3c a6 37 e1 3d
       -0.0624144 0.10376037 0.030780325 0.10996942
0000d0 45 86 10 be 28 22 5c bd 02 6f 61 bd 88 c7 d3 3d
       -0.1411372 -0.05374351 -0.055037506 0.10340792
0000e0 f3 f7 df bd 37 24 bc bd c7 23 46 3c 87 47 90 bd
       -0.109359644 -0.09186595 0.012093491 -0.07044893
0000f0 3e db 38 3d 84 47 b3 bc e6 d7 49 bd f0 c3 39 3d
       0.04513096 -0.021884687 -0.049278162 0.045352876
000100 62 8f c5 3c 34 11 f2 3d 9b 1c 0a 3d 5f 83 6d 3d
       0.024116222 0.118196875 0.033718687 0.057986613
000110 29 d2 2a be a1 5d 08 3d 77 a8 db bd bc 6e 82 bd
       -0.16681732 0.033292416 -0.107254915 -0.06368777
000120 0e e4 05 3e 26 a3 48 bc 8c e5 b0 bd ba f4 ae 3c
       0.13075277 -0.012245929 -0.086375326 0.02135693
000130 af 4b 9b 3d 01 00 16 3e e7 b9 eb 3d 1d 3b 50 bd
       0.07582795 0.14648439 0.115100674 -0.050837625
000140 64 62 a8 3d e2 bc f3 3d 5f 08 24 bd 1b 83 3c 3c
       0.082218915 0.11901261 -0.040047046 0.011505867
000150 2b 4b f2 bd 7f b2 f6 bc 95 78 0e bd e6 9d 7c bd
       -0.118307434 -0.03011441 -0.034782965 -0.06167402
000160 4b 56 b4 bd a7 4d 22 bd 41 03 e5 bd c1 0b f4 3d
       -0.088055216 -0.039624836 -0.11182261 0.119163044
000170 3b e3 ab 3d 20 09 6a 3d 17 fe fd bd c2 ff 6f bb
       0.0839295 0.05713761 -0.124019794 -0.003662095
000180 3d 9c a6 bd 1b 4e 8f 3d 53 af 0e bd 5d 39 82 3d
       -0.08135269 0.06997319 -0.03483517 0.063585974
000190 3e 2e a5 bc 2d ba 9e bd fa 3c 77 bc b7 3e 1d 3c
       -0.020163652 -0.07750354 -0.015090222 0.009597472
0001a0 30 46 ad bd d1 90 92 3d 5f 07 a4 3d e2 a1 e9 bd
       -0.08460653 0.07156528 0.080092184 -0.1140783
0001b0 b8 42 7d bd 84 26 d5 bc 00 06 07 bd ff be 1b 3d
       -0.061831206 -0.026019342 -0.032964706 0.038023945
0001c0 8f a5 13 3c 5a 56 dd 3d 4f 8b d1 3d 3a 06 0d 3e
       0.00901164 0.10807486 0.10231649 0.13771906
0001d0 d4 9c cd 3d 40 97 6f bd 7d e5 fb bc 09 ef 82 3b
       0.10039678 -0.058493853 -0.030749077 0.0039957804
0001e0 b0 64 ba 3d b9 1f 22 bd 08 a7 cb 3d ca 31 1b bd
       0.09101236 -0.039581034 0.09943968 -0.03788928
0001f0 88 12 d8 bb 4f 79 83 3d b3 3e 73 3d 35 24 b2 3d
       -0.006594006 0.06419622 0.059385967 0.08698312
000200 13 cc 73 3d c7 37 8e bd 3a b8 81 bd 56 a1 ee 3c
       0.059520792 -0.069442324 -0.063339666 0.029129665
000210 6a 1c 3e 3c 06 8e 06 be 44 15 fe bc 54 30 25 bd
       0.011603454 -0.13140115 -0.031016 -0.040329292
000220 a1 04 f4 3c bb 90 0c 3e 85 cd 4a bd 11 e7 1d 3e
       0.029787363 0.13727085 -0.049512405 0.15420176
000230 76 8f d7 3d e5 01 7c 3d 77 e9 9d 3d 7d cd fc bd
       0.1052541 0.061525244 0.077105455 -0.12343881
000240 1f f3 0b 3d 2e cc 77 bc 41 88 d4 3d 11 3a e2 3d
       0.034167405 -0.015124364 0.10377551 0.110462315
000250 fc 48 15 be 5a a6 3a bd 75 36 e5 bd 43 0f 08 be
       -0.14578623 -0.0455688 -0.111920275 -0.13287072
000260 63 e2 15 bd 3e a7 7d 3d 75 de ba 3c af c9 c1 bd
       -0.036592852 0.061927073 0.022811154 -0.09462296
000270 a1 ef cd 3c 65 29 91 bd 76 ee d4 bd 49 6c 34 3d
       0.025138678 -0.070879735 -0.10397045 0.04404858
000280 52 ff 50 bd a5 2f c5 3c 07 a8 e3 bd f1 90 ea bd
       -0.051024742 0.02407057 -0.11116033 -0.11453427
000290 d0 bc 1c bd 69 f3 aa bd f8 78 b4 bd eb 75 5b bd
       -0.038266003 -0.08347208 -0.088121355 -0.053579252
0002a0 fb 24 51 bd a8 5a e9 bd 4e 70 92 bd 46 ec c8 bd
       -0.051060658 -0.113942444 -0.07150327 -0.098106906
0002b0 79 f9 a2 3d 41 19 99 bd 27 22 6a 3c 2c 9b cd 3d
       0.079577394 -0.0747552 0.014290369 0.10039362
0002c0 4c a7 74 ba ff dd 78 bd 66 82 a2 bd 45 99 1f 3e
       -0.00093327905 -0.060758587 -0.07935028 0.15585811
0002d0 27 71 d9 3d 06 d6 d3 3d c2 68 6e bd ee ac 0f bd
       0.10617285 0.10343556 -0.058205374 -0.035077028
0002e0 d9 8a 4a 3d 12 40 f3 bd 98 ac 39 3e 77 0e 05 be
       0.04944882 -0.11877455 0.18132246 -0.12993799
0002f0 b3 83 9d 3d 84 5a 69 bd 2d b6 fc 3d 67 06 a1 3d
       0.07691135 -0.056971088 0.12339435 0.07862549
000300 f1 15 bd 3c 23 4c 42 3d ce 65 4d 3c 20 83 c6 38
       0.023081752 0.04743589 0.012536479 9.4658e-05
000310 a9 55 46 3c 89 d5 a8 bd cb db 0b be e2 5c 08 bd
       0.012105384 -0.082438536 -0.13658063 -0.033291705
000320 8d d3 a6 bd d5 7e 9d bc b4 16 0b be bb 86 58 3d
       -0.08145819 -0.019225517 -0.1358288 0.052862864
000330 12 60 ec 3d 7a a0 0a 3e e5 9c ad 3d 5c 75 e8 3d
       0.115417615 0.1353778 0.08477191 0.113505095
000340 45 0b 08 3e 26 a2 eb 3c 8c f1 85 bd 23 81 40 3c
       0.13285549 0.028763842 -0.06540212 0.011749539
000350 68 c5 95 bc e6 14 b6 3d f5 c6 ff bb f2 a4 b5 bc
       -0.018282607 0.08890705 -0.0078057 -0.022173379
000360 22 32 0f 3d 95 cf ac bc 33 8d 63 3d a0 7e 80 bd
       0.03495992 -0.021095077 0.05555458 -0.06274152
000370 95 33 33 bd 73 e8 10 be 3a 26 0d bd 82 b3 8f bd
       -0.043750364 -0.14151172 -0.034460284 -0.0701666
000380 11 7e 01 be 18 45 04 3b c1 06 1b 3d 07 dc 2e 3d
       -0.12645747 0.0020182785 0.037848238 0.042690303
000390 b5 c8 c4 bc 72 e8 11 bd 73 c6 74 bd f2 b5 b2 3d
       -0.024021486 -0.035622068 -0.05975957 0.087261096
0003a0 90 08 12 3e a1 b1 0d 3d b5 8e dc bc 4f 3e 3c 3d
       0.14261079 0.03459323 -0.026923517 0.04595786
0003b0 f7 75 e2 bd 34 79 b2 bd 4b 56 6a 3d 6b e3 2e 3c
       -0.11057656 -0.08714524 0.0572112 0.010674338
0003c0 0f 24 d7 bd 6a 38 33 3d fc f8 8e 3c 54 bd 14 bc
       -0.105049245 0.043754973 0.01745271 -0.0090783425
0003d0 1d 04 4c 3d 56 f3 c9 bd a1 18 70 3d de 8b 0a be
       0.04980861 -0.09860866 0.058617238 -0.13529918
0003e0 fe 94 6c 3d 3d 85 15 3a af 20 4c 3d 92 4a e7 bd
       0.057759278 0.0005703753 0.049835857 -0.1129352
0003f0 fc 56 65 bb 2b ca 99 bd 22 c1 b5 bd e7 29 76 3d
       -0.0034994474 -0.075092636 -0.08874728 0.060098555

bias_ih_l0 f4 [192]
000000 e9 83 5c 3a cb 54 a8 3c 7b 56 08 3e 58 70 f6 3a
       0.000841199 0.020548245 0.1331424 0.0018801792
000010 bf 60 e4 bc 55 15 0c 3e 52 bc 09 3d c2 2a 21 3e
       -0.027878163 0.13680013 0.033626862 0.15738967
000020 b2 e9 bc 3d 86 f7 fd 3d a8 67 8e bd b9 d6 29 bc
       0.09224261 0.12400727 -0.069533646 -0.010366135
000030 bc 96 c5 bd 8f 9c b6 3d 0a b9 df 3d af d8 e4 3c
       -0.09647891 0.0891658 0.10923965 0.027935354
000040 41 7b 13 bc b0 74 da 3d af db a4 3d c9 9d 2b 3d
       -0.009001554 0.106667876 0.08049714 0.041898523
000050 7b af d9 3c 79 26 1b bd 18 d2 24 bd 69 a5 16 3e
       0.026572933 -0.037878487 -0.040239424 0.14711536
000060 05 4e 12 3d 51 b0 f5 3d 21 6b cb 3d cd 58 65 3d
       0.035718936 0.1199652 0.099325426 0.05599289
000070 5e 93 a6 bd 95 b4 82 3d 0f fc 94 bd 8a 5e 97 3a
       -0.08133577 0.063820995 -0.07274639 0.001154856
000080 ba 6d 37 bd 24 f3 e2 3d 73 ad af 3d 18 f7 9b bd
       -0.044782378 0.11081532 0.08578005 -0.07615489
000090 80 0f d0 bd 82 72 f2 3d 0b bf ea 3d e5 b6 b1 bd
       -0.101592064 0.11838247 0.1146222 -0.086774625
0000a0 3c 1f 21 bd 8f b9 92 bd 56 28 dd bd bf 81 24 3d
       -0.039336428 -0.07164299 -0.10798709 0.040162798
0000b0 65 b5 43 bd da c5 46 bd 85 8e 82 3d 4e aa 33 bd
       -0.047780413 -0.04852853 0.0637484 -0.043863587
0000c0 3e dd c1 3d b9 ef c0 3d da 33 21 3e ce 77 5f bd
       0.09466027 0.094207235 0.15742436 -0.054557614
0000d0 33 5b c2 bd de 5e 2a 3d 8b fe 86 3d de e5 f0 bc
       -0.09490051 0.04159438 0.06591519 -0.029406484
0000e0 16 28 3a bd aa f6 03 3e c4 61 3c bd 82 ad bb 3d
       -0.045448385 0.12887064 -0.045991674 0.09163953
0000f0 3c 45 e3 3c a9 ea 56 bd 0a 44 e7 3d e0 b2 8d 3d
       0.027742974 -0.052469883 0.11292274 0.06918883
000100 44 16 46 bd d7 e5 42 bc 1a af 05 be c4 56 f6 3c
       -0.048361078 -0.011895618 -0.13055077 0.03007067
000110 3b 7c 22 be c1 8d 96 3d 7c 64 4b 3d 29 7d 6a 3d
       -0.15867703 0.07351256 0.049656376 0.05724827
000120 33 62 5a bd d6 d3 e9 bb cd 2f a5 3d 46 b2 82 bc
       -0.053316306 -0.0071358485 0.08065758 -0.015954148
000130 91 7f 8a bd 62 8f f6 3d 78 5c 86 bd e4 fb 28 bc
       -0.067626126 0.12039067 -0.06560606 -0.010313962
000140 b4 ce a5 3d 02 4f c4 bd d6 c3 0b 3e d0 78 a8 3d
       0.08096066 -0.09585382 0.13648924 0.08226168
000150 88 47 6f 3d f8 77 12 3c 43 1c 96 3d 7b 2f b4 bd
       0.058417827 0.008939736 0.07329609 -0.08798119
000160 61 9b ea bd c8 3d d6 3c c3 5d 6b 3d 56 2f 0c 3d
       -0.114554174 0.026152506 0.057462465 0.03422483
000170 57 4c 07 3e e1 d3 0c be ee 32 85 3b 97 75 12 bd
       0.13212715 -0.137527 0.004064909 -0.035756674
000180 d7 97 1e be 37 4f 14 be 3d 7a e1 bd fc 7d 9a 3d
       -0.1548761 -0.14483343 -0.11009643 0.07543561
000190 43 28 a8 bd a2 01 aa 3d e1 30 e7 bd f4 ab 33 bd
       -0.08210804 0.08301093 -0.1128862 -0.04386516
0001a0 11 8d c5 3d 65 48 fb 3c e0 90 34 bd 34 69 c8 3c
       0.09646047 0.030674169 -0.044083476 0.024464227
0001b0 17 64 d1 bd 26 00 19 be 36 30 de 3d ec da 82 3d
       -0.10224169 -0.14941463 0.10849039 0.06389412
0001c0 82 f8 c8 3d ff d1 43 bd 76 4f f4 3d 30 f7 46 3c
       0.09813024 -0.04780769 0.119292185 0.012143895
0001d0 68 31 13 be c1 63 65 3d 04 f9 da bd 8e 69 97 bc
       -0.14374316 0.056003336 -0.10692027 -0.01848295
0001e0 20 e0 8f bd 23 45 fe bd 66 2d ed 3d 9c 89 14 3e
       -0.0702517 -0.124155305 0.11580925 0.14505619
0001f0 46 e3 b5 3c e7 54 e1 bd 6f 47 96 3d 61 fb 05 3e
       0.022203099 -0.11002522 0.073378436 0.13084175
000200 77 8e d6 3d 87 c2 a5 3d a0 5c e1 3c 4b c3 ab bd
       0.10476392 0.08093744 0.027509987 -0.083868586
000210 52 94 e6 bd 17 fb aa 3c 01 b2 ca bd f4 cd 24 bd
       -0.112587586 0.020871682 -0.09897233 -0.040235475
000220 a7 68 7e bd 96 20 8d bd 7c d8 67 bc 4c 1c f5 3d
       -0.062111523 -0.06890981 -0.014150735 0.11968288
000230 f1 ec cd bd 73 67 16 be 2c 07 86 bd 0c d1 67 bc
       -0.100549586 -0.146879 -0.06544337 -0.014148962
000240 5f c6 0e 3d d6 c8 17 3c d5 e9 82 3c 9f 50 8e 3d
       0.03485715 0.009264192 0.01598064 0.06948971
000250 c4 b3 16 bd ba 2e c7 3d 16 83 bc 3c 3c fd 86 bd
       -0.03679253 0.09725709 0.023011725 -0.065912694
000260 14 38 ba 3d 8d 54 d5 bd 45 cb 84 bd f3 d0 a6 bd
       0.09092727 -0.104165174 -0.06484083 -0.08145323
000270 79 2c f1 bd 3a cc a4 3d b7 61 1f bd ff dc a8 bd
       -0.117760606 0.080467656 -0.038911548 -0.08245277
000280 f6 7a 8f 3d 93 e5 15 3d b9 e9 b3 3c ac 0d 71 bd
       0.07005875 0.036595892 0.021962034 -0.05885093
000290 47 79 24 bc 39 bb cb 3c 40 98 0d 3c fc 25 97 3b
       -0.01003868 0.024869548 0.008642256 0.0046126824
0002a0 eb c9 e4 3d 80 f3 09 3d a5 e6 b7 bd f0 f5 99 3c
       0.11171325 0.033679485 -0.08979539 0.01879403
0002b0 2c ad bf bd 12 83 f6 3c 22 ad ee 3c c3 2a b6 3d
       -0.09359202 0.030091796 0.02913529 0.08894875
0002c0 1d a4 a7 bd 4f 92 b4 3d df be 05 3e ab 75 b5 3d
       -0.08185599 0.08816969 0.13061093 0.08860334
0002d0 a0 4f 2b bd 94 b2 fb 3d 01 b7 b2 bd d1 af 89 3d
       -0.041823983 0.122899204 -0.087263115 0.067229874
0002e0 9b 19 f5 bd 76 99 08 3b 14 80 e9 3d e3 62 b4 bd
       -0.119677745 0.0020843423 0.11401382 -0.08807924
0002f0 a2 0b e0 3c 52 fc 10 3e bb 9e a7 bc 9b 5f a9 3d
       0.027349297 0.14158753 -0.02046143 0.082701884

bias_hh_l0 f4 [192]
000000 72 78 9d 3d 85 2d 89 bd 76 79 35 3c 81 0e 2d bd
       0.07688989 -0.06698135 0.011076322 -0.04225016
000010 3e 83 c0 3d f6 87 46 bc 83 c6 17 bd 50 fd 00 3e
       0.094000325 -0.012117377 -0.03705455 0.12596631
000020 f9 07 d7 bb 0c d8 c5 3d d4 c2 f1 3c b6 91 c4 3d
       -0.0065622297 0.09660348 0.029511847 0.09598105
000030 36 34 c0 3a 78 1a 07 bd 93 4e f5 ba d6 27 ce ba
       0.0014663998 -0.032984227 -0.0018715434 -0.0015728425
000040 80 96 ab 3d 11 bf 7a 3d 7b 81 84 bd 22 6e 74 3d
       0.08378315 0.06121737 -0.06470009 0.059675343
000050 78 8f f7 3b 7f 3c 84 3d 0e 22 07 bd 3e 85 16 3d
       0.0075549446 0.06456851 -0.03299146 0.036748163
000060 6e d4 b3 bd 46 c1 5b 3d bc f4 8f ba 3a fb 1e 3c
       -0.08780752 0.053651117 -0.0010982971 0.009703452
000070 86 ee 39 bb aa 5f 5d 3d 95 3e 5c 3d 71 55 04 3e
       -0.002837093 0.05404631 0.05377062 0.12923218
000080 ef 7c ab bd ff 12 e3 3d 38 85 2e 3e a3 1d 92 3c
       -0.083734386 0.110876076 0.17043006 0.017836398
000090 e6 86 dd bd a7 34 e5 3d 86 69 b1 bd ea 2b 06 3e
       -0.108167455 0.11191683 -0.08662705 0.1310269
0000a0 71 d9 71 bd 3c 4a e2 bc b5 3e 9b bd 86 99 32 bd
       -0.05904526 -0.027623288 -0.0758032 -0.043603443
0000b0 69 88 47 3d 10 de 93 bd 88 a9 0d 3e af 56 ff 3d
       0.048714075 -0.072200894 0.13834202 0.124677055
0000c0 75 1a 4c bd 53 24 54 bc f7 04 3c bd 54 ee 8c bb
       -0.04982992 -0.0129481135 -0.045903172 -0.004300872
0000d0 f0 7e b1 3d 69 1b a5 3d af 72 11 3e e6 43 e0 3d
       0.086667895 0.08061869 0.14203905 0.109504506
0000e0 a1 81 86 3c 6c 66 91 3b 63 4c 33 bd a7 16 7c 3b
       0.016419234 0.0044372585 -0.04377402 0.003846565
0000f0 1c 8d 0f be 7d ea a1 3d b1 71 85 bd 47 4b 5b bd
       -0.14018673 0.07906053 -0.065158255 -0.053538587
000100 cc 30 dc 3d 2e 60 3e bd 25 2c 0b 3d 3b aa 95 3d
       0.10751495 -0.046478443 0.033977646 0.073078595
000110 23 8b 51 3d d0 70 52 3d 6c d5 e9 3b 92 59 b2 bd
       0.05115808 0.051377118 0.0071360376 -0.087084904
000120 37 40 c3 bd c6 fb 22 3e 24 b5 b4 3d 00 e8 e5 3c
       -0.095337324 0.15916356 0.08823612 0.028064728
000130 5a 1d f5 3d 4c 47 dc bc 20 8e bd 3c 29 5d f7 3c
       0.11968489 -0.026889466 0.02313906 0.03019579
000140 84 49 9e 3c 6e 9f bb bb a3 33 b3 bd df 3d 96 bd
       0.019322164 -0.0057257926 -0.08750083 -0.0733602
000150 d1 ed e8 bb db 31 f9 3d 19 c3 d4 bc af 7d 77 bd
       -0.007108428 0.12167712 -0.025971936 -0.060422596
000160 6d 18 3c bd d1 9f 63 3d 77 49 01 3e 07 67 09 3e
       -0.04592173 0.055572335 0.12625681 0.13418208
000170 be ba c9 3b f3 55 b1 bd ec 42 f7 3b d8 c1 b8 3c
       0.0061562946 -0.08658972 0.0075458195 0.02255337
000180 72 c6 ed bd bb cd 63 bd 36 36 a4 3d e7 7c a6 bc
       -0.11610116 -0.05561612 0.080181524 -0.02032323
000190 88 e8 b6 3d 42 5d c7 3d d3 ba ef bd cc fd ef bc
       0.089310706 0.097345844 -0.11705556 -0.029295824
0001a0 bb 17 d5 3c 66 73 a3 bd 4f 7a ff bd df bf dd 3d
       0.026012292 -0.07980995 -0.124745004 0.10827612
0001b0 79 84 e3 bd d2 cc ef bd 43 df 90 3d 47 e8 58 bc
       -0.111092515 -0.11708988 0.07073834 -0.013238973
0001c0 67 ec 11 bd 51 af b5 bb 57 0d 6c 3c 54 ea 14 be
       -0.03562584 -0.005544581 0.014407477 -0.14542514
0001d0 e8 7e e7 bd 10 36 07 ba 7d c0 66 bd f2 3e e3 3c
       -0.11303502 -0.0005157897 -0.056335915 0.027739976
0001e0 05 1c bc 3b 37 40 9a bd 6f b3 be bd ac 4a 2d bd
       0.005740645 -0.07531779 -0.09311568 -0.04230754
0001f0 b8 80 b6 bd ef f6 fb bc 38 de 8d bc 12 d5 b6 3b
       -0.0891127 -0.030757396 -0.017317876 0.005579599
000200 6d d7 c4 3d 72 dd 92 3d 69 e0 25 3c 6a a6 a6 bb
       0.09611402 0.071711436 0.010124304 -0.005085756
000210 71 f6 8e 3d 33 eb 8a 3d 07 83 0f 3e f4 56 7e bc
       0.06980599 0.06783142 0.14014827 -0.015523661
000220 53 bb 03 3e 19 43 4c bd 0d a9 c8 bc f2 8d a4 3c
       0.12864427 -0.049868677 -0.024494672 0.020087216
000230 aa 45 0f 3e 2d 3a 1e bd 80 33 38 3b b2 23 3c bd
       0.13991418 -0.0386297 0.0028106868 -0.04593248
000240 db 84 66 bd bc a5 3d 3c db 88 9c 3d f8 82 11 be
       -0.056279045 0.011575159 0.076432906 -0.14210117
000250 4b 88 a5 bc 0a 6e 02 3e b1 59 a8 3d 15 6a 07 bd
       -0.020206591 0.12737289 0.08220232 -0.033060152
000260 77 d0 09 be 68 bf 65 3d c4 4b f2 3c 02 53 09 3e
       -0.1345843 0.056090742 0.029577143 0.13410571
000270 e9 e8 d7 3d 7a e9 62 3d bd c1 3a 3c 8f 0a f5 3c
       0.10542471 0.05539844 0.01139873 0.029912261
000280 a7 65 c8 3d 83 ce b4 3c e0 59 0c be 94 4b a6 3d
       0.09785014 0.022071129 -0.1370616 0.08119884
000290 68 e3 b3 3d e5 01 b3 bc 43 e1 a1 bd 4f 30 00 3e
       0.08783609 -0.02185149 -0.079042934 0.12518428
0002a0 b8 2a ac 3c a1 e6 26 bd cd 40 86 bd cc b2 d7 3c
       0.021016464 -0.04074729 -0.065553285 0.026330374
0002b0 83 4c d3 bd a6 e4 24 3d 42 a7 a0 bd 1f 59 07 bd
       -0.10317328 0.04025712 -0.07844402 -0.033043977
0002c0 c2 0d 97 bc 50 10 70 bd 6f 99 33 3c 72 2e 62 bc
       -0.018439177 -0.058609307 0.010961874 -0.013805019
0002d0 b0 b3 82 3d 76 85 c1 bc 75 02 b2 ba 28 ca b1 3d
       0.06381929 -0.02362321 -0.0013581055 0.08681136
0002e0 d8 5f f4 bd 17 a7 78 bd 70 1f a5 bc 80 6f 9e bd
       -0.11932343 -0.060706224 -0.020156592 -0.07736111
0002f0 e7 67 f2 bd 11 e2 71 bd 43 91 c3 bd ff d2 bc bd
       -0.11836224 -0.059053484 -0.09549191 -0.09219932

weight_ih_l1 f4 [192, 64]
000000 de cb 14 bd 43 0f ac bd ed cf 01 3e 0d cd 9a bc
       -0.036327235 -0.084013484 0.12676974 -0.018896604
000010 eb c0 c3 3d 52 8a f2 bc d4 48 8b bc a1 6b 71 3c
       0.095582806 -0.029606972 -0.0170025 0.014735133
000020 d4 c6 98 bd 5c 57 f5 bd 1a 28 a8 bb b9 4d 70 3d
       -0.074597985 -0.11979553 -0.0051317336 0.058667872
000030 83 41 71 3c f6 b5 83 bb d8 2a 88 3d 4e c3 0d be
       0.014725092 -0.004019494 0.06648797 -0.13844034
000040 c7 a2 fe bd 6b 6f 01 3d 52 e0 07 3e 6b c6 87 3d
       -0.12433391 0.031600397 0.13269165 0.06629642
000050 dd d2 01 bd 59 82 8c bc 1f 1b ba 3d 8b 29 3f 3d
       -0.031695236 -0.017151998 0.09087204 0.046670478
000060 bf 6f 20 3e f4 6e 3a bc 22 d1 57 bd 1d a8 be 3c
       0.15667628 -0.011378992 -0.05268968 0.023273522
000070 1c 02 ed bc 1a 9d 66 bc 8b 49 2d 3b 95 7c 0f be
       -0.02893167 -0.014075542 0.002644154 -0.14012368
000080 38 ec 89 3d 1f c4 af 3d d8 5a b6 bd 60 26 d9 3c
       0.06734508 0.08582329 -0.08904046 0.026507556
000090 f8 c8 08 be 75 09 ba 3d 31 10 ac 3c f3 59 56 3d
       -0.13357913 0.09083835 0.021003814 0.052331876
0000a0 a5 52 03 3e 54 70 9e bd d8 94 19 3c 0b 0f c8 bd
       0.12824495 -0.07736269 0.009373866 -0.09768494
0000b0 b7 f2 fc 3d a4 d4 3c bc 4f 98 b9 3d 1a 07 04 be
       0.12350982 -0.011525307 0.09062254 -0.12893334
0000c0 f5 0a 04 3e 86 16 0a 3e 3a 9b 72 3c bc be 67 bd
       0.12894805 0.13485155 0.014807517 -0.056578383
0000d0 cf 77 a3 bd f9 dc a1 3d b5 13 64 bd a6 fd 85 bd
       -0.07981836 0.07903475 -0.055682857 -0.0654252
0000e0 6d e3 3d 3c f8 44 ba 3c 57 72 a0 3c b6 18 24 ba
       0.011589867 0.022737965 0.019585771 -0.0006259786
0000f0 04 bf 37 bd 73 81 f7 bd cc a0 e5 bd 6c af 3e 3d
       -0.0448599 -0.12085237 -0.1121231 0.046554014
000100 9b ba 29 bd 12 18 e5 3d f5 a6 0e bd 3b cd 57 bd
       -0.041437726 0.11186232 -0.03482719 -0.052685957
000110 9a eb 2b 3d 06 2b f7 bc 52 43 ca bc 70 f2 0e be
       0.041972734 -0.030171882 -0.024690304 -0.1395967
000120 e3 24 d1 bd 41 f8 80 3b ac 4d b7 bd b6 11 ae 3c
       -0.10212114 0.003935844 -0.089503616 0.02124868
000130 10 65 33 3c f9 70 af bd 4e b0 2a 3d 0c 80 84 3c
       0.010949388 -0.0856647 0.041672044 0.016174339
000140 7d 3e 77 bd 1e ff a1 3d 91 26 86 bd a0 76 0f be
       -0.060362328 0.07909988 -0.06550325 -0.14010096
000150 d1 da d9 3d 00 e3 0f be 8f f0 c5 3d 86 88 bd 3d
       0.10637439 -0.14051437 0.096650235 0.092545554
000160 aa c7 43 3d e1 33 f0 3c ac 78 56 bd 24 5f ee bc
       0.047797836 0.029321613 -0.052361175 -0.029098101
000170 0c a2 6b bc 52 40 c6 3d 6e 93 b8 3c 1e 41 9f bd
       -0.014381897 0.09680237 0.022531237 -0.07776092
000180 58 4e b6 bd 75 0f ba 3d bf bc 02 be 55 9f 94 3d
       -0.08901662 0.090849794 -0.12767313 0.07256953
000190 da f3 82 3d 03 e9 4f bd ac 6c 38 bd 05 52 04 3d
       0.06394167 -0.050759327 -0.045025513 0.032304782
0001a0 d9 cb 99 bd 16 33 fe 3d 3b 13 08 bd bf 02 84 bd
       -0.07509584 0.124120876 -0.033221465 -0.06445836
0001b0 62 83 fb bc 0d 85 ba bd 5f f4 83 bd d2 db 6d 3d
       -0.030702297 -0.09107409 -0.064430945 0.058070965
0001c0 80 af 3b 3a 7d 54 00 3e bf ca fa 3a 7a 3d 02 bd
       0.00071596354 0.1253223 0.0019133909 -0.03179691
0001d0 d2 83 7c 3c f5 0e 0e be 64 ad 57 ba 83 77 8a bc
       0.015412288 -0.13872893 -0.00082274363 -0.01690269
0001e0 04 66 eb bd 13 e8 38 bc 0a 7d bd 3d 9b 27 44 3d
       -0.11494067 -0.0112858 0.09252365 0.047889333
0001f0 2a b0 f5 3d da 41 51 3d 92 39 1f be 9c 1c c2 3d
       0.11996491 0.05108819 -0.15549305 0.09478113
000200 ab ad 31 3d 03 53 71 bd 54 1e 14 3e cf 42 c9 3d
       0.043378513 -0.058917057 0.14464694 0.09827196
000210 9b dd ad bd d4 7b 2d 3e 81 be 02 bd f8 5d 51 3d
       -0.084895335 0.16941768 -0.03191996 0.051115006
000220 a5 43 f0 bd 5c c1 7b bd 97 39 55 bd 0c 59 ba bc
       -0.11731652 -0.0614637 -0.052056875 -0.022747539
000230 4f 30 8f bd ae e6 b3 bd 16 89 f2 bd a9 7d f8 bd
       -0.06991636 -0.08784233 -0.11842553 -0.12133343
000240 1d bf 4b 3d 82 62 8a 3d 82 87 52 3d 18 fe a9 bd
       0.049742807 0.0675707 0.05139876 -0.08300418
000250 16 a1 a1 3d 31 77 74 bd ca c6 b5 bb 17 f8 02 bb
       0.07892053 -0.059683982 -0.005547379 -0.00199843
000260 32 ea 85 3b 16 77 53 bd f2 c2 06 3d 20 03 bf 3d
       0.004086756 -0.05162724 0.032900758 0.09326768
000270 b0 de c6 3d 26 ac 12 3d 04 5c 86 3d b9 5d 3e 3d
       0.09710443 0.035808705 0.06560519 0.0464761
000280 8f 6f d6 3d 7b bb 82 3c 02 1e fa 3d 81 3c 23 be
       0.10470497 0.015958538 0.12212755 -0.15941049
000290 a9 d3 28 be 78 ca be 3c 2f 56 ac 3d 6a 55 33 bc
       -0.16486992 0.023289904 0.08414876 -0.010945657
0002a0 d2 10 ad 3d 3e 9c 84 bd 25 d7 a0 bc e4 b3 91 3d
       0.08450474 -0.06475113 -0.019633839 0.071143895
0002b0 74 ba 3c bd 69 f4 ac 3d a2 22 67 3d 4d be ac bd
       -0.046076253 0.08445055 0.056429513 -0.084347345
0002c0 79 ce 3a 3c e0 62 72 bd 55 ad a2 bd b9 83 37 bd
       0.011401766 -0.059176326 -0.07943217 -0.044803355
0002d0 52 57 84 bd cd c1 7a bc bb e1 b4 bd d7 e8 df 3b
       -0.064619675 -0.015304995 -0.08832117 0.0068331766
0002e0 07 34 31 3c ad dd 2e 3e 18 22 66 3d cb 4f 25 3e
       0.010815627 0.1707675 0.056184858 0.1614372
0002f0 c8 e1 8f bd ca cc 78 bd fb c5 8a bd 97 76 dc 3d
       -0.07025486 -0.060742177 -0.06776043 0.10764807
000300 57 f9 e5 3d bc 76 88 3d a5 1f 88 bd 91 fb 8b 3d
       0.112291984 0.06663272 -0.06646661 0.06835092
000310 4c 1c 33 3d df 07 a6 3c ce f1 3a 3d 8c 4a ad 3c
       0.043728158 0.020267425 0.04564076 0.02115371
000320 7a 8f 46 bc 1c ef 40 bd f8 51 51 3d da 85 bb 3d
       -0.012119168 -0.047103032 0.051103562 0.091563895
000330 25 a2 17 be fb d5 03 3d 3e ad 59 3d fa 18 f7 3c
       -0.14807947 0.03218649 0.053143732 0.030163277
000340 95 36 38 3d 12 ee 33 3d ab f1 53 bd ee 94 f3 bd
       0.04497393 0.043928213 -0.051744144 -0.118936405
000350 31 06 43 bd 86 8c 06 bb bd 88 11 3e c8 d5 f9 3c
       -0.047613326 -0.0020530536 0.14212318 0.030497447
000360 1f ff 7f 3d 36 3d a8 3d c8 4b 92 3d b0 55 95 3b
       0.06249916 0.082148 0.071433604 0.004557334
000370 3b 7d 56 bd 3e 3c 1f bd 68 3b 92 3c 95 a9 d5 bd
       -0.052365523 -0.03887581 0.017850593 -0.10432736
000380 ff 28 2c bd 71 27 dc 3d 23 6d 03 bd 22 c7 9e bd
       -0.042031284 0.1074971 -0.032086503 -0.07752825
000390 62 55 b8 3d 19 b3 a5 bd 50 b6 37 bd 3a 6f 4b 3d
       0.090006605 -0.08090801 -0.0448516 0.04966662
0003a0 af cb 04 3e e4 ab d4 3b 2c 82 24 3d 7c 1d c8 3d
       0.12968324 0.0064902175 0.040163204 0.09771249
0003b0 9f 49 16 3e 56 02 85 bc 0d bc 07 be eb 29 6b 3c
       0.14676522 -0.016236465 -0.1325533 0.014353256
0003c0 76 b2 1e bd b2 cc b1 3c 24 a4 3b bc 85 46 71 bd
       -0.038744412 0.021704052 -0.011452708 -0.058905143
0003d0 86 be 90 3d 48 9b 7d 3d fa e9 2c ba c5 27 12 3d
       0.070675895 0.061915666 -0.00065961445 0.03568246
0003e0 b7 3a 3b bd b4 d6 89 3d 50 14 0a 3d 2d 37 0b 3c
       -0.04571029 0.067304045 0.033710778 0.008497042
0003f0 af 6f c4 3b 80 57 a9 3d fa b4 98 3a 03 7e 1f 3e
       0.005994759 0.082686424 0.0011650615 0.15575413

weight_hh_l1 f4 [192, 64]
000000 29 b1 23 bd a1 4b 23 be e2 02 6f 3d 69 95 e2 3d
       -0.039963875 -0.15946819 0.05835236 0.11063654
000010 6d 45 28 bc 27 07 17 be 62 4b ee 3c d2 31 a0 3c
       -0.010270459 -0.14748822 0.02908868 0.019555006
000020 3a 5d b6 bd ec a3 b3 3d 44 29 e7 bb cb 5a 2f 3c
       -0.089045 0.087715 -0.00705448 0.010702799
000030 07 96 3d bd 4f 3b 1e bd b8 fb 6c 3d a3 4b a2 bd
       -0.046285655 -0.03863078 0.057857245 -0.07924583
000040 26 41 08 be bc 8c 38 3d 69 e6 01 3e 31 16 80 bd
       -0.13306102 0.04505609 0.12685551 -0.06254233
000050 ce 5a b3 bd fc db cf bd d4 67 be 3c 3a 5c 79 3d
       -0.08757554 -0.101493806 0.023242868 0.06087897
000060 c1 b5 a4 bd ad 0a ea 3d c3 3c a9 bd 66 64 d8 bd
       -0.08042479 0.114278175 -0.082635425 -0.105660245
000070 ee 75 a1 bd fc a7 76 3d d9 73 96 bd f6 49 90 3b
       -0.078838214 0.060218796 -0.07346315 0.004403348
000080 1e b0 fa 3d e8 08 e1 3d 71 d1 2a be 8f 43 c3 bd
       0.12240623 0.10988027 -0.16681458 -0.0953437
000090 5f d6 50 bd 4e 93 4f 3c 4f ee 1b 3d 9d ab d4 3c
       -0.05098569 0.0126693975 0.038069066 0.025960738
0000a0 b3 98 da bd 64 ab 1e 3e d4 97 17 3e df 11 de bd
       -0.10673656 0.15495068 0.14804012 -0.108432524
0000b0 02 ef bd 3d 19 dc c7 3d ef c4 94 bd c4 aa 0f 3e
       0.09274103 0.09758777 -0.072641246 0.14029986
0000c0 25 06 35 3e bf 81 93 3d 08 fa 7d 3d 7b dd 06 3e
       0.17678125 0.072024815 0.062006027 0.13170426
0000d0 ae 4f 9d 3d e8 44 9e 3d 13 17 92 bd 9c 11 bf bd
       0.07681213 0.077279866 -0.07133307 -0.093295306
0000e0 12 2e 13 be 81 c1 17 3e 66 a5 29 3d 1f 02 b9 3c
       -0.14373043 0.1481991 0.041417502 0.02258402
0000f0 d3 95 1d be cc 14 2e bd 27 c3 af 3d 33 66 a4 bd
       -0.15389185 -0.042500302 0.08582144 -0.080273055
000100 fc f1 d5 bd ff 26 b6 bb aa e6 81 bd 1f b3 c6 bd
       -0.104465455 -0.005558848 -0.06342824 -0.097021334
000110 ad 5a 8c bc 4b 3a 0a 3e ed ba 13 3e 78 9a aa bd
       -0.017133081 0.134988 0.14426775 -0.08330244
000120 b3 1c 27 3e dc cf e5 bd 96 ee a1 3d 68 ba d2 bd
       0.16319542 -0.11221287 0.07906835 -0.102894604
000130 8c be 0b bd 43 f7 a4 bb 24 c0 48 3d fb 0d c8 bd
       -0.034117267 -0.0050343587 0.049011365 -0.097682916
000140 25 c3 ca 3c de 9b 00 3d d9 d4 f1 bd 60 72 48 38
       0.024751255 0.031398647 -0.118081756 4.7790236e-05
000150 79 5a d3 3d 7f 1f 48 3d d5 8c 0a bc 15 c2 19 3e
       0.10319991 0.048858162 -0.008456429 0.15015443
000160 83 8e f2 bc 43 3c 36 bd 9e 7a 70 3c 45 79 c4 3d
       -0.02960897 -0.044491064 0.014677672 0.09593443
000170 74 67 06 bc d4 fa ab 3a 01 9b 86 bd 51 95 47 bd
       -0.008203376 0.0013121017 -0.065725334 -0.048726384
000180 1e c7 a5 3d 5e d1 c7 3d 0a c5 c4 bd 96 36 8f 3d
       0.08094619 0.097567305 -0.09607895 0.06992833
000190 dc 99 ce bc 51 e4 41 3d 2d b4 de 3d fb 65 8c bd
       -0.02521985 0.04733688 0.108742096 -0.06855389
0001a0 7e 77 b9 3d 67 2f 3b bc f8 9c f1 3d 9f ce 53 3d
       0.090559945 -0.011424876 0.117975175 0.05171072
0001b0 25 32 a8 3d 86 b2 85 bd e4 56 10 3d de 28 3f 3d
       0.08212689 -0.06528191 0.035239115 0.046669833
0001c0 84 0c 24 3d d3 ba 90 bd c5 85 ed 3d f0 67 94 3c
       0.040051 -0.07066884 0.1159778 0.018115968
0001d0 05 d9 dc 3d 63 ee 8c 3c b5 77 a7 3c bc 2c 7c 3d
       0.10783581 0.017203515 0.020442823 0.0615661
0001e0 a0 45 c5 3b 82 48 c8 bc 46 11 f2 bc b9 ac 2a 3d
       0.006020263 -0.024448637 -0.029549252 0.041668627
0001f0 ea 06 ad bd 8c f8 c8 bd 5f b7 04 bb df 13 8c 3d
       -0.084485844 -0.098130316 -0.00202509 0.068397276
000200 e3 0f 05 bc 0e 26 20 be 9b cf 81 3d 41 30 11 bd
       -0.0081214635 -0.15639517 0.06338426 -0.03544641
000210 63 e4 b9 3d e4 d1 0b 3c 68 bb 50 bd 7e 92 55 bc
       0.090767644 0.008533929 -0.050959975 -0.013035415
000220 e9 ce b1 bd 69 01 c5 bd f5 dc ac 3c 9c 9a 09 3e
       -0.08682043 -0.096194096 0.021101454 0.13437885
000230 c9 01 fc 3d 3c 88 8f 3d 29 18 14 3d 6d bb 9e 3d
       0.12305028 0.070084065 0.036155853 0.077505924
000240 a6 b6 68 bd ed 7e c9 3d 8b 9c b4 3d cc ff de 3d
       -0.056814812 0.09838662 0.08818921 0.10888633
000250 18 0d aa bd ba a4 90 3d 04 fd 25 3d f5 a8 90 3d
       -0.08303279 0.07062669 0.040524498 0.07063476
000260 89 7a 83 bd 31 ba 55 bd 16 84 b6 bd 49 26 86 bc
       -0.06419856 -0.05217952 -0.08911912 -0.016375678
000270 c9 b2 03 be 8b 84 ca bd 34 06 e0 3d e4 56 d0 3d
       -0.1286117 -0.09888562 0.10938683 0.10172823
000280 7c 4f 8a 3c bf 0d 32 bd e2 a2 c9 bd d9 f3 5c bd
       0.016883604 -0.04347014 -0.098455206 -0.05394349
000290 c3 dc bc bd 60 16 99 bd f4 ca b3 bc 3e 19 08 bd
       -0.092217945 -0.07474971 -0.021947362 -0.033227198
0002a0 d9 88 e0 bd 2d 70 d2 bc 72 04 d8 3d 78 79 40 3d
       -0.109636016 -0.025688255 0.10547723 0.04699084
0002b0 5b 78 8b bd 26 93 d3 3d 94 e6 95 bd 76 b8 ac bd
       -0.06810065 0.10330801 -0.0731937 -0.08433621
0002c0 7a 25 8d 3d 1e e3 b3 bd 96 5e 01 bd cd 31 2d 3b
       0.06891914 -0.087835535 -0.031584345 0.0026427389
0002d0 6e 6f 1c bc 9b c8 b5 3d 33 58 5a 3d 45 4c 13 be
       -0.009548051 0.08876153 0.05330677 -0.14384563
0002e0 40 11 b3 bd 41 f8 12 be 8b 97 e3 bd 9d d3 9b 3b
       -0.087435246 -0.14352514 -0.11112889 0.004755451
0002f0 ba 57 ee bd c9 56 c1 bb 7f 87 b8 bd dd e7 21 3d
       -0.11637826 -0.005900238 -0.09010219 0.039527763
000300 30 36 17 be 22 0d db 3c d6 13 8d bc e8 39 f6 bd
       -0.14766765 0.02673966 -0.017221373 -0.120227635
000310 06 2c ad 3c ed bb 99 3d c5 72 1f 3e 93 9b 23 bd
       0.021139156 0.07506547 0.15571125 -0.03994329
000320 dc 54 02 3e 3f de 52 bc fd a1 b1 bd 7f 0c 21 be
       0.12727684 -0.01287037 -0.08673475 -0.15727423
000330 b6 eb 98 bd e3 54 d9 3d 11 7e b5 bc 16 6b 9d bd
       -0.07466833 0.10611894 -0.02215484 -0.07686441
000340 2d f8 ad 3d 65 08 e9 bc 33 23 c4 3d 02 27 16 3d
       0.084946014 -0.028446386 0.09577026 0.036658294
000350 fe f2 eb 3d 26 79 84 bd 14 7e 80 3d f6 12 79 3c
       0.115209565 -0.0646842 0.062740475 0.015202275
000360 63 97 9d bd 76 a5 01 be 2a a9 4d bd 62 6e 79 3b
       -0.0769489 -0.12660775 -0.050210156 0.0038060178
000370 68 36 8f 39 bb 08 ad bc a8 a0 0b be 2c a2 ee 3d
       0.0002731562 -0.021122327 -0.13635504 0.116520256
000380 ef c4 03 bd 34 2d 31 bd b7 69 eb bd 76 40 97 3c
       -0.032170232 -0.043256 -0.11494773 0.018463355
000390 1d cc af 3d cc 48 66 3d 6e d5 48 bb 92 17 2f 3e
       0.085838534 0.05622177 -0.0030644792 0.17098835
0003a0 97 e4 e5 bc eb 10 c1 bd 72 ab 73 bd ca f0 80 bd
       -0.028063102 -0.09427055 -0.059489675 -0.06295927
0003b0 6f 22 f8 3d e1 52 76 bd 95 d3 fd 3c a4 e7 b3 bd
       0.12115943 -0.060137633 0.03098468 -0.08784416
0003c0 ef b5 10 bd b3 fa 40 3d 40 d9 a0 bd ec cd 9f bd
       -0.035329755 0.047114085 -0.07853937 -0.07802948
0003d0 28 0b a7 bb 8d 81 d6 bc 6b 88 f2 3c 0e 6d 57 3d
       -0.0050977655 -0.026184822 0.029606065 0.052594237
0003e0 35 74 17 3d 66 92 81 bd 1b 56 9c 3c 87 f4 17 3e
       0.036976058 -0.063267514 0.019084027 0.14839374
0003f0 2b 91 d6 bc 33 00 84 3d dc a3 41 39 a4 2d d2 3d
       -0.026192268 0.064453505 0.00018466957 0.102626115

bias_ih_l1 f4 [192]
000000 61 28 a8 3d f0 81 37 bd 02 97 36 bd a6 d0 9b 3d
       0.08210827 -0.044801652 -0.044577606 0.07608156
000010 d0 56 b9 3d cf 4f 88 bd c6 3e 68 3d 90 f3 e5 3d
       0.09049761 -0.06655847 0.05670049 0.112280965
000020 d8 69 56 3d 71 ec 0d 3e 26 13 b8 bd 51 8e ae ba
       0.052347034 0.13859726 -0.08988027 -0.001331756
000030 de 07 dd 3d a1 f6 21 3d c9 1e f4 3d 60 e3 56 bc
       0.10792516 0.039541844 0.11919934 -0.013115734
000040 06 76 a7 bd 1e b6 70 3d 86 88 36 3d a6 41 85 bd
       -0.08176808 0.05876743 0.044563793 -0.06506662
000050 91 f1 2c 3d c8 b8 ba bd 04 fe 03 3b bd 8d 48 3d
       0.042222563 -0.091172755 0.0020140419 0.048963297
000060 08 f9 c7 bd f0 87 e5 3d e1 a2 59 3c 4e ea 36 3b
       -0.09764296 0.11207569 0.013283462 0.0027910653
000070 c0 e3 77 bd 7b 4d f5 3d a0 a1 96 3d 17 e3 37 3c
       -0.060519934 0.11977669 0.07355046 0.011223576
000080 80 08 c6 bd 9e 8c ba 3d b3 a5 96 bc e6 9c 7c 3d
       -0.0966959 0.09108852 -0.018389558 0.061673068
000090 3b 39 a0 bd f9 6f 00 bd 1e da a5 bd cb ab e9 bc
       -0.07823416 -0.031356785 -0.08098243 -0.0285243
0000a0 51 0c 0b be 2e 58 71 3c 59 81 c9 bb cb bf ef 3c
       -0.13578917 0.014730496 -0.0061494526 0.029266259
0000b0 55 64 6b 3d 19 ba 52 3d bf 49 43 bb 5c df 29 bd
       0.05746873 0.051447008 -0.0029798595 -0.041472778
0000c0 aa 2d 84 bd 82 8f ea bc 05 5f 06 bd 22 63 d7 3d
       -0.06454022 -0.028632883 -0.03280546 0.10516955
0000d0 2d 74 cb bd 47 35 16 3e e8 70 38 3d bd 97 8f bd
       -0.09934268 0.14668761 0.04502955 -0.07011364
0000e0 78 28 f5 bc 6c 6e bb bd 79 61 13 3e b0 0e b9 3d
       -0.029926524 -0.09151921 0.14392652 0.090360045
0000f0 ab 12 5f 3d 9f 23 bd 3c d3 64 dc bd ea 82 f8 3d
       0.054461163 0.023088275 -0.10761418 0.12134345
000100 9c 89 90 bd 14 c8 16 be 3e b1 af bc b9 e0 10 be
       -0.07057497 -0.14724761 -0.02144682 -0.14148225
000110 f9 81 d9 bd 49 cb a2 3b f3 74 84 3d 51 69 c0 3d
       -0.106204934 0.004968081 0.06467619 0.093950875
000120 f4 d7 fa bd 81 da ae ba 28 5e be bd 64 05 d6 3b
       -0.12248221 -0.0013340266 -0.09295303 0.0065314043
000130 4a 69 4f bd be 63 26 3c 78 d9 d6 bc 08 e4 1d be
       -0.05063752 0.010155616 -0.026226744 -0.15419018
000140 38 34 71 bd 92 39 0c be 1d 6d c6 3c 5a 4f 10 bd
       -0.05888769 -0.13693836 0.024221951 -0.035231926
000150 3d c6 21 be 22 2b 89 3d 8c 5c 61 3d bb 53 24 3b
       -0.15798278 0.0669768 0.0550199 0.0025074321
000160 27 20 96 bd 86 78 94 3d 3e 57 62 bd 8d cd 83 bd
       -0.07330351 0.072495505 -0.055258982 -0.0643569
000170 18 5f 6d 3c c9 c3 80 3d e7 03 cc bd fd da b0 3c
       0.014488004 0.06287343 -0.09961682 0.021588797
000180 82 ad 89 3d b8 33 a2 bd 90 05 18 bb 9d b8 44 3d
       0.06722547 -0.07920021 -0.0023196675 0.048027623
000190 b0 4d c6 bd cb 81 92 bd 44 05 93 bd f1 f3 09 3d
       -0.096827865 -0.07153662 -0.07178739 0.033679906
0001a0 19 d2 96 3c ae 5d 5b 3d b3 0d a0 3d 09 14 c2 3d
       0.01841073 0.053556137 0.07815113 0.09476478
0001b0 8e 79 17 be 68 81 b1 3c 91 89 1a bd 53 be 1b 3d
       -0.14792463 0.021668151 -0.03772885 0.038023304
0001c0 07 24 f5 3d 5a 8e b4 bd 0b 91 6d bd 1c 01 b2 bd
       0.11969762 -0.08816214 -0.057999652 -0.08691618
0001d0 23 4d 75 3d 2c 70 d7 bd 5a 6a 37 3d e6 94 0e 3d
       0.059888016 -0.10519442 0.04477916 0.03480997
0001e0 35 1c d9 bd 77 3e 48 3d 4e 6c 11 3c 0d d9 ad bd
       -0.10601083 0.048887696 0.0088759195 -0.08488665
0001f0 20 06 1b bc 19 25 e5 bd 56 45 92 3c a6 08 8b 3b
       -0.0094619095 -0.111887164 0.017855328 0.0042429743
000200 30 c5 78 3b c9 99 20 bd 4b 00 ab 3d 72 ef 06 bb
       0.003795933 -0.03920916 0.08349665 -0.0020589498
000210 51 c8 c0 bc 76 31 bb bd 7e 68 90 3d d5 33 9a bd
       -0.023533018 -0.09140293 0.0705118 -0.075294174
000220 dd 17 0f 3e b3 73 d7 3c 30 99 84 3d be 09 0b be
       0.13973947 0.026300287 0.06474531 -0.13577935
000230 a7 6b df 3d cb 8e a0 3d 39 31 0e be 25 dd 33 bc
       0.10909205 0.078397356 -0.13885964 -0.010978018
000240 74 04 ac bd 41 b4 9c bd 7b e9 56 3d 13 00 74 3c
       -0.08399287 -0.07651568 0.052468758 0.014892596
000250 a3 62 e7 3d 2d d5 ec bc 3f 05 09 be be 46 aa 3d
       0.1129811 -0.028910244 -0.13380907 0.08314274
000260 3d 31 7c 3d b6 18 40 bd 60 37 bb bd cf 8b 1f bc
       0.061570395 -0.046898566 -0.09141421 -0.009737923
000270 ec 7a bc 3d 25 16 09 bd 48 db e5 bc c6 d7 db 3d
       0.09203133 -0.033468384 -0.028058663 0.10734515
000280 3d 58 46 bd 37 89 38 3c aa 0c c6 bd 31 01 b3 3d
       -0.048423994 0.011263183 -0.09670384 0.087404616
000290 ee 4f 04 3e bf c1 d4 3c b0 60 02 bd 92 ef ac 3b
       0.12921116 0.025971292 -0.03183049 0.0052775824
0002a0 cb 9e 84 bc d3 4c 40 bd 03 89 c6 3d 8a 7b 17 3e
       -0.016189 -0.046948265 0.09694102 0.1479322
0002b0 93 46 ee 3d 4b a0 c1 bd 87 b4 c1 bd 7b d9 21 3d
       0.11634555 -0.094544016 -0.09458261 0.039514046
0002c0 9b 7a 15 3e bd 46 4a bd ff ff c7 3d bd 0a 50 bd
       0.14597552 -0.049383868 0.09765624 -0.05079149
0002d0 e8 b2 ea 3d b0 bb c5 3d 51 9c 89 3d 5f b1 5b bd
       0.11459905 0.09654939 0.06719268 -0.05363595
0002e0 d7 b3 22 3d dc b3 6b 3d 6f 07 0a 3e 46 e0 81 3c
       0.03972229 0.057544574 0.13479398 0.015854012
0002f0 dd 0a db bd 00 3c f1 bd 36 2b b7 3d 7a af 08 bd
       -0.106954314 -0.11779022 0.08943789 -0.033370472

bias_hh_l1 f4 [192]
000000 3f 29 a9 bd 84 a0 09 3e f5 bd c1 3d fe 57 84 bc
       -0.0825982 0.13440138 0.094600596 -0.01615524
000010 96 64 6f bd 22 a6 98 3d 84 b1 aa bc 8a 68 2e bd
       -0.058445536 0.07453562 -0.0208366 -0.042580165
000020 02 1f 52 bd 94 98 06 bc 1c 5d f5 bc 65 97 98 bd
       -0.051299103 -0.008215088 -0.029951625 -0.07450751
000030 a0 7c 4e 3d fc 72 6a bd ad cf e8 bc 55 7e 1c 3e
       0.05041182 -0.057238564 -0.02841934 0.15282567
000040 31 a9 c5 3d c5 43 8c bd ba 95 94 3d 21 66 e9 3c
       0.09651411 -0.068488635 0.072551206 0.028491082
000050 88 f7 0f 3d fe 28 e7 3d ed 3f 03 3d 4d dd 81 bd
       0.035148174 0.112871155 0.032043386 -0.06341038
000060 35 86 0b 3e f0 0c cf 3a fb 9c 33 bd a3 db 27 3d
       0.13625415 0.0015796702 -0.04385088 0.040980946
000070 f3 15 8a 3d 8c 4e da bc bc 9d b3 bd bc 27 3d bc
       0.06742468 -0.026648782 -0.0877032 -0.011545118
000080 41 4a c5 bc e1 05 ea 3d dc 6b 1a bd ef ca a2 bc
       -0.024083259 0.114269026 -0.03770052 -0.019872157
000090 fd 13 4b bc a8 6c 7a bb 66 10 97 3d 8c f0 da 3d
       -0.012394902 -0.0038211737 0.07376175 0.10690412
0000a0 4b 08 a2 3d 83 d4 7e 3d bc 58 a1 bd ca f5 ab bc
       0.07911738 0.062214386 -0.07878253 -0.020991225
0000b0 a2 1a 02 3e ba 20 21 3e 6b 5b 91 bc 9e 78 9e bd
       0.12705472 0.1573514 -0.017743787 -0.0773785
0000c0 d5 fa 3b bd e0 3a c5 bb aa 16 fe 3d 41 b5 31 bc
       -0.04589351 -0.0060189813 0.124066666 -0.010846437
0000d0 7d 5e d9 bd dd 94 26 3e 64 da 58 3d 29 64 8b 3d
       -0.10613725 0.16267724 0.05294265 0.068062134
0000e0 51 cc 21 3e cf d0 e6 bd 44 79 17 bd 71 6d 8c 3d
       0.15800597 -0.11270296 -0.036980882 0.06856812
0000f0 62 24 11 3e 6b a0 0d 3e f3 70 d6 3d a7 31 a1 bd
       0.14174035 0.13830726 0.10470762 -0.078707986
000100 e8 01 15 3d 63 dc d2 bd 01 b5 32 be a1 34 9f 3d
       0.03637877 -0.10295942 -0.1745186 0.0777371
000110 b7 33 fa bd 82 d0 a4 bb ec f2 d3 bc 2a 38 00 be
       -0.12216895 -0.005029739 -0.02587267 -0.12521425
000120 e8 ce bc bd 36 27 22 3d d5 53 b2 bd b6 69 a1 bd
       -0.09219152 0.039588176 -0.08707396 -0.07881491
000130 cb 93 b8 bd aa 34 a3 3d 68 a7 ab bd c2 65 31 3d
       -0.09012564 0.07969029 -0.083815396 0.043309934
000140 ae 53 22 bd 04 d5 2a be 12 5c 35 be 73 e2 7b bd
       -0.039630584 -0.16682822 -0.17710903 -0.061495256
000150 a6 57 37 3d 4f 22 34 3e 28 71 56 3d 37 63 f1 bd
       0.044761322 0.17591213 0.052354008 -0.11786502
000160 67 65 5a 3d b3 7d 88 bc a0 8f 26 3b c1 63 8c bd
       0.05331936 -0.0166615 0.0025415197 -0.06854964
000170 89 ad c0 3d d3 03 46 bc 70 a2 e5 bd 88 4e 38 3d
       0.09408099 -0.012085873 -0.11212623 0.04499677
000180 8c 78 2e bd c4 60 92 bd 16 36 d8 bd 60 c9 d7 3b
       -0.04259543 -0.07147363 -0.10557191 0.006585285
000190 45 48 47 bd 89 bf 24 3e 38 d4 e4 bd cd 44 c8 bd
       -0.048652906 0.1608869 -0.1117329 -0.09778748
0001a0 0f 89 03 be 4a d7 a6 3a 6e 66 54 3d e9 8b 4f bc
       -0.12845252 0.0012728956 0.051855497 -0.0126676345
0001b0 fe 27 d9 bd 95 82 da bd e3 32 a7 bc cd b9 1d bd
       -0.10603331 -0.10669438 -0.020410007 -0.03850727
0001c0 22 4f 86 3c 0d e6 3d bd 67 24 fa bc f3 3e 22 be
       0.016395155 -0.04636197 -0.030534936 -0.15844326
0001d0 15 cc 1a be 60 3e a1 bd 16 5c 39 3d ca dd bc 3d
       -0.15116914 -0.07873225 0.045253836 0.092219904
0001e0 9c 2c b3 3d 0a 54 83 3d ca 0b c4 bd 87 c5 c8 bd
       0.08748743 0.064125136 -0.09572561 -0.098033
0001f0 fc 0d ec bb b4 ca 11 be c2 5e 85 3d 0e a7 ec bd
       -0.0072038155 -0.14237481 0.06512214 -0.11555301
000200 d9 f0 b8 3b 6a 41 a0 3d c0 82 1a bd 26 26 27 be
       0.0056439457 0.07824977 -0.03772235 -0.16323146
000210 57 87 2b bd 3e 6e b2 3d 52 0f 6e 3d 45 a6 04 be
       -0.041877117 0.08712433 0.05812008 -0.12954052
000220 1d c7 07 3d 06 9f 02 be d3 d2 11 be 55 38 e5 3d
       0.033148874 -0.12755975 -0.1424058 0.11192385
000230 be e5 26 bd 90 d9 8a 3d 78 3d 11 be 8a 33 5a 3c
       -0.040746443 0.06779778 -0.14183605 0.013317952
000240 f0 14 37 3d 49 8b 3c 3c a7 f6 e6 3d 8c db f6 bc
       0.044697702 0.011507818 0.11277514 -0.030133985
000250 e7 a9 92 bd 66 00 6c bd 9b d5 86 3c 69 17 e3 ba
       -0.071613126 -0.057617567 0.016459277 -0.0017325702
000260 3e 59 c9 3d 28 52 3e bd b9 a5 d4 3d 5f 65 30 bd
       0.09831475 -0.04646507 0.103831716 -0.043065425
000270 0f ae 58 3d e9 50 5b bd 13 b1 90 3d 36 af fd 3d
       0.05290037 -0.05354396 0.07065024 0.123869345
000280 e6 ba 85 3d e9 5d c2 bd 7d 43 4a bd 78 4f 74 3c
       0.06529789 -0.09490568 -0.049380768 0.014911525
000290 53 f0 48 bd 21 24 0c 3e 65 22 4e bd 83 b3 c7 bd
       -0.049057316 0.13685657 -0.05032577 -0.09751036
0002a0 d0 a6 ce bd 2e 8e ad bd 63 7b ac bd 01 4c eb bc
       -0.10090411 -0.08474384 -0.08421972 -0.028722765
0002b0 5b 11 9c ba 44 33 52 bd 5c 2a 54 3d e2 00 d9 bd
       -0.0011907028 -0.051318422 0.05179821 -0.105958715
0002c0 2e c0 28 3d e8 e0 ff bc f3 cf d9 3d d5 36 d9 3d
       0.0411989 -0.031235173 0.10635366 0.106061615
0002d0 4d 71 ce 3d be 07 30 bd 98 18 7c 3d 50 b7 fd bd
       0.10080204 -0.042976134 0.061546892 -0.1238848
0002e0 f8 02 9c 3d af 42 17 3c 3b 8a b1 bd b0 6b f6 bb
       0.07617754 0.009232207 -0.086689435 -0.0075201616
0002f0 32 09 a8 3c 9e 44 f6 bd d8 2d 18 3d 96 db 00 3d
       0.020512197 -0.120248064 0.037153095 0.031459413
