Baseline_systems/SoMS/models/SoM_GRU_42/87_0.pth (torch, 189071 bytes, 8 tensors)

weight_ih_l0 f4 [192, 46]
00000000: 3642 1a3d cabb 083e 2646 e6bd 1db2 103e
00000010: e6e5 873d bc4f 983d 98dd 38bc 6d1f 49bd
00000020: 69e3 b33d bb95 c63c e2b0 cb3d d68e 4e3d
00000030: 9fa2 b0bb a3cd 673d fdd3 a0b9 fe8d f0bd
00000040: b029 b93d c14d 36bc d933 c9bc 2fe6 39bd
00000050: 9c75 d73d 4783 b73d f8d7 7d3d 1922 94bc
00000060: 52cb 2f3d 2bfb 54bc 8b37 403d f0c4 1f3d
00000070: 3ec7 a3bd dc47 50b9 7d45 843d 90da 443e
00000080: ea80 cb3d 6e4a ea3d 1242 3f3d 6ffa 1cbd
00000090: 448f fdbc a022 a93d 8379 fd3d 9f3c 23be
000000a0: 4da0 353e 04e9 c1bc 356f ca3d 4072 15be
000000b0: 6209 03be bc58 82bd 7a84 b5bd 8f9c d73c
000000c0: 4eb9 1dbd 3996 253d 31f5 8a3d 8ade 763d
000000d0: 4b94 eb3d a87f d1bc fbd0 cf3d 67f8 873c
000000e0: 9cfd 823b 0c80 4d3d ea04 cbbd 3373 19bd
000000f0: 034f e63d f928 71bd 03d1 ebbd 325f ab3a
00000100: deac c73d 81a6 233b 88fe 3d3d 134d 04be
00000110: b615 773d bf74 85bb 2d6f 4dbd 683e e7bd
00000120: 74b2 ec3b 3071 c03c 402e 0b3e 26e9 af3d
00000130: 985d 66bd f1a9 053e 955d 783c dbc2 013d
00000140: e354 f4bd 0b94 d83c fc00 9fbd 4003 e43d
00000150: 258e 863d 874e d3bd 1a5c d53d 792f 5ebd
00000160: 0219 e9bd 2ed1 a6bd b9ab 263e 1761 353b
00000170: c9c0 373c f712 bcbb 2bbf 39bd ec89 a1bd
00000180: c24d b23d f3bb afbd 7a4d bcbd f114 df3d
00000190: e9bb 74bc b3b3 02be 9b8a 04be dcfd 4abd
000001a0: 1fcc a43d 35f3 d33d 2aa4 9b3d 7fd9 6d3d
000001b0: 35a2 c5bd 95c3 b83d 68b9 f73c fd1a 55bd
000001c0: 5cc6 843b 2fd9 c9bd ed46 54bd f6c4 a8bd
000001d0: 310c 383d a9a4 bf3d 9add 97bd 690a 093d
000001e0: 2c6b 1d3e 5b24 bf3d a0bd 503d cb8a 7a3d
000001f0: 7037 bdbd 8f94 7ebd 97d2 cabd bc7f 3a3d
00000200: cc84 babd 70a7 d33d 925b a03d a414 ae3d
00000210: 3402 8f3d 9907 973c 2946 5a3d f5e7 993d
00000220: 6676 023d 66c2 85bd d54b 8abd 6113 7fbc
00000230: 9cb1 d63c 2791 a43d 3722 113e 42e2 cc3d
00000240: 0909 923d 2a45 263c 3ced 7b3c 9a24 0b3e
00000250: 121b 24be d5d2 173d be69 f63d 9026 41bd
00000260: 783a f9bd cb76 d83d 7365 833c cd3c eb3b
00000270: 39ed 0c3d 47e6 d2bd 47e1 26be a590 12bd
00000280: f241 9d3c 1ef3 99bc 6ec3 b73c 89e4 ab3d
00000290: 1e08 94bd a7f5 e63d 1667 883d cae9 bd3c
000002a0: aa89 59bc ebd2 95bc ab6e bb3d b38a b3bd
000002b0: 2e70 23be 2572 77bd fa2f a4bd 8199 2bbd
000002c0: da95 a23c de88 68bd e008 df3d 8dfe d3bd
000002d0: 9608 04be 2593 06be 01b0 7abd f6fd 03be
000002e0: 9642 0bbe 9427 9a3d 6c5b b73d 1ec0 adbb
000002f0: a95c 343d ef79 89bd e7e6 8c3d fb3a e93d
00000300: ac9b 67bd f0ee 113e f976 51bd 2fe4 853d
00000310: bdc3 4fbd d304 1e3d f63c 6a3d e779 563d
00000320: 2e39 843d 2378 09bd 8ab8 63bc f924 c53d
00000330: 6c5f 993c e54f 343d 291e d63c adf8 0abe
00000340: fa84 073c 1fea 27be 65fb bdbd 1661 503d
00000350: 7ced 34bd 58f3 0c3d b6e6 e9bd b251 18be
00000360: a055 81bc 85c1 2fbe 6e4f 30bd d293 c1bc
00000370: b56f 2bbe 233b bf3d cec8 043e 6865 dc3c
00000380: 5db5 08be 2b9b af3d 6403 a2bd 4045 09bd
00000390: 76c9 d73a 1bd3 35bd dd75 27be fb2f 08bb
000003a0: 0cf2 ee3d e71d a4ba 4e91 babd 72d6 fabd
000003b0: fe37 0fbe ce93 893d 0bd6 edbc 1e30 4ebb
000003c0: 17d4 743c e26b ad3d eab7 673c cecd e6bd
000003d0: b4eb 7e3c bc79 95bc 252e 57bd a50d 773d
000003e0: 740c 053d 9b1d 1d3e f2aa f6bd 1cda 273e
000003f0: 6254 613d 7ef5 07be 0a61 e4bd 5ae9 953d
0.0376608 0.13352886 -0.112438485 0.14130445 0.066356465 0.07437083 -0.011283301 -0.049102236
0.087836094 0.024241319 0.09945847 0.050429188 -0.0053904797 0.056592595 -0.00030675522 -0.11745833
0.090411544 -0.011126936 -0.024560856 -0.045385536 0.10520479 0.08960586 0.061973542 -0.018082665
0.04291851 -0.012999336 0.04692797 0.039006174 -0.07996987 -0.00019863195 0.06458566 0.19224
0.09936698 0.114399776 0.04669387 -0.03832477 -0.030952103 0.08258557 0.12376692 -0.15941094
0.17736931 -0.02367068 0.09884492 -0.14594364 -0.12796548 -0.06364581 -0.088631585 0.02631977
-0.0385068 0.040426467 0.06785048 0.060270824 0.11502894 -0.025573567 0.10147282 0.01659794
0.0039975177 0.050170943 -0.09913047 -0.03746338 0.11245539 -0.058876965 -0.11514475 0.0013074635
0.09749769 0.002497107 0.046385318 -0.12920026 0.06032344 -0.004072755 -0.050154854 -0.112912
0.0072234217 0.023491472 0.13591862 0.085893914 -0.0562416 0.13053109 0.01515903 0.03167997
-0.11930253 0.02643778 -0.0776386 0.111334324 0.06570081 -0.10317712 0.104179576 -0.054244492
-0.11381723 -0.081453666 0.16276444 0.0027676278 0.011215397 -0.0057395655 -0.045348328 -0.07887635
0.087062374 -0.0858077 -0.09194465 0.10892666 -0.014937379 -0.12763862 -0.12943499 -0.049558505
0.080467455 0.103491224 0.07599671 0.05806875 -0.09650079 0.09021679 0.030239776 -0.05202769
0.0040519666 -0.098558776 -0.051825453 -0.08240692 0.0449335 0.09357578 -0.07415314 0.033457194
0.15372914 0.09333106 0.05096209 0.06116752 -0.092390895 -0.062153395 -0.09903448 0.045531973
-0.0910736 0.103346705 0.07829966 0.08500031 0.06982842 0.01843624 0.053289566 0.075149454
0.031851195 -0.06531219 -0.06752745 -0.015568585 0.026207738 0.08035498 0.14173208 0.10004093
0.071306296 0.010148326 0.015376385 0.13588181 -0.16025952 0.0370663 0.120318875 -0.047155917
-0.12169355 0.10569533 0.016039586 0.007178879 0.03440592 -0.10297828 -0.16296874 -0.035782475
0.019196484 -0.018792685 0.022432055 0.08393199 -0.07228111 0.11277323 0.06660287 0.023182768
-0.013277451 -0.01828905 0.091519676 -0.08766689 -0.15960762 -0.06041159 -0.08016963 -0.04189444
0.019846845 -0.05677115 0.10890365 -0.10351286 -0.128939 -0.13142069 -0.061203007 -0.12889847
-0.1359962 0.0752708 0.08952984 -0.005302443 0.04403368 -0.0671271 0.068799786 0.11388203
-0.056544945 0.14251304 -0.05113885 0.06537663 -0.05072378 0.03857882 0.057187043 0.05236235
0.06456219 -0.033561837 -0.013898978 0.096261926 0.018722259 0.044021506 0.026137428 -0.13571425
0.00827145 -0.16397904 -0.09276465 0.05087384 -0.044171795 0.03441176 -0.11420958 -0.14874914
-0.0157879 -0.17163666 -0.0430445 -0.023630057 -0.16741832 0.09337451 0.12967226 0.026903823
-0.13350435 0.08574518 -0.07910803 -0.033513308 0.0016463238 -0.04439078 -0.16353555 -0.0020780552
0.116672605 -0.0012521119 -0.09109746 -0.122479334 -0.13986203 0.06717645 -0.029032728 -0.0031461786
0.014943144 0.08467843 0.01414297 -0.11269723 0.015559126 -0.018246524 -0.05253424 0.060315747
0.03248258 0.15343325 -0.12044324 0.16391796 0.055012114 -0.13277242 -0.11151321 0.07319899

weight_hh_l0 f4 [192, 64]
00000000: eafe 68bc 73df f03d 238d 833d 1fa4 dd3d
00000010: 1d2b dcbd 9b15 94bd 15cb aa3d 8352 65bc
00000020: 1c1f c63c 73fa efbb 281a 553c 2ec1 91bc
00000030: 26bb a8bd a3f4 9f3d af56 c33d 5846 073d
00000040: f61a 953c fafa 4c3c aaa1 733d 1582 443d
00000050: a7ef cd3d a73e 553c 3691 243e 0f3b 423d
00000060: 0012 93bd b6c6 e2bb e809 d4bd d6b2 053d
00000070: 6887 c43c 85ef f13d b3ac 023e 12d6 923d
00000080: 3339 863c 4655 453d 89fa 69bd 06a1 a9bd
00000090: 9c39 a0bd b761 83bb 85d4 a4bc 2326 b5bd
000000a0: 8c19 7ebd 8935 b03b 3822 7d3d f233 00bd
000000b0: 84c3 b73d 42c9 afbd ca43 8e3c 5e49 f33c
000000c0: d0ab 89bd 4e2e da3d 414d 143d feb4 e13d
000000d0: cedd 11be 2396 44bd 6eb8 4bbd 0eee d93d
000000e0: 5b68 d0bd d7d5 b4bd 8412 6d3c 3892 82bd
000000f0: bc9e 433d 880d 89bc aa48 45bd 88d9 3e3d
00000100: d712 143d 163f ed3d a5ea d33c 422b 803d
00000110: 2c1c 31be 486d ca3c a490 d9bd 8d73 83bd
00000120: fa88 063e e989 57bc bc36 acbd 0cc1 b03c
00000130: 44cb ac3d a858 153e 09c7 e93d ff3a 4cbd
00000140: 1990 c33d f55f 003e 41d4 e3bc f5f1 5c3c
00000150: b39b e9bd 02a2 02bd 9ae9 e8bc f281 7bbd
00000160: 1f07 bcbd 5c00 2cbd c0e0 eabd eafd fd3d
00000170: 4f23 a03d 2f16 633d 798f f9bd bf30 89bb
00000180: 7832 abbd ea6c 8f3d 048d 17bd 1ed3 773d
00000190: 1672 87bc e49b 97bd 367a 3ebc d683 1c3c
000001a0: 29e5 aebd e8b1 a33d 0a9f a73d 56c0 e9bd
000001b0: 490f 87bd 27ee e2bc 439a 03bd bfd7 193d
000001c0: 472f 27ba 2c63 dd3d 2537 d43d 57c3 103e
000001d0: e0a4 d53d 4506 66bd 19cd 05bd 4e38 bb3b
000001e0: 6c71 ba3d c50a 29bd 7562 d13d 7c63 23bd
000001f0: f6aa acbb 4654 893d ac95 783d e426 ba3d
00000200: 7b91 723d 1ce2 99bd 8cba 7dbd 4e24 043d
00000210: 3a15 203c c6d1 0bbe 585b 04bd 68d6 1dbd
00000220: 6f7b f23c 5687 0b3e 9f54 45bd 85a3 1e3e
00000230: 33a6 ea3d 7c5b 7e3d f0dc 9e3d 10ad fcbd
00000240: 14f8 193d a621 91bc 4d56 e63d 8ab0 e53d
00000250: 48cb 11be ad78 3fbd 38a0 e9bd 73b8 06be
00000260: 9ebf 15bd a0a8 773d 0c15 af3c c145 b7bd
00000270: e223 c53c 1ae4 94bd b2f9 d4bd dbd0 373d
00000280: 18fc 4fbd de44 c93c 2363 e7bd 9793 e8bd
00000290: 345f 16bd 49e3 a8bd 9067 afbd 4b42 63bd
000002a0: 7567 56bd d09b e7bd 81d9 8ebd dfce c9bd
000002b0: f85f 9b3d bc4c 98bd 6dff 533c 0b39 ce3d
000002c0: b9db 13bc ef30 7bbd fd01 a1bd a08e 213e
000002d0: 4773 e23d 507b d03d 3419 77bd f590 12bd
000002e0: 5593 433d db3d f6bd 9dab 3c3e 0236 06be
000002f0: 31a0 9d3d c6bb 6abd 0332 fa3d 878f a63d
00000300: 0b97 963c 5ada 313d 2d02 183c 6a54 233c
00000310: ea84 373c 1e88 b4bd b5a2 0bbe 8117 07bd
00000320: a853 a4bd 6ba9 b3bc 640a 0cbe 5797 513d
00000330: 399c 023e 57b0 093e 020c ab3d 7047 e83d
00000340: 4ae5 103e 0f63 d23c df26 73bd d004 883c
00000350: 9517 84bc 3a12 b83d 1973 49bc 7607 bbbc
00000360: 0598 143d 9386 a8bc 41d9 593d 2801 70bd
00000370: e832 39bd cd6d 14be eb72 09bd f824 90bd
00000380: 2d6c fdbd b1f1 6a3b 1fae 203d 4c77 2d3d
00000390: 9915 acbc efcb 15bd f104 70bd 760a b13d
000003a0: ca90 133e 1e9e 063d 8e5b d8bc 7a03 443d
000003b0: 97ee f2bd a7fb aebd 6aa3 6e3d ffde 1a3c
000003c0: 1094 e6bd 4eb2 363d 6c44 aa3c aa9c 0abc
000003d0: a1d1 613d a08e c9bd 1f15 753d a36e 0abe
000003e0: f55c 6f3d 6e36 ac3a 334c 573d 2e38 e5bd
000003f0: 8210 98bb d2be 97bd 5084 b5bd 27d7 773d
-0.0142209325 0.117613696 0.06423404 0.10822319 -0.10750411 -0.072306834 0.08339516 -0.013996723
0.024184756 -0.007323557 0.013006724 -0.01779231 -0.08238821 0.078103326 0.09538018 0.03302607
0.018201333 0.012511009 0.059480347 0.04797562 0.10055476 0.013015426 0.16071019 0.047419604
-0.071811676 -0.006920661 -0.10353452 0.032641254 0.023990348 0.11813263 0.12761192 0.07169737
0.016384697 0.048177026 -0.057123695 -0.08282666 -0.07823488 -0.0040094513 -0.020120868 -0.088451646
-0.062036082 0.0053774756 0.06180021 -0.03129954 0.089728385 -0.08583309 0.017366309 0.02969807
-0.06722224 0.10653363 0.036206488 0.1102085 -0.14244768 -0.047994744 -0.049736433 0.106411085
-0.10176154 -0.08829849 0.0144697465 -0.06375545 0.047758803 -0.016730085 -0.048165 0.046594173
0.03615078 0.11584298 0.025868723 0.06258251 -0.17295903 0.024710312 -0.10623291 -0.06418524
0.1313819 -0.013155439 -0.08408877 0.021576427 0.08437207 0.14584601 0.11414916 -0.04986095
0.09548969 0.12536605 -0.027811171 0.013485421 -0.114066504 -0.031892784 -0.028431702 -0.061403222
-0.09181046 -0.04199253 -0.11468649 0.12401946 0.078192346 0.055441078 -0.12185568 -0.004186719
-0.083592355 0.070031956 -0.036999717 0.06050407 -0.016533893 -0.07402781 -0.011625817 0.0095529165
-0.085398026 0.07992917 0.08184631 -0.11413638 -0.06594712 -0.02770145 -0.032129537 0.037559267
-0.00063775893 0.10809931 0.103620805 0.14137016 0.10431838 -0.056158323 -0.0326663 0.005713499
0.09103665 -0.041270036 0.10223857 -0.039889798 -0.0052694036 0.06705527 0.060689613 0.09089449
0.059220772 -0.0751383 -0.061945483 0.032261185 0.009770686 -0.13654241 -0.032313675 -0.03853455
0.029599873 0.13625845 -0.048176404 0.15492065 0.11457481 0.062098965 0.07756984 -0.123376966
0.0375901 -0.01771624 0.11246929 0.11215313 -0.14237702 -0.046745945 -0.114075124 -0.131563
-0.036559694 0.060463548 0.02137234 -0.089488514 0.024064962 -0.072700694 -0.10399188 0.044876914
-0.050777525 0.024568971 -0.11298206 -0.113562755 -0.036711887 -0.08246476 -0.08564675 -0.055483144
-0.052344758 -0.11309016 -0.06975079 -0.09853911 0.07586664 -0.07436511 0.012939316 0.10069474
-0.009024554 -0.061325964 -0.07861707 0.15777063 0.11057144 0.1017977 -0.06032677 -0.035782773
0.04774793 -0.12023517 0.1842484 -0.1310654 0.0769657 -0.05730798 0.1221657 0.081328444
0.01838257 0.043421127 0.0092778625 0.009968856 0.011201123 -0.08815025 -0.13636287 -0.0329814
-0.08023769 -0.02193137 -0.13675839 0.05116972 0.12754907 0.13446175 0.083519 0.113417506
0.14149967 0.025682 -0.059363242 0.016603857 -0.016124526 0.089878514 -0.012295508 -0.022830706
0.03627779 -0.020571982 0.053185705 -0.058594853 -0.045214564 -0.1449501 -0.03355686 -0.07038301
-0.123741485 0.0035849626 0.039228555 0.0423501 -0.021006392 -0.03657144 -0.058598462 0.086445734
0.14410701 0.032865636 -0.026410844 0.047854878 -0.11861914 -0.085440926 0.058261313 0.0094525805
-0.112587094 0.04460364 0.02078458 -0.008460203 0.05513156 -0.09841657 0.059834596 -0.13518767
0.05843826 0.001313878 0.052562904 -0.11192356 -0.0046406398 -0.07409443 -0.08863127 0.06050792

bias_ih_l0 f4 [192]
00000000: 6ee2 643b 8c32 b33c 61b4 073e eb5d 243b
00000010: 85e4 ebbc 5b71 0e3e b936 0f3d 28c4 233e
00000020: 90b4 ba3d b445 023e 315d 8dbd beda 01bc
00000030: b51c c5bd 49c0 bb3d 3fe9 db3d e43d 033d
00000040: bcdb 8abb f5f1 df3d b0d2 ab3d 0431 2d3d
00000050: 21b0 003d 45a0 1cbd 3d82 1cbd c1b2 1b3e
00000060: a25c 0d3d c986 f23d 9d9a cb3d 62e0 5c3d
00000070: d583 a0bd 6a46 813d 6b75 98bd 46ce b83a
00000080: f8db 3dbd 78fd e53d 003c b83d 434d 90bd
00000090: d82a d8bd f4ca f03d c139 f63d 4cb4 a5bd
000000a0: 8b36 22bd 029e 8dbd ae55 e0bd 699e 293d
000000b0: fc4b 57bd afba 45bd 0af4 893d d608 3bbd
000000c0: 8039 c23d 807a c73d 4295 213e 0cc9 5fbd
000000d0: 9b00 b2bd 03c0 273d abdb 8b3d 3ba1 e3bc
000000e0: f8c7 40bd 23fc 023e c16e 38bd bafb bc3d
000000f0: 017a e43c 2f61 5bbd 1d95 e63d d4c9 983d
00000100: f2fc 1bbd e44b f7ba 86cc 07be 9ec5 143d
00000110: ad35 24be 7ed9 973d 01ee 303d af70 643d
00000120: 6912 6bbd c31b 003b 416f a33d f809 86bc
00000130: f3d1 70bd 7cf0 ea3d 1468 90bd acf0 beba
00000140: 72cc be3d f429 ccbd ac7a 0b3e b44f b63d
00000150: dffe 873d 8c45 c83b f412 933d da90 9dbd
00000160: 4539 e3bd e1fc d33c 1c72 8c3d cf58 313d
00000170: 7ade 083e ed57 0abe 3f1c 0a3b dc66 03bd
00000180: 4d87 21be 6fec 1cbe 8dd7 dabd 82fc 9b3d
00000190: 3eb6 a9bd 066d b03d d107 e1bd c33e 35bd
000001a0: 9297 c63d 2b66 333d edbb 44bd 6106 ab3c
000001b0: 379e dcbd bf1d 1bbe db82 e73d aa13 7e3d
000001c0: f882 cf3d 7c10 51bd a9b1 f33d dc07 473c
000001d0: 8f28 16be 271d 723d e519 ddbd 1902 51bc
000001e0: e21d 8bbd de56 fcbd ad99 f83d 6843 1a3e
000001f0: 28b4 cd3c 67eb c1bd ac07 923d 2674 073e
00000200: f7ec d63d 52ac a53d f5ff ef3c 581a acbd
00000210: 3902 e7bd 11a3 b73c c119 ccbd 32ca 1fbd
00000220: fea5 83bd ee69 8fbd b8e4 61bc d570 f43d
00000230: ef5e cdbd e1b7 13be 7e21 81bd df3f 65bc
00000240: a082 0a3d 0ad7 483c 3820 8f3c 9c18 903d
00000250: 3c0e 06bd 3762 c43d 5c41 c03c 9506 83bd
00000260: 180a bc3d b10b d5bd 1d7e 84bd 5a7b a7bd
00000270: 969b f2bd 5449 a43d ba45 28bd 882c a2bd
00000280: cb8c 8d3d 5310 0c3d 1777 ac3c d7a7 6fbd
00000290: b378 83bc 7af0 cd3c 8b49 193c c245 613b
000002a0: b7ee e03d 87c7 103d 0141 b7bd e1bd 873c
000002b0: 6a9b bfbd 4470 ff3c 6709 ef3c f7ba b43d
000002c0: 8142 a6bd 4f58 ad3d 1473 053e 8146 b53d
000002d0: 79b4 2ebd dc44 f93d 0f80 b2bd 8a21 873d
000002e0: bc51 f6bd 6e49 113b 869e e73d 83db b2bd
000002f0: f50d d53c 4752 103e 1645 aebc 0904 a93d
0.0034925002 0.021874689 0.13252403 0.0025080394 -0.02879549 0.13910429 0.034964297 0.15992796
0.09116471 0.12721902 -0.069025405 -0.007925687 -0.09624616 0.09167535 0.107378475 0.032041445
-0.00423762 0.109348215 0.08389795 0.042283073 0.03141797 -0.038238782 -0.038210142 0.15204908
0.03451217 0.118421145 0.099415995 0.053924926 -0.07837645 0.063122585 -0.07444271 0.001409956
-0.046352357 0.11229986 0.08995819 -0.070459865 -0.10555047 0.1175746 0.120227344 -0.080910295
-0.039602797 -0.06914903 -0.10953842 0.041410837 -0.0525627 -0.04827374 0.06736 -0.045662723
0.094836235 0.09740162 0.15779594 -0.054635093 -0.08691522 0.0409546 0.06829008 -0.027786842
-0.047065705 0.12791495 -0.0450275 0.092277005 0.027890207 -0.05355948 0.1125891 0.07460371
-0.038083024 -0.0018867222 -0.13261613 0.036321275 -0.160361 0.0741453 0.04319573 0.055771526
-0.057390604 0.0019547797 0.079802044 -0.016362175 -0.058793973 0.1147165 -0.07051101 -0.0014567575
0.093163386 -0.099689394 0.13621014 0.08901921 0.0664041 0.0061118063 0.071813494 -0.07693644
-0.11094908 0.025877418 0.06857702 0.043297585 0.13366118 -0.13510104 0.0021073965 -0.032080516
-0.1577427 -0.15324567 -0.10685644 0.076165214 -0.08286713 0.086145446 -0.10987819 -0.044249307
0.096968785 0.043798607 -0.048030782 0.020877065 -0.107723646 -0.15148066 0.113042556 0.06203047
0.10132402 -0.05104111 0.1189912 0.01214787 -0.1466391 0.059109833 -0.107959546 -0.012756848
-0.06792809 -0.12321256 0.12138686 0.15064776 0.02511032 -0.094687276 0.071303695 0.13227901
0.10494416 0.08089508 0.029296855 -0.08403462 -0.11279721 0.022416623 -0.0996585 -0.039011188
-0.06428145 -0.07002626 -0.013787441 0.119355835 -0.10027873 -0.14425613 -0.06305216 -0.013992279
0.03381598 0.012258301 0.017471418 0.07035944 -0.03272842 0.095890455 0.023468666 -0.0639774
0.09181613 -0.104026206 -0.06469367 -0.08177824 -0.11846082 0.08021799 -0.04108212 -0.0791865
0.0691162 0.034195255 0.02105288 -0.058509674 -0.016048765 0.025139082 0.009355913 0.0034373854
0.10983031 0.035346534 -0.089479454 0.016570034 -0.09355815 0.031181462 0.029179288 0.08824723
-0.08118153 0.08464109 0.1303218 0.08851338 -0.04265258 0.12171337 -0.087158315 0.06598194
-0.12027308 0.0022169012 0.11309533 -0.08733275 0.026007632 0.14093886 -0.021273177 0.08252723

bias_hh_l0 f4 [192]
00000000: 80e6 a23d 1076 86bd d557 2b3c 2a7c 2abd
00000010: 4ea2 be3d a0c7 20bc 244c 12bd b696 033e
00000020: 705a fabb ec6b cc3d aeec f53c 3691 c93d
00000030: 0ab5 de3a 0ba6 f9bc f3a0 74bb ba04 263b
00000040: 2e58 b53d cfdc 823d f714 7bbd 5001 763d
00000050: 5529 4b3c 997f 833d 6fa4 fdbc 9bba 2a3d
00000060: 224d b6bd 2f6e 553d 4716 84ba 3033 fa3b
00000070: 0a2a 0039 5983 5a3d de4b 553d 4f98 043e
00000080: 12b4 aebd 541d e63d 7fcc 323e e6c4 c03c
00000090: 3aa2 e5bd 178d e33d cfee a5bd 362d 0c3e
000000a0: c0f0 72bd 0ddc cdbc 0d6c 9ebd dd7c 2dbd
000000b0: d1f1 333d 7758 93bd 4b5c 113e 6ea7 fb3d
000000c0: f561 4bbd 04ce 1fbc 4b7f 3abd 0878 8fbb
000000d0: 8dd9 c13d fbcb a33d 3fe1 133e 1195 e33d
000000e0: 9383 723c 9c2b 643b 6b59 2fbd 37ef 923b
000000f0: 8466 0fbe 34af 9f3d a220 86bd 5f1d 45bd
00000100: 743d f13d 1a61 15bd 76b6 023d 5877 a23d
00000110: 5ca5 4a3d 4608 553d 7e0c 313a d35f b5bd
00000120: 5198 cbbd d34a 2c3e 98f4 b23d 4990 e23c
00000130: f999 033e 7161 05bd b05f 953c 0bf6 1f3d
00000140: 3d20 013d 32a7 1cbc f7c5 b3bd fb66 88bd
00000150: 0520 663a 3567 f33d 5ce8 e0bc 6940 4abd
00000160: 3254 2dbd 5f7f 623d 14ab 0c3e 66b1 123e
00000170: 3cff fb3b 0a5e acbd 2e1e b73b 46df d63c
00000180: 5ca5 f3bd 4f21 83bd e7d8 aa3d d882 a0bc
00000190: 8e5a b53d a7c8 cd3d c491 e9bd 6323 f3bc
000001a0: c241 d93c 6892 88bd eac7 03be 2a67 d63d
000001b0: 99be eebd 0008 f4bd e831 9a3d f570 77bc
000001c0: 7ed7 04bd a4d1 0fbc 031f 673c 49e9 14be
000001d0: 346d edbd 59c9 293b 4102 6bbd b713 093d
000001e0: f31f 043c f551 98bd 2647 b3bd 7a63 16bd
000001f0: 838c b0bd efa1 7cbc 42dd 9ebc 9aed e53b
00000200: b878 c43d 3e9e 913d 155e 413c 628a 84bb
00000210: 904a 8e3d c80f 8e3d 0eeb 0e3e bec6 83bc
00000220: a751 023e 9130 50bd 7d7d c4bc fb95 a23c
00000230: 4211 103e 5290 14bd bcda 8e3b 72d2 3fbd
00000240: 2f2a 63bd 9730 643c 57c5 9f3d 2e84 10be
00000250: bae0 6abc 0fcb 013e 8b08 ac3d ccd2 ffbc
00000260: 3692 0abe bc49 653d f150 f23c 36e0 083e
00000270: 7d7f d63d eb27 5f3d cf1e 273c cd1d 0c3d
00000280: dda7 c53d c06e 9f3c 5260 0dbe e6f5 a83d
00000290: e0fe ac3d 3fb6 b4bc b704 a2bd e3cb 003e
000002a0: 5f64 983c 62f4 1cbd 1bd7 85bd e9a3 c13c
000002b0: 624c d2bd 89c2 2a3d f4cf a0bd c195 08bd
000002c0: be97 95bc d9fe 79bd 87d1 2d3c 7206 6abc
000002d0: adce 823d 868d cbbc 2ec1 99ba f3a4 b03d
000002e0: 6dd0 f4bd 29f0 78bd ffbc acbc 5e17 9dbd
000002f0: efc7 f4bd ae00 78bd 55af c4bd 4292 bdbd
0.07954121 -0.065654874 0.0104579525 -0.04162232 0.09308301 -0.009813219 -0.035717145 0.1285046
-0.0076401755 0.09981522 0.030020084 0.0984215 0.001699121 -0.030474683 -0.0037327379 0.0025332407
0.088547096 0.06389772 -0.06129929 0.060059845 0.012399991 0.06420822 -0.030962197 0.041681867
-0.08901431 0.052107032 -0.001007744 0.0076354966 0.00012222692 0.05334792 0.052074306 0.12948726
-0.085304394 0.11236063 0.17460822 0.023531388 -0.11212583 0.11110895 -0.0810219 0.13689122
-0.05931163 -0.025129342 -0.07735453 -0.042355407 0.043931786 -0.07194608 0.14195363 0.12287794
-0.049653966 -0.009753708 -0.045531552 -0.0043783225 0.09465323 0.079978906 0.14441393 0.111124165
0.014801878 0.0034816032 -0.042809885 0.004484083 -0.1400395 0.07797089 -0.06549193 -0.048123714
0.117792994 -0.036469556 0.03191229 0.07932919 0.049474105 0.052009843 0.00067538756 -0.08856168
-0.099411614 0.16825418 0.08738059 0.027656691 0.12851705 -0.03256363 0.018234104 0.039053004
0.031524885 -0.009561347 -0.08777993 -0.06660267 0.0008778575 0.118849196 -0.027454548 -0.049377833
-0.042316623 0.05529725 0.13737136 0.14325485 0.0076903384 -0.08416374 0.0055883145 0.026229512
-0.11896774 -0.064028375 0.08342152 -0.019593641 0.088551626 0.10048037 -0.11404756 -0.02967996
0.026520614 -0.0666855 -0.1286923 0.10468896 -0.11657447 -0.119155884 0.0752905 -0.015102615
-0.032432072 -0.00877801 0.014106515 -0.14542116 -0.115930945 0.0025907366 -0.057375196 0.033466067
0.008064258 -0.07437507 -0.08753805 -0.036715962 -0.086205505 -0.015419467 -0.019392613 0.0070168497
0.09593338 0.071102604 0.011802216 -0.004044817 0.069478154 0.06936604 0.13956854 -0.016085979
0.1272646 -0.050827567 -0.023985619 0.019846907 0.14069083 -0.036270447 0.0043595713 -0.046831556
-0.05546015 0.0139276 0.078013115 -0.14112923 -0.014335806 0.12675117 0.08400067 -0.031228445
-0.13532338 0.05597852 0.029579611 0.1336678 0.10473535 0.054481428 0.010200216 0.034208108
0.09651158 0.01946199 -0.13806275 0.082500264 0.08447051 -0.022059558 -0.079110555 0.12577777
0.018602548 -0.038319 -0.06535169 0.023637729 -0.10268475 0.04168943 -0.07852164 -0.03334594
-0.018260833 -0.061034057 0.010609037 -0.014283763 0.063870765 -0.024847757 -0.0011730546 0.086252116
-0.119538166 -0.06077591 -0.021086214 -0.076704726 -0.11952197 -0.060547523 -0.096037544 -0.09256412

weight_ih_l1 f4 [192, 64]
00000000: 54e5 08bd 81b4 a8bd 909d 003e 72ea a3bc
00000010: 3db6 c33d bf57 c6bc 3270 7ebc b897 4a3c
00000020: fc31 9bbd fe19 f8bd 6834 77ba f53c 563d
00000030: c6e7 123c 8eaf a3bb defa 893d 4729 0fbe
00000040: adce 02be baef ed3c cba5 043e de84 8c3d
00000050: 3057 f4bc 0a40 2dbc 46e3 ba3d 05f5 373d
00000060: b07b 1b3e 35eb 75bc 5624 69bd f7d0 e03c
00000070: 4ea2 f0bc 6a54 0cbc 8040 963b c8da 0ebe
00000080: 1e0a 873d 647b ae3d 4fe0 abbd 572c ac3c
00000090: a09a 06be 40a6 b63d af76 a13c 6e0b 653d
000000a0: 01f3 0a3e 096c abbd 941b 443c f4e0 c5bd
000000b0: f110 ff3d bf12 81bc a58d c13d c0b7 04be
000000c0: 2331 013e 4803 0b3e 295d 933c d5d0 5ebd
000000d0: 6bea abbd d14b a13d 8523 5ebd a5f8 80bd
000000e0: 05ff 663c aa22 d13c de5c 8e3c 599e cc3b
000000f0: fd56 21bd f7c6 fbbd 348e e0bd 3cae 383d
00000100: eadd 1cbd a1fe e43d 2bed 03bd 0a13 7cbd
00000110: 97fa 273d 76c4 cdbc 632b e0bc b793 09be
00000120: 928b dfbd 2c8a 133c 66dd b1bd 88d1 ab3c
00000130: 002d 43b9 709c a6bd 7f01 2b3d 14a8 ce3c
00000140: fefc 87bd 6ea5 ae3d e800 8ebd 5109 0fbe
00000150: 780f ea3d 2b6f 17be 4815 cb3d 64cd c63d
00000160: 29d9 2e3d 34a2 c13c d03b 5ebd cee3 d6bc
00000170: 08a9 2cbc d07d cd3d 5305 8e3c 2bcc 9bbd
00000180: 3dbf bdbd 0991 ab3d d1d6 00be 2c2c 943d
00000190: 096e 7d3d a377 48bd 4513 35bd 1e53 023d
000001a0: 7ca1 a3bd d78f 003e b31c edbc e040 97bd
000001b0: 36a1 b9bc ff50 c2bd 7d0f 7ebd 868a 773d
000001c0: 9f90 6c3b fd01 f43d 5e07 acbb 7179 00bd
000001d0: a742 383c 2f80 11be fd8b 8cba bfeb 80bc
000001e0: 80fb e8bd b3ad 24bc 031a ad3d cc8d 653d
000001f0: c991 023e 6047 443d 339f 22be 97c0 c33d
00000200: 02bc 3c3d b0b2 72bd a0b9 103e 336c c73d
00000210: 6fce b0bd 66a3 323e 223a 00bd 7cf2 493d
00000220: db8b f5bd a7b9 7cbd 251e 45bd 54e1 d0bc
00000230: 015a 99bd bf30 babd c37d ebbd 80de f8bd
00000240: 0e50 3f3d 977e 803d 4b13 483d 9b14 abbd
00000250: 2619 af3d 13ec 61bd 6e04 8cbb aeeb ddba
00000260: de24 803a b3da 5fbd 9868 fb3c ec80 c93d
00000270: 828a d03d 250a 233d ff5b 8b3d d991 433d
00000280: c371 d33d a3d4 963c df82 013e 4da7 26be
00000290: febf 28be 032e be3c eda3 ad3d 5dc8 04bc
000002a0: 6d7b b83d d3c2 83bd 3fe8 89bc bbce 963d
000002b0: 6758 22bd b4a5 a93d ba96 663d 54a7 a8bd
000002c0: 51c1 113c a72c 6bbd 2432 9ebd 98c7 29bd
000002d0: 51c0 8ebd db74 2fbc 08d2 b6bd 1fba f03b
000002e0: 07b6 213c 202f 323e 68bd 5d3d 3803 2b3e
000002f0: 6ade 82bd 2ff1 79bd 8b4b 87bd 5d37 df3d
00000300: e327 e43d a91c 823d a543 9fbd 1724 9e3d
00000310: 59ab 293d 4b12 ba3c 395c 443d cac8 943c
00000320: 162c debb afb2 48bd 8293 623d 2b00 b33d
00000330: 720b 17be 79b8 de3c 3bb8 583d e993 cc3c
00000340: c61c 533d 79bd 1a3d c7e9 71bd 741e ebbd
00000350: fcea 15bd 7df7 aa3b c931 0e3e 856a eb3c
00000360: 6b54 613d 9d00 9d3d 870b 913d 7699 523c
00000370: d6bb 4cbd 85ed 0dbd e724 cb3c a560 d3bd
00000380: bae4 13bd 0ffe e63d 90d9 ddbc bd57 a1bd
00000390: e0eb c43d 8d56 a4bd b1e6 27bd 1e0d 4f3d
000003a0: 2ac7 0c3e 8bfa 8d3a 4095 3c3d 485e d53d
000003b0: 85b3 143e 3228 b7bc 0413 05be c0ec 663c
000003c0: 2a96 44bd 2552 dc3c b6ed 76bb 87e6 5bbd
000003d0: 00a4 8f3d e5b8 8d3d d536 1cbb aeb2 153d
000003e0: 8f6b 3abd 888a 8f3d 5dce 273d 87c7 863c
000003f0: 570f 603c 7f36 a93d 529c c43b 99fc 213e
-0.03342183 -0.082375534 0.12560105 -0.020009253 0.095562436 -0.024211762 -0.015529679 0.012365274
-0.07577893 -0.121143326 -0.00094301114 0.052304227 0.008966392 -0.004995293 0.06737302 -0.1398059
-0.12774153 0.029044975 0.1295387 0.0686128 -0.02982673 -0.01057435 0.0912538 0.044911403
0.15183902 -0.015009691 -0.05691942 0.027443392 -0.029374268 -0.008565048 0.0045853257 -0.13950646
0.065937266 0.08519629 -0.08392393 0.021017237 -0.13144922 0.089184284 0.019709913 0.055919103
0.13569261 -0.083702154 0.011969466 -0.09662047 0.12454403 -0.01575601 0.09450845 -0.1296072
0.126164 0.1357547 0.017988758 -0.054398376 -0.08394321 0.07875789 -0.054233093 -0.06297425
0.014098887 0.025529224 0.017378267 0.0062444624 -0.0393896 -0.12293809 -0.10964623 0.045088038
-0.03829757 0.11181379 -0.032208603 -0.061541595 0.041010465 -0.025118094 -0.027364438 -0.13435255
-0.10915293 0.009005111 -0.086848065 0.020973936 -0.00018613413 -0.08135307 0.041749474 0.02522663
-0.06640051 0.08527647 -0.069337666 -0.13968398 0.11428732 -0.14788501 0.099161685 0.09707144
0.04268757 0.023636915 -0.05425626 -0.026231673 -0.010538347 0.100337625 0.017336523 -0.07607301
-0.092649914 0.08377273 -0.12581946 0.072349876 0.061872516 -0.04894222 -0.04420783 0.031817548
-0.07989785 0.1255487 -0.028944349 -0.07385421 -0.02265988 -0.09488105 -0.06202649 0.06043484
0.0036096943 0.11914442 -0.0052499017 -0.031365816 0.01124636 -0.14209054 -0.0010722872 -0.015737412
-0.11376095 -0.010051179 0.08452227 0.05604343 0.12750925 0.04791963 -0.15881042 0.09558218
0.046077736 -0.05925244 0.1413331 0.09737434 -0.08633124 0.17445144 -0.03130544 0.049303517
-0.11989566 -0.06170049 -0.04812445 -0.02549807 -0.0748787 -0.09091329 -0.114985965 -0.121518135
0.046707205 0.06274145 0.048846524 -0.083535396 0.085497186 -0.05515678 -0.004272989 -0.00169312
0.0009776612 -0.054651927 0.030689523 0.09839043 0.10182668 0.039804596 0.06804656 0.047746513
0.10324433 0.01841194 0.1264758 -0.16274758 -0.16479489 0.0232153 0.08478532 -0.008104411
0.090079166 -0.06433644 -0.016834376 0.073636495 -0.03963509 0.082835585 0.056296088 -0.0823504
0.008896188 -0.05741563 -0.07724407 -0.041450113 -0.06970275 -0.010709013 -0.08926779 0.007346406
0.009870059 0.1740079 0.05413571 0.16700447 -0.06390078 -0.061021026 -0.066062056 0.108992316
0.1114042 0.06353123 -0.07776574 0.07721727 0.041423175 0.0227138 0.047939513 0.01816215
-0.006780158 -0.04899853 0.055316456 0.087402664 -0.1475046 0.027187573 0.05291007 0.024972873
0.051541112 0.03777835 -0.059060838 -0.11480418 -0.03660105 0.005217491 0.13886179 0.028737316
0.055012148 0.076661326 0.07082277 0.012853971 -0.04998382 -0.034650344 0.02479787 -0.10321168
-0.036106803 0.112789266 -0.027081281 -0.07878063 0.09615302 -0.08024321 -0.04099149 0.05054962
0.1374785 0.0010832114 0.046040773 0.10418373 0.14521606 -0.022358034 -0.12995535 0.014094532
-0.04799477 0.026894638 -0.0037678308 -0.053686645 0.070137024 0.069200315 -0.0023836393 0.036547355
-0.045512732 0.070088446 0.040968288 0.016452564 0.013675532 0.082623474 0.00600008 0.15819015

weight_hh_l1 f4 [192, 64]
00000000: 7671 2bbd 5848 24be 1a4b 6b3d 1e37 e23d
00000010: 52df 07bc b86d 15be ece1 ee3c 3419 9e3c
00000020: e459 b8bd fb62 b73d 99ec dbbb a550 1d3c
00000030: ad4e 43bd bc90 2fbd ee53 693d ce49 a4bd
00000040: 791a 09be 69a5 4a3d 128d 003e 0cb1 78bd
00000050: c721 a5bd 5baf ccbd 204a a43c e639 843d
00000060: 11c3 a2bd 62bc e43d 0481 abbd cc72 d8bd
00000070: 1d7e a3bd 7d57 7f3d 07c3 96bd 804f cb3b
00000080: c41a fa3d 30e4 e43d 6f44 2cbe d455 c7bd
00000090: d195 55bd bd15 853c ac24 0d3d 2bc8 fa3c
000000a0: e4c3 dabd 3a46 1d3e 9876 183e 044a d4bd
000000b0: 0cef be3d c65a c93d 9eed 93bd 34a8 0e3e
000000c0: 5d3f 373e c57d 913d eb00 823d 737e 063e
000000d0: 6846 9d3d be35 a53d 07ee 97bd ce1c c4bd
000000e0: b53d 11be 71c8 123e 1bf5 273d c794 bd3c
000000f0: 69c0 1dbe 1d8e 23bd fc64 ad3d f03e a3bd
00000100: d2ee d0bd 4d0a 24bc 14d0 7cbd 04ef c5bd
00000110: 5b21 c3bc dafc 093e 97c1 0c3e 6c3e b2bd
00000120: c692 243e fe0d d3bd 1107 a43d f8e4 d2bd
00000130: 2bc9 0bbd 07a2 37bc 29e0 4a3d 1f6b c9bd
00000140: 9e50 d43c 1017 c13c 8305 f2bd df1b 03bc
00000150: 207f e93d 1c2a 4c3d bd5d 07bc c139 103e
00000160: f2ca 03bd 4409 18bd 4b6d 883c 3a84 b93d
00000170: 26e9 24bc d3a0 b739 3efc 83bd 1d70 4abd
00000180: 36bd a93d 467e c83d 1537 c3bd 7f39 863d
00000190: 65cc fcbc d5ba 593d 9664 d73d ed70 95bd
000001a0: 004d ba3d b998 c9bb 55d6 ed3d 569b 413d
000001b0: 197e a83d f811 7fbd 2c1f 1c3d 4fe3 3f3d
000001c0: 50de 343d 0bc0 8cbd f426 ef3d e6b7 d53c
000001d0: 405f dd3d f694 483c c620 883c 7327 7f3d
000001e0: 3c79 cd3b 78c1 a2bc 3b4c 17bd 9d63 223d
000001f0: c5f9 9fbd 897e b3bd ae26 47ba f3f4 8c3d
00000200: 4713 33bc 0a33 1fbe 6488 793d bfdc 15bd
00000210: a74b be3d eefc 3e3c fe87 4dbd a331 70bc
00000220: 1d29 aebd 25db c3bd 865b a43c 0ac9 063e
00000230: ede7 f73d 6f56 8e3d 9605 113d ebfe 993d
00000240: 6f20 64bd 3606 ce3d f7f5 ae3d a75e e13d
00000250: beaa 9bbd 9918 933d 7cc7 163d 2401 9a3d
00000260: d0dc 7cbd 44f7 5abd fe1a b9bd a6fa 78bc
00000270: 7612 03be 2592 c3bd fc16 dd3d a131 d33d
00000280: f0ed 8a3c 8d1c 23bd b2d6 c9bd fd66 60bd
00000290: 9048 b9bd 4997 90bd 8243 d3bc b08b f5bc
000002a0: 9a0a dcbd d82c d9bc d0ea d93d 1fa9 4e3d
000002b0: 105d 89bd 067d cf3d 57b3 98bd 26b9 b0bd
000002c0: 0c70 913d 1a17 b8bd 1a3d edbc 406b b93a
000002d0: 104e 20bc cdb9 b93d 388e 5e3d 7fc2 16be
000002e0: 301e aebd 76a0 19be 8032 e4bd be73 cd3b
000002f0: 7ce3 eebd 0e54 92bb e9aa bdbd 2dcd 2b3d
00000300: 4311 1dbe 69c3 043d 017c c2bc 34c3 f3bd
00000310: bd98 e43c 6172 a73d d7db 223e 8c85 0fbd
00000320: aeec 033e ff12 8abc 8413 aebd e62d 26be
00000330: beba a8bd b0b8 da3d 9fd3 9bbc f79c a8bd
00000340: 3e4e b73d adc9 94bc 88a8 b53d 7185 353d
00000350: 804f e73d be22 8dbd 62d1 803d 096f c33c
00000360: 2e22 8dbd c1b4 09be 4661 5dbd cdd5 323c
00000370: b22a af3b 32ed 50bc 9172 0fbe 22f2 f43d
00000380: 99f9 09bd 309e 28bd 357b e7bd 2c45 bf3c
00000390: d4e8 bb3d dfa1 703d 5bb7 1ebb 2645 313e
000003a0: d5cb b4bc 637a d5bd 8f64 76bd 26ab 64bd
000003b0: 391e f23d a3b5 86bd 9829 c93c 9c45 bdbd
000003c0: 502b 21bd 4530 223d f7b1 96bd 35f5 b0bd
000003d0: 8fef 29bc 4297 a1bc 3061 0a3d 617e 593d
000003e0: 0700 283d 3d9f 95bd c944 cf3c 9ada 1a3e
000003f0: 0527 e7bc 5fc8 6d3d 02bc cfbb 6ac2 df3d
-0.04185625 -0.16043222 0.05744467 0.11045669 -0.00829299 -0.14592636 0.029160462 0.019299127
-0.0900152 0.08954426 -0.0067115542 0.009601747 -0.047682453 -0.04286264 0.056964807 -0.080218896
-0.13389005 0.049474154 0.12553814 -0.06071572 -0.08063083 -0.09994384 0.020054877 0.06456356
-0.07947362 0.11168744 -0.08374217 -0.10568771 -0.079830386 0.062339295 -0.07361417 0.0062045455
0.122121364 0.11176336 -0.1682298 -0.09733167 -0.05214483 0.016245717 0.0344588 0.030613026
-0.106818944 0.1535882 0.1488899 -0.1036568 0.09322938 0.09831767 -0.07223056 0.13931352
0.17895265 0.07104067 0.06347831 0.13134174 0.076794446 0.08066891 -0.07418447 -0.095758066
-0.14183696 0.14334275 0.041005235 0.023142232 -0.1540543 -0.03993045 0.08466527 -0.07970989
-0.10201801 -0.0100122215 -0.061721876 -0.09664729 -0.023819616 0.13475361 0.13745724 -0.08703312
0.16071615 -0.10305403 0.0800916 -0.102975786 -0.034127396 -0.011208064 0.049530182 -0.09834885
0.025917348 0.023570567 -0.118174575 -0.00800225 0.114012 0.049844846 -0.008262095 0.14084531
-0.032175966 -0.03711821 0.016653677 0.09058423 -0.010065353 0.00035024303 -0.06444596 -0.049423326
0.08288042 0.0978971 -0.095319904 0.06553935 -0.030859182 0.053156693 0.10517232 -0.072969295
0.09096718 -0.006152239 0.11613146 0.04726728 0.08227176 -0.062272996 0.038115665 0.046847638
0.044157326 -0.06872567 0.116773516 0.026088666 0.10809183 0.012242546 0.01661719 0.06229348
0.006270556 -0.019867644 -0.036937933 0.03964578 -0.07811312 -0.08764369 -0.0007597011 0.06882658
-0.010929889 -0.15546814 0.060921088 -0.036587473 0.09291773 0.011656983 -0.05017852 -0.014660272
-0.085039355 -0.09563283 0.020063173 0.13162628 0.12104783 0.0695008 0.035405718 0.07519325
-0.055694994 0.100597784 0.08543008 0.110043816 -0.07600926 0.07182426 0.036811337 0.07519749
-0.06173402 -0.053458467 -0.090383515 -0.015196478 -0.12800011 -0.09549359 0.107953995 0.103122
0.01695916 -0.03982215 -0.09855403 -0.054785717 -0.09047043 -0.07060105 -0.025789026 -0.029973835
-0.107442096 -0.026510641 0.1064049 0.050454255 -0.067072034 0.10131268 -0.07456081 -0.08629064
0.07101449 -0.08988781 -0.0289598 0.0014146343 -0.009784237 0.09068642 0.05433485 -0.14722632
-0.085018516 -0.15002617 -0.111424446 0.006269901 -0.11664483 -0.0044655865 -0.09261114 0.041943718
-0.15338616 0.03241292 -0.02374077 -0.119024664 0.027904863 0.08176113 0.15904175 -0.03503947
0.12883255 -0.016854761 -0.08499816 -0.16228446 -0.08238743 0.106797576 -0.019021807 -0.08233064
0.089504704 -0.018162573 0.088700354 0.044316713 0.1129446 -0.06891392 0.062899366 0.023856657
-0.06891285 -0.13447858 -0.054047845 0.010915232 0.005345666 -0.012751864 -0.14008547 0.11960246
-0.0336853 -0.041166484 -0.11302797 0.023348413 0.09175268 0.058748122 -0.0024218175 0.17311534
-0.022069851 -0.10423734 -0.060154494 -0.055827282 0.11822171 -0.06577613 0.024555966 -0.092417926
-0.039347947 0.039596815 -0.07358163 -0.086405195 -0.010372057 -0.019725446 0.03378409 0.05309904
0.04101565 -0.07305763 0.025301354 0.15122452 -0.028216848 0.058052417 -0.006339551 0.109257534

bias_ih_l1 f4 [192]
00000000: 6071 a53d 9fcf 3fbd 3d1d 3cbd 3fc7 983d
00000010: d2c4 c03d 3abc 90bd 3aef 6e3d aaf6 ec3d
00000020: 2675 463d 9113 0e3e 4199 b6bd 665e 87bb
00000030: b358 d03d f111 2a3d 9794 f43d d7a9 7cbc
00000040: 6941 a6bd 5088 803d 690e 2e3d 28e8 82bd
00000050: 6ba8 2d3d a038 b5bd d725 af3b c819 5d3d
00000060: 6457 cbbd 4c96 e63d bc25 313c fa49 ba3a
00000070: 8f3f 7ebd 699f f33d 5d01 933d b227 5a3c
00000080: f171 c9bd c778 ba3d 73b9 c2bc 82a3 743d
00000090: d1ca a0bd 728b c9bc f7ed a8bd 5551 d3bc
000000a0: d224 0cbe a4c7 8a3c ad2b cebb fcfe 003d
000000b0: 8fed 5c3d 5341 533d 47c2 a7bb f86b 35bd
000000c0: cb01 83bd 6509 05bd 84bf 0dbd f5bd dc3d
000000d0: 48f1 d2bd a5d4 173e 00cb 373d f394 92bd
000000e0: e6ec fbbc f0cb b3bd 0d79 193e fd9f b83d
000000f0: 1a79 6c3d e8b4 c03c 6985 ddbd e154 f53d
00000100: b442 93bd 921e 19be 19e0 d4bc 577a 11be
00000110: f3bc e5bd 42ea 253b 2ce6 613d 214b bb3d
00000120: d110 ffbd 5ce8 e1bb 0c3e bdbd 3f94 533b
00000130: d9b9 52bd 8c8c d63b f28f f5bc 39d3 20be
00000140: bf08 6abd ca18 12be 43d3 a63c c058 2abd
00000150: fa26 26be 9e5e 9b3d 7acd 7b3d e51a f8bb
00000160: 349a a1bd 49ef 853d b3b9 72bd 9296 8abd
00000170: df54 333c 5a37 6a3d 61aa cfbd d2f7 903c
00000180: 7bce 863d e198 a2bd 947d 73bb 8705 2e3d
00000190: 5477 cebd 44c4 8fbd 187a 89bd 8ee0 023d
000001a0: ac85 8c3c 6b13 3e3d dfed 9d3d 2893 b13d
000001b0: 2602 0dbe b9e9 9b3c 5461 22bd 9731 063d
000001c0: e2ad f63d b8c7 b9bd eb1e 78bd bdbb bfbd
000001d0: e62f 783d 1468 e2bd d6a6 293d c16c 313d
000001e0: 9db8 dfbd 5c1a 2f3d 6807 4d3b 52f7 b3bd
000001f0: d2cb 78bc 7e1d f3bd ecc4 853c 1100 82b9
00000200: ad19 933b eaf1 1dbd 1f6c a93d a2f8 3fbb
00000210: 77f9 cabc f66d bfbd 8d19 8b3d 4884 9bbd
00000220: d270 0f3e b0f6 dd3c 16b8 803d 4ece 09be
00000230: 4d57 e03d 1967 a13d 77c5 0fbe 2e26 ecbb
00000240: b02c adbd 6032 a1bd 3be4 5e3d 2cbf 6d3c
00000250: af7b ea3d 7b70 eebc 03a7 09be a099 a53d
00000260: 4821 7f3d 4a0a 42bd a0d1 bdbd b73f 1abc
00000270: 165e be3d 9f3f 05bd aac0 e1bc c58e dc3d
00000280: bfc7 46bd 24ad 383c f043 cabd a4ee b73d
00000290: 91da 033e 3993 d03c a4ef fdbc 0ee1 b73b
000002a0: 1d05 8cbc 7ce6 4abd 1a8c ca3d 5bed 153e
000002b0: 117d ee3d d6c3 c1bd 3b22 c2bd 346e 293d
000002c0: 2b76 133e fc01 4abd 244c c23d 2383 4ebd
000002d0: 16bb ea3d 191b c43d f0e3 883d 82b2 5ebd
000002e0: ba18 1e3d 46df 783d c63a 093e ab92 823c
000002f0: c45c d1bd 207b efbd 1c74 ba3d 3c75 14bd
0.08078265 -0.046828862 -0.04592632 0.07459878 0.094125405 -0.07067151 0.058333613 0.11570485
0.048451565 0.13874651 -0.089159496 -0.004131126 0.10173168 0.041521017 0.11942404 -0.015421352
-0.08117945 0.062759995 0.04249421 -0.063919365 0.042396944 -0.08848691 0.005345087 0.053979665
-0.09928778 0.112591356 0.010812219 0.001421272 -0.062072333 0.118956394 0.071779944 0.013315128
-0.09836186 0.09105068 -0.02377007 0.059726246 -0.07851184 -0.024602626 -0.08248513 -0.025795618
-0.13685921 0.0169409 -0.0062918277 0.031493172 0.05393749 0.05157597 -0.005119595 -0.04429242
-0.06396826 -0.032479662 -0.03460647 0.10778419 -0.10299927 0.14827211 0.04487133 -0.07157316
-0.03075261 -0.08779132 0.14987583 0.0901489 0.05773268 0.023523763 -0.108164616 0.1197908
-0.07190457 -0.14953068 -0.025985764 -0.14206825 -0.1121768 0.002531663 0.05515115 0.09145189
-0.12454379 -0.0068941545 -0.0924035 0.0032284406 -0.05144677 0.006547516 -0.029975865 -0.15705575
-0.057137247 -0.14267269 0.02036441 -0.041588545 -0.16225806 0.07586406 0.061475255 -0.0075715655
-0.0789074 0.06539781 -0.059259128 -0.06767 0.010945528 0.057181694 -0.10139919 0.017696295
0.06582352 -0.079393156 -0.0037153708 0.04248574 -0.10081354 -0.070198566 -0.06712741 0.031952433
0.017153583 0.046405237 0.07711386 0.08670646 -0.13770351 0.019032346 -0.0396436 0.032762136
0.12044884 -0.090712965 -0.06057636 -0.0936198 0.060592555 -0.110550076 0.041418873 0.043316606
-0.10923884 0.042749748 0.0031284932 -0.08787407 -0.015185313 -0.118708596 0.016329251 -0.00024795582
0.004489145 -0.038560785 0.082725756 -0.0029292484 -0.024777157 -0.09347145 0.06791983 -0.0759359
0.14007881 0.027095169 0.062851116 -0.13457605 0.10954151 0.078809924 -0.1404017 -0.0072067
-0.08455789 -0.078709364 0.054416876 0.014510911 0.11449372 -0.02910637 -0.13442616 0.08085942
0.0622876 -0.047373094 -0.092684984 -0.009414605 0.09295289 -0.032531377 -0.02755769 0.107694186
-0.048530336 0.011271749 -0.09876239 0.08981064 0.12876345 0.025460826 -0.030998059 0.0056115454
-0.017092282 -0.049536213 0.098900035 0.14641325 0.11644948 -0.09461181 -0.09479185 0.041364864
0.14400546 -0.0493183 0.09487179 -0.05041803 0.11461465 0.09575481 0.06684101 -0.054369457
0.0385978 0.060759805 0.13401327 0.015939077 -0.10222772 -0.11693406 0.09104177 -0.036244616

bias_hh_l1 f4 [192]
00000000: 3fe0 abbd 198d 073e d9fa be3d 9a7d 90bc
00000010: 9488 60bd b739 903d a550 9dbc 5962 20bd
00000020: b313 62bd 9d26 04bc 8b75 efbc 1053 9ebd
00000030: 4d1e 353d b157 62bd 7cf8 e6bc ee21 1a3e
00000040: cedd c63d 8116 84bd ac58 903d 1acc f23c
00000050: 63ae 103d 28a9 ec3d c9e4 103d 8f2e 6fbd
00000060: 09d7 093e de51 093b 45bc 3dbd 4c3f 223d
00000070: 0ce8 863d cb06 e1bc ff3d b7bd 24e3 1abc
00000080: ffef d2bc 0bf2 e93d bb75 30bd aabd b2bc
00000090: a4a0 4fbc 4f37 403b 8ffc 933d 2a87 e03d
000000a0: 4cd7 9f3d 25f1 833d 62a3 a1bd 9cb7 99bc
000000b0: e2f9 fc3d 8942 213e cce2 a2bc ed3e a4bd
000000c0: 17a3 39bd f9a3 21bc 6966 fa3d a4de 06bc
000000d0: 98db e0bd 3d34 283e 7c34 583d f166 883d
000000e0: c3f3 203e 532e dfbd e635 febc befe 8b3d
000000f0: ff7d 143e 9612 0e3e 5c50 d53d b25f a4bd
00000100: ba8f 0f3d 6089 d7bd db5a 37be 6701 9e3d
00000110: 5937 03be a8a6 f4bb 2ffd 10bd 43c7 02be
00000120: c407 c1bd fd60 0b3d b933 b1bd 692d a8bd
00000130: 123c babd fcd0 9b3d 0555 b3bd ffa8 253d
00000140: 3528 1bbd 3cb4 30be 4d4f 39be ecf5 8abd
00000150: add4 253d 0e3c 3d3e 14e2 703d c203 03be
00000160: 4871 433d a9a2 c2bc 3a2f bfba c52c 93bd
00000170: 426c b93d 57a2 91bc e948 e9bd f55c 283d
00000180: a036 34bd edc5 92bd d511 dbbd d6c2 883a
00000190: 929b 57bd 4d1e 263e 0c49 dbbd 80ce cbbd
000001a0: 9bd2 04be 3f9c c0bb c526 503d 78c9 a9bc
000001b0: 2f39 c4bd 81e8 dfbd 64e2 b6bc 8646 33bd
000001c0: 8a76 8c3c c958 48bd 13a0 07bd 431c 29be
000001d0: 6313 1abe 4836 acbd 9498 2b3d b649 ce3d
000001e0: 3690 ac3d f883 6d3d 18d1 cfbd cde3 cebd
000001f0: aacc 53bc e6c6 18be a73e 823d 9bd9 f5bd
00000200: a3ae ae3b c07e 9f3d 001c 22bd 7789 27be
00000210: 9dcb 35bd b9ca ae3d e79c 613d 3b8d 03be
00000220: b7b9 073d 892e 01be e77b 10be 08ce e53d
00000230: d4b6 27bd f64a 8b3d 9854 13be d668 843c
00000240: dcdd 353d 0fea 143c c584 e93d 515c f2bc
00000250: 907b 90bd 4db3 6dbd ef47 8c3c 13e4 8bbb
00000260: b8a7 c83d a470 44bd 2369 d03d dbea 33bd
00000270: 345c 5e3d 08de 5cbd a923 903d cd5c ff3d
00000280: 9b91 833d e391 c1bd 4c0a 50bd 82c1 8b3c
00000290: 2048 4fbd abd0 0b3e 4420 52bd b833 c6bd
000002a0: da5e cfbd 8d73 b4bd b2bc abbd 0a0c f0bc
000002b0: ecd2 f1ba b957 52bd 9850 563d 4eb7 d7bd
000002c0: f2f7 193d 17e8 03bd 02ce d53d 269b dc3d
000002d0: 296b cc3d 3d21 36bd 6a82 7b3d f3a9 ffbd
000002e0: 62dd 9b3d a1b7 203c fd97 b3bd 0de8 cdbb
000002f0: 6e93 c23c 3c36 f6bd 04dc 1b3d 13d4 ef3c
-0.08392381 0.13237418 0.09325189 -0.017638016 -0.05481775 0.07042258 -0.019203493 -0.03915629
-0.055194568 -0.008065847 -0.029230854 -0.07730687 0.04421835 -0.05525941 -0.028194658 0.15052006
0.09710275 -0.06449605 0.07048163 0.029638339 0.035322558 0.115557015 0.035374437 -0.05839401
0.13460936 0.0020953338 -0.046322126 0.039611146 0.06587228 -0.02746906 -0.08947372 -0.009453569
-0.025749205 0.11423119 -0.043081027 -0.021818954 -0.012672577 0.0029329841 0.07225906 0.109632805
0.078047365 0.06442479 -0.07892491 -0.01876431 0.12352349 0.15748037 -0.019883536 -0.08019815
-0.04532155 -0.009865754 0.122265644 -0.008231793 -0.10979384 0.16426177 0.052784428 0.066602595
0.15717988 -0.108975075 -0.03103156 0.068356976 0.14501189 0.13874277 0.10415718 -0.08026065
0.035049178 -0.10524249 -0.17905752 0.07715111 -0.12814082 -0.007466156 -0.035397705 -0.12771325
-0.09425309 0.034028042 -0.086524434 -0.08211786 -0.09093489 0.0760822 -0.087564506 0.04044437
-0.03788014 -0.17256254 -0.18096657 -0.06785187 0.040486027 0.1847994 0.058809355 -0.12794402
0.047715455 -0.023759203 -0.0014586218 -0.071862735 0.09053852 -0.017777605 -0.1139086 0.041104276
-0.043997407 -0.071666576 -0.106967606 0.0010434042 -0.052638598 0.16222496 -0.10707292 -0.09951496
-0.12970965 -0.005878001 0.050818224 -0.02072595 -0.095812194 -0.109330185 -0.022324748 -0.04376843
0.017146368 -0.048912797 -0.033111643 -0.16514687 -0.15046458 -0.08408791 0.041893557 0.10072653
0.084259436 0.057987183 -0.10147303 -0.10102043 -0.012927214 -0.14919624 0.06359606 -0.120043956
0.005330877 0.077878475 -0.039577484 -0.16361032 -0.044383634 0.0853476 0.055081274 -0.12846844
0.033136096 -0.12615408 -0.14109765 0.11220938 -0.040945843 0.06801407 -0.14387739 0.01616327
0.044401035 0.009089007 0.11402277 -0.029585036 -0.07054818 -0.058032323 0.017124144 -0.004269132
0.09797615 -0.047958985 0.10176303 -0.043925148 0.05428715 -0.053922683 0.07038052 0.12468872
0.064242564 -0.09451654 -0.05079107 0.017060045 -0.050605893 0.1365382 -0.051300302 -0.09677833
-0.101255134 -0.08811102 -0.083856 -0.029302616 -0.00184497 -0.05135319 0.052322954 -0.105330095
0.037589975 -0.03220376 0.104396835 0.1077178 0.09981377 -0.044465292 0.06140367 -0.12483587
0.07610585 0.009809406 -0.08769224 -0.006283766 0.02375194 -0.12022063 0.03805162 0.02927593
