Baseline_systems/SoMS/models/SoM_Mix_5/143_0.pth (torch, 19295 bytes, 3 tensors)

weight f4 [32, 129]
000000 36 eb 5e bc b7 c1 64 bc 14 59 93 bb 70 e6 3a 3d
       -0.013605883 -0.013962201 -0.004496703 0.04562992
000010 2a b0 93 bd 03 5c 67 3d 49 49 dd ba e2 41 41 3d
       -0.07211335 0.056484234 -0.0016882803 0.04718197
000020 2c a1 9f 3c 9b 1d 89 3a d5 22 17 3d d0 95 63 3c
       0.019486032 0.0010461094 0.036898453 0.013890699
000030 17 dc d6 3c 3d 1e f2 bc b2 d1 3d bc e5 d8 51 bd
       0.026227994 -0.029555434 -0.01158564 -0.051232237
000040 f8 15 51 3c 4d 2b 04 bc 03 36 a3 3d af 4b 1d 3d
       0.012761585 -0.008066964 0.07969286 0.038402256
000050 15 5d 1d bd e1 e1 9a bd 7e 29 a0 bc 86 1a 51 bd
       -0.038418848 -0.07562614 -0.019551035 -0.051050685
000060 00 98 28 3d 91 b8 bf bb 58 21 67 3d 50 0b 10 3d
       0.041160583 -0.0058508595 0.056428283 0.03516704
000070 11 4b b4 bd b4 23 39 3d 8f 96 3f 3d 8f 09 7e 3d
       -0.0880338 0.045200065 0.046774443 0.062020835
000080 06 fb 8c 3d a0 af b0 bd b8 c4 b1 bd 22 ed ed bc
       0.068838164 -0.08627248 -0.08680099 -0.029043738
000090 e9 43 a1 3d a3 4c b9 bc 41 6e 86 3c a0 59 59 bd
       0.07874281 -0.022619551 0.016409995 -0.05306399
0000a0 a4 02 86 3d 02 e7 3c bd 4d fc a6 3d f8 99 24 3b
       0.065434724 -0.046118744 0.08153591 0.0025116187
0000b0 2e c4 3b bd 2b 52 81 3d aa 08 6c bd 38 cc 27 3d
       -0.04584139 0.063145004 -0.05762545 0.040966243
0000c0 7f 6f 05 3d b0 fb 14 bc f1 ad 8e bd a2 c3 fd bc
       0.032577034 -0.00909321 -0.069667704 -0.030977074
0000d0 e0 ba 75 3d bd f5 a3 bc 8a c7 8f 3d 71 0c 97 3d
       0.05999267 -0.020014638 0.07020481 0.0737542
0000e0 7e 6e 58 bc 5e 30 67 bd a1 4c 80 3d d0 00 14 3d
       -0.013209937 -0.05644261 0.06264616 0.036133587
0000f0 da bc 44 bd fd 0f 91 3d 2b 03 3a 3d c2 79 a2 3d
       -0.048031665 0.07083128 0.045413177 0.0793338
000100 be ea 53 bd ad c0 4e 3d 0c 93 6f bc d0 8a 87 bc
       -0.05173754 0.05047672 -0.014622461 -0.016545683
000110 3b 2b a2 bd f0 cd e9 bd 6d fb 99 3d 87 46 6b bd
       -0.07918402 -0.114162326 0.07518659 -0.057440307
000120 23 d1 b8 3d cf 80 c2 3c 45 b2 cc 3d ec ce 71 3b
       0.09024265 0.023743061 0.0999494 0.0036897017
000130 b8 ed 25 3d ec 2b bb 3d 04 b1 e6 bc 42 f5 88 ba
       0.04050991 0.09139237 -0.02816058 -0.0010449069
000140 0d ea 65 bc 3b 83 26 bd f6 e2 ab 3d aa 91 8a 3b
       -0.014032853 -0.040652495 0.08392899 0.0042287903
000150 8d 63 07 3d cf a5 93 bc e2 0a c5 bd f4 9a bf 3d
       0.033053923 -0.0180234 -0.09621216 0.09355727
000160 21 71 8c bd f3 df bf 3d 37 16 bb bc 13 3f c7 bd
       -0.06857515 0.09368887 -0.022837741 -0.09728827
000170 34 9e ab 3d fc 81 54 3d 2e fa 7d bd 0b 4f 94 3c
       0.08379784 0.051881775 -0.062006168 0.018104097
000180 97 98 c2 3d a8 59 90 bc f1 de c7 bd 63 4f 13 bd
       0.095017605 -0.017620876 -0.097593196 -0.03596438
000190 fd d3 9a 3c 1d 7f 24 bd a2 d3 6c 3d b9 eb be ba
       0.018899912 -0.040160287 0.057819016 -0.00145661
0001a0 9f 68 ae bd 9d da c2 bd dc 12 08 3d 8c 11 8a 3d
       -0.08516049 -0.095143534 0.03322111 0.06741628
0001b0 d8 94 d8 3c 8e b3 03 3d 6f d7 af bc 72 06 ac 3d
       0.026438162 0.03215366 -0.021465031 0.08399667
0001c0 69 09 a4 3d 23 49 99 bd be a5 f8 3c 74 f5 d8 3d
       0.08009607 -0.07484653 0.03035247 0.105936915
0001d0 30 d0 02 3e 7e e8 d9 3c 2c c1 03 be 60 1a e2 bd
       0.1277473 0.026600119 -0.12866658 -0.11040187
0001e0 b3 df 1f bc bc 41 59 3c 94 bc d2 3d 26 09 f2 bd
       -0.009757924 0.013260301 0.10289875 -0.11818151
0001f0 4a ff 64 3d 31 85 00 3d 4a 9a 63 bd 99 67 40 bd
       0.055907525 0.03137702 -0.055567063 -0.0469738
000200 6b b2 11 3e a6 bb e8 3c d9 c3 1f bd 90 91 57 3d
       0.14228217 0.02840979 -0.039005134 0.052629054
000210 3a 95 d5 3d 8c 92 49 3d cc a6 0c 3d 64 f1 b0 3d
       0.10428853 0.049212024 0.034338757 0.086397916
000220 53 8a a8 3d 46 16 f6 3b 76 42 63 bd a9 13 27 bd
       0.08229508 0.0075099794 -0.055483304 -0.040790234
000230 85 32 56 bd 0b 49 ce 3b b7 3c 04 bd fc f7 3b 3d
       -0.052294273 0.0062953285 -0.032284465 0.045890793
000240 e9 07 ee 3b c9 8b 40 bd 91 6c 26 3d f4 56 5d 3d
       0.0072641266 -0.04700831 0.04063088 0.054038003
000250 a9 78 37 3d ae 3e 01 3d 2a 2b 95 bd d9 a0 71 3d
       0.044792805 0.031553917 -0.072836235 0.058991287
000260 23 7c 09 bb f8 b3 1d 3d 5d c6 b2 bd 7c a7 99 bd
       -0.0020978532 0.03850171 -0.08729241 -0.07502648
000270 81 7e 0f bd 44 75 1a bd ad eb 07 3d e2 2c 0a 3d
       -0.035032753 -0.03770949 0.033183742 0.03373421
000280 f3 a6 d6 bd 40 94 e2 3c 3d ad 1e 3d ca 81 95 3d
       -0.10481062 0.027658582 0.03873943 0.07300146
000290 d9 d3 12 bd 05 b0 6b bb 59 ed a8 bc c1 4e 76 bd
       -0.035846565 -0.003596307 -0.020620989 -0.0601337
0002a0 77 12 7f bd 12 2c c3 bd 12 9a 7d bc 23 ce 18 3d
       -0.06227347 -0.0952989 -0.015478628 0.037305962
0002b0 11 ae 9a bb 2f ec 44 ba 4e 35 d2 3d 7e 4c 59 3d
       -0.0047204574 -0.0007512001 0.10264073 0.053051464
0002c0 78 cc 96 3d fb 97 23 3d 17 16 a5 bd bb 3b 95 3d
       0.07363218 0.03993986 -0.08060854 0.07286783
0002d0 4b 02 03 bd b2 22 31 bc 9a ed 6f bd 95 72 d9 bc
       -0.03198461 -0.010811495 -0.058576204 -0.026543895
0002e0 5f ea 05 bd ca ed b9 3d ba 1d d0 bc 9c b3 80 bd
       -0.032694217 0.09078558 -0.0254048 -0.06284258
0002f0 9e 9a 22 bc 13 28 58 bd d0 2d 89 3d 3e f5 a9 bc
       -0.009924559 -0.052772593 0.06698191 -0.020746823
000300 2d 81 96 bc f7 d4 a8 bc dd d8 d5 3d cc 02 e5 bd
       -0.018372143 -0.020609362 0.10441754 -0.11182174
000310 a2 0a 9d bc 2d b2 2b 3d aa c9 fe 3a 07 45 97 bc
       -0.01917011 0.04191797 0.0019438763 -0.018465532
000320 f3 56 77 bc 40 18 b8 bc 4e db 3d 3d 76 b4 8a bd
       -0.015096414 -0.0224725 0.046351723 -0.067727014
000330 a5 85 bd 3c 3e 59 09 3d c7 38 18 3d 86 22 21 3d
       0.023135016 0.033532374 0.037163522 0.039339565
000340 8d 29 d7 bc 9d 68 b5 3d 81 2c 96 3b db 85 a9 3d
       -0.02626493 0.08857844 0.004582942 0.08277484
000350 2d fa 4e bd 08 e5 79 3d 38 97 c6 3d 57 44 81 3d
       -0.050531555 0.061009437 0.096968114 0.06311863
000360 36 57 a5 3d bc 16 dc bd dc d4 34 bc f2 2c 74 3d
       0.08073275 -0.10746524 -0.011037078 0.059613176
000370 3b 25 89 bd cf 0c e6 3d c6 f4 fd bc c9 3f fa bd
       -0.06696554 0.11232912 -0.031000506 -0.12219197
000380 0a cc 8e 3d 8a 02 c4 bc df 15 2a bd e8 0c d9 3b
       0.06972511 -0.023926992 -0.041524764 0.006623853
000390 f6 66 0d 3e 47 b1 7b 3d 28 67 d9 bc c6 da 72 bd
       0.13808808 0.06144836 -0.026538447 -0.05929067
0003a0 8c 01 86 3d 27 80 46 bd 39 f4 92 bd a1 c8 94 bc
       0.06543264 -0.04846206 -0.07175488 -0.018162074
0003b0 f1 43 dc 3b 64 5f 12 3b f4 45 a5 3a 51 70 ed bd
       0.0067219664 0.002233469 0.0012609349 -0.11593688
0003c0 6c 8c 85 bd d3 3f 65 bd 21 08 fa 3c 66 02 a6 bc
       -0.06520924 -0.05596907 0.030521454 -0.020264816
0003d0 8a eb c5 bd ee 59 a2 3d 55 c0 e5 bd df f8 a7 bd
       -0.09664066 0.07927309 -0.11218325 -0.08201765
0003e0 29 59 c5 bd e1 1a 69 3d 7d c2 b7 3d 13 aa 80 3c
       -0.096361466 0.0569104 0.089726426 0.015706098
0003f0 1e 4f 0b ba f2 1c 32 3d 0d 3f 3f 3d d6 55 6b bd
       -0.00053142186 0.043484636 0.04669099 -0.057454906

bias f4 [32]
000000 60 6d 9d bd 7a 2f 03 bd e6 0d 37 3d dd 11 2f 3e
       -0.07686877 -0.0320277 0.04469099 0.17096658
000010 ca a5 02 3d 9a dd ea 3d 65 d2 eb bd 7c a4 06 3d
       0.03189639 0.114680484 -0.11514739 0.03287171
000020 70 59 2d 3e 19 ff cb bb 92 d7 0a bd 5f 7a b2 bd
       0.16928649 -0.0062254784 -0.03389699 -0.08714747
000030 5f 3f d2 3d de 8c ea 3c 28 68 93 3c 02 c9 e7 3d
       0.10265993 0.028631624 0.017994002 0.11317636
000040 31 5c aa bd 7b 43 95 bd 52 62 8a bd e0 45 80 bc
       -0.08318365 -0.072882615 -0.06757034 -0.015658319
000050 25 ca d0 3c 6d 09 91 bd ad 65 1a 3e 0a 7c ec 3d
       0.025487015 -0.07081876 0.15077849 0.11547096
000060 1d fc 08 3d 41 69 82 3d 13 82 ed 3b 3a 59 90 3d
       0.03344356 0.06367732 0.007248172 0.070482686
000070 47 c4 ea bc 9b 04 d9 3d 3d 63 9f bd 05 7b 6c 3d
       -0.028658045 0.105965815 -0.077826 0.057734508

weight f4 [1, 32]
000000 fa b9 f9 bd 74 3a fc bc 5e c1 ba 3d 94 00 fc 3d
       -0.12193675 -0.030789591 0.09118913 0.12304798
000010 3e 5d 40 3e 63 51 ed 3d f4 63 a6 bd ad 23 0b be
       0.18785569 0.11587789 -0.08124533 -0.13587828
000020 77 c8 69 3e ef 2e fb bd 59 92 8c bc a3 0c c9 3d
       0.22830378 -0.12264811 -0.017159628 0.098168634
000030 9e fd 55 3e cf e5 43 3e e9 03 44 be 48 16 1f 3e
       0.20897529 0.19130634 -0.19142117 0.15535843
000040 66 6a 8a 3d 1c a5 e4 bd 4d 0d ee bd 1a 1c a7 3d
       0.06758575 -0.111643046 -0.11623631 0.08159657
000050 d1 7c 6a 3e 6f 22 4c bd 5e 82 0e 3e 65 51 4c 3e
       0.22899176 -0.049837526 0.13916919 0.19952925
000060 26 60 2e 3e ee d7 11 3e 50 b1 3e bd c2 43 2e 3e
       0.17028865 0.14242527 -0.046555817 0.17018035
000070 88 d6 03 be a9 fa c7 3d 06 44 c0 3c 16 d4 fb bc
       -0.12874806 0.097646065 0.023469936 -0.030740779
