Baseline_systems/SoMS/models/SoM_GRU_2/16_0.pth (torch, 181391 bytes, 8 tensors)

weight_ih_l0 f4 [192, 36]
00000000: c83c 863d 1b17 78bd c206 cdbc 89a7 9dbd
00000010: bae0 4fbd 24af ecbc f18e afbd 9a18 bdbd
00000020: cf92 853d 6193 03be 8235 11bd e384 4a3c
00000030: b511 87bd 1ee0 3a3c 3b2b 71bd 08af b5bd
00000040: 4630 babd f5ab fb3d 5d19 69ba 3d96 073e
00000050: 7e89 48bd 655f 4cbd 412c 3b3c ea34 04be
00000060: 0233 953d 4bee 9dbb 4e8f 3fbd d7a8 efbd
00000070: 7f90 f43c 6183 d93d 0d03 053c 8938 c13d
00000080: 61db 993d a163 8d3d 8ae5 a93d 9110 9abd
00000090: c639 763c 1e34 dabd 1c9b 0bbe f0f9 d63c
000000a0: 6a47 ac3d 3879 9d3d 5ccb d83d 1ac9 94bd
000000b0: 5639 f3bd 8cc8 8e3d 4db6 ffbc 0f9f bcbc
000000c0: 7a94 ee3c 509f 323d 2cab ea3c 8c7d 0e3e
000000d0: 90bc 7b3d 0a92 b03c c2ba e23c b5d0 03bd
000000e0: 5656 963d a730 d33d 9457 373d b5e7 c33d
000000f0: 3ce3 93bd d471 b0bc 73e3 c5bd 71ec 973d
00000100: 6382 f33d 4e97 a7bd f5b0 9bbd 743a 833b
00000110: ce9d 6fbd fa12 f83d 60e5 c238 082a c53d
00000120: 9aae 4ebc 0414 b43d c9b5 043d 876c d8bd
00000130: 261a 89bd e698 ac3d 7636 c43d 688d de3d
00000140: 5b0b 523c ef5b 283c 66ab d5bc 353b 5dbd
00000150: 8b3a c43d bd7d afbc 56ad a43d cbf7 5b3d
00000160: 9604 85bd 23fa cabd 3f74 f7bb 10dd 2cbb
00000170: 777b b93d 13da 643d 1845 c2ba 5501 6f3d
00000180: ae82 0b3c b063 d7bc 1d64 bd3b 8b4c bf3d
00000190: 931f c43d 8b2f 7ebc b6eb d03c c82c fdbb
000001a0: c197 ce3c 180a 6a3d 4fe7 b13d 7439 c1bd
000001b0: 32a7 a4bd e3c2 d63c 3cf6 0b3e dd50 c03d
000001c0: 61f9 923b 4c54 4bbc dd4c c43d c4f1 803d
000001d0: 33ba 0bbe ca0c cdbc 1bbc 65bd ecff 72bc
000001e0: bc92 113d 484c 223d 0be6 ffbd 9455 4a3d
000001f0: 5143 cfbd 6cb1 b6bd bc7a 45bd 02e2 d33c
00000200: 48cb 3c3b ebfa b1bd dfcf 8cbd 083f bfbd
00000210: 0157 d3bc 2ce3 d2bd 5a3d a6bd fa45 74bd
00000220: adf3 e0bd 413f a8bc 3e2d cebd 8abf a33c
00000230: 247e 09be 0f49 803d 078f d8bc 32b5 d33c
00000240: 4728 62bc c635 b0bd 439d c53c 9a04 b63c
00000250: 2234 bcbd 6ce1 8dbd e57a f5bd fadb cd3c
00000260: 66f8 91bd 52e6 8ebc 3de5 e63d 4ba8 aa3d
00000270: 129f 963b 8779 5cbd c476 ffbd 08cc 3c3d
00000280: 9b1a c33d b511 323d 7654 debd a636 ef3d
00000290: 05af dd3c 2a06 cebc 4827 aabd 18fa f33b
000002a0: e3e6 5cbd ac1b 563d e396 88bd 5b60 53bc
000002b0: 6f18 f2bc a873 a7bd a6e9 933c 2f46 273d
000002c0: cf25 c3bd fbd4 7abd 2ca1 adbd 367b ae3c
000002d0: 61a1 d03d db15 a83d a460 693d a4c2 13bd
000002e0: b4b1 a63c 4e6c 003e 6859 d73d 525c d2bd
000002f0: 834a 013e 7696 9cbd 976a f63b a4db d13d
00000300: 9e32 90bd b821 bfbd 4869 eb3d 0b8d 71bc
00000310: cd86 d0bc 408a d43d c189 b03b 10a5 e53c
00000320: 6656 113c 221b 60bd 121f 5ebd cbcd a3bd
00000330: 45cc a0bd 571d 053e 3c02 c2bd 784a a2bd
00000340: be5c d1bd bd76 de3d 0d9b 413d 777a 2a3d
00000350: 9acb a1bd 3f23 d03c 1c83 4dbd b4d1 14bd
00000360: 84dc 823d 0fe6 e93d d05d f03d 3e2b 1b3d
00000370: 2b37 c8bd 428b 263d 28ae 983d e12d 563d
00000380: 111c 2d3d a637 ba3c 3e89 933d b520 99bd
00000390: 086c bfbd 5804 8c3d fd15 09bd b9ec 18bc
000003a0: b2fb 313b 0e98 863d bbf4 073d ebf2 36bd
000003b0: 97f0 f9bd e963 04be c01b af3d dd25 22bc
000003c0: 3dfc f3bb cf59 403d e349 a03d 9275 dc3d
000003d0: 59c4 493c 8c86 1fbd a9c4 b9bd 4f23 943d
000003e0: 6223 bbbd f5cc a9bc e907 44bd 0a93 ebbb
000003f0: 9097 81bd ea0f 9ebc 1970 b93d 9b54 c2bd
0.06554562 -0.06056891 -0.025027636 -0.076979704 -0.050751425 -0.028892107 -0.08572186 -0.09233208
0.06522142 -0.1284919 -0.03545142 0.012360784 -0.06595174 0.011405973 -0.05887912 -0.08871275
-0.09091239 0.122886576 -0.0008892024 0.13240905 -0.048959248 -0.049895663 0.011424125 -0.1291081
0.072851196 -0.0048196665 -0.046767525 -0.117021255 0.029854057 0.10620762 0.008118403 0.09434611
0.07512546 0.06903768 0.08295734 -0.07522691 0.015028423 -0.10654472 -0.13633388 0.026242226
0.08412059 0.07689136 0.10585663 -0.072649196 -0.1187617 0.06971845 -0.031214857 -0.023025064
0.029123534 0.043608963 0.028646074 0.1391508 0.061459124 0.021554012 0.027676944 -0.03218146
0.07340686 0.10312014 0.044761255 0.09565679 -0.07221076 -0.021538652 -0.09662523 0.074181445
0.11890104 -0.08183156 -0.07602111 0.004004771 -0.058500104 0.121129945 9.293365e-05 0.096271574
-0.01261487 0.0879288 0.032399926 -0.10567575 -0.066944405 0.084276006 0.095807 0.10866815
0.01282009 0.010275825 -0.026082706 -0.054011542 0.09581479 -0.021422261 0.08040874 0.05370311
-0.06495015 -0.09910991 -0.0075516994 -0.002637688 0.09056752 0.055872034 -0.0014821617 0.05835088
0.008515043 -0.026292652 0.0057797567 0.09340771 0.09576335 -0.015514265 0.02550302 -0.0077262856
0.025218846 0.057138532 0.08686697 -0.094347864 -0.080397025 0.026215976 0.1366815 0.093904234
0.0044852947 -0.012410235 0.09584973 0.06296113 -0.13645248 -0.025030512 -0.056087594 -0.014831524
0.035540327 0.03962353 -0.12495049 0.04939802 -0.101202615 -0.08920559 -0.04821275 0.025864605
0.0028807689 -0.08690437 -0.06875586 -0.09338194 -0.025798323 -0.10297236 -0.08117171 -0.059637047
-0.109839775 -0.020537974 -0.10067223 0.019988794 -0.13427025 0.06263935 -0.026435388 0.025843237
-0.013803548 -0.086040065 0.02412284 0.022218991 -0.09189631 -0.069277614 -0.11986331 0.025129307
-0.07127456 -0.01744381 0.112741925 0.083328806 0.0045965994 -0.053826835 -0.124738246 0.046093017
0.09526559 0.043473918 -0.108559534 0.11680345 0.027060995 -0.025149424 -0.083082736 0.007445585
-0.05393113 0.052272484 -0.06669404 -0.012901391 -0.029552666 -0.081763566 0.018055748 0.040838417
-0.09528696 -0.06123827 -0.08478007 0.021298986 0.101870306 0.082072936 0.05697693 -0.036074296
0.020348407 0.12541315 0.105151 -0.10271515 0.1262608 -0.07645886 0.0075200307 0.10246971
-0.070409045 -0.09332603 0.1149469 -0.0147431 -0.025454903 0.103779316 0.0053875153 0.02803281
0.008870697 -0.054713376 -0.05422885 -0.07998236 -0.07851461 0.12999474 -0.094730824 -0.0792436
-0.10222767 0.10862491 0.04726701 0.041620698 -0.07900162 0.025407432 -0.050173864 -0.0363328
0.06389716 0.11420833 0.11736643 0.037883036 -0.097761475 0.04066015 0.07455093 0.052289847
0.042263094 0.022731613 0.07203911 -0.074769415 -0.09346777 0.06836766 -0.033468235 -0.009333783
0.0027158079 0.06571971 0.033192378 -0.04466526 -0.12204092 -0.12928738 0.08550215 -0.009896723
-0.0074458406 0.04696065 0.07826593 0.10764612 0.012314879 -0.038946673 -0.09070713 0.07233297
-0.09137608 -0.020727614 -0.047859106 -0.0071891593 -0.063277364 -0.019294698 0.09054584 -0.094887935

weight_hh_l0 f4 [192, 64]
00000000: a820 ffbd 5c57 963d 6245 48bd 8bc7 8dbd
00000010: ad1f 003e 92e5 b63c 032b 593d fdfd bdbd
00000020: 1ac6 bebd 29ac c13b b3e0 b3bc 6e28 ac3d
00000030: 302c e73d 4c33 3bbd dbd5 c4bd f347 243c
00000040: c49e 5d3d 3cc8 14bd 4f60 173a 96dc 673d
00000050: b43c 55bd 2a94 87bd bf4a 643d ed55 ecbd
00000060: 6a00 df3d 1bf3 983d 32d0 963d eb8c 04be
00000070: 8028 8d3d d26a b5bd 5609 a53d c7fb d7bd
00000080: 1b94 7c3c 2c74 383d 18ae 113d 7695 7cbd
00000090: 2c01 693d 1717 babd 20a2 bebb cbc7 c8bd
000000a0: 2c31 fcbd 99f3 5ebd e522 4f3d 04fb 65bd
000000b0: 04e0 ab3b 5764 063d c1df d3bd 6d52 30bd
000000c0: 65e9 403d 0a7d 8bbd 5734 cbbc c206 9fbd
000000d0: 11ac 003d 8952 e53d ac71 8d3d d174 dabd
000000e0: 6025 b03d d645 91bd b7db a7bd 8b4a ff3c
000000f0: 80bf 793d 8158 c4bd 1516 adbb c2f8 b83d
00000100: 8f66 35bd 1649 c2bd 5836 42bd 7d38 593d
00000110: 9737 d7bd d14b 05bd 7084 933d 4d92 d33c
00000120: b61b 8e3d 5753 95bd 0f05 a03d 0dbf c43c
00000130: 2199 65bd 9aa5 813d b79e ac3c ec6c b43d
00000140: 9d53 76bd cd40 26bd 63b0 37bd 5a19 95bc
00000150: 4aa5 b03b 400e 38bd ac93 7bbd 8f72 4a3d
00000160: b9d9 743d 1ec0 f6bd 5b7c 8c3d 17c0 d03d
00000170: 7a0c 89bc b2fc b93d 671f 35bd be71 3abb
00000180: d6d5 db3d aa62 0cbe cd71 063e 5971 7fbd
00000190: f744 09be 7ffd b0bd 0bc3 08bd 7905 46bc
000001a0: 81b3 3bbd 8d49 dabd 4ac4 39bd 014a 0e3d
000001b0: eb03 d03d a16b 503d 6c13 7dbd 35d9 953d
000001c0: b4c9 533c fb11 e83d 68ac e83d d595 c13d
000001d0: 39b1 ee3d 3953 db3d 8b51 213d 1581 96bd
000001e0: 0f8d dfbd d30c 4fbd f012 91bc e929 fdbc
000001f0: 3a84 88bd 003e ab3d 427b a63b 5a86 b93d
00000200: a2f5 013d 9499 c0bc cf01 06be a0d8 b13d
00000210: ae8d 63bd 70bf e73d cff8 a43d 9b34 b1bd
00000220: c6c1 fabd 7150 663d ee84 bfbc b4c4 c63d
00000230: 0ab5 b33d 819a 48bc c627 993b c1b8 95bd
00000240: 9056 29bd cf40 e43d 77d6 32bd 2846 623d
00000250: 14d9 15bd 3056 2a3d e3c9 9ebc 3e25 a33d
00000260: 2fe5 a23d 1103 e03d fa7e a7bb fbab 393c
00000270: 48dc 50bc ecd4 e53c 3dbb 4ebc 029e d23d
00000280: 077b e33d f629 0cbd 22b7 063d 24f1 ac3d
00000290: c87e b73c 5dc8 f13d bdc6 2b3d d399 3fbc
000002a0: 0600 bdbb 9935 0bbd 2ce6 0c3d 3ee1 833c
000002b0: 19da a5bc 4126 69bb 7eeb d83c 0d6d cdbd
000002c0: 2f42 f33d d0b8 20bd d78b e13d 5444 81ba
000002d0: a120 94bd 7e3a 843c d024 84bd 952a b23d
000002e0: 16c8 a53c ab0d 1dbb 5660 cbbd efea 07be
000002f0: ad59 2ebd b32b 1dbd 9f71 df3d f5d4 f23d
00000300: 45fe e4bd 71de cebd 9f4e 3cbd 683e a4bd
00000310: 7049 e73d 3e8e 63bd 3629 ee3d fe70 19bc
00000320: 71ad 643c 19d5 88bd f868 81bc c2bb b0bd
00000330: 5dca dfbd eaf3 87bd 8dad 7fbd e1eb d63d
00000340: 1e9b c5bd db8b 803d 6f22 b03d ec06 313d
00000350: 1477 013d 04e3 44bd 55c4 a63c b510 653d
00000360: bd59 363d e5c0 e23c d816 543b df39 613d
00000370: 7a02 a4bd ec95 273d d4a7 c73c 0d43 6f3d
00000380: 952e af3d 0613 99bc 2869 d13d 2a74 efbd
00000390: b0cb 1abd 09d4 5cbd 73d9 ccbd 49db eb3d
000003a0: 725b 913c af4d a93d 83a2 b03d a4c6 fa3d
000003b0: 1874 cfbd e64e 5dbd 5def d03d 0428 0cbd
000003c0: e7ff 9e3d 522f 03be caf1 9c3d 8edd afbd
000003d0: 4065 abbd be28 963d df41 94bd d512 fdbc
000003e0: 388f 183d 966a 063c 9090 51bd b6c0 b63d
000003f0: 9066 91bd 1014 353d c2b4 e23d b244 0e3e
-0.124574006 0.07340881 -0.048894294 -0.069228254 0.12512083 0.022326265 0.053019535 -0.0927696
-0.093151286 0.0059104157 -0.02195773 0.08406149 0.11287725 -0.045703217 -0.09611102 0.01002692
0.05410649 -0.03632377 0.0005774544 0.05660685 -0.052059844 -0.06620057 0.055735346 -0.115398265
0.10888751 0.07468244 0.07363929 -0.12944381 0.068924904 -0.08858265 0.08058421 -0.105460696
0.0154161705 0.045032665 0.03556642 -0.061665975 0.056885883 -0.09086435 -0.0058176666 -0.098037325
-0.12314066 -0.05443153 0.050570387 -0.05614759 0.0052452106 0.032810535 -0.10345412 -0.043047357
0.047097582 -0.06810959 -0.024805231 -0.07764961 0.031414095 0.11197383 0.06906447 -0.10666812
0.08600879 -0.07093398 -0.08196204 0.031163475 0.060973644 -0.09587193 -0.0052821734 0.09031822
-0.04428726 -0.09486596 -0.047415107 0.053032387 -0.1050865 -0.032543007 0.07202995 0.025826598
0.06938879 -0.072912864 0.07813465 0.024016881 -0.05605424 0.06330414 0.021071775 0.08809838
-0.060138334 -0.040589143 -0.04484595 -0.018200565 0.0053907977 -0.044935465 -0.061420128 0.049425658
0.05977795 -0.12048362 0.068596564 0.10192888 -0.016729582 0.09081401 -0.0442194 -0.0028449143
0.10734145 -0.13709512 0.13129349 -0.062363956 -0.13405214 -0.086421005 -0.033389132 -0.012086266
-0.045825485 -0.1065856 -0.04535321 0.034738544 0.10156997 0.050883893 -0.0617861 0.073168196
0.012926508 0.113315545 0.11361009 0.09452406 0.11654896 0.10709233 0.039384406 -0.07348839
-0.10915577 -0.05054934 -0.017709225 -0.030903773 -0.06665845 0.08361435 0.0050806114 0.09058829
0.031728394 -0.023510732 -0.13086627 0.08683896 -0.05555504 0.11315811 0.08055269 -0.08652612
-0.122439906 0.05622906 -0.023378816 0.09705487 0.08774765 -0.012243868 0.004673931 -0.0731063
-0.041342318 0.11145174 -0.04366156 0.055242687 -0.036583975 0.0415861 -0.019383376 0.07966088
0.079538696 0.10938085 -0.0051115723 0.011332507 -0.012747832 0.02805563 -0.012617883 0.10284044
0.1110745 -0.034219705 0.032889493 0.084444314 0.022399321 0.118057944 0.04193758 -0.011694389
-0.005767825 -0.03398666 0.034399197 0.016098615 -0.020245599 -0.003557578 0.026479479 -0.100305654
0.11877858 -0.03923875 0.110130005 -0.0009862282 -0.07232786 0.016141172 -0.06452334 0.08699528
0.02023701 -0.0023964446 -0.09930484 -0.13273214 -0.04256599 -0.038371753 0.109103434 0.118570246
-0.111813106 -0.10101021 -0.045973416 -0.080197155 0.11293304 -0.055555575 0.11628954 -0.009365318
0.013957367 -0.0668127 -0.015797123 -0.08629562 -0.109272696 -0.0663832 -0.06242137 0.10494209
-0.09648727 0.06276675 0.08600318 0.04321949 0.031607702 -0.04806806 0.02035729 0.055924136
0.044519175 0.02767987 0.0032362249 0.05498683 -0.08008285 0.04091446 0.024372019 0.058413554
0.08553807 -0.018685829 0.10225135 -0.116920784 -0.037791908 -0.05391315 -0.10002413 0.11516435
0.0177438 0.0826677 0.08624747 0.12244919 -0.10129565 -0.05403032 0.10201905 -0.03421785
0.07763653 -0.1281102 0.07663305 -0.0858718 -0.08368921 0.0733199 -0.072391264 -0.030892769
0.03724596 0.008204123 -0.051163256 0.089234754 -0.0709964 0.044208586 0.11069633 0.13893393

bias_ih_l0 f4 [192]
00000000: a46e 483c adf3 abbd f0a3 e2bc 22b9 c3bb
00000010: 3440 413d 8c33 473d c9ef a83d c65d 193d
00000020: 51e9 e3bc ed55 45bd 0963 8c3d 2acf e83d
00000030: 456f 0fbd 6c3d 6c3d 8527 68bd 2235 1abc
00000040: e29f ef3d 4ba5 9dbc fc3d 8abc 7dbd c63d
00000050: 86c5 5fbd dadc b83d d49e 9dbd 927b d63d
00000060: 9507 f33d 4abb 0ebc 9bb4 dbbc d3e4 5c3d
00000070: 8665 993a df69 85bc b2c3 73bd 04fe 673d
00000080: 3ab5 e13c 59f4 853d 6d62 bdbd daf0 113c
00000090: 76ce c5bc 5480 943d 90dc cf3d 8009 c5bc
000000a0: 9b67 a13d ab57 c9bd 2ac4 813d a2cc e5b9
000000b0: 5fe3 cabd fe3f 3bbd a6d2 7cbc 7109 05bd
000000c0: 1b5c 883d fac9 723c 4907 fc3d e237 bd3c
000000d0: df55 e63d a61f cabd 1c73 abbd 416d bcbd
000000e0: 402f 613b f7c8 c03d ad1d b5bd b336 9a3d
000000f0: adbd e8bd a49b f3bd 803c e3bb 1e9a 58bd
00000100: 8aec cc3d c781 b13c 5c26 e73c 2973 b5bd
00000110: d5c1 c23d 1a2e 92bd 2c2a c63b 1fc5 833d
00000120: 4d27 a23c 3ad0 42bd 807b 343d 722c bf3d
00000130: cf8b 83bd ac8f d3bd 098f 86bd 22d8 aa3b
00000140: 51bb 063d 8fc8 cabc 994b 8bbd af53 b7bd
00000150: 5c1b 0d3d c276 1ebd ea27 4e3d 956e 2e3c
00000160: 117f cfbd cd26 f13d b24f 91bd e3d1 f1bd
00000170: 9627 53bd 1a90 62bc 88cf c23c 63d2 e8bc
00000180: 4af8 46bd 44f4 883d 4fb6 b43c fc47 fd3d
00000190: 57e5 c33d 31d0 72bd 4727 d0bc 0074 77bd
000001a0: a436 10bd 8793 2b3d 344a 59bc 0bc3 ee3c
000001b0: 73fe c0bd 80e7 6c3c 0f66 e33d 0d37 1ebd
000001c0: 9403 7a3d 3ac2 af3d da39 913d 2ae6 babd
000001d0: fed9 1fbd 2912 953d b2f0 c23d 4293 993d
000001e0: ea1f 06bc a4ea 7e3c 6ee4 843d c47a dcbd
000001f0: 0e1a 0a3d 436f b23d edef c93c 6efc 053c
00000200: 456f e1bd de76 4cbd 042d c2bc d631 f6bc
00000210: dd50 d03d a817 8b3b 419d bf3d 0ceb e53d
00000220: 3ae3 16bd 6155 28bd 944f 64bd 5ede 27bd
00000230: f9f4 fdbd c2c6 e13d 1ea5 bc3d a64f a13d
00000240: 7fc7 3f3d c30f 213d 31b1 b0bd ce2e 133d
00000250: d450 93bd 225a 3a3d ca8e b2bc 748f 8ebc
00000260: 7cf1 843c bea9 b9bd 94a4 60bd 676c efbb
00000270: 4a09 533d e97d d23c b049 f8bd c650 12bd
00000280: 6c19 09bd 4e46 a63d 266c ba3d f889 ba39
00000290: 221c cabd c7e9 c53d f9d2 963b c442 83bd
000002a0: b5d9 8a3c a62e c13d 1b70 783d ba17 f0bd
000002b0: bf63 e33b 1563 c8bd 65c9 153c fdf5 f8bc
000002c0: f16b b9bd 48b7 85bd 2d31 c83d 6d71 7dbd
000002d0: a0f1 d63d 641a 21bd 1c35 933d 8090 3a3d
000002e0: 3665 69bd e006 84bd 418f 3a3c 96dc f4bd
000002f0: f384 8dbc 61eb 49bd 452b 0dbd cf25 2fbd
0.01223341 -0.08396087 -0.027666062 -0.0059729973 0.04718037 0.048633143 0.082488604 0.037442945
-0.027821215 -0.04817765 0.06854827 0.113676384 -0.035018224 0.057675764 -0.056678314 -0.009412082
0.11700417 -0.019243857 -0.01687526 0.09704111 -0.054631732 0.09026499 -0.0769631 0.10472788
0.118666805 -0.008711645 -0.026819518 0.05392916 0.001170323 -0.016285835 -0.0595128 0.056638733
0.027552236 0.06540746 -0.09247289 0.008907521 -0.0241463 0.07251039 0.10149491 -0.024052382
0.07881089 -0.098311745 0.063362435 -0.00043830747 -0.09906649 -0.045715325 -0.015431082 -0.032479707
0.06658193 0.014818663 0.12306077 0.023097936 0.11246847 -0.09869318 -0.08371565 -0.09200526
0.0034360439 0.09413331 -0.08843551 0.07529964 -0.11364303 -0.118949205 -0.0069347024 -0.052881353
0.10006054 0.021668328 0.028216533 -0.08859856 0.09509627 -0.071376994 0.0060475077 0.06434082
0.01979413 -0.04756186 0.04406309 0.09334649 -0.06423151 -0.103301376 -0.065702505 0.0052137533
0.032893483 -0.024753837 -0.068015285 -0.08951508 0.03444992 -0.038687475 0.050331034 0.010646482
-0.10131658 0.11774979 -0.07095279 -0.11807611 -0.051551424 -0.013828302 0.0237806 -0.028420633
-0.04857663 0.06687215 0.022059588 0.123672456 0.095652275 -0.059280578 -0.025409354 -0.06041336
-0.03520836 0.04188874 -0.01326232 0.029145738 -0.09423532 0.014459491 0.111034505 -0.03862672
0.06103857 0.08581968 0.070911124 -0.091259316 -0.039026253 0.072788544 0.09518565 0.0749879
-0.00818632 0.015558872 0.06488882 -0.10765603 0.033716254 0.08712628 0.024650538 0.00817786
-0.11007551 -0.049918048 -0.023703106 -0.03005306 0.101716734 0.0042447634 0.09356166 0.11226472
-0.036837794 -0.04109705 -0.055739954 -0.04098355 -0.124002405 0.11024238 0.09211181 0.0787652
0.046821114 0.039321672 -0.086275466 0.03593331 -0.07193151 0.045496114 -0.021796603 -0.017402388
0.01622843 -0.09065579 -0.054844454 -0.0073066237 0.05152253 0.025694804 -0.1212343 -0.035721563
-0.03347151 0.08118878 0.09102659 0.0003557948 -0.09868647 0.0966373 0.0046027866 -0.06409219
0.016949514 0.094327256 0.060653787 -0.117232755 0.006939381 -0.097845234 0.0091422545 -0.030390734
-0.09053791 -0.06529099 0.097750045 -0.06187575 0.10495305 -0.03933181 0.07187864 0.045547962
-0.056981288 -0.06446624 0.011386693 -0.11956136 -0.01727531 -0.04929674 -0.034465093 -0.042760666

bias_hh_l0 f4 [192]
00000000: 1b1e 533d f916 3b3c a315 e4bd 001b cebd
00000010: e142 e73b 056c 6a3d fd8d 6d3d f902 b3bd
00000020: c69b b5bb 43b1 d03d fb02 eebd ff1f 003e
00000030: 28bc babd 896e ec3d ec0c e7bd e0b3 833d
00000040: fe2e a33d 71f3 04be 2e3e 54bc 5b8b c03d
00000050: e5f2 fd3c f446 8dbd b868 883b 7021 87bd
00000060: 26f3 74bd ab95 82bd 78e3 6fbd 4eba 8e3d
00000070: 16ba d23c 8cd8 873d 3820 4bbd 875d b13d
00000080: 61f3 d23d 9264 57bc 5ed9 26bd bf57 ee3d
00000090: b0d7 cb3c f1ea 47bc c15c cabc c861 57bd
000000a0: 5424 a4bd c51c 87bd 928f cc3d 4233 3f3d
000000b0: 4b63 efbd 7ce8 50bb dd41 c53c 1f5f d9bd
000000c0: 1491 73bd 5e52 dcbd 2613 58bd 424e 9cbd
000000d0: 7227 43bd 8a0e 03bc c398 033e e46f d63d
000000e0: bb84 9cbd 7579 ad3d 8b25 01be 654d 91bd
000000f0: 0dcf ae3d 9bb5 953d 8bb1 d0bd 8a75 f4bd
00000100: f6c4 a1bd bbab 0f3e f544 eabd d8ba 66bb
00000110: a942 47bd c2ed cc3c 16e7 173d 1b02 02bd
00000120: 188f d4bb ac78 bebd aba4 f4bd ceba 60bd
00000130: 6cee 9f3c c7d2 953d 9cb8 b43d a461 ed3a
00000140: d875 e63d a79b e53d 440e 103d 582f 823d
00000150: ee99 cabd 9250 eebc 4d23 33bd 6cd0 9f3c
00000160: 6bd7 e03d f6ad bd3d 811b 10bd 8dd3 d3bd
00000170: eab8 0cbd 3664 92bd 598d db3c 086f c6bd
00000180: fd00 92bc 42d2 30bd bc0d d13d f78e 8ebd
00000190: aac2 cfbd e7ee 053d a877 153d 991e 8c3d
000001a0: 186d 193a da2d 5dba b918 c5bd 62cc b3bd
000001b0: d711 87bd e53e 823d 4b8a 8e3d a266 f4bd
000001c0: 7ffd b73d b22e ec3d 97a2 913d fc16 a6bd
000001d0: 00ac 7a3c dc8a a0bd 3fc0 83bd f26f bf3d
000001e0: 5067 f33d 3518 4bbd 0299 043e 2089 913d
000001f0: dfca e1bd 62f1 a13c 1785 08bd 0f8a 58bd
00000200: 9f15 e5bd d3b1 abbd 3423 10bd 623d 2dbd
00000210: 1eef dc3d 3403 c1bd d152 9c3d 028a ca3d
00000220: a34d 583d 1447 e4bd 806f 2a3c d4d3 a73d
00000230: c378 bf3c ff43 59bd fef6 783d 10cd c6bd
00000240: 6834 2abd cd75 233d d205 eabc 0d0d cabd
00000250: a45b e0bc 2942 9a3d 15cc afbb 7095 c43d
00000260: 85f0 fcbd cca9 ed3d bcf0 013e 3ecc 24bd
00000270: 474e 6ebd 194d 47bd 3cab 00be 3374 ddbd
00000280: 8bc0 303d 1b1c 82bd 4429 543d 3202 babb
00000290: 46a4 753c 9a4c e8bc b713 f23d cedd 5f3c
000002a0: 2d29 7e3d d63a 1a3d 2b2a afbd a646 df3d
000002b0: c752 6ebd 8d95 0c3d fb9a 04be 78a4 d5bd
000002c0: bd34 a4bc 45e9 e73d 841b 043d d8fc 64bd
000002d0: f3d5 8abd 47ab ea3c 6a04 7bbd d2d4 823c
000002e0: 5d4c 11bd c273 8f3c ac01 cabd b44f e2bd
000002f0: 992d e03c 1aa3 c43d 226a 88bd 597c 97bd
0.051542383 0.011419051 -0.111369394 -0.100637436 0.007057533 0.05723192 0.05799674 -0.08740801
-0.0055422513 0.1019006 -0.11621662 0.12512206 -0.09117919 0.115445204 -0.112817615 0.06430793
0.079679474 -0.1298349 -0.012954278 0.0940158 0.03099961 -0.06898299 0.004162874 -0.065981746
-0.059802197 -0.06376203 -0.05856654 0.069691285 0.025723498 0.066331 -0.049591273 0.08660417
0.10300327 -0.013146536 -0.04073464 0.1163783 0.024883121 -0.0122020105 -0.024702432 -0.052583486
-0.080147415 -0.06597284 0.09988321 0.046679743 -0.116888605 -0.0031876853 0.024079258 -0.10613846
-0.05946453 -0.10757898 -0.052752636 -0.07632114 -0.04764504 -0.007999072 0.12851243 0.1047056
-0.07642504 0.08470432 -0.12611978 -0.0709484 0.085355856 0.07310029 -0.10190114 -0.11936481
-0.078988954 0.14030354 -0.11438934 -0.0035206582 -0.048647556 0.025015716 0.037085615 -0.03174029
-0.0064867847 -0.0930036 -0.119454704 -0.05486565 0.019522868 0.07315593 0.08824274 0.0018110764
0.11252946 0.11211329 0.035169855 0.06356686 -0.09892641 -0.029091153 -0.043734837 0.019508563
0.10978588 0.09261696 -0.03518248 -0.103430845 -0.034356035 -0.0714802 0.026800798 -0.09689146
-0.017822737 -0.043169267 0.10207698 -0.06960862 -0.10144551 0.03269854 0.036491066 0.068417735
0.0005852743 -0.00084373134 -0.09623856 -0.08779217 -0.065951996 0.063596524 0.06959971 -0.11933638
0.089838974 0.11532344 0.0711109 -0.08109853 0.015299797 -0.07838985 -0.064331524 0.09347524
0.1188494 -0.049583632 0.12948993 0.07106233 -0.11025023 0.01976842 -0.03333005 -0.052866038
-0.111857645 -0.08383527 -0.035189822 -0.042294867 0.107877955 -0.09424439 0.076329835 0.09889604
0.052808415 -0.111463696 0.01040256 0.081947 0.023373013 -0.05304336 0.060782425 -0.09707081
-0.041553885 0.039907265 -0.028567228 -0.098657705 -0.027387448 0.0753215 -0.0053649046 0.095988154
-0.12350563 0.11604652 0.12689489 -0.040233843 -0.05818012 -0.04865751 -0.1256532 -0.10813179
0.043152373 -0.06353017 0.051797166 -0.0056765312 0.014992779 -0.028356839 0.118201666 0.013663722
0.062050987 0.037653767 -0.08552965 0.10902147 -0.05818441 0.03432231 -0.12949745 -0.104317605
-0.020044679 0.113237895 0.032252803 -0.055905193 -0.06779089 0.028646125 -0.061283506 0.015970621
-0.035473216 0.017511252 -0.098636 -0.110503584 0.027365493 0.09601422 -0.06660868 -0.07396764

weight_ih_l1 f4 [192, 64]
00000000: 8e21 3e3c 1c4b b8bb 36c2 c63c 74e0 003e
00000010: 1e1c 0a3b 4ce7 813a 23ae dabd b28c a63c
00000020: 1b28 bc3d 473f bcbd 0084 83bb 2e28 7ebd
00000030: e493 a43d e2f1 5abd f8ed 18bd 226f 05bc
00000040: c996 a63d 26cb 513b 0340 30bd ed4e adbd
00000050: feed a8bb a2b3 8dbd 7ccd 343d 6a1c 1abd
00000060: 6b76 c4bd 6f37 e73d ba9b ce3d 8479 8c3d
00000070: 93a1 00bd 8f1b fcbd 5706 c93d 15d6 ce3d
00000080: 7240 09be 2470 ed39 54e3 d139 1549 a1bd
00000090: 7390 bc3d 2d2e ba3d c83e a3bd 925c 5f3d
000000a0: eb18 c7bd 8a97 f6bd f023 9bbc e8d8 f7bd
000000b0: f43a f53d 085b 37bd c260 0cbd 9e61 d53d
000000c0: 1b4a ed3d 428e e9bd 5645 673d 4759 1bbd
000000d0: 7b39 033e 1c9c c43d dd4b c7bd e51f c63d
000000e0: eecb a6bd 04eb d2bc 000e ae3c 35a1 383d
000000f0: 9ad2 82bd b7d9 dfbd d8a2 9d3d 0847 c43d
00000100: 208d c03d 85bf 213c 8dda 593c 84f8 96bd
00000110: dbff f8bd d52f 533c aee1 d1bd 0be2 e53d
00000120: 1164 2a3d 51fe 96bd 6130 293d 8106 bd3d
00000130: 05a0 583d 2af7 df3d b582 013e 2be5 f2bd
00000140: 0939 1cbd 803c 993d ca78 5bbd 1658 b63d
00000150: 9f73 113d 6ab3 f1bd 378c 843c 4310 02be
00000160: 28bb 0e3e 470d d9bc f42a 693c 9dff b33d
00000170: ce34 9d3d c689 913d f6e7 0b3d dc3b c1bc
00000180: 18a4 573c 805f c1bd 44dd 3fbc b8eb 3cbc
00000190: 7ed3 763c 9ace a9bd 4aed 3ebd c29d 943d
000001a0: f715 de3d ce6b 633d fd53 c7bd b101 b53c
000001b0: 9d26 06be 0c05 a8bd 16df babc 4028 973d
000001c0: 6aa8 dabc 3125 00bd 4510 d0bc d7b5 2fbb
000001d0: 6803 a83d 2c96 b03d 78b7 9bbd d046 f63c
000001e0: 16bc 463d c5ba 8d3d e362 a3bc f5b3 efbd
000001f0: ac80 2bbd ec28 083e 35dd 133c 3e2d 923d
00000200: fc15 f3bd 3872 eabc 248a 393c ea3c 0bbe
00000210: 00b9 713c a722 a6bd a7b4 e93d 8683 aebd
00000220: a977 183c b9ba a53c 2742 54bd b934 3f3d
00000230: 4f1a c1bd 7ffd ce3d de8c 79bc 7eb7 c23d
00000240: c326 cd3d 49dc abbd d747 e3bd 6fd0 7c3d
00000250: dbac d6bd 5ad6 d3bc 918d 9e3d a866 e3bd
00000260: 2532 63bd cac5 9a3d ac2b e43c 5416 f93d
00000270: 0749 183d 92d1 433d 0674 48bd 448b 6fbd
00000280: 8942 b7bd d22f 993d 0da3 06bb fd3b c1bc
00000290: 6cec 74bd 606a 9cbc 6bb1 a53d 2d5a 733d
000002a0: f4d0 613d 82b8 d33d d50d ee3d 961f 653d
000002b0: d2da 5d3d d2ec e2bd 2468 f83c b556 a5bc
000002c0: 60f6 cc3c 59f9 f53c c274 193b e97a 813b
000002d0: 6abf 09bd 8171 b23c 6e62 7bbc dcca 03bd
000002e0: dd26 41bd 2ea8 bc3c b10d dfbd 6fed 35bc
000002f0: 925f 1fbd 4d92 e1bc bd16 a8bd cef1 983d
00000300: d348 d0bd 2bc7 12bd 15e3 8c3d e909 2fbd
00000310: 727d debd 83fb 66ba c8b9 b33d 5ad9 743c
00000320: 1a08 c23d 60be 7f3d bda2 d4bb 269e 543d
00000330: a296 323c 725b 46bd 7493 c6bc 3492 f3bd
00000340: 9279 b2bd d70e 583d e26f 9fbd d2da c23d
00000350: eb3d eb3d 9482 f6bb 0df7 eabd cf55 ee3b
00000360: ba79 b2bc 55d2 b6bb 81cc c33d e00c 03bd
00000370: 1b9e c43d b0be 123b b03c be3d 376f 093d
00000380: c5de f6bd 0e3a 7f3d 7f56 8bbd 10de c4bd
00000390: a00c 0abe dd9b f6bd 05bb 303d 9574 76bd
000003a0: 6f28 13bd 40c0 14bc 85be a63d 1c05 94bd
000003b0: 7e3e a4bd f1cc 003e be58 a63b 564c 493d
000003c0: cacf 53bd 0800 993c 947b cfbd 5540 63bb
000003d0: 4946 243d 8984 e2bc aa09 dbbd c747 c7bd
000003e0: fa4a 8ebd 5fcf 9ebd 83f0 c4bd ed81 aa3d
000003f0: cf2f e3bd 81cc 853d 5e7b 6c3d c336 40bd
0.01160468 -0.005624188 0.024262529 0.12585622 0.0021073888 0.0009910851 -0.10677745 0.02033076
0.09187337 -0.09191757 -0.0040135384 -0.062050037 0.080360204 -0.053453334 -0.03733632 -0.008144172
0.08134229 0.0032011955 -0.043029796 -0.084623195 -0.005155324 -0.06919028 0.044141278 -0.037624754
-0.09592899 0.1128987 0.10088296 0.06859115 -0.03140409 -0.12309944 0.09815662 0.10099427
-0.1340349 0.00045287714 0.0004003296 -0.078752674 0.09207239 0.090908386 -0.07970959 0.05453164
-0.097215496 -0.120406225 -0.018938035 -0.121019185 0.11974135 -0.04476455 -0.034271963 0.104190096
0.115864 -0.11404087 0.05646261 -0.03792694 0.12814896 0.09600088 -0.09731267 0.09674052
-0.08144365 -0.02574683 0.02124691 0.045075614 -0.06387825 -0.10930198 0.076970756 0.09583861
0.094019175 0.009872322 0.0132967355 -0.07371619 -0.121581756 0.012889822 -0.10248123 0.11224755
0.041599337 -0.07372726 0.041305903 0.09229756 0.05288698 0.10935815 0.12647517 -0.118601166
-0.03814033 0.074822426 -0.05358199 0.0890352 0.035510655 -0.11801799 0.01618014 -0.12701516
0.13938582 -0.026495589 0.014231432 0.08788989 0.07676087 0.07106356 0.034156762 -0.023588113
0.013161682 -0.09442043 -0.011710469 -0.011530809 0.015065072 -0.08291359 -0.046613015 0.072566524
0.10844033 0.055522732 -0.09732816 0.022095533 -0.13100667 -0.082040876 -0.022811454 0.07380724
-0.026691634 -0.03128547 -0.025398383 -0.0026811266 0.08203775 0.08622393 -0.07603353 0.030063063
0.048519216 0.06920389 -0.019944614 -0.11704246 -0.041870758 0.1329686 0.009024908 0.071375355
-0.118694276 -0.028618917 0.011324439 -0.13597456 0.01475358 -0.08112078 0.1141141 -0.0852118
0.009305873 0.020230638 -0.0518209 0.04668114 -0.09428846 0.10106944 -0.015231339 0.095076546
0.10017159 -0.083916254 -0.11097687 0.061722215 -0.10482188 -0.025859047 0.077418454 -0.111035645
-0.055467743 0.075572565 0.027852856 0.12162462 0.03717902 0.047807284 -0.048938774 -0.058482423
-0.089482374 0.07479824 -0.0020543963 -0.023588175 -0.059795782 -0.019093692 0.080904804 0.05941217
0.055130914 0.103379264 0.11623732 0.055938326 0.05416376 -0.11080326 0.030323096 -0.020182947
0.025019825 0.030026125 0.002341554 0.0039514196 -0.033629812 0.021782639 -0.015343292 -0.032175884
-0.047156204 0.023029413 -0.10891283 -0.011103972 -0.038909502 -0.027535582 -0.08207462 0.074679956
-0.1017014 -0.035834473 0.0687925 -0.04273406 -0.108637705 -0.0008811282 0.08775669 0.014944399
0.094742015 0.062437415 -0.0064891265 0.051908635 0.0109001715 -0.048427053 -0.024240233 -0.118931204
-0.08714594 0.052748527 -0.07785012 0.09514393 0.11486419 -0.0075228903 -0.114729024 0.007273413
-0.02178656 -0.0055792728 0.095604904 -0.0319947 0.09600469 0.002239149 0.09288919 0.03355333
-0.12054209 0.062311225 -0.06803607 -0.096126676 -0.13481379 -0.12041447 0.043147106 -0.060169775
-0.035927232 -0.009079039 0.081418075 -0.07227537 -0.08019732 0.12578179 0.005076497 0.049145065
-0.051711835 0.018676773 -0.101309925 -0.0034675796 0.04010609 -0.027651088 -0.10695203 -0.09730487
-0.069478944 -0.07754397 -0.096161865 0.083255626 -0.11093103 0.06533147 0.05773484 -0.046927225

weight_hh_l1 f4 [192, 64]
00000000: c416 56bc ade3 5fbd 8dd8 523d 1551 09be
00000010: 9016 103d f52f 34bd f651 5fbd 5260 94bd
00000020: e80f a7bd 0e63 c93d 687b aa3d d54b cb3d
00000030: a4d6 85bd 9a82 d5bc a4f1 fcbd 8706 863d
00000040: 8388 97bd cef8 edbc 9872 4a3c 4b3f 3abd
00000050: 7c32 46bc ba98 75bd 04ba 5abd 7c08 733d
00000060: 953c 1c3d 375a c23d 4912 b63d 87d0 1a3c
00000070: 4436 a7bd 2fc7 003e 35ab fc3b 3760 a2bd
00000080: 0c5b da3d ace5 10bd 492c 2e3c 5556 83bd
00000090: 6f4c 0a3e 82fb 64bd 267e e33d de0c c8bd
000000a0: d8eb d53c ff49 7e3d 79c9 d3bc c77b babd
000000b0: 0846 5a3d aa62 cabd 518a d53d 8fad 51bd
000000c0: af5e 823d a182 debd 57b3 dcbc eb0f 4c3d
000000d0: de9e bbbd 0d5f d1bd 9270 31bb ba75 dabb
000000e0: bd55 dcbd 81ff 173d f211 d63d 537b ed3d
000000f0: b4a0 b7bc 2601 213d 237a ea3d 70c1 413d
00000100: 38ce dcbd a7bc 533d df30 98bd 35b6 843d
00000110: ec90 59bc 64e2 66bd 97a7 5dbc 28bb ebbd
00000120: eba0 b23d 9ae5 27bd d27c 1b3d 5694 5e3c
00000130: 60fe 2e3d 956f 9fbd 570f 9c3d d97b 70bd
00000140: 09a0 d3bc f987 07be 3585 8a3d 39fd c9bd
00000150: abe3 b5bc 901b 653d 2518 07bd 1806 a7bb
00000160: b2c5 05be 1d91 16bc 0110 a0bd 15e1 9fbd
00000170: acca 113d 6bc9 093b 2593 6c3c 8da7 a03d
00000180: cd06 a13d 8067 b83d bee8 e8bb 50e5 87bc
00000190: 35f7 d53d 4d15 243d 3d57 163d c2d2 7a3d
000001a0: 16b7 ff3d 34a9 80bd dbc3 e5bd 926f a0bd
000001b0: 7b2e e83d 83b3 443d 897a fc3d 9e7b 1a3c
000001c0: bc0c a9bc b99b dabc 29bd 583d 9914 2d3d
000001d0: 85f2 25bd dd0c ba3c 27c6 673c a669 c63d
000001e0: 7547 d8bd ab7b 953d b837 ae3b cd41 3cbd
000001f0: 6987 f3bc 5ada 2ebb 9f69 593d bc18 d23c
00000200: 760a b2bc 907e e83c 697d ba3d 1114 cb3d
00000210: 471e a4bd 2857 24bd 34a5 dcbd 71a7 efbd
00000220: e910 eabc 7604 2a3d db04 a2bc c652 e33d
00000230: 4485 adbd 915f 733d 67ac cb3d 320f 363d
00000240: 0197 8b3d dadf 9dbd ce2f d5bd 920e 24bb
00000250: a30a fdbd 9413 51bc a948 aabd b49f d73b
00000260: 04ba d73d 0cc8 913d 2c0b c13d 9a6c 9bbd
00000270: 5102 723d bdc3 433d be00 a73c 25b0 c93d
00000280: 693e 8dbd e1b2 cfbd a859 693d 7b6a 973c
00000290: 1fc1 82bd 5d82 92bd 48bd dabd 81ea 28bd
000002a0: e86d d83c e683 53bd 3765 d83c bc67 0abd
000002b0: 8354 b53d be6f 61bb 9071 cfbd dc1e 913c
000002c0: 600a 4b3b 670c eb3c 2653 c3bd fc84 02bd
000002d0: 50a8 ecbd de36 57bd 9c90 c6bd c11b b83b
000002e0: 17bf 8c3d 91f7 6c3d 42e7 6fbc d36f e83d
000002f0: 377e cc3b 4a0f 693a a172 453d 452d c3bd
00000300: 0f1f f5bd f859 d53d c8de 5fbd c5ba 82bc
00000310: f281 593d 9c9a fb3c 4d17 8d3c 4cb8 eebd
00000320: 028c d5bd 65b3 cabd ee22 9a3c c876 81bd
00000330: 5134 16bd 6a78 613b 088d aa3c 05b4 97bd
00000340: 6de3 07bd c6f5 e2bd e1c5 26bb 16b9 6e3d
00000350: 9810 b0bd eb9f ff3d 8b84 54bd eaf5 e13a
00000360: cf6c 83bd e1db 8c3d c427 27bd 635e a7bd
00000370: 1869 14bc ced3 5c3c 81ff af3b e5e8 fbbd
00000380: 6dfd 3bbc 8897 c5bd 26e5 8bbd 6b96 ee3d
00000390: 1b98 35bd 26cb 3bbd df79 81bd 9a25 e539
000003a0: 27de e5bd dfb0 04be 6d8d b9bd 3161 26bd
000003b0: a03a e03d 68a7 26bd 0334 ddbd c20b 82ba
000003c0: 51bb de3d 6493 e63d 516f c83d b2a7 073d
000003d0: 7c2f 9e3d 64c6 ffbc 6d1d 383d fee2 82bd
000003e0: 325d f53d da3b bbbc 2cf3 03bd 0e4b dcbd
000003f0: 4ece 1abd 38c0 debc 0d61 ebbc 82bb e03b
-0.013066951 -0.054660488 0.05147605 -0.13409837 0.035177767 -0.043991048 -0.054521523 -0.07244934
-0.08157331 0.09833346 0.08324319 0.09926573 -0.0653508 -0.026063252 -0.12350777 0.06544214
-0.073990844 -0.029049303 0.012356423 -0.045470517 -0.012096997 -0.059960105 -0.053400055 0.059334263
0.038143713 0.09489863 0.08890206 0.009449131 -0.08164647 0.12575983 0.007710839 -0.07928508
0.10661897 -0.035375282 0.010630676 -0.06412951 0.1350572 -0.05590392 0.11108045 -0.09768079
0.026113436 0.062082287 -0.025852906 -0.0910564 0.053289443 -0.098821 0.104267724 -0.05119091
0.06365716 -0.10864759 -0.026940985 0.049819868 -0.09161161 -0.102232076 -0.0027075154 -0.006666866
-0.10758541 0.037108902 0.104526415 0.11595788 -0.022415496 0.039307736 0.11449077 0.047303617
-0.107815206 0.051693585 -0.074311964 0.06480066 -0.013279181 -0.056368247 -0.013528726 -0.115103066
0.08722099 -0.04099045 0.037960835 0.013585171 0.04272306 -0.077849545 0.07620113 -0.05871186
-0.025833147 -0.13235463 0.067636885 -0.098627515 -0.022203287 0.05593449 -0.03298201 -0.005097162
-0.13063696 -0.009189871 -0.078155525 -0.07806603 0.035593674 0.0021024595 0.014439379 0.07844458
0.07862625 0.09004116 -0.007107823 -0.016588837 0.104475416 0.040059377 0.03670429 0.06123615
0.12486093 -0.06282273 -0.11218997 -0.0783378 0.113369904 0.04802276 0.12328059 0.009428887
-0.020635955 -0.026685582 0.052914772 0.04225597 -0.040514488 0.022711212 0.014146364 0.096881196
-0.10560504 0.072989784 0.005316701 -0.04596119 -0.029727655 -0.002668044 0.053079244 0.02564656
-0.021733504 0.028380662 0.09105951 0.09915937 -0.080135874 -0.04012218 -0.107736975 -0.11701859
-0.028572517 0.04150816 -0.019777706 0.11099772 -0.08472684 0.05941731 0.099449925 0.044448085
0.06815911 -0.07708712 -0.10409509 -0.0025033099 -0.123555444 -0.012761015 -0.0831464 0.0065803174
0.105335265 0.07118234 0.09425959 -0.075890735 0.05908424 0.047794092 0.020386096 0.0984805
-0.068966694 -0.1014154 0.05697027 0.018483391 -0.06384491 -0.07153771 -0.10680634 -0.041239265
0.026419595 -0.05163946 0.02641545 -0.033790335 0.0885401 -0.003439888 -0.10129082 0.01771491
0.0030981526 0.028692437 -0.09537344 -0.031865105 -0.115555406 -0.05254256 -0.09695551 0.005618543
0.06872385 0.057853285 -0.0146425385 0.11349454 0.006240632 0.0008890523 0.04820502 -0.09530119
-0.119688146 0.10417551 -0.05465582 -0.0159582 0.05310244 0.030713372 0.017223025 -0.116562456
-0.10427095 -0.09897498 0.018815484 -0.06321484 -0.036670987 0.0034404048 0.020819202 -0.07407383
-0.033175875 -0.11082034 -0.0025447535 0.05828198 -0.08596915 0.12481674 -0.051884215 0.0017239426
-0.06417238 0.06877876 -0.040809408 -0.081723 -0.009058259 0.013478233 0.0053710346 -0.123002805
-0.011473996 -0.09648043 -0.06830816 0.11649784 -0.044334512 -0.045848034 -0.06322073 0.000437063
-0.11224013 -0.12958096 -0.09060178 -0.040620033 0.10948682 -0.040686995 -0.10800936 -0.0009921717
0.108755715 0.11258581 0.09786857 0.03311891 0.07723901 -0.03122253 0.044949938 -0.063909516
0.11980666 -0.022855688 -0.03221433 -0.10756503 -0.037794404 -0.027191266 -0.0287328 0.00685829

bias_ih_l1 f4 [192]
00000000: ae11 973d 7ae7 9b3b 50a2 cb3c 7726 be3d
00000010: 0437 8d3d e6fb bc3d 0d78 2dbd eb85 df3d
00000020: 3fd5 163d d698 063d fd23 bd3c aabf c33d
00000030: 9ec2 bdbd 6c36 a6bd 97e9 b5bd 0bd2 fabc
00000040: caec 533d 8f6f 053d 4255 dcbd c469 373d
00000050: e993 033e 5301 02be a232 913d dd7e 8ebd
00000060: 46b5 333b a8fc c43b 67bd 6e3d 52ef 2bbd
00000070: fe8d 903d ee73 4f3d e579 9f3d fdf8 b5bd
00000080: 28bd f8bd 22eb 1b3d 45f9 dcbc 80c6 a93d
00000090: e8d9 f1bd 7184 df3d 2da5 1fbd 5537 703d
000000a0: 1c45 8b3d ade2 00bd c035 fc3d b941 a5bd
000000b0: c4a7 70bd 0f3f f93d 1975 c6bd ebb1 4d3c
000000c0: 6573 f43d 3662 453b 8673 bbbd 406a 2a3d
000000d0: 07cb 11bd ec98 88bd 137d d7bd 2dde 903d
000000e0: 9d73 bebc f0a6 28bd 3456 07bd f223 be3d
000000f0: ef22 a9bb ab2a 37bd 99ad 22bd d2da b8bd
00000100: e1b5 f4bb 9bd4 a6bc a9b6 e9bd cd2d ea3c
00000110: ffde 013d 3b42 d5bd f4c9 7dbc b4b2 8bbc
00000120: cf5c d9bb 2605 693b d6ee f3bd 548e 80bc
00000130: 1181 93bd d135 bbbd c216 a73d f5f0 b8bd
00000140: 7a95 8b3d b51c 303d ee03 ec3d 3660 a3bd
00000150: 0a74 c43d b61d ba3c 0ef0 90bc a43e 3c3d
00000160: 051b d03d 1c15 32bd dfed 98bc 3e17 ac3d
00000170: 16b2 7d3d a7a8 6e3c c65c 61bd c624 03be
00000180: ffc9 cc3c 6ca7 8bbd 050b d33d 29d9 033e
00000190: 62d7 8abd 13fc 0a3e ba5e 853c f2ec 1ebc
000001a0: b173 debc 9f36 e4bc 4f36 663d c960 e03d
000001b0: 8f3e aabd 354d d33b 8e0b 94bd 8ae7 173b
000001c0: f2d2 3d3b 63ab e03d a705 f0bc d9ab c73d
000001d0: 27b2 0c3d 922f f9bb 4ab1 65bd c3a0 a13d
000001e0: 1441 003e 0266 8dbc edb4 a23c 6f5e b6bd
000001f0: 91b2 693d 6622 133d fc29 403d b7ab 3b3d
00000200: d9fb 173d 5a8c 493d 40cc 203d a25e f53d
00000210: 9926 d53b 9811 46bc 9d5a a03d 7049 b6bd
00000220: b16b c9bd e83b 803c cd77 d83d bc5d c3bd
00000230: bc34 d2bd d00b 4d3c 380f 90bd 45df 24bd
00000240: 25c1 5a3d b24f 1a3d 3984 1abd 96d9 d63c
00000250: 62f5 e03c e4dc 91bd 9180 e5bd 8569 84bd
00000260: a2c2 eb3d 3060 8dbd a310 c23d 2725 df3d
00000270: eb57 9fbd cbdf 93bd 6989 5b3d 389c dc3d
00000280: 20fa ba3d da04 debd 63dd f0bd 519f 4fbd
00000290: 280d af3a 2ef5 7c3d b496 903d ac36 b33d
000002a0: 65cc aebd 750a 663d cd8f f4bd dcbe e3bb
000002b0: 3a42 8ebc aa60 d83d 52de 063e 9bce ae3d
000002c0: 11cd 86bd 37f7 72bd 440b 2d3d e863 f4bd
000002d0: 5426 bcbd b42e bdbc 24de 763c ecd1 b83d
000002e0: 05e6 cebd 2c5c bc3d c2f0 03bd ed8c a53d
000002f0: 0e70 97bd dbda 723d a390 3abc 2054 813d
0.07376419 0.0047578188 0.02485767 0.0928468 0.06895259 0.09227733 -0.042350817 0.10914215
0.03682446 0.0328606 0.02308845 0.095580414 -0.09265636 -0.08115849 -0.08882444 -0.030617734
0.05173949 0.032577094 -0.10758449 0.0447786 0.12849392 -0.12695818 0.070897356 -0.06957791
0.002742128 0.0060115643 0.058286097 -0.04197628 0.07058333 0.05064767 0.077869214 -0.08885381
-0.12145454 0.038066037 -0.02697433 0.08289814 -0.118091404 0.10913933 -0.038975883 0.05864652
0.06800291 -0.031466175 0.123149395 -0.08069176 -0.058753744 0.121702306 -0.09690303 0.012554626
0.11936072 0.0030118353 -0.09152894 0.041605234 -0.035594013 -0.066697925 -0.10521903 0.07073627
-0.023248488 -0.04117483 -0.033041194 0.092842 -0.005161635 -0.044718426 -0.039716337 -0.09026112
-0.0074679707 -0.02036505 -0.11411793 0.028586293 0.031706806 -0.10413023 -0.015490044 -0.017052986
-0.006633378 0.0035556047 -0.11910789 -0.015692867 -0.07202352 -0.09141124 0.081586376 -0.09030334
0.0681562 0.042996127 0.11524187 -0.07977335 0.09592445 0.022719245 -0.017692592 0.045958176
0.101614036 -0.043477163 -0.018668113 0.084028706 0.061937414 0.014566577 -0.055020116 -0.12806997
0.024998663 -0.068190426 0.10304836 0.12875809 -0.06779362 0.13572721 0.01628052 -0.009700047
-0.027154775 -0.027858077 0.056204136 0.1095596 -0.08312713 0.006448413 -0.072287664 0.002317878
0.0028964845 0.109701894 -0.02929957 0.09749574 0.034349587 -0.007604548 -0.05607728 0.07891991
0.12524825 -0.017260555 0.019861663 -0.089047305 0.05705506 0.035921477 0.04691504 0.045818057
0.037105415 0.049206115 0.039257288 0.119809404 0.0065048453 -0.012089156 0.07829783 -0.08900726
-0.09834994 0.015653566 0.10569725 -0.09539363 -0.102639645 0.012515023 -0.07034153 -0.04025199
0.053406853 0.03767366 -0.037723754 0.0262268 0.027460758 -0.0712221 -0.11206163 -0.06465439
0.11511733 -0.06903112 0.094758295 0.10895758 -0.07780441 -0.072204195 0.05359784 0.10771984
0.09129739 -0.10840769 -0.11760976 -0.050689045 0.0013355361 0.06175726 0.07059994 0.08750662
-0.08535079 0.056162316 -0.1194149 -0.0069502424 -0.017365564 0.10565312 0.13170746 0.085355006
-0.06582082 -0.059317794 0.04224707 -0.11933118 -0.09186998 -0.023093559 0.015067611 0.090244144
-0.101024665 0.09197268 -0.032212026 0.0808352 -0.073944196 0.059290748 -0.011387023 0.06314874

bias_hh_l1 f4 [192]
00000000: 2fc6 893d f141 923d 98b7 a5bd cef2 b03c
00000010: 7e9f b23d c155 343c 432c a8bd 9763 56bd
00000020: 6030 a6bd 7f41 263d 3869 ce3c 6e34 c6bd
00000030: fb4b 883d 94f2 4dbd 8bac 9a3d ea58 063e
00000040: d136 343d 5b23 7a3c 5931 fdbb e2c5 33bc
00000050: 8827 ed3d fe0b 87bc bae3 293d 4a4f d2bc
00000060: eb48 dfbd 67cc 863d ce63 34bd 9041 eb3d
00000070: 3090 a13d 6b46 30bd 2b55 e4bd 3732 0c3e
00000080: 0882 abbc a032 a7bc b0b0 93bd 849a 52bd
00000090: 5d86 d4bd ea04 b6bd 6be4 f63d c6cc adbd
000000a0: a7b4 d53d 38ff 803c 5c85 8dbd 539d af3d
000000b0: 3df1 8c3d 95ea 85bd 17e4 b2bd eed4 a9bd
000000c0: bb30 dfbd a930 c1bd 5c83 b5bd 8e00 d5bc
000000d0: e46f a93c 6985 4bbc 472a a1bd 2405 b53c
000000e0: 96ce 19bd 0281 883d 673f c5bc 54aa f1bc
000000f0: aa7f 883d ca67 c5bd 35ab 02bd 7e77 56bd
00000100: 0969 c9bd 7a46 aebd 3bea f0bc 9732 bfbd
00000110: 5869 e93b 72ac 92bd 721f dd3c fee8 c43d
00000120: 00f4 dfbd 8676 e43c 24fb 583b 082b 4cbd
00000130: 996b a9bd 18c0 abbc e518 d43c a94c c6bd
00000140: 46c3 52bd 6ae5 96bd bc70 463c 53d7 72bd
00000150: ab40 3b3d 42ff f33b f4a9 dbbc 4fa5 f5ba
00000160: 417f 8e3d 7da3 0dbd 1fc8 933d d9d6 85bd
00000170: dc42 863d 0bb7 003e b42b cbbd 3e45 63bc
00000180: 1004 92bd 9167 d73a aff1 e6bd 80a4 ea3d
00000190: 2848 e63d 7e1b 1dbd 480e a5bd 3d3a f63c
000001a0: 16a1 24bd dada ecbd bf16 b5bc d365 9f3d
000001b0: 1206 d33c 66d5 e13d a6ab 79bd d62c 5dbd
000001c0: ba33 cdbd 94ef c6bd 118e 763d 0d7d ddbd
000001d0: 859d aebd 7746 b9bd b7d9 8cbb 3271 40bd
000001e0: eb88 db3c 9111 f03d 521c 6cbb 63d0 d5bd
000001f0: aa47 803d 1e61 12bd 54cd 483d fcac 273d
00000200: b114 68bd 40b1 88bd 7d75 edbd 72d3 7bbd
00000210: 3cfe 153d 94ab 00be 5053 a3bd c18b 603d
00000220: eb0a ce3d cac4 3cbc 356c ce3d a490 8bbd
00000230: 3f8f bbbd f62f b8bd c296 d8bc 8692 913d
00000240: b439 36ba 08dc d4bd 1a19 e73b 304b 19bc
00000250: 4dae f63c 4640 fd3c 49c4 cc3d 8278 723b
00000260: 5f10 08bc 2b77 d43b c727 34bd 26bf 003e
00000270: bdb6 553c 9aab 82bc eda5 94bb a030 08bd
00000280: 3da6 f6bd e39b b9bd 7548 b6bd 6da6 34bd
00000290: da9d 4cbd d8ea 6ebd 3047 80bd b64b fd3c
000002a0: 963b a8bd 2f8c a3bc 5a7e e4bd 8a03 f43c
000002b0: ca51 ef3c d034 bdbd 1762 023e 2341 093e
000002c0: d810 0c3d eefd fd3d 9117 823b f0b1 aa3d
000002d0: 6e42 29bd 31b3 ba3d 1c51 03be 58e0 69bd
000002e0: ee35 89bd 0043 c73d a756 acbc a41a df3c
000002f0: 8d6b 66bd 2f5a 8bbd bfd4 a43d cf14 e3bd
0.06727254 0.071414836 -0.08091658 0.021600153 0.08721827 0.011006773 -0.08211567 -0.05234107
-0.081146955 0.040589806 0.025196657 -0.09677969 0.06655117 -0.05028017 0.07552441 0.13119856
0.04399759 0.015267218 -0.00772683 -0.010972472 0.115798056 -0.01648521 0.041476943 -0.025672574
-0.1090258 0.065819554 -0.044040494 0.114871144 0.0788883 -0.043035906 -0.11149057 0.1369103
-0.020936027 -0.020409882 -0.07211435 -0.05141689 -0.1037719 -0.08887656 0.12055286 -0.08486323
0.10434847 0.015746698 -0.06910202 0.08574929 0.0688195 -0.065388836 -0.08734911 -0.08292566
-0.108979665 -0.09433109 -0.088629454 -0.026001241 0.020683236 -0.012421944 -0.07869392 0.022097178
-0.03755053 0.06665231 -0.024078084 -0.029500164 0.06664975 -0.09638937 -0.031901557 -0.05236005
-0.09834487 -0.08509536 -0.029408565 -0.09335821 0.0071231537 -0.071617976 0.026992533 0.09614752
-0.10935211 0.027888548 0.0033108676 -0.049845725 -0.08272476 -0.02096562 0.025890777 -0.096825905
-0.05145576 -0.07367976 0.012111839 -0.05928738 0.04571597 0.0074462006 -0.026814438 -0.0018741282
0.069578655 -0.034579743 0.072159044 -0.065351196 0.06555721 0.12569825 -0.09920445 -0.013871489
-0.07129681 0.0016434063 -0.11276566 0.11457157 0.112442315 -0.038356297 -0.080593646 0.030057067
-0.040192686 -0.1156518 -0.022105573 0.07783093 0.02575973 0.11027031 -0.060954712 -0.053997837
-0.10019632 -0.09713665 0.06019408 -0.10814867 -0.08526138 -0.09046643 -0.0042984146 -0.04698295
0.026798686 0.117221005 -0.0036027622 -0.10440137 0.06263669 -0.03573715 0.04902394 0.040936455
-0.056660358 -0.06674433 -0.11594675 -0.061480947 0.03661941 -0.12565452 -0.07974875 0.05482078
0.10060676 -0.011521528 0.100792326 -0.068146974 -0.091581814 -0.08993523 -0.026439074 0.07108025
-0.00069513475 -0.1039353 0.007052553 -0.009356305 0.03011241 0.030914437 0.09998376 0.0036998098
-0.008304684 0.0064839325 -0.043983247 0.12572917 0.0130440565 -0.015950967 -0.0045363815 -0.033249497
-0.12043426 -0.09062936 -0.08900539 -0.04410403 -0.049955226 -0.058329433 -0.06263578 0.03091989
-0.0821449 -0.019964306 -0.11156912 0.029786844 0.029213805 -0.09238589 0.12732731 0.13403754
0.03419575 0.12401949 0.0039700945 0.0833472 -0.041323118 0.09116209 -0.1282391 -0.057098716
-0.066997394 0.09729576 -0.021037413 0.027234383 -0.056254912 -0.068043105 0.080483906 -0.11087953
