Baseline_systems/SoMS/models/SoM_GRU_21/1_1.pth (torch, 10975 bytes, 3 tensors)

weight f4 [32, 64]
0	0x3dbbd861	0.091721304
1	0xbdee27d5	-0.11628691
2	0xbc01f389	-0.007931598
3	0x3dd4194b	0.10356387
4	0x3dea4028	0.11438018
5	0x3c88136c	0.016610824
6	0x3def2aae	0.116780624
7	0x3b9dc7d7	0.0048150825
8	0x3c9c5df4	0.01908777
9	0xbca0c77a	-0.019626368
10	0x3db0da0d	0.0863534
11	0x3c54a1c5	0.012978022
12	0xbdf562dd	-0.11981747
13	0xbdabb73e	-0.0838456
14	0xbdcac040	-0.0989995
15	0xbcbec7f3	-0.023288703
16	0xbdb95cfc	-0.090509385
17	0xbdd7cff5	-0.105377115
18	0x3d18c5af	0.0372979
19	0x3dec57f8	0.11540216
20	0xbdb71930	-0.08940351
21	0xbd8b0459	-0.067879386
22	0x3dbc81e0	0.09204459
23	0xbd5dc218	-0.05414018
24	0x3d087a71	0.033319894
25	0x3d7273db	0.05919252
26	0xbd7e334a	-0.06206063
27	0xbcead488	-0.028665796
28	0xbb37858c	-0.0028003184
29	0xbc2065de	-0.009789912
30	0x3d87e33b	0.06635138
31	0x3d294109	0.041321788
32	0x3cd0b6db	0.025477817
33	0xbd7c91b4	-0.06166239
34	0xbabc7e09	-0.0014380823
35	0xbdc771ff	-0.0973854
36	0xbd485e56	-0.04891809
37	0x3d9264f0	0.071481586
38	0x3da5852c	0.08082041
39	0x3d30ad43	0.043133985
40	0xbda72112	-0.081606045
41	0x3d9c8cb0	0.076440215
42	0xbcf91da1	-0.030409636
43	0xbdbd9018	-0.09255999
44	0x3d9abe1a	0.0755579
45	0x3c0b4a18	0.008501552
46	0x3d10de3a	0.03536818
47	0x3da9a987	0.08284288
48	0xb97ea3f0	-0.00024284399
49	0xbbe3a5f1	-0.006947272
50	0x3d07356e	0.03300994
51	0x3d87a6bf	0.06623601
52	0xbd926125	-0.07147435
53	0x3d8b6c99	0.06807823
54	0xbc09266b	-0.008370976
55	0xbdc5f364	-0.09665564
56	0xbcd590ff	-0.026070116
57	0xbdaf1966	-0.08549766
58	0x3dfe4e8c	0.124173254
59	0xbd2d3446	-0.04228618
60	0xbd8bb7b7	-0.0682215
61	0xbddc7e60	-0.107662916
62	0x3dce5a3f	0.10075807
63	0x3d3dace3	0.046307456
64	0x3dfdb2b8	0.123876035
65	0xbdc002d5	-0.0937554
66	0xbd82c9d7	-0.06386154
67	0xbd8c024d	-0.06836376
68	0xbc99fcea	-0.018797357
69	0x3db375b8	0.087626874
70	0xbdbed6d0	-0.09318316
71	0x3d95839c	0.07300493
72	0xbd7cb156	-0.06169256
73	0x3d195a8d	0.03743987
74	0x3dbbd7b1	0.09171999
75	0xbc838b26	-0.016057562
76	0xbdc86621	-0.097851045
77	0x3c8894f3	0.016672587
78	0xbde9a49f	-0.11408352
79	0x3c618f16	0.0137670245
80	0xbdbb2697	-0.0913822
81	0x3d5b2c64	0.05350913
82	0xbdae7e27	-0.085201554
83	0x3db7f9d4	0.08983198
84	0x3dfc781b	0.12327596
85	0xbc56ac67	-0.013102627
86	0x3df7d402	0.12100984
87	0x3df8c5a9	0.12147076
88	0xbccd57b9	-0.025066243
89	0xbcf50492	-0.029909406
90	0xbda8e0a1	-0.082459696
91	0x3dba88c8	0.0910812
92	0xbd456261	-0.048189525
93	0x3d8cc731	0.0687393
94	0xbcdbad01	-0.026815893
95	0x3db15041	0.08657885
96	0x3dbda68d	0.09260283
97	0x3d6baa3e	0.057535402
98	0xbd6a6843	-0.057228338
99	0x3ddfcf48	0.10928208
100	0xbde425f5	-0.11140052
101	0x3d0ea71d	0.03482734
102	0x3d5a4e5a	0.053297378
103	0x3dc96155	0.09833018
104	0x3dd04616	0.10169618
105	0x3da34e29	0.07973892
106	0xbd001855	-0.031273205
107	0xbd6bb371	-0.057544176
108	0x3b0a4c30	0.002110254
109	0xbdf46a53	-0.11934342
110	0xbb5115a0	-0.0031903759
111	0xbccd2a42	-0.025044564
112	0xbdf40e5f	-0.119168036
113	0x3df5e285	0.12006096
114	0xbddb1e61	-0.10699154
115	0xbddff2e9	-0.10935003
116	0x3dae7384	0.085181266
117	0xbd808087	-0.06274515
118	0xbdda5e4d	-0.10662518
119	0x3d9ddbc1	0.0770793
120	0x3de95f9b	0.113951884
121	0x3cb82e64	0.022483058
122	0xbd978933	-0.073992155
123	0x3de4073c	0.11134192
124	0x3d35150b	0.04420952
125	0xbdb4c031	-0.0882572
126	0xbd10f80f	-0.035392817
127	0xbd1f765f	-0.038931247
128	0xbda94ca1	-0.08266569
129	0x3c8eecf5	0.017446974
130	0xbd851e01	-0.064998634
131	0xbd9850f5	-0.07437316
132	0x3c288caa	0.010287443
133	0xbd2a197a	-0.041528203
134	0x3c184141	0.0092929015
135	0x3d96d625	0.073650636
136	0x3d5bdb48	0.05367592
137	0xbdb830a1	-0.0899365
138	0xbd38bbff	-0.045101162
139	0xbdac9e0c	-0.084285825
140	0x3ca326c5	0.019915948
141	0x3bbfab09	0.0058492464
142	0xbd090e53	-0.033460926
143	0x3d5ebbbe	0.054378264
144	0x3d5ba30a	0.053622283
145	0xbcdff645	-0.02733911
146	0x3db7b3b7	0.08969825
147	0xbd1e93a3	-0.038715016
148	0xbb78c8da	-0.0037961514
149	0xbd9841b9	-0.074344106
150	0xbc0509fb	-0.008120055
151	0x3d4b12fa	0.049578644
152	0xbba234fb	-0.0049501634
153	0x3d7699af	0.060205158
154	0x3d48211f	0.04885971
155	0x3dcdd951	0.100512154
156	0x3d91473a	0.070936635
157	0x3dd9b1d4	0.10629621
158	0xbd01d2ea	-0.031695284
159	0x3c7f9276	0.015598884
160	0xbdb1d349	-0.086828776
161	0x3b6e1a86	0.0036331727
162	0xbdcc1182	-0.09964277
163	0x3de95f35	0.113951124
164	0xbce5d13e	-0.028053876
165	0x3c73ff73	0.014892447
166	0xbdecb8fd	-0.11558721
167	0xba684884	-0.00088609033
168	0xbdf6b867	-0.12046891
169	0x3dd617fc	0.104537934
170	0xbdc14f07	-0.094389014
171	0x3c97839d	0.018495375
172	0x3d43c686	0.04779675
173	0x3d5a4f77	0.05329844
174	0x3dfeffc9	0.12451131
175	0x3ca7693f	0.020435927
176	0x3dccf9ea	0.10008605
177	0x3dcd71b7	0.10031455
178	0xbb853a30	-0.0040657744
179	0x3c95a17c	0.018265478
180	0x3c0a048b	0.008423935
181	0xbd80fb67	-0.06297951
182	0xbdab91b7	-0.08377402
183	0x3de8056e	0.11329161
184	0xbc9b01b0	-0.018921703
185	0x3d8e32fc	0.06943318
186	0xbc730896	-0.01483359
187	0x3dea1a26	0.11430769
188	0x3d576fa2	0.052596696
189	0x3d6d5ed6	0.05795177
190	0xbd5cb937	-0.053887572
191	0x3d0e66f9	0.03476617
192	0xb8805b40	-6.120512e-05
193	0xbd0d812f	-0.034547027
194	0xbd97fc0b	-0.0742112
195	0x3d2fea33	0.04294796
196	0xbcb12137	-0.021622283
197	0xbd4a5793	-0.049399924
198	0x3d07707f	0.03306627
199	0x3ccd603a	0.025070298
200	0xbd401386	-0.04689362
201	0xbc2b493c	-0.010454472
202	0x3dd60ec8	0.10452038
203	0x3d319553	0.043355297
204	0xbce83b42	-0.028348569
205	0xbd69da83	-0.057093155
206	0xbbf734c7	-0.0075441333
207	0x3d0cf749	0.034415517
208	0x3d7e7205	0.062120456
209	0x3dddae7a	0.108242944
210	0xbdafd870	-0.08586204
211	0x3de92ca0	0.11385465
212	0x3da6d735	0.08146516
213	0x3d86ba42	0.065784946
214	0xbda27145	-0.07931761
215	0x3d904c9a	0.070458606
216	0x3db39123	0.08767917
217	0xbda7a7d3	-0.08186307
218	0x3dac740e	0.08420573
219	0x3de53e25	0.11193494
220	0xbdf6a90d	-0.12043963
221	0xb9701f20	-0.00022899779
222	0xbcc9be81	-0.024626972
223	0x3d94d40e	0.07267009
224	0xbdd9537e	-0.10611628
225	0xbccd7862	-0.025081817
226	0xbd86711a	-0.06564541
227	0xbc137c69	-0.00900183
228	0xbc2b4028	-0.010452308
229	0x3d26ebee	0.040752344
230	0xbdf6c41c	-0.12049124
231	0x3b9ffa4c	0.0048821326
232	0x3d67497b	0.05646656
233	0xbca03e04	-0.019560821
234	0xbe00e4db	-0.12587301
235	0xbd6fc123	-0.0585338
236	0xbdc43239	-0.09579892
237	0xbc20e567	-0.009820319
238	0xbdc22b5b	-0.09480926
239	0xbc4cfe8c	-0.012511861
240	0x3d16eca9	0.03684679
241	0x3da3f977	0.08006566
242	0xbd54501e	-0.05183422
243	0x3dd3637a	0.10321708
244	0x3caf1658	0.021372959
245	0x3dcc32fe	0.099706635
246	0x3da622cf	0.08112108
247	0xbdfd51ae	-0.12369095
248	0xbdc2833e	-0.09497689
249	0xbe00f7b2	-0.12594488
250	0x3d03a8a5	0.032143254
251	0x3dc70c5b	0.097191535
252	0x3c8b2a4a	0.016987938
253	0x3d3161c9	0.043306146
254	0x3d873267	0.0660141
255	0xbde7ede6	-0.113246724

bias f4 [32]
0	0x3def1ac9	0.11675031
1	0xbd0ccef7	-0.034377065
2	0x3c6897ad	0.014196319
3	0x3de55066	0.111969754
4	0xbd7ccf54	-0.06172116
5	0xbca34b63	-0.019933408
6	0x3df884bc	0.12134692
7	0x3d9db648	0.07700783
8	0x3d340b67	0.043956187
9	0x3d185b5b	0.0371965
10	0xbd7d50cb	-0.06184463
11	0xbd9cef3d	-0.076628186
12	0xbdc76e7b	-0.09737869
13	0x3d2b43da	0.041812755
14	0xbd9c2b06	-0.076253936
15	0xbda61506	-0.08109479
16	0x3d905cb0	0.07048929
17	0x3deed359	0.11661405
18	0xbd75a85d	-0.059975017
19	0x3dfa516d	0.12222562
20	0x3ddcd8aa	0.10783513
21	0xbc3a8173	-0.011383402
22	0x3d79f469	0.061024103
23	0x3d73651e	0.059422605
24	0xbd845fc7	-0.064635806
25	0x3d15cb4e	0.03657084
26	0x3dc97fec	0.09838852
27	0x3cab5e17	0.020918889
28	0x3dd56bb3	0.104209326
29	0xbd09d3a5	-0.033649106
30	0x3d9689cc	0.073505014
31	0x3dcaee56	0.0990874

weight f4 [1, 32]
0	0xbc55a166	-0.013038969
1	0xbe22d532	-0.1590164
2	0xbdfc6c59	-0.12325353
3	0x3c7b664e	0.015344216
4	0x3c182629	0.009286442
5	0x3d36ff74	0.044677213
6	0xbe1df40e	-0.1542513
7	0x3dce1025	0.10061673
8	0x3cbf20ce	0.023331072
9	0xbd1979a3	-0.037469517
10	0x3e1f03fd	0.15528865
11	0x3df6275e	0.120192274
12	0xbde56e9b	-0.11202737
13	0xbe30fdf7	-0.1728438
14	0x3dd3b48b	0.1033717
15	0x3cde482e	0.027134027
16	0x3e18cde3	0.1492229
17	0x3d7ea497	0.062168684
18	0x3da37e4e	0.07983075
19	0x3e155d4b	0.1458637
20	0x3de6fbf2	0.112785235
21	0xbe34d17e	-0.1765804
22	0x3ddd6f06	0.10812192
23	0xbcb78004	-0.02239991
24	0xbdcae475	-0.09906856
25	0x3c469565	0.012120579
26	0x3cff9e72	0.031203482
27	0xbd8864bb	-0.06659838
28	0xbbe8b186	-0.0071012406
29	0xbe1bd685	-0.15218551
30	0xbe25b16f	-0.16180967
31	0xbe0ee079	-0.13952817
