Baseline_systems/SoMS/models/SoM_GRU_21/32_0.pth (torch, 189071 bytes, 8 tensors)

weight_ih_l0 f4 [192, 46]
000000 22 ec c5 bd c5 03 dd 39 4e 74 aa 3d 12 c5 31 bd
       -0.096641794 0.00042155213 0.083229646 -0.04340083
000010 9d 03 39 3c bc 9a cf 3d d4 f6 28 bd 2f 85 c8 bd
       0.011292365 0.10136935 -0.04125102 -0.09791028
000020 2f 40 9c 3d 19 82 18 3e b1 9b 45 bd 7e 39 0d 3e
       0.076294295 0.14893378 -0.048244182 0.13791463
000030 a9 f0 05 3e e8 d0 f8 bd 1c 6d c7 3d 8d 4f f9 3c
       0.13080086 -0.12149221 0.09737608 0.03043344
000040 b8 4f 6e bd 81 ba ae 3d c8 84 99 bd c1 0e ea 3d
       -0.058181494 0.085316665 -0.07496029 0.11428595
000050 f4 ae d6 3b c6 cc c3 bd 3c 83 62 bd d1 58 de 3c
       0.0065516178 -0.09560542 -0.055300936 0.02714196
000060 51 a3 86 bd 91 59 02 be 4f bc 63 3c 52 4f 4b 3b
       -0.06574119 -0.1272948 0.013899877 0.003102262
000070 f6 d2 a5 3d 8f bb f5 3b d0 c2 fa bd f4 16 57 3b
       0.08096878 0.0074991654 -0.12244189 0.0032820078
000080 01 b3 47 bd 60 4a 72 3c 24 4f 0c 3e b7 36 fc 3c
       -0.048754696 0.01478824 0.13702065 0.030787809
000090 e9 bc 5b bd 22 12 83 bb 80 ca a7 3d 30 7b 55 3d
       -0.053646956 -0.0039999643 0.08192921 0.052119434
0000a0 97 cd df 3c ca 22 4d bd 44 ed 92 b9 89 bb 14 bd
       0.027319713 -0.050082006 -0.00028024067 -0.03631166
0000b0 62 97 84 3c 86 33 17 bd a9 56 7a bd bf c2 70 bd
       0.016185466 -0.03691437 -0.0611178 -0.058779474
0000c0 0a cd a2 bb f2 99 de 3d ba 0e 31 3d 35 4a b1 bc
       -0.00496829 0.108692065 0.043226935 -0.02164183
0000d0 64 ed c3 3d 4a e3 c2 3d b6 53 d8 bd 54 ab 31 bb
       0.09566763 0.09516008 -0.105628416 -0.0027110176
0000e0 af 09 a2 bd ad c6 7c 3d 05 5d 90 bd b8 93 49 3d
       -0.07912003 0.06171291 -0.07048992 0.04921314
0000f0 4c e0 72 bd 10 95 63 3d 48 2a 8c 3d d5 09 b1 bd
       -0.059295937 0.05556208 0.06844002 -0.086444534
000100 6b b9 11 be aa a8 d5 ba e6 fe f1 bd 0f 1b ad 3c
       -0.14230888 -0.0016300876 -0.11816196 0.021131067
000110 04 16 dc bd 3b 5b 1f bc 79 e1 92 bd 50 2b 49 3c
       -0.10746387 -0.009726341 -0.07171912 0.012278393
000120 73 48 5b bb 7c 6d 5f bd 9f e4 26 bd f0 92 e4 3d
       -0.003345993 -0.05454777 -0.040745374 0.111608386
000130 8a 45 28 3d d3 76 96 bc 62 45 24 3d 84 f3 ab 3d
       0.041081943 -0.018367207 0.04010523 0.08396056
000140 61 79 8e bd bd e4 cc bd 63 bd 0b bd f7 37 d6 bc
       -0.06956745 -0.10004566 -0.03411616 -0.026149733
000150 f8 9c d2 bd 6a ed e6 bc 72 7d 77 bd 72 c7 b0 bc
       -0.10283846 -0.02818938 -0.06042237 -0.021579478
000160 47 98 88 bd 02 07 01 3d 47 ed c8 3d d9 7f 9d 3d
       -0.066696696 0.031500824 0.09810882 0.07690401
000170 4c 47 88 3d e1 7a 0b be 7b b2 71 3a 37 40 9d 3d
       0.06654224 -0.13621093 0.0009220016 0.07678264
000180 4c 60 25 bd 2e 7b 8c 3d 7d e4 d0 3d 56 42 12 3e
       -0.04037504 0.06859432 0.10199831 0.14283118
000190 26 62 23 bd b7 74 5c 3d 08 4c e7 bd cb 51 8b bd
       -0.039888524 0.053822245 -0.11293799 -0.0680271
0001a0 aa 9a 7d bd 50 c1 89 bd cc f0 3a 3d fb d6 e7 bc
       -0.061915077 -0.067263246 0.045639798 -0.028300753
0001b0 6e 8b c6 bd 98 58 82 bc d7 93 cd 3d 0f 11 75 3c
       -0.09694563 -0.015911385 0.10037964 0.01495768
0001c0 aa aa d7 bc 3a e7 2c bd fb 3f b1 bc 18 bf f2 bd
       -0.026326496 -0.042212702 -0.021636954 -0.118528545
0001d0 24 7d fa 3c de c8 38 3d 98 6f 6e 3d 6c 98 4d 3d
       0.03057725 0.045113437 0.058211893 0.05019419
0001e0 37 23 09 be f4 c1 a1 bd 86 1d db 3c d9 db be 3d
       -0.1339234 -0.07898322 0.026747476 0.09319276
0001f0 a0 5a 05 3b 7d 9c ad 3d a8 e8 19 3d 83 3c 0a 3e
       0.0020348206 0.084771134 0.037575394 0.13499646
000200 38 ce c9 3c df aa e8 3d 87 1d a5 bd aa d8 48 bd
       0.024634466 0.11360716 -0.080622725 -0.049034752
000210 bf 82 5d bd cc 31 b8 bd 3d 76 12 3e 68 58 09 bd
       -0.054079767 -0.08993873 0.14302917 -0.033531576
000220 5c 3b 8b bc 4a 94 6d bd e4 3c f7 bd a6 28 a2 bc
       -0.016996078 -0.058002748 -0.12072161 -0.019794773
000230 18 61 b9 bd a9 06 6f 3d c1 58 14 bd ff 82 80 bd
       -0.09051722 0.05835596 -0.036217455 -0.062749855
000240 63 52 5d 3d 1a da b4 3d a1 3b 41 3d 18 21 58 3d
       0.05403365 0.08830662 0.047176007 0.052765936
000250 c2 27 7e 3d 09 c0 b3 3d 3d e2 64 bd 36 7c 7c 3d
       0.062049635 0.08776862 -0.05587982 0.061641894
000260 a3 fb 89 3c 1b 65 e5 3d a7 14 a0 bd 80 b1 ad bd
       0.016843623 0.11200925 -0.07816439 -0.08481121
000270 c3 68 a8 3d f1 70 aa 3c a4 a1 1e bd f2 0e 09 bc
       0.08223107 0.020805808 -0.03872837 -0.00836538
000280 67 f1 50 bc e7 31 f5 bb 91 76 db 3c 82 85 c2 3d
       -0.012752867 -0.0074827555 0.026789935 0.09498121
000290 9c 96 ea 3c f6 d6 0b 3d 4e 02 5f bd 07 08 5f bb
       0.02863627 0.03414055 -0.054445557 -0.0034031884
0002a0 1b 5e 19 3e 18 6a 96 bd 84 64 13 bc a7 e0 1d 3d
       0.14977305 -0.073444545 -0.008996133 0.038544323
0002b0 b4 7e b9 3c af c8 05 3e 8a 7f 88 bd a6 5a 3b 3d
       0.022643425 0.13064836 -0.06664951 0.045740746
0002c0 84 be 17 bd 66 90 7a 3a 58 02 90 3c 28 25 e1 bd
       -0.037046924 0.000955826 0.017579243 -0.10993415
0002d0 24 57 05 3e 94 e6 bb bd 55 2d 2a 3d 6b 47 91 3d
       0.13021523 -0.09174839 0.04154714 0.070937
0002e0 ea 00 29 3c 61 e8 e9 3a 33 0e 15 3e 8e 53 b8 3d
       0.010315159 0.0017845744 0.14556198 0.09000312
0002f0 a9 43 05 be a0 e3 97 3d bf b1 3f bd eb 60 80 bc
       -0.13014092 0.07416463 -0.04680037 -0.015671214
000300 0a 16 1b be a1 c9 a3 3d 95 ea ad bd f4 c5 9e bd
       -0.15145126 0.07997442 -0.084920086 -0.077526
000310 09 cb de bd 6e 15 b8 3d c7 28 c7 bd 33 46 a2 3d
       -0.1087857 0.089884624 -0.097245745 0.07923546
000320 56 cd 54 3d bf 6f 95 3d ef 75 09 be c0 8c fd 3c
       0.051953636 0.072967045 -0.13423894 0.030950904
000330 8f 4a f9 3b 1e 44 69 3d db e3 85 3c ac 73 12 3d
       0.007607765 0.056949727 0.016344002 0.035754845
000340 79 a8 aa 3d 6f 65 fe ba 6e 10 84 bd 0d e0 01 be
       0.08332915 -0.0019408892 -0.06448446 -0.12683125
000350 57 f3 b2 bd 00 a6 17 bd 5e 6d 91 3b 28 b3 a0 bd
       -0.0873782 -0.037023544 0.0044380864 -0.07846671
000360 79 c2 18 3d 49 b0 9c bd 05 ae f7 3d 4f 0c 62 3d
       0.03729484 -0.07650811 0.120937385 0.05518752
000370 2e 8d 8b 3d 8d 9e b5 3d da 98 b9 3d c3 a1 d1 bc
       0.06814037 0.08868132 0.09062357 -0.02558983
000380 23 ae d2 3d e8 80 39 bb 3e 26 16 3e 7b 89 b0 bd
       0.1028712 -0.0028305594 0.14663026 -0.08619972
000390 53 05 bb 3d 21 db 29 3d 45 ad bc 3d 99 eb e2 3d
       0.09131875 0.041468743 0.09212736 0.11080093
0003a0 97 5b d3 3b f5 58 d2 bd cf ae 15 3d 36 da 07 3c
       0.0064501273 -0.102708735 0.036543664 0.008291772
0003b0 fd 24 09 3d 42 3b ee bd 97 0b f4 bd e0 e3 c2 3d
       0.03348254 -0.11632396 -0.11916273 0.0951612
0003c0 16 13 8a bb f1 20 c1 3d 2b 7f 35 3d 2c bb ba bd
       -0.004213701 0.09430111 0.04431073 -0.091177315
0003d0 3b 7b b0 bd ed b8 b9 bd f1 99 fb bc 5c 85 aa 3c
       -0.08617254 -0.09068475 -0.030713053 0.020815544
0003e0 83 18 89 3d 8b 53 33 bd 03 38 0c 3d 81 aa 15 bd
       0.06694128 -0.043780845 0.034233104 -0.03653956
0003f0 54 23 9f bc 28 c6 fb bd d8 23 3b 3d 42 16 9e bd
       -0.019426025 -0.12293655 0.04568848 -0.07719089

weight_hh_l0 f4 [192, 64]
000000 08 10 39 bd 77 2a d7 3c 5d 8f 33 bd c6 28 b6 bd
       -0.045181304 0.026265366 -0.043837894 -0.08894496
000010 26 32 a7 bd fe b9 10 3e 92 fe 85 bc 59 cf d2 3d
       -0.08163862 0.1413345 -0.01635674 0.10293455
000020 05 33 21 3c 30 bc e5 bd 5b 9f 01 3e 4e 2b e1 bc
       0.009838824 -0.112175345 0.12658446 -0.02748647
000030 e0 38 be 3d 5b 46 d2 bd 6e 09 a0 3c 18 70 a2 bd
       0.09288192 -0.102673255 0.019535746 -0.079315364
000040 9f 81 2a bd 2b 35 a6 3d a6 35 1e 3e fc 04 05 be
       -0.041627523 0.0811561 0.15450153 -0.12990183
000050 2d 5d e9 bc 8d ed 34 bc d2 0a bc bc a2 93 c0 bd
       -0.028486812 -0.011042965 -0.022954378 -0.09403159
000060 78 2f 90 39 77 d2 ad 3d 9e b2 a0 bc de ef e9 3d
       0.00027501187 0.084874086 -0.019616421 0.11422704
000070 5b da a4 3d ff 56 a9 bd dd 70 91 3c aa c6 49 bc
       0.080494605 -0.08268546 0.017754013 -0.012315432
000080 cb 0e 0d 3e ad e9 52 3c b5 3d ac 3d 80 c1 45 bd
       0.13775174 0.012873095 0.08410207 -0.04828024
000090 08 40 43 bd cd 49 8d bd 56 5b a1 bc db 2b cc 3d
       -0.047668487 -0.06898842 -0.019696873 0.09969302
0000a0 54 74 22 3d a1 7d c0 bc e6 be aa 3c d6 f5 c0 3d
       0.03966172 -0.023497405 0.02084298 0.094218895
0000b0 4f 63 7f 3d e3 d1 b8 bc ec 87 22 3c 25 c1 b7 3d
       0.062350567 -0.02256102 0.009920102 0.08972386
0000c0 19 92 6e 3d 20 ea 57 bb 37 4c b1 bd f0 9d 04 be
       0.0582448 -0.0032945946 -0.08657115 -0.12950873
0000d0 4c a8 ad bd 8f a4 a4 bc 82 87 ea 3a 2c c3 df ba
       -0.08479366 -0.020097999 0.0017893168 -0.0017071716
0000e0 8b 91 12 bd 1f da a0 bd be e6 03 3e 37 c6 b4 3d
       -0.03578333 -0.07854103 0.1288099 0.08826869
0000f0 1f ec c3 bd 28 5f 95 bd 4c 92 74 bd 76 68 16 bd
       -0.09566521 -0.0729354 -0.059709832 -0.036720715
000100 88 03 55 3c f7 94 d9 3c f3 87 e2 bd 1f 5b af bd
       0.01300133 0.02656029 -0.110610865 -0.08562302
000110 8f 2b 28 bd 85 2d bf 3d d7 b5 24 3d dc de 2f bd
       -0.041057166 0.09334854 0.04021248 -0.042937145
000120 1a 78 e2 3c 7b c0 5a bc e8 d3 8e 3c 57 ef e5 bb
       0.02764516 -0.013351555 0.01743503 -0.007017057
000130 8b ee 90 bd 19 a0 7d bd 61 ac a4 3d f1 d6 c0 bc
       -0.070767485 -0.06192026 0.08040691 -0.023539992
000140 a5 f1 d3 3d 6b f2 9c 3d 73 1f 8d bc b9 3b cb bc
       0.103488244 0.07663425 -0.01722691 -0.024808751
000150 c7 c5 94 3d 47 d6 9b 3d 84 4c cb bb d8 4a ad bc
       0.072642855 0.076092295 -0.0062041897 -0.021153852
000160 9b 93 8a bd dd 49 96 bd 25 06 08 3e bc c6 0f 3d
       -0.06766435 -0.07338307 0.13283594 0.035101637
000170 1d 03 fa 3d bd 9f 39 bd eb 9b ad bd e5 70 8a 3d
       0.12207625 -0.045318354 -0.084770046 0.06759814
000180 15 09 4c 3c 56 9f cd bd f0 33 c2 bd 51 08 46 3d
       0.012453337 -0.100401565 -0.094825625 0.048347775
000190 53 83 12 3d 91 c2 b5 3c 26 2d 86 3d 85 92 aa bd
       0.03576977 0.022187503 0.0655158 -0.08328728
0001a0 ab 47 f0 bd de bb fe 3c 41 85 be 3d 5f da 03 3b
       -0.117324196 0.031095441 0.0930276 0.0020119173
0001b0 a4 3a c4 3d ed 55 7c 3c 12 38 56 3d 6e 09 e1 bc
       0.09581497 0.015401346 0.052299567 -0.027470317
0001c0 e6 dd 90 bd 1f d0 82 bd ce 08 05 be b3 66 b7 bc
       -0.07073574 -0.06387352 -0.1299164 -0.022387838
0001d0 bf 0a 62 3d b0 3b 57 3d 00 7c 0d be 57 01 d8 bd
       0.05518603 0.052547157 -0.13816833 -0.105471306
0001e0 78 42 83 3d 2d aa 03 be 89 ea 2a 3c 4a a2 8a 3d
       0.06409162 -0.12857886 0.010431894 0.067692354
0001f0 cc 4b 7e bd 3f cd d7 3c b5 87 c3 bd d6 cc 5b bd
       -0.062084004 0.026342986 -0.095473684 -0.053662144
000200 9a c2 59 3c 3d 38 a9 3b b8 7d 47 bd 3d 45 02 3e
       0.0132910255 0.005164175 -0.04870388 0.12721725
000210 df f9 f0 bc ab 00 6d 3c e0 82 97 bc 9c 00 98 3d
       -0.029416023 0.014465491 -0.018495023 0.07421991
000220 b4 f5 86 bd 1a 23 8a 3c 46 6c fc bd de 94 5a bd
       -0.06589833 0.01686244 -0.12325339 -0.053364627
000230 5c ed 6d 3c af 00 06 3d 19 fe 04 3e 4b 2b bf 3d
       0.014521923 0.032715496 0.12987556 0.09334429
000240 24 8d d8 bd db ef a8 bd 72 40 a5 3c b6 9a 51 bd
       -0.105737954 -0.08248874 0.020172331 -0.051172934
000250 2b ec 5e 3d bc 98 1b bb 7c 95 92 bd 6e 89 06 be
       0.054424446 -0.002374216 -0.07157418 -0.13138363
000260 a6 ed 88 bd a5 22 50 3c 75 af d3 3c b6 d0 cc 3c
       -0.06685953 0.012703572 0.0258405 0.025001865
000270 9c 50 54 3d 53 3d d0 3d 66 c5 4d 3c 35 40 e1 bc
       0.051834688 0.10167947 0.0125592705 -0.027496437
000280 f5 e7 85 3d d4 3c 14 3e 36 90 a6 3d 0e 8f 2b 3d
       0.06538383 0.14476329 0.08132975 0.041884474
000290 c5 c8 f0 3d e3 58 3b bd 5b eb 9b 3d 0d 8a 03 3e
       0.11757044 -0.045739066 0.0761325 0.12845631
0002a0 a0 1d 4f bd 2e 88 07 3d da 90 ac 3d 41 59 42 3d
       -0.050565362 0.033088855 0.08426066 0.0474484
0002b0 9d 6b 93 bd 82 67 73 3c 78 16 16 bb 0e a1 04 3e
       -0.0719826 0.014856221 -0.0022901576 0.12952062
0002c0 ed 78 71 bd 13 00 f7 bd f9 61 e1 bd ac 59 43 3d
       -0.058953214 -0.12060561 -0.11005015 0.04769294
0002d0 2b db d4 3d 6b 4b c4 3c 43 c7 ca bd 6d c5 8f bd
       0.103933655 0.023961743 -0.099012874 -0.07020078
0002e0 d7 6a dd 3d 4d 65 3b bd 8a 09 3b 3d a1 e9 fa bd
       0.10811394 -0.045750905 0.045663394 -0.122515924
0002f0 0c 63 29 bd 03 a8 16 3e d5 d2 b0 bd 0b 9e 92 bd
       -0.041354224 0.14712529 -0.08633963 -0.071590506
000300 b0 1a 73 bd 87 ff 8c bc d5 65 50 3d 76 61 e4 3a
       -0.059351623 -0.017211689 0.050878365 0.0017424065
000310 08 b7 f7 3d 61 f0 b9 3c c0 5b f2 bd 54 46 b6 bc
       0.12095457 0.02269763 -0.11833906 -0.022250332
000320 72 ab b3 3d d0 f4 d9 bd 52 14 5c bc d5 d9 42 bd
       0.08772935 -0.106423974 -0.013432579 -0.047571022
000330 17 24 34 3c 86 15 ff 3d 1b 1c 9e 3d 15 92 10 3d
       0.010994933 0.12455277 0.077202044 0.035295565
000340 ce ab fb bc d3 56 04 3e 04 19 0f bc cd 23 93 bd
       -0.030721571 0.12923746 -0.0087339915 -0.07184563
000350 98 b5 48 3c 11 63 15 3d 56 c6 85 bb a6 35 ac 3d
       0.012250327 0.03647143 -0.0040824814 0.0840867
000360 36 0a 0b be 36 37 9a bd 7d fd d1 3d 3d 70 e5 3d
       -0.13578114 -0.07530062 0.10253427 0.112030484
000370 f6 58 2f bd 96 b8 90 3d d5 31 ab 3d 9f 21 09 be
       -0.04280945 0.07066457 0.08359114 -0.13391732
000380 05 1f d7 bd 7d 25 09 3c 7c 07 b0 bd cc 34 e1 bb
       -0.105039634 0.008370754 -0.085951775 -0.006872749
000390 d5 c3 34 bd 6e 46 20 3d 4a b8 0b be 22 4c da bc
       -0.044132072 0.039129667 -0.1364452 -0.026647631
0003a0 1a b9 18 be 53 b6 c3 bd d8 ff 02 3d bb 17 5c 3d
       -0.1491436 -0.0955626 0.031982273 0.05373357
0003b0 4e a8 0f be c9 55 bb 3c 29 8a 8d 3b d6 cf 08 3d
       -0.14029047 0.022868054 0.0043194485 0.033401333
0003c0 41 4e 32 3d 8d 07 12 be 9e 62 3c 3d ce 56 c2 bc
       0.04353166 -0.14260693 0.045992486 -0.023723032
0003d0 25 5f d2 3d 99 63 d5 bd 89 0c bc 3d ef 67 90 bd
       0.10272054 -0.10419387 0.091820784 -0.07051074
0003e0 07 b7 32 bc 5f 51 4a 3d 08 c0 f6 bd 4f aa 2a 3d
       -0.010907895 0.049394008 -0.12048346 0.041666325
0003f0 e7 91 31 bb 89 82 be 3d e2 a8 fb bd 2f 8f 57 3d
       -0.0027095021 0.09302241 -0.12288071 0.052626785

bias_ih_l0 f4 [192]
000000 6d 65 ca bd c8 72 aa bd e6 d5 8f bd 5d c8 b0 3d
       -0.09882627 -0.08322674 -0.0702322 0.08631966
000010 21 20 3a bd 07 99 17 be d6 4c d3 bd 41 0c f7 3d
       -0.045440797 -0.14804469 -0.1031739 0.12062884
000020 fd 09 98 3d 8b 44 b3 bd 83 bc 2d bc 4e e9 d2 bb
       0.0742378 -0.08753308 -0.010604027 -0.0064365035
000030 72 39 d0 3c d8 06 55 bc e6 7c bd 3d 26 27 12 3d
       0.025418017 -0.01300212 0.09252338 0.035681866
000040 29 7a e7 bc 4b 4a 87 3d fe 10 46 bd c5 45 bc bd
       -0.028256493 0.06605967 -0.04835605 -0.09192995
000050 92 92 89 bc eb 2a 01 3d 5a ca cf bd 94 1a 02 bd
       -0.016793523 0.03153507 -0.101460174 -0.031763628
000060 97 15 64 bd 26 d3 8b 3d c7 62 19 bd 1f 24 37 3d
       -0.055684652 0.06827383 -0.037447717 0.044712182
000070 ee bd 7e 3d ad 2f 80 bd 76 cd 6a 3d 48 2c ca bd
       0.06219285 -0.062590934 0.05732485 -0.09871727
000080 0d 46 d2 3d 12 c7 65 bd 69 81 09 3e 5a 5b 28 bd
       0.102672674 -0.05609805 0.13428272 -0.041102745
000090 40 39 03 3d c1 08 0e 3e 89 de 0c bd 2f e6 bc 3d
       0.03203702 0.13870527 -0.034391914 0.092235915
0000a0 c0 09 9d bd 11 f9 2b bd 00 8e e8 3d 83 3a b4 3d
       -0.07667875 -0.041985575 0.11355209 0.08800223
0000b0 95 53 f9 3d d4 5d df bc a4 49 e5 bb ad d7 22 bd
       0.12174145 -0.02726642 -0.006997304 -0.039756466
0000c0 2c 51 90 3c 6a 8c df bd 41 1f 0d 3e 61 f3 c1 3d
       0.01761683 -0.10915454 0.13781454 0.09470249
0000d0 89 ac 5f 3d 34 cc 8a 3c db 5a db 3d d7 43 59 bd
       0.0546079 0.016943075 0.10710689 -0.053043213
0000e0 11 50 08 3b 8d 88 66 3d 0d 36 fe 3c 9c 14 97 bd
       0.0020799676 0.05628257 0.031031633 -0.07376978
0000f0 3f 52 bf bc 1e ce da bd ef 44 1a bc 8d d5 95 3b
       -0.023354648 -0.10683845 -0.009415849 0.0045725764
000100 83 f1 59 3d c3 3b 24 3d 65 63 4b bd 5c fb 80 3d
       0.05320884 0.040096056 -0.049655337 0.06297943
000110 90 d7 ae 3d 35 01 e9 bc 3f f1 5b 3b b9 3d 51 3b
       0.08537209 -0.028442958 0.0033560542 0.0031927659
000120 da 8c 9a 3d ec cb 12 3e 14 08 d0 bb bb f3 88 bc
       0.075463966 0.14335603 -0.0063486192 -0.016717782
000130 db 25 0b 3d d5 f8 3f 3d c9 8e 91 3d c2 d4 75 3d
       0.03397165 0.046868164 0.07107312 0.060017355
000140 50 21 b1 3d 67 de a7 3d 8d 3a 83 3c 9c d5 e7 3c
       0.08648932 0.08196717 0.01601913 0.0283001
000150 cb 16 ac bc da 30 50 bc 02 2c 9d bd c5 28 f9 3c
       -0.021006962 -0.01270696 -0.076744094 0.030414948
000160 fd 4b f4 3d 7e c6 bf 3d ce 55 36 3b 83 42 d7 bd
       0.11928556 0.09364031 0.002782214 -0.10510733
000170 38 0a f1 3c 73 c4 97 bb e7 be 2e 3c b4 2f 42 bd
       0.029423818 -0.004631573 0.010665632 -0.047408774
000180 66 81 b8 bd d7 8f 13 3e 4d 88 59 3d 1d fc b4 bd
       -0.09009056 0.1441034 0.053108502 -0.08837149
000190 41 7b f0 bd 86 92 e8 bd b5 8c d3 bb 82 81 40 3c
       -0.11742259 -0.11356072 -0.0064559826 0.011749627
0001a0 53 c8 f0 3d c1 00 80 3d 2e e3 8e bc 92 6c 81 3d
       0.11756959 0.06250144 -0.017442312 0.06319536
0001b0 70 d2 c2 bd 62 89 ab bd a7 be df 3d 5b e3 a4 bd
       -0.09512794 -0.08375813 0.10925036 -0.08051177
0001c0 11 ba 8a 3d 2e a3 ea 3c 95 9c e9 bd 90 ff aa bd
       0.067737706 0.028642263 -0.11406819 -0.08349526
0001d0 4a 38 41 bd 34 09 0d bd e4 8e dd bd e2 4e 69 bd
       -0.047172822 -0.034432605 -0.1081827 -0.056959994
0001e0 ea 14 b7 bb 10 06 27 3d 3b 34 e5 bd 03 10 98 bb
       -0.00558721 0.040777266 -0.11191603 -0.0046405806
0001f0 0d 47 aa 3d 94 38 85 bd 04 e4 ac 3d 36 5a b0 bd
       0.08314333 -0.06504932 0.08441928 -0.08610956
000200 f3 d5 b5 3d 8f 94 b3 bd e9 63 73 3d 14 d4 c0 3d
       0.08878698 -0.0876857 0.059421454 0.09415451
000210 71 ea bf bd e6 60 75 bd 73 3b ab 3d 07 81 88 3d
       -0.09370888 -0.059906863 0.083609484 0.06665235
000220 a6 f5 8d 3d 71 48 2e 3d 75 ab 00 be 0d 48 30 3d
       0.06931619 0.042549554 -0.12565406 0.043037463
000230 2c d5 b1 3d 13 41 9b bd a8 eb b3 3c b1 0f a1 3d
       0.086832374 -0.07580771 0.021962956 0.07864321
000240 88 03 e0 3d 7d 2b 63 bc f4 6b ac bd 3d c1 e0 3d
       0.109381735 -0.013865349 -0.08419028 0.10974357
000250 e6 da 94 bd 30 ac 0c 3e 15 b5 02 be 20 aa 10 3c
       -0.07268314 0.1373756 -0.1276439 0.008829623
000260 13 f5 43 bd 52 e8 af 3d e3 1c 27 bc 09 b4 d9 3c
       -0.047841143 0.085892335 -0.010199758 0.026575105
000270 ab f0 12 bd 02 ad 0e 3e 21 ea 03 3e 45 75 99 bc
       -0.03587405 0.13933185 0.12882282 -0.018732676
000280 2a 86 12 be d2 af 04 bc a1 46 92 bd cb c1 94 3d
       -0.14308992 -0.008098559 -0.07142378 0.072635256
000290 d2 c6 75 3d 65 49 53 bd 55 25 d5 3b 60 2b 0e 3e
       0.060004063 -0.051583666 0.0065046945 0.13883734
0002a0 d2 31 03 3d e9 5b e7 ba 15 20 0a 3e 40 20 e1 bd
       0.032029934 -0.0017651293 0.13488801 -0.10992479
0002b0 25 47 c5 bd 8e 18 97 bd cb 55 e4 3c b1 8c a2 3d
       -0.0963271 -0.0737773 0.02787294 0.07936991
0002c0 d9 14 ad bd 7d 64 11 be 18 5c fc bc cf ef 64 3d
       -0.08451242 -0.1419849 -0.030805632 0.05589276
0002d0 a3 0a 85 3d 18 fd 5a bd 04 74 53 3d 21 8d 3d 3d
       0.064961694 -0.053464025 0.051624313 0.04627717
0002e0 de e2 ce 3d b7 e2 0c bd 41 da 46 3d 54 52 f7 bd
       0.10101865 -0.0343959 0.048547987 -0.1207625
0002f0 e4 49 83 bc 97 19 17 3e e9 13 9c bd 6c 85 a6 3d
       -0.016026445 0.14755856 -0.07620985 0.08130917

bias_hh_l0 f4 [192]
000000 75 b3 b4 3a 2d 21 0f bc 9c e6 16 3e c4 0e 5c bd
       0.0013786393 -0.008735937 0.14736408 -0.05372502
000010 5d 22 11 3e a5 ab 94 bd e7 f0 ac 3d 0a 04 09 3e
       0.14173265 -0.07259301 0.08444386 0.13380447
000020 09 dc 99 bd 39 e5 90 3d 49 0f 19 3e b1 7b 89 3d
       -0.075126715 0.07074971 0.14947237 0.067130454
000030 45 07 b4 3d cc bb 9a bb 9d 18 7c 3a a1 1e 59 bd
       0.08790449 -0.004722094 0.0009616705 -0.053007726
000040 de 88 f7 3c cb f5 be 3d 7b 8c ba 3d a4 97 38 bc
       0.03021663 0.09324225 0.09108826 -0.011266623
000050 ac 7c 29 bd a9 83 d0 bd 19 a8 ca 3d 19 9c 4b 3d
       -0.041378662 -0.10181362 0.09895343 0.049709413
000060 9b 2c 45 bd 87 3d be 3d ce 59 88 bc a2 c6 a5 3c
       -0.048138242 0.09289079 -0.016644385 0.020236317
000070 1d a0 56 3d c9 1e 04 3e c8 4b f9 3d 5d 6c 83 bd
       0.05239879 0.12902369 0.12172657 -0.06417153
000080 fe 17 e6 3d b6 cc 82 bc 24 4d 87 3c 1f 8c 52 3d
       0.11235045 -0.015966754 0.016516276 0.05140316
000090 14 78 ba bd 17 d2 c8 bd 79 13 d7 3c 76 7e b7 3d
       -0.09104934 -0.098056965 0.026254402 0.089596674
0000a0 c8 77 9d 3d 65 e0 86 bb 3a a5 c9 3d a3 b4 12 be
       0.07688862 -0.0041161054 0.098459676 -0.1432672
0000b0 cf bc 3e bd bb 19 a7 3d 5d e7 49 bd dc 00 b2 3d
       -0.04656678 0.081592046 -0.04929291 0.0869157
0000c0 87 7f 13 3e 0c e8 93 3c bc 79 8d 3d 32 a7 94 bd
       0.14404117 0.018054985 0.069079846 -0.072584525
0000d0 d5 9e 36 bd 1c a4 db bd d3 e8 03 bd b1 2f 96 3d
       -0.044585068 -0.10724661 -0.03220446 0.07333315
0000e0 31 c9 06 bd a1 4a df 3d 48 60 fd 3d 04 8b 3e 3d
       -0.032906715 0.10902906 0.1237188 0.046519294
0000f0 c7 6b eb 3c 0e 47 fd 3d 87 90 e2 bc 1a 11 33 bd
       0.028737916 0.12367068 -0.027656807 -0.04371748
000100 c2 f2 80 3d 18 39 13 3d b6 51 0d be 69 c5 12 bc
       0.062963024 0.03594312 -0.13800701 -0.008958199
000110 ff 59 d5 bd 33 f1 0f 3d b5 dd e5 3b cc 2b de bd
       -0.10417556 0.035142135 0.007014955 -0.10848197
000120 aa 3d 22 bc 42 3d 79 3d b7 61 33 3d f6 1b f3 bd
       -0.009902397 0.060849436 0.04379436 -0.118705675
000130 56 39 41 3d 0e a7 01 3e d6 ba 04 3e ff f0 a2 3d
       0.04717382 0.12661383 0.12961897 0.079561226
000140 8d 69 aa 3d 13 7f 65 bd 81 a9 76 3d 38 9e c5 3d
       0.083209135 -0.05602939 0.060220245 0.096493185
000150 2e cd 0e be c8 36 f2 bd c0 ee c1 3d 6c 8c c7 3d
       -0.13945457 -0.11826855 0.09469366 0.0974358
000160 ef 05 ad 3d 5d 67 ce 3d f0 64 2f 3d f0 58 b2 3d
       0.08448397 0.10078309 0.04282087 0.0870837
000170 41 eb a4 3d 06 35 5f 3d 2f 42 24 3d 2b e3 c9 bd
       0.080526836 0.054493926 0.04010218 -0.09857782
000180 ba 2d d8 bd d3 d4 83 bd 1a a7 db 3d 0b 19 a2 3d
       -0.10555597 -0.064370774 0.107252315 0.07914933
000190 29 e6 00 3d 6e 39 9d bd d5 84 22 3d e7 a9 50 3d
       0.031469498 -0.076769695 0.03967746 0.05094328
0001a0 64 61 d4 3c 3b 29 a3 3d bf 77 2e 3d 73 9a b0 3d
       0.025925346 0.079668485 0.042594668 0.08623209
0001b0 bd ea c4 bd e9 1d 88 3b a1 a3 7e bd a8 4e 62 bd
       -0.09615085 0.004153956 -0.062167767 -0.055250794
0001c0 5d 92 95 3c 93 1f 5a bd d6 0c 86 bd e3 5c 14 bb
       0.018258268 -0.053252768 -0.06545417 -0.0022638373
0001d0 a1 56 a0 bd 80 dc b6 3c 4b c0 a8 3d 41 b9 fe bd
       -0.07829023 0.02232194 0.08239802 -0.12437678
0001e0 30 eb ec bd f8 54 eb 3d 6b e6 2c 3d 26 02 bc bc
       -0.11568296 0.11490816 0.04221193 -0.022950243
0001f0 32 ff 80 bd da 6f 46 bd ab 35 e4 bd 57 59 94 3d
       -0.06298675 -0.048446514 -0.11143049 0.07243603
000200 cf ae 7a bd 92 97 4d 3c 97 be d0 bd f3 49 f2 bb
       -0.061201867 0.012548344 -0.10192602 -0.0073940693
000210 70 4e d1 bc 7d b1 33 bd 2a 50 c2 bd 8f 14 cb bd
       -0.025550097 -0.043870438 -0.09487946 -0.099160306
000220 50 2d 5d bd f0 cb 93 bc 05 7c 15 3d 34 a6 33 bd
       -0.05399829 -0.01804158 0.036495227 -0.043859676
000230 a7 6d 8f bd cd 00 b1 bd 7c f8 69 bd 04 7f 68 bd
       -0.070033364 -0.08642731 -0.05712174 -0.056761757
000240 b1 24 c3 bd ad 0a be 3d fe 29 a8 3d d5 87 87 bd
       -0.09528483 0.0927938 0.082111344 -0.06617705
000250 b3 65 fb ba 47 66 ef 3c 7e 1f 08 be 79 41 02 3d
       -0.0019180089 0.029223574 -0.13293263 0.03180072
000260 f7 61 b5 bd 24 d0 4d 3b 24 d4 a7 bd b6 2f f1 bd
       -0.08856576 0.003140458 -0.081947595 -0.11776678
000270 12 11 5f 3d 43 b7 7e bd 2b 70 8e bb d0 db 9f 3d
       0.05445964 -0.06218649 -0.0043468676 0.07805598
000280 ab bd ae 3c f0 7f aa 3c b7 79 71 bd 98 fb 96 3d
       0.021330675 0.020812958 -0.058953967 0.073722064
000290 59 f8 f1 3d d8 f3 65 bc ea 81 82 bc 24 c6 21 bd
       0.11814947 -0.014035188 -0.015931088 -0.039495602
0002a0 03 95 ea bd 9b 83 05 3e d9 02 b4 bd 63 65 7a bc
       -0.11454203 0.13038485 -0.08789606 -0.015282962
0002b0 5a b2 49 3d 80 75 df 3c 59 68 e3 bd 3a e4 55 3d
       0.049242355 0.027277708 -0.11103887 0.052219607
0002c0 2a 28 2f bc 27 e8 a6 bd e7 5e 84 bd d7 f6 0e 3e
       -0.010690728 -0.08149748 -0.06463414 0.1396135
0002d0 2a 3d 1f bd 11 0f 85 bd ee 05 57 bd 45 d7 e6 3b
       -0.03887669 -0.06497014 -0.05249589 0.007044705
0002e0 57 f7 6a bd b1 d4 d2 3d 44 97 62 3d 30 46 06 be
       -0.057364788 0.10294474 0.05532004 -0.13112712
0002f0 73 e8 4c 3d 6a 75 7f bd 65 a6 c4 3d 5f f2 af 3d
       0.05002637 -0.062367834 0.0960205 0.085911505

weight_ih_l1 f4 [192, 64]
000000 05 eb 0e be b6 f6 c3 bc f9 e0 8b 3d 6b 73 39 3d
       -0.1395684 -0.023921352 0.068300195 0.045276087
000010 19 b2 68 bd 2c e9 9b 3d 16 ae 77 bd 3c 26 c5 3d
       -0.056810472 0.076128334 -0.060468756 0.09626433
000020 10 6d 0e be 1a 35 75 3c ec ab 06 be 77 75 33 ba
       -0.13908792 0.014966274 -0.1315152 -0.0006845812
000030 bd b3 7d bd 4c b5 df bd 0a ce a9 bd c4 01 8b 3d
       -0.06193899 -0.109232515 -0.08291252 0.06787446
000040 48 90 bd 3d 51 76 17 3d e2 2c a2 bd 9a cd 65 ba
       0.09256035 0.03697807 -0.07918717 -0.0008766294
000050 aa 7a bc bd 0d 60 c1 bd ca b4 d8 3d 80 74 07 bd
       -0.09203084 -0.09442148 0.10581358 -0.033070087
000060 90 42 0f bc 44 c5 d2 3d d8 02 ca bd 20 e9 d4 bd
       -0.008743897 0.10291532 -0.09863824 -0.103960276
000070 fd 02 34 bd 01 b8 e0 3d c9 ab d9 3c 8d 5e 75 bd
       -0.043948162 0.10972596 0.026571171 -0.059904624
000080 4b cb 88 bd 5e 65 c1 3d 63 a9 61 bd 2d 72 e1 3d
       -0.066794 0.094431624 -0.05509318 0.110081054
000090 68 3e b6 3c 22 5d 28 3d 9b 7d 9d 3d 50 8e 29 3d
       0.022246554 0.041104443 0.07689973 0.041395485
0000a0 a6 ae c0 3d 36 b9 8f bd 67 d9 93 3d 11 22 d0 bd
       0.094083115 -0.07017748 0.072192006 -0.10162748
0000b0 4d ea 97 3d 47 2d b5 3d 44 b8 de bd 4e 34 c8 bd
       0.07417736 0.088465266 -0.1087499 -0.09775601
0000c0 b4 3b a7 3d c9 80 8d bd 4d 62 e8 3c f1 c9 c0 3d
       0.08165684 -0.069093294 0.028367186 0.09413517
0000d0 9f 53 c7 3d 79 48 04 3d d5 23 97 bc 0f 14 0b be
       0.09732746 0.032295678 -0.018449703 -0.1358187
0000e0 d3 d4 f5 3d 60 f5 7a bd 5b 45 c2 bd ac eb 9d 3d
       0.120034836 -0.061269164 -0.09485885 0.077109665
0000f0 c8 ec 70 3d 3d 07 dc bd c9 6c 23 3d e3 4a 88 3c
       0.058819562 -0.10743568 0.039898667 0.016637271
000100 a4 8e 6b bd 81 83 c2 3c 78 3a 61 bd 8b 8a 82 3d
       -0.05750908 0.023744347 -0.0549874 0.06374081
000110 f6 b1 9c bd 8d ac 30 3d f5 9c e6 3c d0 a9 c8 3c
       -0.07651131 0.043133307 0.028151015 0.024495035
000120 5c 09 82 bd 88 2a e7 3d e2 71 25 3d 57 9f bf 3c
       -0.063494414 0.11287409 0.04039181 0.023391409
000130 35 ad e3 3c 76 51 38 3d a5 a5 e5 bd d8 01 d5 bd
       0.027792552 0.044999562 -0.11213235 -0.10400742
000140 22 5d fb bd 85 4c 04 bc a2 2c 2a 3c de 71 b8 bb
       -0.12273623 -0.008074884 0.010386618 -0.0056288084
000150 34 df 90 bd fa 15 08 be 5b 4a ff 3d db c5 9c bd
       -0.070738226 -0.13289633 0.12465354 -0.076549254
000160 02 ee a4 bd e2 a5 41 bc 3c b1 a8 bd d9 9d 47 bd
       -0.08053209 -0.011819335 -0.0823693 -0.04873452
000170 b3 00 58 3d f1 e8 8e 3d 7e 4b 12 3c 65 fc 9b 3c
       0.05273504 0.06978024 0.008929132 0.01904125
000180 5d 32 35 bd 4e 3a d8 bd dc f2 a6 ba 7e 45 7b bd
       -0.044237483 -0.10557996 -0.0012737173 -0.06134557
000190 9d 89 37 bd 98 9d 29 bd e3 47 1e bd 87 e3 db 3c
       -0.044808973 -0.04141006 -0.038642775 0.026841892
0001a0 44 20 f5 3d c8 cd 48 bd 10 70 2f bd 7a 7d 7f 3b
       0.11969045 -0.049024373 -0.04283148 0.0038984702
0001b0 3e 80 4a bd 1c 89 e1 bc d8 52 63 bd da f7 70 bc
       -0.049438708 -0.0275312 -0.055498928 -0.01470753
0001c0 9f 5f d3 bd 71 92 d8 bd b0 44 7e 3d 9c de 88 bd
       -0.10320973 -0.105748065 0.062077224 -0.06683084
0001d0 2f 78 4e 3d 1b c6 e0 bd c7 03 8f 3c c4 15 9b 3d
       0.050407585 -0.109752856 0.017457856 0.07572511
0001e0 04 36 4c bc fe ba 00 bb 8f e3 bd 3d 8d a7 8e 3d
       -0.01246405 -0.0019642706 0.09271919 0.069655515
0001f0 fa c8 13 be a0 f1 ae 3d 9f 8b dc 3c 98 41 d0 3c
       -0.14432135 0.0854218 0.026922045 0.025421903
000200 0a ab e5 bc 1b fa b8 bd da b4 13 bd 6a 59 e1 bb
       -0.02803566 -0.09032079 -0.036061145 -0.006877114
000210 74 b9 0f 3e e5 e2 d3 bd 49 aa 5a bd ce 1c 10 3d
       0.14035589 -0.10346011 -0.053385053 0.03518372
000220 bf 5b 75 3d 0d cc c5 3d b0 18 7e 3c d2 33 0f 3d
       0.05990195 0.0965806 0.015508816 0.03496153
000230 70 1e d4 bd cf fe 0b 3e d2 7a a3 3c f5 49 ca 3d
       -0.10357368 0.1367142 0.019956026 0.098773874
000240 de d3 67 3d 57 d7 71 3b 41 27 77 3d ac 27 88 bd
       0.056598537 0.0036902034 0.06034017 -0.06648192
000250 96 05 97 3d fe b0 8a 3b 34 c0 52 bd 78 dc e3 bd
       0.07374112 0.004232525 -0.05145283 -0.111260355
000260 c9 30 81 3d 92 52 ea bd df 36 31 bd 21 f2 45 3d
       0.06308133 -0.1144153 -0.04326522 0.048326615
000270 a5 95 ef 3d 71 2b 8b 3d f1 13 bc bd 7a 70 cc bd
       0.11698464 0.06795395 -0.09183491 -0.09982391
000280 93 23 08 bd 18 b7 a4 3d c4 49 b2 3d ad ea de bd
       -0.03323705 0.08042735 0.08705476 -0.108846046
000290 7f 82 91 3c 9d 8a 06 bc c2 b6 d2 bd 90 22 10 be
       0.01776242 -0.008211759 -0.102887645 -0.14075685
0002a0 d7 bb f3 bd 3b 06 68 3d af 5f fa bd 02 a5 ca 3d
       -0.11901062 0.056646567 -0.122252814 0.09894754
0002b0 c2 aa 17 3d ae 67 ab 3c d1 59 c7 bd 28 81 3b 3b
       0.03702808 0.020923462 -0.09733928 0.0028610919
0002c0 90 4e e8 3d d5 d3 cb 3c 4a a9 84 bd 5b d3 0a 3d
       0.113431096 0.024881283 -0.06477602 0.03389297
0002d0 01 a6 6b 3d 12 15 e3 3d 04 46 e2 bd 3d fd c1 3d
       0.05753136 0.11088003 -0.11048511 0.094721295
0002e0 27 bd 8c 3c b7 c3 94 bd 5a cd 62 3d 84 e5 86 3d
       0.017180039 -0.07263892 0.05537162 0.065867454
0002f0 9a 1d 67 3d bd b0 07 3e 66 76 99 bd bb 60 00 3e
       0.056424715 0.13251014 -0.07493286 0.125369
000300 ed db 2c bd e0 cd cd 3d 80 43 69 bd 60 63 f9 3d
       -0.042201925 0.10049033 -0.05694914 0.121771574
000310 08 33 72 ba a4 b0 00 bd ae c4 61 bd 67 d9 e5 3c
       -0.00092391716 -0.031418458 -0.05511921 0.028057767
000320 c5 7b e1 3d 5d ae f7 3c d6 58 b4 3b 25 70 91 3d
       0.11009935 0.03023451 0.005503754 0.07101468
000330 3e c2 95 3d ca b5 ed bd 2f 3d 07 3d dd d5 ae bd
       0.073124394 -0.11606939 0.033017334 -0.08536885
000340 37 63 a5 3d fa 06 0b bd e4 51 b0 3d 86 fd 8a 3d
       0.08075564 -0.0339422 0.086093694 0.06786637
000350 28 a9 86 bc 93 55 56 3d a3 0e 6e 3c 6d 4b 0a 3d
       -0.016438082 0.052327704 0.014529857 0.033763338
000360 ca df d6 3c 2a 68 03 bc c5 89 a1 3c b6 a8 20 3d
       0.026229758 -0.00802044 0.019719014 0.039223395
000370 24 fd ea 3d a5 be 82 bd 1d 29 1d 3d 8c 3e 71 bd
       0.11474064 -0.06384019 0.038369287 -0.05889754
000380 50 77 de 3c 8a af fc 3d bf 24 19 3e 7d 22 4d bd
       0.027156502 0.12338169 0.14955424 -0.05008172
000390 cc ee e9 bc 64 cf ac 3d bd cc a3 bd b9 f9 aa 3d
       -0.02855625 0.08437994 -0.07998035 0.08348412
0003a0 89 39 a0 bd 84 b6 b1 3d 8b dc 35 bc 0e b6 0c bc
       -0.07823474 0.0867739 -0.011099945 -0.008588327
0003b0 0c b1 f0 bd 38 cb 33 3d 88 37 a1 3d bc f6 30 bd
       -0.11752519 0.043894976 0.0787192 -0.043204054
0003c0 6a bd 15 3d 41 71 7e 3d 91 10 a2 bd da 62 d6 3d
       0.036557592 0.062119726 -0.07913316 0.10468073
0003d0 0e 40 c7 3c b5 56 dc 3d b7 29 8f bd 05 3b 98 bd
       0.024322536 0.107587256 -0.06990378 -0.07433132
0003e0 b2 5e 2f 3d a0 96 a7 3c 22 7f a5 3d 1a 7e be bd
       0.042814918 0.020457566 0.08080889 -0.09301396
0003f0 8e 9e c2 3d 6e a5 d4 3c d4 6f ab 3d 6d 27 50 bd
       0.09502898 0.02595779 0.08370939 -0.05081885

weight_hh_l1 f4 [192, 64]
000000 fa 10 4d 3d ea bc 47 3d 4c 0b bb 3d 08 6d fd 3d
       0.05006502 0.048764147 0.09133014 0.12374312
000010 a0 3d 93 3d 7c 58 af 3d 46 93 77 3d d1 3b be 3d
       0.071894884 0.08561799 0.060443185 0.09288753
000020 61 d9 05 3b f2 75 d8 3d 93 9b ad 3c 2f f6 91 bd
       0.0020423757 0.10569371 0.021192348 -0.07127034
000030 91 20 65 3d b2 9c 11 3d 65 e9 f1 3d 03 28 91 bd
       0.05593926 0.035549827 0.118120946 -0.0708771
000040 28 44 a3 3d e7 37 c8 bd ca 24 3e 3c 6c 47 8a bd
       0.07971984 -0.097762875 0.011605451 -0.06751904
000050 05 96 15 3d 98 83 20 bd 43 16 ed bd b2 c4 9a bd
       0.036520023 -0.039187998 -0.11576512 -0.07557048
000060 49 7d 4b bd 93 29 5f 3d c5 da 55 bd 08 15 f4 3d
       -0.049680028 0.054483008 -0.052210588 0.11918074
000070 0f ec 0b be 60 34 80 3d 48 4b 80 3c 70 69 95 3d
       -0.13664268 0.0625999 0.015660897 0.07295501
000080 67 02 0a 3d 0f ed af 3d a9 0d e6 bd 88 c0 e8 bd
       0.033693697 0.08590137 -0.11233074 -0.113648474
000090 76 f5 ec 3d ef 5f a2 bd b8 34 49 3d 39 ec 1f 3d
       0.115702555 -0.07928454 0.049122542 0.03904364
0000a0 2a 1e 0e 3d 7b 2d bf 3c 5f 61 c4 3d a8 da 20 3d
       0.034696735 0.023337116 0.095888846 0.039271027
0000b0 e9 f7 0a be 8e 28 09 3d 58 16 09 bc 20 a6 28 3d
       -0.13571133 0.03348594 -0.008367144 0.041174054
0000c0 cd 7f d4 bd 93 16 6d bd 9f 3a f6 bd a1 f5 19 bc
       -0.103759386 -0.057882857 -0.120229 -0.009396941
0000d0 0d 13 0b 3a fd bf a0 3c 03 b2 ed 3c 2a 54 40 bc
       0.0005305268 0.019622797 0.029015547 -0.011738816
0000e0 57 38 06 3d 7e a2 ee bc 19 8a 83 3d a0 ff 07 3b
       0.032768574 -0.029130217 0.064228244 0.002075173
0000f0 f6 f9 cf bd 1c de 38 bc f7 28 ec bd 76 9e 79 3d
       -0.10155098 -0.011283424 -0.11531251 0.060942136
000100 ad 8d c4 bc ac 3f 92 bd 24 fb cd bd 2f e1 87 bd
       -0.023993338 -0.07141051 -0.10057667 -0.06634747
000110 d7 1f 10 3c 59 16 d6 3d 69 f9 41 3b 90 a2 95 3d
       0.008796654 0.10453481 0.0029598123 0.07306397
000120 71 39 e2 bd 30 a5 ab 3d b7 0b ed 3d 56 22 c1 bd
       -0.11046112 0.083811164 0.115745 -0.09430377
000130 86 80 0c 3e e8 63 97 3b a6 c1 12 3d 42 1d a5 3d
       0.13720903 0.004620064 0.03582921 0.08062221
000140 68 9c 51 bd a1 c5 4c 3d 8f f5 f7 bd 3c 28 80 bd
       -0.05117455 0.04999316 -0.121073835 -0.06257674
000150 ab ae 9d 3d 59 bf 0d be 5f 01 36 3d 3a c5 5f 3d
       0.07699331 -0.13842525 0.0444349 0.05463145
000160 f0 67 d7 bd b2 7a a4 bd ee 7f 6d 3d a5 ab 99 3d
       -0.105178714 -0.08031215 0.05798333 0.07503442
000170 58 e8 14 3d 58 fb da bd 26 b8 b6 3d d1 6f 3f bd
       0.036354393 -0.10692471 0.08921842 -0.046737496
000180 68 60 e1 3d 9d a3 b2 bd 7c 12 03 3e ec 6c 86 3d
       0.11004716 -0.08722613 0.1280002 0.06563744
000190 09 48 af bd 9d 5d 43 bd 6d 01 55 3d 44 da 95 bc
       -0.085586615 -0.0476967 0.052003313 -0.018292554
0001a0 c2 3a f6 3d 98 48 e9 3c fe b4 11 be 2e 8f c5 3d
       0.12022926 0.028476998 -0.142292 0.0964645
0001b0 0f d9 53 bc a9 31 a6 bd 0b f5 cd 3d e6 0d 9f bd
       -0.012930169 -0.08114941 0.10056504 -0.07766323
0001c0 9a c9 8f 3d 67 53 35 bd e8 79 8c 3d 33 d3 c8 3d
       0.07020874 -0.04426899 0.06859189 0.09805908
0001d0 14 86 e7 bd 96 1f 90 bd 34 8d e9 3d b2 5a 03 be
       -0.1130487 -0.070372745 0.114038855 -0.12827566
0001e0 45 53 f5 bd a0 02 67 3d 8f a4 d6 bd fd 1f dd 3d
       -0.11978773 0.056398988 -0.10480606 0.10797117
0001f0 a4 1f d8 3d 88 13 e8 3d 50 32 df bc cf bc b4 3d
       0.1055291 0.1133185 -0.02724567 0.08825075
000200 41 10 06 be 80 fe 10 be 7a f4 c7 bc e8 64 d5 bc
       -0.13092138 -0.14159584 -0.024408568 -0.026049092
000210 b5 a0 43 bd 6b 44 fd bb 60 1b 68 3d 5a f1 a5 3d
       -0.047760684 -0.0077291033 0.05666673 0.08102675
000220 eb e3 02 be ba 26 05 be b6 ae 9f 3a d8 dc 0d be
       -0.12782256 -0.13003054 0.0012182805 -0.13853776
000230 e5 7c 01 be 4e 14 be 3b f6 6a b5 3d 5d 80 dd 3d
       -0.126453 0.0058007604 0.08858292 0.10815499
000240 a1 67 ab bd ed 10 a6 bd ab da bf bd df d5 95 3d
       -0.08369375 -0.08108697 -0.093678795 0.07316183
000250 e8 1c 08 be 6a fc 57 3d 4b 5c 7f bd 97 29 e4 bb
       -0.13292277 0.052730955 -0.062343877 -0.0069629657
000260 88 fc c4 bd 87 01 ca bd 72 ff c3 bc 11 6b 14 be
       -0.09618479 -0.098635726 -0.023925517 -0.14493968
000270 47 1c af 3c ae 16 11 3d 87 f6 9f bd 56 b7 9b bd
       0.021375788 0.03542202 -0.07810693 -0.07603328
000280 2c cc 43 3d 74 67 90 bd 6d 04 36 3c a7 d2 04 3e
       0.047802135 -0.07050982 0.011109454 0.12970982
000290 5e 02 13 be 6b 08 97 3c 09 6e 8b bd a3 55 0a bd
       -0.14356372 0.018436631 -0.06808097 -0.033773076
0002a0 2a 94 ad 3d 88 61 c9 3c e5 3d ad 3d cc b5 1c bd
       0.08475526 0.02458264 0.08459071 -0.038259313
0002b0 39 1e 92 bd 4e 81 66 bd 17 40 94 3d 30 06 16 bd
       -0.07134671 -0.05627566 0.07238787 -0.036626995
0002c0 67 82 98 bc 23 d8 8f bd 00 d7 b0 3d 5f 55 82 3c
       -0.018616868 -0.07023647 0.08634758 0.015909849
0002d0 7c 50 05 3e ff 22 85 3d c1 64 e9 3c 76 ec 8e 3d
       0.13018984 0.065008156 0.028490426 0.06978695
0002e0 aa 33 c1 3d d0 99 d5 3d b6 00 69 3d 7e c0 66 bb
       0.09433682 0.10429728 0.056885444 -0.003520995
0002f0 5d 46 2f bd 7f 72 5b 3b c9 8a b7 bd 4e 44 2a 3d
       -0.042791713 0.0033484993 -0.08962018 0.041569047
000300 34 7d f8 3c 91 c9 4a 3d c7 1a 80 bd b0 23 18 be
       0.030333139 0.049508635 -0.062551074 -0.14857364
000310 a3 11 fa bc e6 42 cb 3d 2c 84 d8 ba 4c 92 95 bd
       -0.030525988 0.09924869 -0.0016518882 -0.073032945
000320 87 69 ea bd 45 95 aa bd 75 8d 7b bd 9d ed b0 3d
       -0.11445909 -0.08329252 -0.0614142 0.08639071
000330 f8 06 24 3d 64 da d5 bd 28 d4 58 bd 33 ac e0 3b
       0.04004571 -0.10442045 -0.052936703 0.0068564652
000340 f9 05 ab bd 36 70 08 3d ee e9 d0 3c c2 d3 c5 bd
       -0.083507486 0.033310138 0.025502171 -0.0965953
000350 ad 52 16 3d f1 f3 05 3d ec 9f e9 3d 13 c3 2f bd
       0.03669994 0.032703344 0.11407456 -0.042910647
000360 83 59 58 3d a6 32 cb 3c 96 04 6a 3b 8b fc be bc
       0.05281974 0.024804424 0.00357083 -0.023313781
000370 03 5d a5 3d 8b 2e bd 3d e5 bb 6b 3d 40 7f 56 bd
       0.08074381 0.09237393 0.057552237 -0.05236745
000380 2f cd ab 3d 2f 6d c3 bc 12 cb 13 3d 97 a8 84 3d
       0.08388745 -0.023855774 0.036082335 0.064774685
000390 df 04 3d bd 78 45 a6 3d 26 b1 a5 bd 32 a7 5a bc
       -0.046147224 0.08118719 -0.08090429 -0.0133455265
0003a0 50 25 3d bd b6 b2 d6 bc 89 84 56 bd a1 74 81 bd
       -0.046178162 -0.026208263 -0.05237249 -0.06321073
0003b0 33 16 e1 bb 73 18 49 bb a4 dd bc bd 07 89 32 3c
       -0.0068691014 -0.003068474 -0.09221962 0.010896928
0003c0 67 2c c6 bd 96 cc 66 bd 80 b2 2e bd 1f 61 91 bc
       -0.09676438 -0.056347452 -0.0426507 -0.017746506
0003d0 2b 0a f9 3d 01 eb 38 3d fb 5f 0c 3e 7e d3 7e bb
       0.121601425 0.045145992 0.13708489 -0.0038883383
0003e0 19 f5 0b 3e c5 c6 7d bd 6e 9f cf bd fc aa 03 bd
       0.13667716 -0.06195714 -0.10137831 -0.032145485
0003f0 be 52 b7 3c 51 fd bb bc d2 3d 7b 3c f9 b6 db bc
       0.022378322 -0.02294794 0.015334563 -0.026820647

bias_ih_l1 f4 [192]
000000 7e 4d 39 bd 94 43 a8 3d be 93 a8 3d 3f 48 bc bd
       -0.045239918 0.082160145 0.082313046 -0.09193467
000010 a3 2c 7f 3c 68 6d bd 3c 23 ae e1 3c 3b 44 45 3d
       0.015574607 0.023123458 0.027548855 0.048160773
000020 a4 5e 48 bd 13 81 95 3d d8 dc 77 bd f3 e2 94 3d
       -0.04891838 0.073000096 -0.060513347 0.0726985
000030 a4 75 fd 3d 3c 9c db 3d a6 08 88 3b 38 87 14 3d
       0.12375954 0.10723159 0.0041514216 0.036261767
000040 c2 52 02 bc f2 80 aa bb 04 1d 9d 3d 31 5c d0 bd
       -0.007954301 -0.0052033598 0.0767155 -0.10173834
000050 d9 94 a3 bc 24 1a c3 3b 75 3d a3 3d f2 13 b2 bd
       -0.019968437 0.005954044 0.079707064 -0.086952105
000060 f1 c6 e4 3d c0 be bc bc 72 17 78 3b 07 77 9f bc
       0.111707576 -0.023040175 0.0037855771 -0.019465936
000070 3c 95 b6 3d fc 01 f9 bc 81 6e f2 bc 2e f8 cf 3d
       0.08915183 -0.030396454 -0.029593708 0.101547584
000080 16 30 ba bd 7f 66 b8 3b 77 df b1 3d 13 32 bc bb
       -0.09091203 0.005627453 0.08685201 -0.005743274
000090 09 23 21 bd 25 4d c0 bd 47 43 b4 3d ff 34 0c be
       -0.039340053 -0.09389714 0.08801895 -0.13692091
0000a0 ab c1 e4 3d b3 92 15 3e c8 64 f4 3b 27 60 05 3b
       0.11169752 0.14606743 0.007458303 0.00203515
0000b0 1c 4a 53 bd 43 67 2c 3b 9a d9 4c 3d 17 7d 7e bd
       -0.051584348 0.0026306666 0.05001221 -0.062131014
0000c0 28 3f 06 3e 27 19 c4 3d 97 c4 9d bd 68 2f f7 3d
       0.1311003 0.0957511 -0.07703512 0.12069589
0000d0 de 31 57 bd 10 a9 06 3e f9 3d 62 3d 40 31 b8 bd
       -0.05253779 0.1315043 0.055234883 -0.08993769
0000e0 5d a6 20 3d c3 e3 ef bd b6 37 b1 3d b5 74 83 3d
       0.039221156 -0.11713364 0.08653204 0.064187445
0000f0 f1 d4 bd 3c e2 3c 63 bd 0e 21 cf 3d ec 10 b3 bd
       0.023172827 -0.055477984 0.101137266 -0.08743462
000100 1e 34 43 bd 2d b5 33 3d 9e 1a 39 bd d9 b6 f9 bd
       -0.047657125 0.043873955 -0.0451914 -0.121930785
000110 eb de 1a bd f5 45 80 3c bc 12 34 3d 49 6c 7a bd
       -0.037810247 0.015658358 0.04396318 -0.061138425
000120 35 4e c7 bd e9 8e fb bd bc 72 3b bd 81 ca 55 bd
       -0.09731714 -0.12283117 -0.045763716 -0.052195076
000130 95 9c 10 3d eb 35 d0 bd 6b 8b f1 3d 65 81 bb 3d
       0.03530558 -0.10166534 0.1179417 0.091555394
000140 c2 92 70 3c 1f 00 2a 3c 62 10 1d bd d9 25 17 be
       0.014683427 0.010376005 -0.038345702 -0.14760531
000150 65 b8 17 3d 16 bc 00 be 4b d2 96 bc 40 08 27 bd
       0.037041087 -0.12571749 -0.018410822 -0.040779352
000160 60 6d 80 3d dc fc 05 bd 80 51 8e bd 38 0d a3 bd
       0.062708616 -0.03271185 -0.06949139 -0.07961506
000170 69 a5 b6 bc 04 06 2a bd 00 d5 eb bd 4d a9 08 be
       -0.02229567 -0.041509643 -0.11515236 -0.13345833
000180 98 14 4a 3d ee 31 3d bd ae 45 ba bd d3 ff fe bc
       0.049336046 -0.046190195 -0.090953216 -0.031127846
000190 bf 69 ba 3d 98 17 69 bd 47 35 fe 3d 4b 11 0d 3c
       0.09102201 -0.056907266 0.124125056 0.00861008
0001a0 97 e0 b4 bb 43 5f 0f bd 66 36 02 be ef 4a 8d 3d
       -0.0055199373 -0.035002958 -0.12716064 0.06899058
0001b0 35 f3 4d 3d 8c bd 10 bd b7 3a a0 3d 1b f0 8f 3d
       0.05028077 -0.035337016 0.07823699 0.07028218
0001c0 1a 8d 11 be d1 e9 0a be aa b2 12 ba ca d3 de bc
       -0.14213982 -0.13565756 -0.0005596081 -0.027200598
0001d0 20 61 54 3d 76 83 ef bd d8 06 a2 bd b1 a8 64 3c
       0.051850438 -0.11694996 -0.079114616 0.013956235
0001e0 94 b7 b1 3d ad 7a c1 3d ed 27 f9 bc 6e ef e5 bc
       0.08677593 0.09447227 -0.030414546 -0.02806827
0001f0 de ad 13 3d 16 4d f1 bd 90 0f ec bd 0d 6d a1 bd
       0.036054485 -0.11782281 -0.11526406 -0.07882128
000200 11 f4 64 3b 56 97 0d 3e 1a 95 97 3d f4 ec c4 bc
       0.0034935514 0.13827261 0.07401486 -0.02403877
000210 86 d2 1d 3d 92 60 07 3e e1 01 07 3e 32 63 00 ba
       0.03853085 0.13220432 0.1318431 -0.0004897594
000220 e9 47 53 3d 9e 7d e7 bc 77 5e 75 bd c2 98 85 3d
       0.05158225 -0.028258141 -0.05990454 0.06523277
000230 98 78 03 bd 22 fa 5d 3d 5e ef 3f bd 17 a1 ac 3d
       -0.03209743 0.054193623 -0.046859138 0.08429163
000240 eb 05 28 3d f2 b6 e8 bd 54 66 5b 3d 5b ea b5 3c
       0.04102127 -0.11363019 0.053564385 0.022206476
000250 97 ee fb bc 0d b2 cc 3d 41 fb 37 bd d4 35 c5 3d
       -0.030753417 0.09994898 -0.04491735 0.096294075
000260 67 6c d2 3c 22 73 ae 3c 01 97 01 3e 5e 88 64 ba
       0.025686456 0.021295134 0.1265526 -0.000871783
000270 e7 b9 68 bd 36 5d 72 3d 8e c8 06 3e bf 76 79 bd
       -0.056817915 0.059170924 0.13162443 -0.06090426
000280 17 70 f6 3c 4c fb 07 3d 7f 07 64 bd 85 7b b6 bc
       0.030082745 0.03319864 -0.05567121 -0.022275696
000290 e1 35 20 bc c7 55 9e 3d a2 e3 e6 bd 42 6d a7 bd
       -0.009778471 0.077312045 -0.11273886 -0.08175136
0002a0 a0 6a 06 be e0 e9 b9 3b 3f f3 e9 3b 7f 18 18 bd
       -0.13126612 0.005673632 0.007139593 -0.037132736
0002b0 95 40 db 3c d9 1c a8 3d 56 96 1c 3c 77 27 8c bc
       0.026764194 0.08208627 0.009557327 -0.017108662
0002c0 30 06 c6 bd bc 9c fa 3c 58 53 e5 bd 37 dc 06 bd
       -0.09669149 0.030592315 -0.11197537 -0.032924857
0002d0 75 d6 11 3e d7 dd c1 3d 98 c7 0c 3e 95 b6 8c bd
       0.14241965 0.09466141 0.13748014 -0.06870762
0002e0 3e 7c a7 bd 73 c0 a4 3d 41 66 0e be 99 e5 e2 3d
       -0.08177994 0.08044519 -0.13906194 0.110789485
0002f0 8e d5 68 3c 70 e3 3a 3d 85 03 0d bd 38 0e 37 3d
       0.014211072 0.045627058 -0.034427185 0.044691294

bias_hh_l1 f4 [192]
000000 35 5b b6 3d ab 2e cd bd 32 f7 8a bc 3a 61 70 bd
       0.08904115 -0.10018667 -0.016963575 -0.058686472
000010 56 46 53 bd 32 55 aa 3d d7 fa 54 bd 32 8a 21 3c
       -0.05158075 0.08317031 -0.051997032 0.0098596085
000020 53 56 b6 bc 82 cf b0 bc 69 4a 36 3d 2a 5b e6 3c
       -0.02225796 -0.021583322 0.044504557 0.028119642
000030 fe 69 2e bd 57 c3 00 3d ae f5 49 3d 32 b0 bd 3c
       -0.04258155 0.03143629 0.049306564 0.023155306
000040 27 e1 7b 3d 88 e4 b1 bd b0 df 8e bd 54 ce 8d bd
       0.06149402 -0.08686167 -0.06976259 -0.069241196
000050 3f 12 85 3d ea 4b 59 bd d5 f9 6f bc f6 36 bc 3d
       0.06497621 -0.053050913 -0.014646967 0.091901705
000060 c2 49 a8 bd 83 9b c0 3c d2 b1 55 bd 9a 9d 1e bd
       -0.08217193 0.023511654 -0.052171536 -0.03872452
000070 c8 d3 0b 3e 2b dd 84 bd 9c 45 c9 3c 82 5f f7 bb
       0.13655007 -0.06487497 0.024569325 -0.007549227
000080 bd 3f 0d 3e 09 06 0a bd 56 90 e3 3d 14 24 2d 3d
       0.13793845 -0.03369716 0.11111514 0.042270735
000090 c7 3a 68 bd 30 29 c5 3d 71 27 8e 3d 98 d7 9a 3c
       -0.05669668 0.096269965 0.069411166 0.018901631
0000a0 48 7a 9d 3c 08 c1 db 3d ec 49 e2 3d ee 87 aa bd
       0.019223347 0.10730177 0.11049256 -0.08326708
0000b0 12 1f 8e bd 55 1b d0 3c cf df c4 3d 49 c6 cf 3c
       -0.0693952 0.025403658 0.096130006 0.025363104
0000c0 b6 19 89 3c a1 13 14 3e 33 e3 fe bc 31 0c 09 bd
       0.016735893 0.14460613 -0.031114196 -0.033458892
0000d0 51 73 95 bd 88 a6 19 bd 8c be e2 bc 4f 73 1b 3c
       -0.072973855 -0.037512332 -0.02767875 0.009487941
0000e0 81 47 35 bd 81 de 8a 3d c3 62 0e 3d 33 ec a7 bd
       -0.044257645 0.067807205 0.034762155 -0.08199348
0000f0 76 86 d8 3d af 76 93 3d 43 9c 4e 3d 99 b7 ba bd
       0.105725214 0.072003715 0.05044199 -0.0911705
000100 63 c8 98 3c 1b 23 de bd e5 ee d3 bd 3c 22 5f 3d
       0.01865024 -0.108465396 -0.103483 0.054476008
000110 a8 d0 a1 3d 78 e8 87 3d c8 2d ee bc e9 86 f6 bc
       0.07901126 0.06636137 -0.029074565 -0.030093627
000120 3c 6b b0 3d 1f 7a 16 be 18 4e 9e bd c0 79 d8 bd
       0.08614203 -0.14695023 -0.07729739 -0.10570097
000130 a1 fe 05 bd f3 cc 9f bd 55 6b a2 3d 76 ca 39 bd
       -0.032713536 -0.07802763 0.07930628 -0.045359097
000140 16 60 8c 3d ab 88 05 be 00 ab df 3c c8 03 fc bd
       0.068542644 -0.13040416 0.027303219 -0.12305409
000150 32 d7 10 be 65 50 12 be ae ef 34 3d ca 1d a6 3d
       -0.1414459 -0.1428848 0.04417389 0.081111506
000160 9c 2d 8e 3d 78 97 a5 3d e5 f7 a4 3d 95 86 56 bd
       0.06942293 0.08085531 0.08055095 -0.05237444
000170 f1 57 fd 3c f8 33 81 3d 80 3d cc bc 5f c3 19 be
       0.030925723 0.063087404 -0.02493167 -0.15015934
000180 c4 3a f6 bc 5d a8 71 3d b4 bd b6 bd 44 61 b3 bd
       -0.030057319 0.058998454 -0.08922902 -0.08758786
000190 37 d0 b7 bd d2 01 5d 3d bf 32 66 3d c4 b9 98 3c
       -0.08975261 0.053956814 0.05620074 0.018643267
0001a0 db b7 7f bd 63 6a a1 bd 80 58 5b 3d 61 06 10 bd
       -0.062431198 -0.0788162 0.053551197 -0.035162333
0001b0 a2 6a 02 bd a7 ec ed bd 37 69 be 3d 2a bd 93 bd
       -0.031839974 -0.116174035 0.09297412 -0.072138146
0001c0 79 b1 91 bd e8 c9 55 3d 5d 32 15 3d e7 6c 3d 3c
       -0.07113928 0.052194506 0.036424983 0.011561609
0001d0 fb 71 3e 3d db 61 f2 bd 06 01 61 bc 3e 76 3a 3d
       0.04649542 -0.11835071 -0.013733154 0.04552292
0001e0 ca d0 df 3d 2d b5 68 bc d4 64 e7 bb 84 4a 95 3d
       0.10928495 -0.014203352 -0.00706158 0.07289603
0001f0 33 a0 91 3b 3d 08 f1 bd 9b d7 c3 3d d8 bd 1b be
       0.004444146 -0.117691495 0.09562608 -0.15209138
000200 18 9d d1 3d 4f f6 34 3d 56 35 3c 3d b1 d5 4a bd
       0.102350414 0.04418021 0.045949303 -0.0495202
000210 1f a2 19 3d 89 09 18 3e 7d 08 36 bd 00 ac a0 3c
       0.037508126 0.14847387 -0.04444169 0.019613266
000220 a7 15 07 be a7 46 f4 bd f3 7b 0f be 24 96 e1 3d
       -0.13191853 -0.11927538 -0.14012127 0.11014965
000230 f3 39 91 bd a5 07 df bd 42 9a 08 3e cb f9 06 3e
       -0.07091131 -0.1089013 0.13340095 0.13181226
000240 31 9c 52 bd 09 b8 ca bb ea 28 a6 ba 6b 6a 1f bd
       -0.051418487 -0.0061864895 -0.0012676988 -0.038919847
000250 95 db 19 3c 1f d1 f6 3d 51 51 1e 3d 2e 22 18 3d
       0.009390731 0.120516054 0.038651768 0.03714197
000260 c8 ca a9 3d 73 96 11 bd a7 f5 61 3d 5d 9e 02 3d
       0.082906306 -0.03554387 0.055165913 0.03188931
000270 54 d6 9e bd 08 4f 1c bc 68 08 7e 3d 41 ec b4 bc
       -0.077557236 -0.009540327 0.062019736 -0.02208531
000280 a3 1e 4f bd 01 f0 dd bd a5 6a 8c 3c fd 1d 3b bc
       -0.050566327 -0.10836793 0.017140696 -0.011420724
000290 3d 30 f7 bc 5f 6b b9 3d 50 a0 9e 3d 0d 33 e9 3c
       -0.030174369 0.090536825 0.07745421 0.028466726
0002a0 8a fe 09 be 90 a8 3f 3b 92 6c c7 3d 5d df 6c 3d
       -0.13476005 0.0029244758 0.09737505 0.057830203
0002b0 68 dd eb ba 6d a0 3a bd 38 aa 29 bd 97 de 9f bd
       -0.0017995061 -0.04556315 -0.0414221 -0.078061275
0002c0 7f 60 7c bd 1a 14 88 bc 3e 91 10 be 25 e5 8c 3d
       -0.061615463 -0.016611148 -0.14117905 0.06879643
0002d0 1f 3f b7 bc 8e 8c e5 bd 10 c3 82 bd f6 74 89 3d
       -0.022368966 -0.11208449 -0.063848615 0.06711762
0002e0 bd b0 97 3d 82 7e 04 be 66 18 89 bd ae 6e ae 3d
       0.07406757 -0.12938884 -0.06694107 0.08517204
0002f0 12 bf 33 bc 7e dd cd bd 4f 83 9a 3c e8 81 0e be
       -0.010970848 -0.10052012 0.018861441 -0.13916743
