Baseline_systems/SoMS/models/SoM_GRU_21/48_1.pth (torch, 10975 bytes, 3 tensors)

weight f4 [32, 64]
00000000: 152b a63d cab6 d9bd 9660 5dbc ed50 a13d
00000010: f878 0b3e 100a 2c3d 2720 ed3d 858c 69bc
00000020: 0468 03bc faaf 2cbd 48b8 e83d 5a22 50bc
00000030: 8dd6 14be c8a2 dbbd 6d3d 9dbd 9ac9 673b
00000040: 54c2 71bd ed17 febd b16c 7d3d 18b8 c33d
00000050: 7b3f ebbd 413f 31bd 5f8d de3d 7219 a8bd
00000060: ede7 fe3c f71c a33d d2b2 53bd 61dc debc
00000070: ad12 a9bc 397c 8c3c ecc6 be3d cd07 743d
00000080: b9b8 e0b9 75d7 21bd c63b 11bc 4ca2 adbd
00000090: c8dc 44bd 42bf 873d c65e 7a3d 6188 993c
000000a0: ca4b dcbd 87e4 d13d edab 71bc 1791 a1bd
000000b0: 2402 c63d cfed c2bb e970 653d 0705 9d3d
000000c0: b241 dcbc 7284 f2bc 730e 5f3d cac2 4e3d
000000d0: d8f2 39bd 069c 283d 563e 09bd 287f 92bd
000000e0: 7f2a deba afcc 85bd 2a8e 123e 2ea6 9fbc
000000f0: ab3d 72bd 7700 acbd 397d a23d 9c20 ac3c
00000100: 1ab8 e23d 223d 91bd 1356 5abd 18d2 c5bd
00000110: 77eb 143c 2638 ee3d 679c a4bd 8c99 c33d
00000120: 41e2 bcbd 90b1 1a3c 983a b83d 1e17 34bd
00000130: 5644 ffbd fd0c 2cbc f512 c1bd 0229 003d
00000140: 1a2d 72bd 42bd 0b3d 5beb 6dbd 2b20 883d
00000150: 33fd bf3d 9596 863c c86c 153e bb62 be3d
00000160: 945e a1ba 4d57 7fbb 8fe2 66bd f27e d63d
00000170: 34a5 9fbd 229d ca3d 1658 523b 3394 dd3d
00000180: 2981 8d3d fbc7 a63d 6a81 98bd 6628 ff3d
00000190: 52a8 c0bd 039d 603d 0a33 113d bd5a 933d
000001a0: f132 933d 935e cb3d 1112 0dbd d0a8 2abd
000001b0: 7cc0 d43c c5d7 e9bd e4bd 3a3c 49f5 0cbd
000001c0: 32b7 19be 9474 c53d d8cc d0bd bba1 06be
000001d0: 7068 eb3d ba6c bebd 7b6f ffbd 68c2 d93d
000001e0: 41a7 0f3e 3551 8c3c 787d 91bd 5c3c 063e
000001f0: 0bbd 0f3d ce25 8cbd c4ab 76bd 806a 8cbd
00000200: 5a6c b1bd 510e 2b3d 8529 1cbd bd70 d7bd
00000210: 4dd9 223d 3c26 26bc 55db 093d 64c7 c43d
00000220: d4c2 bb3c c638 f5bd 95bc 83bd b2e4 dfbd
00000230: 54c9 e63a d470 c1bc 15fd 09bb ddd3 ae3d
00000240: 0c0f b03d b753 48bd 81e1 ee3d f12f 88bd
00000250: a8c7 09bd 6a70 36bd 957d 9cbc 5d94 073d
00000260: e21f 9b3c 63f9 b33d 4111 a03d fa6a 043e
00000270: 71d2 283d 6344 013e 8953 0dba 9e3e d63b
00000280: c485 cbbd dc7f 0b3d 7f5c 04be 55e3 d43d
00000290: eef4 3fbb 2471 2f3d 4f22 15be 2de2 d7bc
000002a0: c053 1abe d7eb 093e d771 eebd e606 ff3c
000002b0: ee9b 9a3d 13e3 9e3d 7ab9 1e3e 1779 01bc
000002c0: 3518 8e3d cc05 bf3d c689 b0bc 63c1 313b
000002d0: 7e59 1f3d 6ecc bebd f46d 83bd 0934 0e3e
000002e0: 81b6 833b d6f7 af3d f201 febc 45a2 0b3e
000002f0: f21b 623d bef7 653d 5fcc 8ebd 6486 733b
00000300: 9a9a c83a 9521 81bd e029 6cbd e912 6a3d
00000310: 6adb 12bd 0a09 79bd 5db1 613d 82cc 1f3d
00000320: 92fc 06bd f827 593c 3efd b13d ff7b 7d3d
00000330: 60af 63bc 2247 1dbd ddb9 d8bc fc27 6f3c
00000340: 69a2 523d 721b f33d ea90 cebd 9df1 073e
00000350: bd8b c13d 43ec 463d 4f8d 89bd aad1 b13d
00000360: eb0b 953d c700 b4bd 4c4b a73d 672b 093e
00000370: 936e 16be 22ae 30bc 0845 d9bc f39c 783d
00000380: fd64 b6bd 167a 12bd 3d51 9cbd a2f4 613b
00000390: 0f57 a2bc dc2a 533d d72b d5bd fbe5 bb3c
000003a0: 2b32 9c3d 68d7 dcbc a272 11be abe6 8bbd
000003b0: e7c1 ebbd 98ce b43c 3d01 e1bd 7265 05bc
000003c0: d9ca 573d 8e1b c73d 5f9d 9abd 348b d83d
000003d0: 03df a63b e9a6 e03d 81b6 be3d 48de 0ebe
000003e0: 1104 e9bd 8218 17be 17ee 8a3c 5acd b13d
000003f0: 8ae4 1fbb bb48 c43c 472a a43d 8d7f bfbd
0.08113686 -0.10630567 -0.013511797 0.078767635 0.13620365 0.042001784 0.11578398 -0.014254694
-0.008020405 -0.04216001 0.11363274 -0.012703503 -0.1453497 -0.107244074 -0.07677732 0.0035367967
-0.059023216 -0.12406907 0.061871234 0.095565975 -0.11486717 -0.043273214 0.10866808 -0.08207978
0.03111645 0.07964509 -0.05168421 -0.027204694 -0.020638788 0.017149078 0.09315285 0.059577752
-0.00042862238 -0.039512116 -0.008864349 -0.08478221 -0.048062116 0.066282764 0.06112554 0.018741788
-0.10756643 0.10248666 -0.014750463 -0.07889002 0.09668377 -0.005948759 0.056015883 0.076669745
-0.026886795 -0.02960417 0.05445714 0.050478734 -0.04539761 0.04116442 -0.033506714 -0.071531594
-0.0016949921 -0.06533181 0.14312044 -0.01948842 -0.059140842 -0.08398526 0.079340406 0.021011643
0.11070271 -0.07091738 -0.053304743 -0.09659213 0.009089342 0.11631803 -0.08037644 0.09550771
-0.09222842 0.009441748 0.08995551 -0.04396736 -0.12464206 -0.0105011435 -0.09427444 0.031289108
-0.059125043 0.034116037 -0.05808578 0.066467606 0.09374466 0.016429225 0.14592278 0.09296175
-0.0012311512 -0.0038961947 -0.056368407 0.10473432 -0.07795182 0.09893252 0.003209596 0.108192824
0.06909401 0.08143612 -0.07446559 0.12458877 -0.094071046 0.054837238 0.035449065 0.07195041
0.07187451 0.09930148 -0.034441058 -0.0416649 0.02597069 -0.11418108 0.0113978125 -0.03441361
-0.1501129 0.09641376 -0.10195321 -0.13147633 0.11494529 -0.09298082 -0.12472435 0.10632783
0.14028646 0.017128566 -0.071040094 0.13108963 0.035092395 -0.06843148 -0.060222402 -0.06856251
-0.086632445 0.0417617 -0.038125534 -0.1051955 0.039758015 -0.010140952 0.033656437 0.09608343
0.02292005 -0.11973719 -0.064324535 -0.10932292 0.0017607608 -0.023613371 -0.002105539 0.085365035
0.0859662 -0.04890796 0.11664105 -0.06649769 -0.033637673 -0.0445408 -0.01910285 0.033100475
0.018936101 0.08787801 0.07815791 0.12931433 0.041216318 0.12623744 -0.0005391171 0.0065382263
-0.09937623 0.034057483 -0.1292591 0.10394923 -0.0029290277 0.04283251 -0.14563869 -0.026352966
-0.1507101 0.13468872 -0.11642807 0.03113122 0.075492725 0.07758155 0.15500441 -0.007902405
0.06938211 0.093272775 -0.02155007 0.0027123324 0.038903706 -0.093163356 -0.06417456 0.13887037
0.004019559 0.08592193 -0.031006787 0.1363612 0.055202432 0.05614447 -0.069725744 0.003715896
0.0015304864 -0.063052334 -0.057657123 0.05714694 -0.03585378 -0.060799636 0.055100787 0.039013393
-0.032955714 0.013254158 0.0869088 0.06188583 -0.013896793 -0.038397916 -0.026455814 0.014596935
0.051424418 0.11870469 -0.10086234 0.13275762 0.09450481 0.04856516 -0.067164056 0.08682568
0.07277664 -0.08789211 0.081686586 0.13395463 -0.14690618 -0.010783704 -0.026522174 0.060696553
-0.08905981 -0.03576096 -0.076326825 0.0034478088 -0.019816903 0.051554546 -0.104087524 0.022936812
0.07626756 -0.026958182 -0.14203885 -0.06831106 -0.11511593 0.022071168 -0.10986564 -0.008141862
0.052683685 0.097220525 -0.075495474 0.10573426 0.005092503 0.109693356 0.093121536 -0.13951981
-0.11377729 -0.14755443 0.016959233 0.08681746 -0.0024397695 0.023960462 0.08015876 -0.093505

bias f4 [32]
00000000: b435 f33d 5f8d 98bc 96b7 2e3d 9df4 ee3d
00000010: f775 32bd d2e8 49bd db3a 193e 95ab 413d
00000020: f93d 4d3d e212 ab3c c6b3 3bbd 86ff 9cbd
00000030: c6d0 8bbd 43dd 8f3d bde7 c5bd 8ed6 c2bd
00000040: ca8c ba3d 5c51 f63d 7087 35bd 2fdc 0e3e
00000050: 46a2 a73d 5053 863c ea15 8f3d 4bff 3f3d
00000060: 8094 1cbd f6e4 0b3d a9b1 d83d b3d8 443d
00000070: abad 083e 36f7 abbb 4f3e ce3d feaf 023e
0.118754774 -0.018622098 0.04265555 0.1166775 -0.04356953 -0.0492943 0.14963858 0.047282774
0.05010793 0.020883027 -0.045825742 -0.07665925 -0.0682693 0.07024624 -0.09663341 -0.09513579
0.09108885 0.12027237 -0.044318616 0.13951181 0.08185248 0.016397148 0.06986602 0.046874326
-0.038227558 0.0341539 0.10580761 0.048058223 0.13347499 -0.0052479757 0.10070478 0.12762448

weight f4 [1, 32]
00000000: 667b 53bc 0dfc 2fbe 4592 1cbe 6901 013d
00000010: 54e8 af3c 8492 923c b6cc 3cbe 2d29 ef3d
00000020: 6b93 e53c 1d7b 39bc 8e83 2c3e 4db0 ff3d
00000030: 02a5 0dbe 2a75 4fbe 6a7b c83d 9eda 283c
00000040: d8b4 293e ef46 9b3d 62c7 c23d dd6e 293e
00000050: cbc5 fd3d cd90 52be 56f6 e13d 437c 1dbc
00000060: 07ac f2bd fd07 cc3c a6fb 3f3d 7680 c0bd
00000070: 04ef 15bd a006 38be 510f 43be f233 2dbe
-0.012907838 -0.17185993 -0.15290172 0.031495485 0.021473087 0.01789213 -0.18437466 0.116777755
0.028024396 -0.011320856 0.16847059 0.124847986 -0.13832477 -0.20259538 0.09789164 0.010306029
0.16572893 0.07581889 0.095106855 0.16546197 0.12391242 -0.2056305 0.11033313 -0.009612146
-0.11849218 0.024906153 0.04687085 -0.09399502 -0.036604896 -0.17971277 -0.19048811 -0.16914347
