Baseline_systems/SoMS/models/SoM_GRU_21/49_0.pth (torch, 189071 bytes, 8 tensors)

weight_ih_l0 f4 [192, 46]
-0.09130978 0.0048558065 0.0830033 -0.041756596 0.009646633 0.1107485 -0.022341065 -0.10355231
0.06830546 0.14713658 -0.032459497 0.13213222 0.14046057 -0.12816882 0.07998092 0.017212616
-0.053561904 0.079984 -0.056722023 0.11555354 0.024497855 -0.09722621 -0.037928093 0.024708878
-0.06316834 -0.13515298 0.027112614 0.009360532 0.08121317 0.013381112 -0.12739713 0.0095147
-0.045891568 0.01592313 0.13699032 0.0216525 -0.042194404 0.013377324 0.08974538 0.054984875
0.03348977 -0.062358633 0.0108309565 -0.048899334 0.017932875 -0.050138727 -0.055329606 -0.0531944
-0.011701839 0.11147885 0.06095854 -0.010721606 0.08090425 0.09189774 -0.11231088 -0.0055027767
-0.09643246 0.07288005 -0.07223293 0.046895962 -0.04035188 0.059291124 0.058207106 -0.09767835
-0.15237913 -0.010029232 -0.12469769 0.015932305 -0.116779976 0.00072308857 -0.06773434 0.019543115
0.0045245746 -0.0500409 -0.024918023 0.12531404 0.052534405 -0.005900852 0.05446282 0.093584985
-0.06323278 -0.091325805 -0.032167464 -0.019068649 -0.10958825 -0.028945971 -0.0649071 -0.00973039
-0.068310395 0.044222128 0.11800366 0.08900509 0.062362265 -0.14067584 0.008735185 0.076904215
-0.026477026 0.068589486 0.114729136 0.14434357 -0.051750675 0.052841023 -0.10142873 -0.057431355
-0.056430105 -0.081543446 0.06645845 -0.017733317 -0.096787795 -0.012869935 0.11255119 0.015547098
-0.013316749 -0.038464475 -0.010129531 -0.12781341 0.009321885 0.029443229 0.0557832 0.03435572
-0.1281817 -0.09320843 0.022361144 0.09806496 -0.0001803228 0.076948136 0.039904583 0.13309085
0.019070234 0.11921432 -0.09047664 -0.055338714 -0.057818074 -0.09740243 0.14606471 -0.03906696
-0.0034982525 -0.0651925 -0.12788168 -0.02328375 -0.08931383 0.0599882 -0.021223921 -0.071134835
0.043050937 0.09491778 0.042766247 0.051867835 0.064920716 0.09796513 -0.04845762 0.056051325
0.030785637 0.12231016 -0.082630076 -0.08361817 0.090974815 0.019020163 -0.0291331 -0.007926792
-0.0036969464 -0.0049328613 0.031360928 0.10183402 0.02625823 0.037191775 -0.054419957 0.0073697893
0.1597256 -0.06804419 -0.0036226748 0.03912915 0.022166658 0.14173262 -0.061039023 0.055718094
-0.028366577 -0.003926527 0.016347831 -0.10835709 0.13801599 -0.08889261 0.048985984 0.07257529
0.011805404 0.0022604344 0.14620756 0.098977014 -0.1311534 0.07966715 -0.032634452 -0.017039437
-0.16812646 0.07024651 -0.08640442 -0.06341126 -0.092951834 0.08421984 -0.08268021 0.08027339
0.039669544 0.06748593 -0.12788385 0.021235866 0.014480338 0.05102879 0.020482799 0.04232889
0.08455441 0.0019062494 -0.049771734 -0.12419488 -0.075792626 -0.025916556 0.014043567 -0.064778544
0.049318388 -0.071800105 0.12878688 0.06021362 0.079832844 0.10194254 0.084950134 -0.036922798
0.10829653 0.0021447358 0.15836671 -0.08043648 0.1104445 0.045061372 0.09960318 0.11691773
-0.0021126654 -0.095063366 0.042438783 0.012730692 0.02628869 -0.120664164 -0.12861066 0.096305504
-0.0111982785 0.09476875 0.041392952 -0.09565645 -0.090823784 -0.09832654 -0.030179484 0.009914332
0.05878903 -0.0441622 0.024710521 -0.03704553 -0.02904158 -0.11661659 0.044063766 -0.07743625
00000000: 9f00 bbbd 751d 9f3b a2fd a93d f708 2bbd
00000010: e90c 1e3c 1cd0 e23d 9c04 b7bc 3c13 d4bd
00000020: bce3 8b3d f9aa 163e 40f4 04bd ab4d 073e
00000030: e5d4 0f3e b03e 03be 09cd a33d 7901 8d3c
00000040: ba63 5bbd a7ce a33d 5a55 68bd 56a7 ec3d
00000050: baaf c83c 891e c7bd 7d5a 1bbd 466a ca3c
00000060: 675e 81bd 8b65 0abe 461b de3c eb5c 193c
00000070: 1753 a63d 743c 5b3c 6574 02be 8be3 1b3c
00000080: ccf8 3bbd 3971 823c 3147 0c3e 9560 b13c
00000090: 0ad4 2cbd 902c 5b3c 6dcc b73d d237 613d
000000a0: 922c 093d c46b 7fbd 5374 313c ab4a 48bd
000000b0: f7e7 923c 445e 4dbd 4ca1 62bd 5fe2 59bd
000000c0: 12b9 3fbc 064f e43d a9af 793d ada9 2fbc
000000d0: 21b1 a53d e234 bc3d 3f03 e6bd a350 b4bb
000000e0: 627e c5bd 2342 953d dcee 93bd fb15 403d
000000f0: 0348 25bd 40db 723d 936a 6e3d 960b c8bd
00000100: 4609 1cbe a651 24bc 8161 ffbd 7784 823c
00000110: 572a efbd a78d 3d3a 4db8 8abd e218 a03c
00000120: e242 943b b0f7 4cbd e220 ccbc 5352 003e
00000130: 512e 573d ef5b c1bb 6814 5f3d 7ca9 bf3d
00000140: 3080 81bd 0609 bbbd 08c2 03bd db35 9cbc
00000150: ce6f e0bd 1a20 edbc 03ee 84bd 376c 1fbc
00000160: 52e6 8bbd 4322 353d e7ab f13d 4d48 b63d
00000170: 936f 7f3d 540d 10be 051e 0f3c f57f 9d3d
00000180: 59e6 d8bc a578 8c3d 1cf7 ea3d cdce 133e
00000190: 84f8 53bd d46f 583d deb9 cfbd 243d 6bbd
000001a0: 4123 67bd 4000 a7bd 5e1b 883d 7645 91bc
000001b0: ae38 c6bd 6bdc 52bc 3d81 e63d 41b9 7e3c
000001c0: 7e2e 5abc ed8c 1dbd 55f6 25bc 85e1 02be
000001d0: d2ba 183c ed32 f13c ed7c 643d 95b8 0c3d
000001e0: 1042 03be 10e4 bebd b82e b73c 48d6 c83d
000001f0: 0815 3db9 fc96 9d3d fd72 233d f848 083e
00000200: 2e39 9c3c a326 f43d d14b b9bd d9aa 62bd
00000210: a5d2 6cbd ed7a c7bd fd91 153e ad04 20bd
00000220: f042 65bb a583 85bd 6af3 02be 90bd bebc
00000230: 2bea b6bd 30b6 753d cadd adbc 24af 91bd
00000240: 2e56 303d 4164 c23d a92b 2f3d 5e73 543d
00000250: 27f5 843d f1a1 c83d 7f7b 46bd 1396 653d
00000260: 2932 fc3c c07d fa3d f539 a9bd 0140 abbd
00000270: 0151 ba3d 2cd0 9b3c 8aa8 eebc 60df 01bc
00000280: 7848 72bb d7a3 a1bb 5174 003d 5b8e d03d
00000290: 801b d73c 6756 183d 76e7 5ebd 467e f13b
000002a0: 1c8f 233e c15a 8bbd 666a 6dbb e345 203d
000002b0: da96 b53c 5b22 113e 0e04 7abd a838 643d
000002c0: 0661 e8bc 19aa 80bb e3eb 853c 52ea ddbd
000002d0: 1054 0d3e 540d b6bd 87a5 483d 5ba2 943d
000002e0: 746b 413c cc23 143b 6fb7 153e 76b4 ca3d
000002f0: 144d 06be 8828 a33d b4ab 05bd 4a96 8bbc
00000300: 5829 2cbe 67dd 8f3d cdf4 b0bd c3dd 81bd
00000310: 885d bebd 747b ac3d 3e54 a9bd 6066 a43d
00000320: 887c 223d 1036 8a3d fcf3 02be d7f6 ad3c
00000330: f13e 6d3c 9103 513d 8bcb a73c 0f61 2d3d
00000340: dd2a ad3d 1edb f93a 72dd 4bbd e359 febd
00000350: 2a39 9bbd f54e d4bc fd16 663c 9daa 84bd
00000360: 1402 4a3d ef0b 93bd b5e0 033e 8fa2 763d
00000370: 677f a33d 40c7 d03d 56fa ad3d 5c3c 17bd
00000380: 92ca dd3d b28e 0c3b e22a 223e e2bb a4bd
00000390: ba30 e23d 4692 383d c1fc cb3d 9072 ef3d
000003a0: a574 0abb 95b0 c2bd 4ad4 2d3d 6494 503c
000003b0: 615b d73c c61e f7bd 83b2 03be d23b c53d
000003c0: fc78 37bc 1e16 c23d a88b 293d 87e7 c3bd
000003d0: d201 babd 6d5f c9bd f73a f7bc b96f 223c
000003e0: c4cc 703d 6ce3 34bd b86d ca3c 0ebd 17bd
000003f0: 9ce8 edbc aed4 eebd 357c 343d e696 9ebd

weight_hh_l0 f4 [192, 64]
-0.057995472 0.02183657 -0.040551886 -0.08392286 -0.09241998 0.14393526 0.0018695082 0.10976123
0.012969698 -0.11935788 0.12390709 -0.034635272 0.08874567 -0.09970115 0.026912544 -0.07610918
-0.025865396 0.08008763 0.1657628 -0.1250836 -0.03180341 -0.0027923342 -0.022906577 -0.08993827
0.0043265373 0.08523368 -0.022574514 0.11278679 0.0738861 -0.07801398 0.017340543 -0.00884426
0.13910457 0.0054411404 0.07833291 -0.04247583 -0.05513682 -0.06638332 -0.029650971 0.10234708
0.04107405 -0.039416347 0.021219246 0.091914296 0.06714985 -0.024460752 -0.0028225563 0.088328175
0.06422394 0.004401575 -0.07513394 -0.12914042 -0.09852034 -0.014730203 -0.0045274566 0.004570225
-0.03680717 -0.07974198 0.13094693 0.09692416 -0.080994174 -0.06347734 -0.0509547 -0.049300116
0.002815122 0.016532987 -0.10129388 -0.08254049 -0.03508133 0.08998583 0.025989352 -0.034842655
0.012974972 -0.015185354 0.008463434 -0.0058240183 -0.07522099 -0.049376175 0.06441941 -0.01664838
0.08787055 0.075172804 -0.026526961 -0.03756865 0.065662526 0.06293332 -0.026281862 -0.036852546
-0.066933975 -0.06751429 0.14809151 0.029615752 0.13022587 -0.055816494 -0.08145573 0.06737739
0.011469689 -0.10296424 -0.08496478 0.041968532 0.023041843 0.027185945 0.077160664 -0.091791704
-0.110465154 0.042991426 0.10295215 -0.0005340978 0.08299562 0.024958184 0.054754235 -0.030730478
-0.068755694 -0.06595856 -0.1457324 -0.024976894 0.070419565 0.041550748 -0.13948956 -0.09727402
0.05553084 -0.12504879 0.002080479 0.050748672 -0.07461029 0.012840554 -0.10967184 -0.046841938
0.006465641 0.0033057355 -0.045220796 0.1304083 -0.04383628 0.0127651775 -0.006501428 0.07625336
-0.08508041 0.02507132 -0.12025572 -0.045346998 0.030153833 0.02851887 0.12553634 0.08753414
-0.12015162 -0.078815244 0.025319712 -0.059952393 0.0740183 -0.013306915 -0.07627733 -0.14280115
-0.06492352 0.023329679 0.022459848 0.0094826 0.045171138 0.10024037 0.016524784 -0.024550851
0.0595898 0.14427598 0.08495196 0.03711752 0.113277584 -0.052406188 0.087581486 0.13065538
-0.043880027 0.03826877 0.07704148 0.057948634 -0.06962337 0.014017206 -0.00547575 0.12874644
-0.066995494 -0.115688324 -0.119817175 0.040191654 0.093456544 0.011438472 -0.08029094 -0.07140139
0.113206565 -0.03161515 0.049668495 -0.117975056 -0.03164542 0.14215782 -0.088548355 -0.08208545
-0.06491038 -0.00998293 0.045689832 0.01397418 0.12683173 0.017562844 -0.12431005 -0.02702838
0.08695598 -0.10170475 -0.015978772 -0.050796717 0.0086838715 0.12715696 0.07570897 0.029296622
-0.04723573 0.12924811 -0.010867296 -0.075877376 0.007048995 0.036175244 -0.009293885 0.069564335
-0.13728994 -0.06894484 0.10892232 0.10451327 -0.034909695 0.072100684 0.0855247 -0.13619879
-0.11154722 0.013139623 -0.07824842 -0.0073414203 -0.045310054 0.033479918 -0.13795431 -0.022541406
-0.15268618 -0.09138207 0.038365457 0.06542784 -0.14623536 0.018211275 -0.0055047697 0.035245787
0.0347988 -0.14757945 0.03428475 -0.022079023 0.11102613 -0.11151193 0.092858694 -0.0777924
-0.009019802 0.060491186 -0.12472594 0.036653623 0.0052776495 0.09233608 -0.12470041 0.057236493
00000000: a98c 6dbd 9be2 b23c bc19 26bd c0df abbd
00000010: b046 bdbd c463 133e 490a f53a 7fca e03d
00000020: db7e 543c e771 f4bd 00c3 fd3d b7dd 0dbd
00000030: 4ac0 b53d 1e30 ccbd b277 dc3c 21df 9bbd
00000040: abe3 d3bc fc04 a43d b9bd 293e ea15 00be
00000050: 4b44 02bd 98ff 36bb 93a6 bbbc 8e31 b8bd
00000060: a0c5 8d3b ff8e ae3d 30ee b8bc c3fc e63d
00000070: 9851 973d cbc5 9fbd c10d 8e3c 84e7 10bc
00000080: 6e71 0e3e 984b b23b 016d a03d 23fb 2dbd
00000090: 25d7 61bd faf3 87bd 98e6 f2bc 599b d13d
000000a0: 433d 283d 0973 21bd fcd3 ad3c 903d bc3d
000000b0: dc85 893d ea61 c8bc a3fa 38bb 67e5 b43d
000000c0: d787 833d 163b 903b d3df 99bd 633d 04be
000000d0: 08c5 c9bd f356 71bc 0f5b 94bb d3c1 953b
000000e0: 1dc3 16bd c34f a3bd f416 063e 2d80 c63d
000000f0: 46e0 a5bd 6800 82bd e0b5 50bd ebee 49bd
00000100: e97d 383b 3070 873c 2a73 cfbd fd0a a9bd
00000110: 71b1 0fbd 7e4a b83d 9fe7 d43c 2cb7 0ebd
00000120: fa94 543c fecb 78bc 37aa 0a3c 68d7 bebb
00000130: 760d 9abd ac3e 4abd 53ee 833d 2f62 88bc
00000140: 7af5 b33d 33f4 993d 124f d9bc 96e1 19bd
00000150: 137a 863d 2fe3 803d 0f4d d7bc b2f2 16bd
00000160: ae14 89bd ef44 8abd 4da5 173e bc9c f23c
00000170: ee59 053e d69f 64bd 43d2 a6bd 28fd 893d
00000180: 5deb 3b3c eade d2bd 0402 aebd 32e7 2b3d
00000190: 3fc2 bc3c 0fb5 de3c 6906 9e3d 4afd bbbd
000001a0: 8e3b e2bd c717 303d 94d8 d23d b202 0cba
000001b0: 9cf9 a93d 1b75 cc3c fa45 603d 7cbe fbbc
000001c0: c9cf 8cbd 4815 87bd e03a 15be 589c ccbc
000001d0: 2238 903d 1e31 2a3d 5ad6 0ebe 9a37 c7bd
000001e0: 4e74 633d ca0c 00be a558 083b d7dd 4f3d
000001f0: 48cd 98bd 3061 523c a19b e0bd 55dd 3fbd
00000200: badd d33b 0aa5 583b 7139 39bd c189 053e
00000210: ac8d 33bd 0925 513c ee09 d5bb b92a 9c3d
00000220: a33e aebd 5e62 cd3c a248 f6bd c6bd 39bd
00000230: 2c05 f73c 68a0 e93c 998c 003e 1945 b33d
00000240: 0d12 f6bd e369 a1bd 496b cf3c a490 75bd
00000250: e896 973d 3f05 5abc 4a37 9cbd 773a 12be
00000260: 9ff6 84bd e21d bf3c b7fd b73c e85c 1b3c
00000270: 5f05 393d d34a cd3d fc5e 873c de1e c9bc
00000280: 6f14 743d 15bd 133e 4bfb ad3d 8a08 183d
00000290: 14fe e73d dfa7 56bd ec5d b33d 86ca 053e
000002a0: 8bbb 33bd b7bf 1c3d ecc7 9d3d 8c5b 6d3d
000002b0: b396 8ebd 6ca8 653c ec6d b3bb 1bd6 033e
000002c0: ef34 89bd 00ee ecbd b562 f5bd 01a0 243d
000002d0: 2566 bf3d 6e68 3b3c 946f a4bd e43a 92bd
000002e0: d8d8 e73d e37e 01bd 3171 4b3d e89c f1bd
000002f0: a19e 01bd d291 113e d758 b5bd 6b1c a8bd
00000300: bcef 84bd 718f 23bc 4325 3b3d f6f3 643c
00000310: 2de0 013e f4df 8f3c 4496 febd 9f6a ddbc
00000320: fa15 b23d 944a d0bd eae5 82bc 3810 50bd
00000330: cc46 0e3c 6f35 023e 4e0d 9b3d 78ff ef3c
00000340: 417a 41bd 9e59 043e be0c 32bc 9965 9bbd
00000350: 41fb e63b 7e2c 143d 6145 18bc bf77 8e3d
00000360: bc95 0cbe f432 8dbd aa12 df3d 0e0b d63d
00000370: 78fd 0ebd 86a9 933d 9327 af3d b277 0bbe
00000380: de72 e4bd 9347 573c b540 a0bd 4c90 f0bb
00000390: 0997 39bd 3d22 093d e543 0dbe c1a8 b8bc
000003a0: c459 1cbe 8626 bbbd 1925 1d3d 08ff 853d
000003b0: b9be 15be d02f 953c 5b61 b4bb e35d 103d
000003c0: 3089 0e3d 111f 17be 2b6e 0c3d 11df b4bc
000003d0: ab61 e33d 5e60 e4bd b32c be3d 9f51 9fbd
000003e0: cbc7 13bc 9bc5 773d 5070 ffbd 1c22 163d
000003f0: 22f0 ac3b b31a bd3d ee62 ffbd d070 6a3d

bias_ih_l0 f4 [192]
-0.10198016 -0.07993024 -0.06628905 0.09145144 -0.047219712 -0.1500508 -0.08591484 0.122301616
0.0719134 -0.08509201 -0.00725265 -0.005634066 0.031361606 -0.003658483 0.10278616 0.03582546
-0.024494924 0.07552858 -0.036598194 -0.09456789 -0.007574274 0.03269015 -0.09551056 -0.0236265
-0.051426627 0.0832564 -0.033812266 0.036176853 0.06842449 -0.055547968 0.065891385 -0.09674924
0.10699703 -0.051408105 0.14322267 -0.05681074 0.018935192 0.14468555 -0.029847635 0.09683021
-0.072476424 -0.051646717 0.11394704 0.0913225 0.12219701 -0.0151531985 -0.014497131 -0.038713068
0.026949804 -0.11963599 0.13319483 0.10264115 0.04493915 0.018504377 0.12091399 -0.04897607
0.010000816 0.051779076 0.03178345 -0.062948674 -0.010453478 -0.10381701 -0.016096562 0.014474385
0.06861852 0.04502995 -0.058331653 0.07190681 0.08866079 -0.02207836 0.0030327032 0.00038697378
0.07434887 0.15099543 -0.0025072445 -0.004132504 0.025373574 0.031864494 0.07259059 0.06355324
0.09766531 0.087758854 0.014099064 0.043409124 -0.015156198 -0.012417524 -0.070779756 0.05070126
0.126255 0.08200659 0.002106276 -0.100328505 0.026488857 -0.008236744 0.015143895 -0.040710017
-0.08404815 0.14565197 0.04831155 -0.09354042 -0.109954245 -0.12559684 -0.010648441 0.0025639506
0.14014533 0.08474898 -0.024406733 0.06353685 -0.09633213 -0.091431215 0.11129686 -0.07445268
0.08172165 0.042656373 -0.09533415 -0.08933595 -0.032761917 -0.03187532 -0.11781696 -0.045598928
-0.0067504193 0.029497117 -0.11467749 -0.0045313747 0.07875143 -0.07097425 0.088204674 -0.09345136
0.09160993 -0.08528219 0.06055333 0.0959014 -0.091998644 -0.048136767 0.08206399 0.06578647
0.06876933 0.038783506 -0.12584904 0.04388612 0.08242186 -0.07122497 0.021372832 0.08181247
0.113189034 -0.013574617 -0.085149825 0.11047125 -0.07705063 0.13470508 -0.13155776 0.010128304
-0.04483029 0.07820348 -0.008273436 0.028842129 -0.030967753 0.1388951 0.12791418 -0.017826855
-0.13621959 -0.0072401045 -0.07182555 0.067757666 0.06138944 -0.05322968 0.011629339 0.13361673
0.031445242 -0.0058282577 0.13297419 -0.10860907 -0.09536845 -0.07856919 0.029767651 0.08154926
-0.07515352 -0.1428341 -0.027984025 0.056502163 0.07286634 -0.057302896 0.051745765 0.050436668
0.0932673 -0.03377948 0.0515204 -0.12136076 -0.005386063 0.14433663 -0.08003906 0.09230424
00000000: f9da d0bd 77b2 a3bd 8ec2 87bd e44a bb3d
00000010: 7569 41bd eba6 19be 1ff4 afbd 4579 fa3d
00000020: 5547 933d b844 aebd a3a7 edbb f99d b8bb
00000030: 0775 003d 29c3 6fbb 8d81 d23d b8bd 123d
00000040: 94a9 c8bc baae 9a3d fde7 15bd cfac c1bd
00000050: 9e31 f8bb 1be6 053d 0a9b c3bd 5d8c c1bc
00000060: baa4 52bd 5582 aa3d bb7e 0abd 2e2e 143d
00000070: 2422 8c3d 4486 63bd 10f2 863d 7724 c6bd
00000080: 4221 db3d 4e91 52bd f7a8 123e 61b2 68bd
00000090: fa1d 9b3c 7328 143e 0783 f4bc eb4e c63d
000000a0: 856e 94bd 828b 53bd 115d e93d 4a07 bb3d
000000b0: 6d42 fa3d 1f45 78bc 6085 6dbc 9891 1ebd
000000c0: d6c5 dc3c b703 f5bd 3a64 083e 8635 d23d
000000d0: 1d12 383d 7e96 973c c1a1 f73d 229b 48bd
000000e0: 76da 233c 4c16 543d 5d2f 023d 3ceb 80bd
000000f0: 1145 2bbc 039e d4bd f0dc 83bc f925 6d3c
00000100: de87 8c3d 5371 383d 2ced 6ebd e143 933d
00000110: ca93 b53d addd b4bc 51c0 463b bee2 ca39
00000120: 3844 983d 8c9e 1a3e 9550 24bb f569 87bb
00000130: 3edc cf3c 5884 023d 60aa 943d 3328 823d
00000140: c004 c83d eaba b33d c3ff 663c c4cd 313d
00000150: b451 78bc df72 4bbc faf4 90bd 20ac 4f3d
00000160: fe48 013e 12f3 a73d 7309 0a3b 0879 cdbd
00000170: 29ff d83c 69f3 06bc 191e 783c 8cbf 26bd
00000180: 7021 acbd ca25 153e 55e2 453d 1f92 bfbd
00000190: b12f e1bd 759c 00be cc76 2ebc f407 283b
000001a0: 4282 0f3e e090 ad3d a1f0 c7bc 9c1f 823d
000001b0: c849 c5bd 4a40 bbbd 9cef e33d a67a 98bd
000001c0: ae5d a73d 73b8 2e3d 8d3e c3bd c4f5 b6bd
000001d0: 5c31 06bd b28f 02bd 054a f1bd f1c5 3abd
000001e0: 9f32 ddbb f0a3 f13c 08dc eabd ed7b 94bb
000001f0: 6e48 a13d f35a 91bd a7a4 b43d 6d63 bfbd
00000200: fd9d bb3d 6ea8 aebd c506 783d f467 c43d
00000210: c969 bcbd 0f2b 45bd 2a11 a83d 0fbb 863d
00000220: efd6 8c3d 74db 1e3d 92de 00be efc1 333d
00000230: cbcc a83d 66de 91bd 1416 af3c 4c8d a73d
00000240: a7cf e73d 1268 5ebc 0863 aebd c03e e23d
00000250: b8cc 9dbd 21f0 093e 14b7 06be 30f1 253c
00000260: f79f 37bd 2529 a03d 4e8d 07bc 5446 ec3c
00000270: 16b0 fdbc 843a 0e3e effb 023e a009 92bc
00000280: 267d 0bbe 663e edbb 4619 93bd 88c4 8a3d
00000290: 7e73 7b3d 5d07 5abd fc88 3e3c d3d2 083e
000002a0: bacc 003d f8fa bebb 632a 083e 6f6e debd
000002b0: 8950 c3bd e2e8 a0bd 4adb f33c 4c03 a73d
000002c0: 17ea 99bd 1a43 12be c13e e5bc d06e 673d
000002d0: f33a 953d 71b6 6abd 5ef3 533d ae96 4e3d
000002e0: ed02 bf3d 5a5c 0abd 0e07 533d fd8b f8bd
000002f0: 927d b0bb fbcc 133e 85eb a3bd 010a bd3d

bias_hh_l0 f4 [192]
-0.0017752666 -0.0054394146 0.1513072 -0.04859323 0.13995372 -0.07459915 0.101702884 0.13547722
-0.077451095 0.07319088 0.15282376 0.06793289 0.09384808 0.0046215453 0.011224411 -0.05286415
0.033978198 0.1027111 0.10284609 -0.013904592 -0.032159403 -0.10065851 0.104903035 0.05784654
-0.043880224 0.10787334 -0.013008954 0.011700987 0.058630407 0.13606666 0.13029309 -0.062203493
0.11667486 -0.011276834 0.025456248 0.03569517 -0.1041512 -0.09207666 0.030798668 0.09419097
0.08109096 -0.013777291 0.09885464 -0.1399469 -0.046111267 0.09370529 -0.056792688 0.0879591
0.15337418 0.0075735184 0.06446011 -0.064645894 -0.05425385 -0.105685316 -0.018397337 0.07740026
-0.02498592 0.104525566 0.124470584 0.057340443 0.041639075 0.12669212 -0.034337595 -0.033815656
0.078372695 0.04087704 -0.14668329 -3.083414e-05 -0.100886896 0.041506737 0.0066915983 -0.11128777
-0.0110174995 0.068488814 0.04763575 -0.10612041 0.038575754 0.11161015 0.13113637 0.08309709
0.09438513 -0.050237693 0.058300175 0.11160221 -0.13360383 -0.117979124 0.100658 0.11772212
0.09145341 0.08914936 0.042144913 0.09186252 0.077591866 0.05088874 0.044580445 -0.09187906
-0.09951357 -0.06282216 0.102455355 0.07398039 0.038937833 -0.08880582 0.035484992 0.041757602
0.0485011 0.101916045 0.03563024 0.08657359 -0.09735501 -0.003519109 -0.060121264 -0.049191684
0.032242205 -0.039238654 -0.04672013 -0.008104524 -0.06387931 0.024879217 0.072763756 -0.11301571
-0.11684616 0.10362801 0.03945047 -0.022841038 -0.067378625 -0.054371465 -0.10764509 0.06509422
-0.054286603 0.011811931 -0.1025229 -0.0038278433 -0.028884059 -0.03139262 -0.095894225 -0.098386966
-0.055127077 -0.020134412 0.03709543 -0.041718498 -0.07382592 -0.079017304 -0.059150442 -0.054661907
-0.09559848 0.090542294 0.079012506 -0.06782177 -0.0051403563 0.028403113 -0.14018537 0.031409852
-0.08625477 -0.0059089307 -0.07729282 -0.11406511 0.05887849 -0.06333723 -0.0043635927 0.08151367
0.028748574 0.021301974 -0.05994264 0.06641024 0.11804047 -0.014707184 -0.011322944 -0.0468587
-0.11015139 0.12426976 -0.08724425 -0.014557208 0.049981017 0.03105919 -0.10874986 0.05472543
-0.0018773252 -0.08306005 -0.05993574 0.14281681 -0.03161897 -0.0687334 -0.04968855 0.011777008
-0.06734511 0.10027186 0.058554396 -0.13207681 0.061661538 -0.060451046 0.09035836 0.09772837
00000000: 10b0 e8ba 1e3d b2bb 46f0 1a3e b209 47bd
00000010: 0750 0f3e 70c7 98bd 9a49 d03d 8aba 0a3e
00000020: ae9e 9ebd 1ae5 953d d57d 1c3e 6620 8b3d
00000030: 6c33 c03d 5570 973b 98e6 373c 1488 58bd
00000040: b92c 0b3d 325a d23d f9a0 d23d 16d0 63bc
00000050: 94b9 03bd 0d26 cebd 67d7 d63d 7ef0 6c3d
00000060: c0bb 33bd b3ec dc3d 8223 55bc 7fb5 3f3c
00000070: 7026 703d 0f55 0b3e 8d6b 053e 17c9 7ebd
00000080: 3bf3 ee3d 78c2 38bc 9f89 d03c 1935 123d
00000090: 394d d5bd b092 bcbd 7d4d fc3c 32e7 c03d
000000a0: 0413 a63d 26ba 61bc 4d74 ca3d 3d4e 0fbe
000000b0: 2bdf 3cbd 8fe8 bf3d 739f 68bd e723 b43d
000000c0: 1f0e 1d3e 472b f83b aa03 843d 1165 84bd
000000d0: 4939 5ebd 8b71 d8bd 03b6 96bc 0784 9e3d
000000e0: 46af ccbc 8011 d63d 6fea fe3d d0dd 6a3d
000000f0: bc8d 2a3d 94bb 013e 94a5 0cbd 4982 0abd
00000100: dd81 a03d af6e 273d 2534 16be e853 01b8
00000110: ca9d cebd f802 2a3d 3245 db3b d8ea e3bd
00000120: be82 34bc dd43 8c3d b41d 433d a855 d9bd
00000130: 9c01 1e3d dd93 e43d 9d48 063e cf2e aa3d
00000140: fe4c c13d 0ac6 4dbd 2acc 6e3d b38f e43d
00000150: 71cf 08be 0a9f f1bd c825 ce3d 4b18 f13d
00000160: ed4b bb3d f193 b63d 25a0 2c3d 6b22 bc3d
00000170: 7ce8 9e3d b670 503d fc99 363d 172b bcbd
00000180: c5cd cbbd e8a8 80bd 1dd4 d13d 0883 973d
00000190: 477d 1f3d d3df b5bd b658 113d 050a 2b3d
000001a0: 17a9 463d 5cb9 d03d 04f1 113d 7f4d b13d
000001b0: 1062 c7bd daa0 66bb b741 76bd 387d 49bd
000001c0: 6710 043d b6b8 20bd 9b5d 3fbd d6c8 04bc
000001d0: 28d3 82bd 80cf cb3c 2a05 953d c874 e7bd
000001e0: 0a4d efbd ec3a d43d d196 213d 211d bbbc
000001f0: cefd 89bd 9db4 5ebd 0775 dcbd 1e50 853d
00000200: a15b 5ebd d486 413c 87f7 d1bd 8edc 7abb
00000210: 439e ecbc 8c95 00bd 3164 c4bd 1b7f c9bd
00000220: eecc 61bd ecf0 a4bc 61f1 173d 04e1 2abd
00000230: 0b32 97bd d3d3 a1bd bc47 72bd 2ae5 5fbd
00000240: 23c9 c3bd 3d6e b93d 4fd1 a13d 24e6 8abd
00000250: 6f70 a8bb a5ad e83c c18c 0fbe 9ea7 003d
00000260: 57a6 b0bd b49f c1bb b34b 9ebd f89a e9bd
00000270: 922a 713d f3b6 81bd 78fc 8ebb a4f0 a63d
00000280: 2182 eb3c 7a81 ae3c 6a86 75bd 1802 883d
00000290: 34bf f13d 67f6 70bc df83 39bc e9ee 3fbd
000002a0: 0d97 e1bd 2581 fe3d 1dad b2bd 5b81 6ebc
000002b0: e5b8 4c3d d86f fe3c 3fb8 debd c627 603d
000002c0: 9510 f6ba 631b aabd 2e7f 75bd 923e 123e
000002d0: e582 01bd 19c4 8cbd 3986 4bbd 5af4 403c
000002e0: 3cec 89bd 555b cd3d bcd6 6f3d 253f 07be
000002f0: cf90 7c3d 849b 77bd ce0d b93d d025 c83d

weight_ih_l1 f4 [192, 64]
-0.1584661 -0.0134233255 0.059190698 0.034632284 -0.053557266 0.081591696 -0.041311648 0.10201329
-0.13884196 0.0057581463 -0.1358282 -0.0058240676 -0.064133994 -0.102490574 -0.09262642 0.07685519
0.10780833 0.0295676 -0.06520596 -0.0032785842 -0.09072636 -0.08722197 0.10667147 -0.030633014
-0.0075974427 0.11946859 -0.091535375 -0.10034802 -0.058231633 0.11966441 0.032929055 -0.06004967
-0.06400778 0.10422648 -0.035061162 0.12025971 0.0072192624 0.055036422 0.0789195 0.04074146
0.09007058 -0.082772404 0.06472942 -0.10963825 0.06485864 0.092704915 -0.12023057 -0.10853064
0.08480051 -0.04946221 0.013609521 0.09553764 0.106774494 0.031226698 -0.023259819 -0.1342969
0.117435694 -0.0717956 -0.10374525 0.07046361 0.048939455 -0.10230994 0.040668122 0.004325284
-0.059304655 0.02374599 -0.056572348 0.062187396 -0.080446705 0.044961836 0.034572735 0.034098465
-0.06833725 0.11195788 0.04478254 0.027631886 0.031775035 0.04449606 -0.11196148 -0.10293049
-0.118303165 -0.013158815 0.019799702 -0.014860998 -0.06836576 -0.13748239 0.13072255 -0.07751472
-0.07267688 -0.008222767 -0.08980411 -0.049130443 0.0477758 0.067698784 0.007296251 0.018962
-0.044503868 -0.10787951 0.004421518 -0.06319976 -0.04590404 -0.0404866 -0.025927031 0.027558161
0.120802626 -0.058067434 -0.049355958 0.0057455627 -0.041112665 -0.027312316 -0.060045812 -0.015417752
-0.106434375 -0.09968797 0.06796897 -0.07123527 0.050924428 -0.116492435 0.021569192 0.07641294
-0.009490512 0.0114698205 0.09846067 0.079302885 -0.14217147 0.08315479 0.031623527 0.019716611
-0.031409252 -0.08858403 -0.032564797 -0.011979273 0.14249489 -0.09959002 -0.048672445 0.034181997
0.059937548 0.09245953 0.019175548 0.032709002 -0.10634734 0.14148334 0.020569323 0.10276257
0.053471867 0.0065012975 0.06394008 -0.06656048 0.07218546 0.0022610624 -0.049091093 -0.10940644
0.060276844 -0.11459325 -0.04125995 0.05130892 0.11670456 0.0618048 -0.09672548 -0.10209198
-0.030697305 0.080611005 0.09641358 -0.10945115 0.010489966 -0.002899155 -0.10099174 -0.14361699
-0.12171154 0.052012965 -0.1295496 0.09622915 0.035874322 0.026258994 -0.10293492 -0.0025585026
0.11578565 0.02529367 -0.07278844 0.03606339 0.062253654 0.10490396 -0.11329116 0.0980833
0.014867382 -0.07358668 0.05163086 0.06339772 0.05668238 0.13402043 -0.07684755 0.12564158
-0.055175148 0.10071147 -0.06097087 0.12239141 -0.0008676648 -0.032499135 -0.050002843 0.02801988
0.09704462 0.02803093 0.0038189564 0.06713654 0.074616656 -0.11228712 0.038619637 -0.08685701
0.08767407 -0.035479438 0.09395674 0.06352536 -0.014556635 0.053386565 0.012485548 0.03389371
0.027979441 0.0008612997 0.02332487 0.040106654 0.10657489 -0.061542384 0.044282384 -0.063538544
0.024620038 0.13050394 0.1641651 -0.046436857 -0.031346865 0.08266933 -0.083261885 0.08911891
-0.07922393 0.0818814 -0.017299669 -0.017826222 -0.121604264 0.043246623 0.071081564 -0.04502413
0.038072467 0.07657376 -0.08701334 0.09852896 0.029105304 0.10354616 -0.072043516 -0.074420154
0.043142844 0.016053071 0.075329065 -0.090927385 0.09372178 0.03379735 0.078878954 -0.057701383
00000000: f044 22be 82ed 5bbc f271 723d 95da 0d3d
00000010: dd5e 5bbd 8c19 a73d 6736 29bd 58ec d03d
00000020: 962c 0ebe d5ae bc3b 8c16 0bbe d2d7 bebb
00000030: af58 83bd 94e6 d1bd ecb2 bdbd 4166 9d3d
00000040: 9dca dc3d c037 f23c b48a 85bd 84dd 56bb
00000050: bece b9bd 6fa1 b2bd 9276 da3d 16f2 fabc
00000060: f8f3 f8bb f3ab f43d e676 bbbd 4383 cdbd
00000070: 4b84 6ebd 9d12 f53d 9ee0 063d a5f6 75bd
00000080: 8316 83bd b174 d53d 4b9c 0fbd b94a f63d
00000090: 908f ec3b df6d 613d 8ca0 a13d 84e0 263d
000000a0: ed76 b83d 9484 a9bd dc90 843d 058a e0bd
000000b0: 9bd4 843d 13dc bd3d 723b f6bd 5045 debd
000000c0: e4ab ad3d e398 4abd 78fa 5e3c 3da9 c33d
000000d0: 96ac da3d 22cf ff3c 608b bebc 2085 09be
000000e0: 2082 f03d 9209 93bd 6478 d4bd 3a4f 903d
000000f0: bd74 483d e087 d1bd 9e93 263d 1dbb 8d3b
00000100: 70e9 72bd f386 c23c 68b8 67bd 36b8 7e3d
00000110: 3ec1 a4bd e729 383d 249c 0d3d d5aa 0b3d
00000120: 66f4 8bbd 2c4a e53d e66d 373d 445c e23c
00000130: 8a26 023d 8041 363d 0f4c e5bd 39cd d2bd
00000140: ee48 f2bd 1298 57bc fc32 a23c 8b7b 73bc
00000150: 5903 8cbd 2fc8 0cbe 22dc 053e 0ac0 9ebd
00000160: 9ed7 94bd c9b8 06bc 38eb b7bd 013d 49bd
00000170: 8fb0 433d a9a5 8a3d 6415 ef3b 3256 9b3c
00000180: b049 36bd efef dcbd 62e2 903b e06e 81bd
00000190: e005 3cbd 47d5 25bd ed64 d4bc a7c1 e13c
000001a0: 5e67 f73d 1ed8 6dbd 7929 4abd 4645 bc3b
000001b0: c165 28bd 14be dfbc 99f2 75bd bd9a 7cbc
000001c0: 44fa d9bd 3529 ccbd 5133 8b3d cce3 91bd
000001d0: 2296 503d 9693 eebd e0b1 b03c 637e 9c3d
000001e0: 187e 1bbc eaeb 3b3c bfa5 c93d 8d69 a23d
000001f0: 6695 11be 0f4d aa3d ac87 013d bb84 a13c
00000200: fda6 00bd 8b6b b5bd aa62 05bd b644 44bc
00000210: 2eea 113e daf5 cbbd c25c 47bd 6c02 0c3d
00000220: 1381 753d 6c5b bd3d 0a16 9d3c e0f9 053d
00000230: a2cc d9bd 02e1 103e ff80 a83c 2f75 d23d
00000240: 5105 5b3d d608 d53b 04f3 823d dc50 88bd
00000250: f8d5 933d 552e 143b be13 49bd 7c10 e0bd
00000260: dae4 763d deaf eabd 3100 29bd 4d29 523d
00000270: cd02 ef3d 0827 7d3d 0218 c6bd 9a15 d1bd
00000280: ea78 fbbc 6217 a53d 7c74 c53d ed27 e0bd
00000290: 1bde 2b3c c0ff 3dbb c2d4 cebd 5510 13be
000002a0: e643 f9bd 8c0b 553d a6a8 04be ca13 c53d
000002b0: f4f0 123d 1a1d d73c 8bcf d2bd 8dac 27bb
000002c0: 0721 ed3d ac34 cf3c 1b12 95bd 35b7 133d
000002d0: b0fd 7e3d e3d7 d63d 3205 e8bd e6df c83d
000002e0: 5296 733c 9db4 96bd e17a 533d aad6 813d
000002f0: c92b 683d a73c 093e 4062 9dbd 30a8 003e
00000300: 56ff 61bd d141 ce3d 97bc 79bd 59a8 fa3d
00000310: 0074 63ba d01d 05bd c8cf 4cbd f389 e53c
00000320: 54bf c63d 1fa1 e53c 7547 7a3b e27e 893d
00000330: 9ed0 983d caf6 e5bd a02f 1e3d 17e2 b1bd
00000340: 768e b33d e352 11bd 646c c03d 9519 823d
00000350: f47e 6ebc dfab 5a3d 2f90 4c3c 21d4 0a3d
00000360: 2435 e53c d8c8 613a cc13 bf3c e046 243d
00000370: f043 da3d de13 7cbd 7261 353d 7f20 82bd
00000380: f6af c93c d3a2 053e e51a 283e 9334 3ebd
00000390: 9265 00bd 8a4e a93d 3585 aabd fa83 b63d
000003a0: 2840 a2bd 6fb1 a73d 09b8 8dbc 4c08 92bc
000003b0: a80b f9bd 5f23 313d 3693 913d 396b 38bd
000003c0: e0f1 1b3d b4d2 9c3d 0d34 b2bd 8dc9 c93d
000003d0: 3f6e ee3c 0210 d43d 8d8b 93bd 9869 98bd
000003e0: 8db6 303d bb81 833c 2046 9a3d 2338 babd
000003f0: 34f1 bf3d 176f 0a3d 4a8b a13d 4958 6cbd

weight_hh_l1 f4 [192, 64]
0.051010758 0.029738044 0.089598544 0.12231363 0.06963329 0.080735035 0.054349583 0.08680698
0.0007552684 0.11247943 0.031019444 -0.0707809 0.055863235 0.03625783 0.111343406 -0.07293749
0.08581999 -0.09760373 0.011472071 -0.0616735 0.034088768 -0.0458172 -0.111592844 -0.07492886
-0.06992876 0.050382353 -0.055839423 0.11888735 -0.13568601 0.06549236 0.020637173 0.07363717
0.033265732 0.08586393 -0.10864235 -0.108715124 0.10243812 -0.088541016 0.049649592 0.040471468
0.043564558 0.026675817 0.09504925 0.037203606 -0.13902515 0.033271458 -0.015325321 0.043178804
-0.104091115 -0.055950604 -0.118729636 -0.013623581 0.0007116664 0.016790066 0.021565612 -0.010734199
0.03218738 -0.030932687 0.068878435 0.005665367 -0.11092933 -0.008753718 -0.11546687 0.060772415
-0.016968865 -0.08187531 -0.10795576 -0.059404593 -0.002899129 0.1007877 -0.0052326517 0.075192794
-0.10017964 0.091871485 0.11732536 -0.08213115 0.14979583 0.0150232045 0.032477517 0.073293455
-0.0592743 0.064301535 -0.13489136 -0.049357142 0.08914532 -0.14466047 0.04044007 0.06331146
-0.11455264 -0.086313635 0.051187407 0.06982186 0.040072184 -0.115033284 0.08329297 -0.050355643
0.118359365 -0.09551538 0.13200738 0.060990058 -0.08952045 -0.049903437 0.057642873 -0.012971374
0.12489283 0.01851316 -0.13769653 0.090791024 -0.022564765 -0.08351444 0.09766813 -0.072523125
0.08028844 -0.036628492 0.06700547 0.10323823 -0.12643868 -0.0630515 0.114969544 -0.13664351
-0.12843987 0.051765513 -0.105902456 0.10256547 0.108068 0.105866134 -0.017140081 0.096446104
-0.12960412 -0.15110363 -0.029836558 -0.024516694 -0.048902865 -0.013249235 0.04728874 0.07789472
-0.12649177 -0.13000214 0.0057165227 -0.13902168 -0.12639649 0.0049518165 0.08410365 0.10600162
-0.081129596 -0.08205227 -0.093092375 0.074080914 -0.13278903 0.04309767 -0.060750615 -0.0073927995
-0.11083051 -0.10962974 -0.0317098 -0.15075019 0.026923958 0.037517603 -0.08932671 -0.07363781
0.045747906 -0.070913315 0.018444173 0.12871131 -0.14960225 0.014078827 -0.06517278 -0.029564854
0.09544945 0.020458434 0.08841886 -0.038425155 -0.07123122 -0.0613855 0.06572057 -0.03615665
-0.019670121 -0.07187012 0.08950117 0.016900418 0.13037878 0.07139705 0.024916552 0.070909865
0.09432451 0.10685982 0.059740216 -0.0026543061 -0.04343756 0.0057472787 -0.090666704 0.042795572
0.02862689 0.03938908 -0.0640593 -0.14788519 -0.031389087 0.099514626 -0.005788199 -0.07446492
-0.11564648 -0.0814642 -0.057680354 0.088048324 0.04143187 -0.10132657 -0.054670192 0.006099195
-0.08188578 0.037326284 0.018013552 -0.089389026 0.03678681 0.032808397 0.11760795 -0.042014547
0.044917494 0.023612838 0.0029386813 -0.023608878 0.080281034 0.094828315 0.058316033 -0.05656336
0.08525235 -0.025039667 0.03608048 0.06320759 -0.050797515 0.08086177 -0.08075679 -0.013758058
-0.044702798 -0.026939962 -0.04365575 -0.07013482 -0.011819886 -0.004964684 -0.09345225 0.017802348
-0.09587447 -0.050249163 -0.035872046 -0.015028452 0.119358644 0.044817463 0.13557684 -0.0056360094
0.13434441 -0.0627457 -0.10262678 -0.033522867 0.01364996 -0.024506819 0.019279473 -0.026374264
00000000: a8f0 503d 339d f33c 717f b73d 927f fa3d
00000010: e69b 8e3d 6958 a53d ab9d 5e3d dcc7 b13d
00000020: 34fd 453a 9e5b e63d 7d1c fe3c 94f5 90bd
00000030: d9d0 643d 1783 143d 0308 e43d 4060 95bd
00000040: 64c2 af3d 77e4 c7bd 5af5 3b3c 5a9d 7cbd
00000050: aaa0 0b3d d1aa 3bbd ca8a e4bd 4d74 99bd
00000060: cf36 8fbd ba5d 4e3d e1b7 64bd 367b f33d
00000070: 46f1 0abe dc20 863d 4a0f a93c 16cf 963d
00000080: a641 083d 6ed9 af3d e17f debd 09a6 debd
00000090: 14cb d13d fe54 b5bd 5f5d 4b3d 69c5 253d
000000a0: c070 323d 3e87 da3c 2ea9 c23d cf62 183d
000000b0: 9c5c 0ebe a747 083d 0e17 7bbc 42dc 303d
000000c0: b92d d5bd 762c 65bd 8628 f3bd 7135 5fbc
000000d0: 208f 3a3a 528b 893c 5eaa b03c 7ede 2fbc
000000e0: ead6 033d 8c66 fdbc 2310 8d3d 8ba4 b93b
000000f0: eb2e e3bd c16b 0fbc e579 ecbd 7fec 783d
00000100: 4a02 8bbc 3eae a7bd e917 ddbd 3b52 73bd
00000110: 50ff 3dbb c869 ce3d aa76 abbb aefe 993d
00000120: fc2a cdbd 1e27 bc3d 4748 f03d 6034 a8bd
00000130: 1464 193e e323 763c 2507 053d e11a 963d
00000140: 9cc9 72bd 86b0 833d f620 0abe b72a 4abd
00000150: d291 b63d e021 14be 7da4 253d 70a9 813d
00000160: 939a eabd 34c5 b0bd e3a9 513d c3fe 8e3d
00000170: bb22 243d 9296 ebbd 8195 aa3d b841 4ebd
00000180: 6566 f23d 919d c3bd f12c 073e b6d0 793d
00000190: 7f56 b7bd 8c67 4cbd ef1a 6c3d e385 54bc
000001a0: d0c7 ff3d e9a8 973c 5200 0dbe a5f0 b93d
000001b0: bed9 b8bc 9e09 abbd 3b06 c83d 0187 94bd
000001c0: 446e a43d c207 16bd 2a3a 893d 916e d33d
000001d0: 2479 01be 2521 81bd 2775 eb3d 47ec 0bbe
000001e0: be85 03be 1308 543d 63e3 d8bd d80d d23d
000001f0: c152 dd3d 58d0 d83d 5b69 8cbc 8985 c53d
00000200: f1b6 04be e9ba 1abe cc6b f4bc 3cd7 c8bc
00000210: 5f4e 48bd 5213 59bc d6b1 413d 4487 9f3d
00000220: 0f87 01be 481f 05be ab51 bb3b b35b 0ebe
00000230: 156e 01be d942 a23b 893e ac3d 6117 d93d
00000240: 4627 a6bd 050b a8bd 37a7 bebd bcb7 973d
00000250: d9f9 07be 2f87 303d a3d5 78bd 4c3f f2bb
00000260: 1bfb e2bd 8f85 e0bd 23e2 01bd 425e 1abe
00000270: a28f dc3c 0fac 193d ecf0 b6bd 6ccf 96bd
00000280: 2862 3b3d 003b 91bd 3c18 973c e6cc 033e
00000290: 5531 19be e1aa 663c 4e79 85bd fe31 f2bc
000002a0: 007b c33d 7298 a73c f314 b53d b263 1dbd
000002b0: ade1 91bd 5d6f 7bbd 8298 863d ff18 14bd
000002c0: 3c23 a1bc a430 93bd 644c b73d bf72 8a3c
000002d0: 0482 053e 9e38 923d cc1d cc3c 3139 913d
000002e0: 352d c13d 52d9 da3d 28b2 743d def3 2dbb
000002f0: 95eb 31bd ab53 bc3b 77af b9bd 694a 2f3d
00000300: f182 ea3c 7256 213d 8631 83bd 376f 17be
00000310: d891 00bd 53ce cb3d efaa bdbb 1081 98bd
00000320: 10d8 ecbd b4d6 a6bd 3c42 6cbd ae52 b43d
00000330: 77b4 293d 4e84 cfbd daed 5fbd c2db c73b
00000340: bbb3 a7bd 72e3 183d 2891 933c 9811 b7bd
00000350: c4ad 163d 1962 063d 70dc f03d 7217 2cbd
00000360: 68fb 373d b66f c13c e496 403b 6867 c1bc
00000370: 626a a43d 5935 c23d cbdc 6e3d fbae 67bd
00000380: c998 ae3d fd1f cdbc 20c9 133d fb72 813d
00000390: 0e11 50bd db9a a53d d163 a5bd 7a69 61bc
000003a0: 481a 37bd 32b1 dcbc 5fd0 32bd d8a2 8fbd
000003b0: 32a8 41bc caae a2bb e563 bfbd 3bd6 913c
000003c0: d659 c4bd 11d2 4dbd 91ee 12bd e539 76bc
000003d0: 4e72 f43d 8492 373d a8d4 0a3e 46ae b8bb
000003e0: 9591 093e d180 80bd fd2d d2bd 464f 09bd
000003f0: 15a4 5f3c 86c2 c8bc fcef 9d3c d70e d8bc

bias_ih_l1 f4 [192]
-0.051846553 0.08026278 0.07874253 -0.09167142 0.017280227 0.020534102 0.028469319 0.042627823
-0.053771805 0.07356083 -0.05893584 0.07449984 0.120413534 0.10861986 -0.0020241544 0.03510693
-0.01041538 -0.0054793935 0.075758606 -0.10205376 -0.022052407 0.005483806 0.066908516 -0.091035284
0.11494473 -0.029483458 -0.0008370371 -0.017027348 0.094349675 -0.03274869 -0.02887468 0.093943186
-0.092012055 0.0039583677 0.0889456 -0.009014804 -0.04194401 -0.09621052 0.08476245 -0.14071642
0.11059892 0.14796783 0.003937736 -0.0055207647 -0.05253283 0.0017536376 0.05332863 -0.06717497
0.13259394 0.095883705 -0.082523935 0.11444117 -0.052195676 0.13485777 0.053636007 -0.089104444
0.041150372 -0.114669286 0.08053502 0.05603286 0.025624597 -0.063290685 0.10542049 -0.08518881
-0.050683912 0.043603644 -0.04983377 -0.12255333 -0.03571263 -0.0050006984 0.025464287 -0.08332707
-0.087330125 -0.12665471 -0.047888543 -0.05541714 0.034305073 -0.10679431 0.12170223 0.08722357
0.012576556 0.013749433 -0.026740506 -0.15365157 0.03372031 -0.13315833 -0.012469961 -0.039276518
0.06060741 -0.040354397 -0.06340715 -0.09359241 -0.041998208 -0.039116982 -0.12807494 -0.13505249
0.053146232 -0.053617567 -0.09169493 -0.03997652 0.09975228 -0.05362051 0.12717992 0.0143565545
-0.0068737078 -0.038064174 -0.13776591 0.06394318 0.05161436 -0.04928235 0.08787328 0.065142535
-0.14451952 -0.1294408 -0.017808866 -0.031067943 0.04793302 -0.11440731 -0.073347285 0.01922173
0.09183591 0.09033709 -0.024686212 -0.024209755 0.027449558 -0.103964195 -0.11024798 -0.082595244
0.004449649 0.13789284 0.07119096 -0.025487486 0.040694945 0.13194115 0.1325758 -0.0042745536
0.051474143 -0.03252545 -0.057659075 0.06410621 -0.03439702 0.053657807 -0.04962592 0.08617393
0.036358163 -0.116360836 0.051615685 0.0153720295 -0.030398602 0.103717454 -0.043996133 0.092463866
0.027427588 0.023084424 0.1276896 -0.0024193816 -0.055786945 0.058273222 0.13252941 -0.059664115
0.028335879 0.034945555 -0.05716374 -0.020106858 -0.010104192 0.07619746 -0.112195455 -0.08357712
-0.13444647 0.0045246575 0.008932198 -0.03519524 0.03196602 0.07735349 0.011485101 -0.01661311
-0.09666047 0.027695514 -0.11102368 -0.03443601 0.1445487 0.097424366 0.13751647 -0.06699855
-0.07982391 0.0821602 -0.13954625 0.110540025 0.017917065 0.04713088 -0.037439954 0.04316416
00000000: 0d5d 54bd d060 a43d c343 a13d 3abe bbbd
00000010: 438f 8d3c 2237 a83c 7d38 e93c 839a 2e3d
00000020: d33f 5cbd 0fa7 963d b566 71bd 5f93 983d
00000030: 5f9b f63d 1774 de3d ada7 04bb 49cc 0f3d
00000040: 45a5 2abc 7c8c b3bb 5427 9b3d 9001 d1bd
00000050: 40a7 b4bc 80b1 b33b 5507 893d b570 babd
00000060: 2568 eb3d 4b87 f1bc 9c6c 5bba f07c 8bbc
00000070: 673a c13d 7e23 06bd 988a ecbc 4965 c03d
00000080: d170 bcbd 32b5 813b 1c29 b63d d4b2 13bc
00000090: 7bcd 2bbd 050a c5bd ef97 ad3d f717 10be
000000a0: b081 e23d e184 173e 2008 813b 88e7 b4bb
000000b0: aa2c 57bd 50da e53a 1f6f 5a3d 0893 89bd
000000c0: b5c6 073e ad5e c43d 4f02 a9bd 2260 ea3d
000000d0: 22cb 55bd 2818 0a3e 6eb1 5b3d 647c b6bd
000000e0: 4b8d 283d bbd7 eabd 8bef a43d b682 653d
000000f0: adea d13c 8c9e 81bd b3e6 d73d 7977 aebd
00000100: ef99 4fbd bc99 323d 7f1e 4cbd 3efd fabd
00000110: 6847 12bd e6dc a3bb 7b9a d03c 62a7 aabd
00000120: 23da b2bd c6b1 01be c726 44bd 15fd 62bd
00000130: 7a83 0c3d fab6 dabd 053f f93d 45a2 b23d
00000140: e60d 4e3c 4d45 613c e80e dbbc d656 1dbe
00000150: 4f1e 0a3d a85a 08be cf4e 4cbc 6ae0 20bd
00000160: 7a3f 783d a74a 25bd 9cdb 81bd 61ad bfbd
00000170: 5006 2cbd 2139 20bd 1426 03be 334b 0abe
00000180: ddaf 593d 189e 5bbd 8dca bbbd 6bbe 23bd
00000190: ec4a cc3d 2ea1 5bbd 743b 023e c137 6b3c
000001a0: d73c e1bb 2ee9 1bbd 8212 0dbe a4f4 823d
000001b0: 9469 533d 4adc 49bd e8f6 b33d 7369 853d
000001c0: edfc 13be 218c 04be e6e3 91bc 3382 febc
000001d0: 6a55 443d 614e eabd 1a37 96bd e476 9d3c
000001e0: 7714 bc3d a702 b93d bd3a cabc 8953 c6bc
000001f0: e5dd e03c 2eeb d4bd b1c9 e1bd b227 a9bd
00000200: 5cce 913b c833 0d3e 91cc 913d 22cb d0bc
00000210: beaf 263d 951b 073e f3c1 073e 8e11 8cbb
00000220: 8dd6 523d 6839 05bd ec2b 6cbd 1e4a 833d
00000230: e4e3 0cbd 4ac8 5b3d 8c44 4bbd f57b b03d
00000240: 4cec 143d 974e eebd f86a 533d f7da 7b3c
00000250: 7d06 f9bc d169 d43d 4a35 34bd b25d bd3d
00000260: d2af e03c 8c1b bd3c 10c1 023e 7d8e 1ebb
00000270: da80 64bd e7af 6e3d cab5 073e 5c62 74bd
00000280: a520 e83c 1223 0f3d 8724 6abd 23b7 a4bc
00000290: 0e8c 25bc 6a0d 9c3d bbc6 e5bd 7b2a abbd
000002a0: 56ac 09be 9443 943b 5b58 123c e228 10bd
000002b0: cdee 023d 826b 9e3d 012c 3c3c 3818 88bc
000002c0: edf5 c5bd b4e1 e23c 6260 e3bd c60c 0dbd
000002d0: 9304 143e 6d86 c73d 1ed1 0c3e 8936 89bd
000002e0: b87a a3bd 9b43 a83d 36e5 0ebe cf62 e23d
000002f0: cfc6 923c 4f0c 413d a35a 19bd e7cc 303d

bias_hh_l1 f4 [192]
0.082434535 -0.102084026 -0.02053409 -0.05842323 -0.04987515 0.08058094 -0.05107659 0.0043266453
-0.027111402 -0.021022582 0.046082065 0.029920964 -0.045927532 0.032824565 0.043130957 0.022000462
0.05903296 -0.087137714 -0.07071947 -0.06955662 0.06289224 -0.05352116 -0.027445503 0.08781851
-0.07893475 0.017068386 -0.05679412 -0.036285937 0.1417479 -0.06722722 0.025288366 -0.015153628
0.1368384 -0.035366233 0.11320874 0.038999245 -0.059300635 0.09395659 0.06615464 0.015106171
0.018124755 0.10920217 0.10697203 -0.09082302 -0.070343696 0.024526618 0.099446416 0.020319162
0.01822956 0.14473876 -0.036603022 -0.039713643 -0.0726317 -0.034158878 -0.029277645 0.010321185
-0.042328443 0.07027155 0.028765146 -0.09014806 0.10817701 0.06419101 0.054725207 -0.0889247
0.015623438 -0.108735695 -0.108125396 0.0538535 0.08110889 0.045702305 -0.04757346 -0.052282266
0.09612904 -0.15077376 -0.079422206 -0.10892304 -0.03371405 -0.083156615 0.08306681 -0.049690913
0.06643575 -0.12703075 0.03890839 -0.12910034 -0.14476667 -0.15032564 0.050114725 0.08261433
0.0673217 0.07321274 0.08663517 -0.06635182 0.011223189 0.06548007 -0.03785426 -0.1517535
-0.026247134 0.05157108 -0.0899707 -0.09643654 -0.081022345 0.057243567 0.0592556 0.02438974
-0.06378497 -0.08187739 0.04294591 -0.04020971 -0.030506358 -0.13011935 0.10261042 -0.07727781
-0.07351899 0.058411244 0.019175734 0.0076942663 0.042577993 -0.11580805 -0.00796582 0.05078843
0.11434497 -0.018338533 -0.0013332599 0.07675455 -0.004160771 -0.10383288 0.10064217 -0.15586534
0.10452978 0.043543104 0.04252653 -0.050767444 0.03957036 0.1472207 -0.04384776 0.015108433
-0.13379394 -0.12157284 -0.13764296 0.11054609 -0.073083885 -0.1089251 0.13029072 0.13291304
-0.05684863 -0.00804784 -0.0040532677 -0.042311724 0.010998567 0.12462665 0.038941324 0.03465364
0.0844728 -0.034923833 0.056140974 0.032371596 -0.077643245 -0.00918664 0.063290074 -0.021873562
-0.05177013 -0.10733987 0.015082378 -0.011394601 -0.032554176 0.08906008 0.07897453 0.025973897
-0.13686764 -0.00026466744 0.09863192 0.061161578 0.0037497669 -0.04841504 -0.03897681 -0.07486659
-0.062229116 -0.018996462 -0.1394202 0.068535425 -0.020528754 -0.10772874 -0.064405106 0.068715364
0.076260716 -0.12601545 -0.06859036 0.082761385 -0.0074893185 -0.10087961 0.016351355 -0.14070955
00000000: 70d3 a83d 6e11 d1bd 1c37 a8bc 324d 6fbd
00000010: e349 4cbd 9f07 a53d b035 51bd 88c6 8d3b
00000020: bb18 debc 8d37 acbc 8cc0 3c3d cf1c f53c
00000030: 821e 3cbd 0d73 063d 16aa 303d 503a b43c
00000040: 8ccc 713d 4275 b2bd 5fd5 90bd b473 8ebd
00000050: a6cd 803d 0139 5bbd 64d5 e0bc 31da b33d
00000060: 8ba8 a1bd 00d3 8b3c f4a0 68bd 90a0 14bd
00000070: 5d26 113e 6dae 89bd 8c29 cf3c ec46 78bc
00000080: 5e1f 0c3e 2fdc 10bd fcd9 e73d acbd 1f3d
00000090: 39e5 72bd 506c c03d 157c 873d e07f 773c
000000a0: 5e7a 943c 63a5 df3d 2714 db3d 6b01 babd
000000b0: 5b10 90bd 0cec c83c 90aa cb3d 5f74 a63c
000000c0: 2956 953c 6636 143e 0ded 15bd c6aa 22bd
000000d0: eebf 94bd 2eea 0bbd acd7 efbc 301a 293c
000000e0: 9760 2dbd 88ea 8f3d e2a4 eb3c 8c9f b8bd
000000f0: e98b dd3d 9476 833d 8a27 603d 271e b6bd
00000100: 73f9 7f3c d2b0 debd d970 ddbd 7d95 5c3d
00000110: 6b1c a63d 5732 3b3d 63dc 42bd ee25 56bd
00000120: 4ddf c43d 7064 1abe 1ca8 a2bd 0b13 dfbd
00000130: be17 0abd 044e aabd ef1e aa3d b388 4bbd
00000140: 770f 883d 5914 02be 675e 1f3d e132 04be
00000150: b73d 14be f7ee 19be 1945 4d3d b431 a93d
00000160: f6df 893d 90f0 953d c86d b13d 77e3 87bd
00000170: 77e1 373c 6a1a 863d 120d 1bbd 4565 1bbe
00000180: 3b04 d7bc 323c 533d 8f42 b8bd 8580 c5bd
00000190: 0bef a5bd 3b78 6a3d 00b6 723d fecc c73c
000001a0: b2a1 82bd 55af a7bd 0de8 2f3d f0b2 24bd
000001b0: 78e8 f9bc 023e 05be 6925 d23d d443 9ebd
000001c0: 2091 96bd a140 6f3d 6e16 9d3c 2f20 fc3b
000001d0: 4366 2e3d c52c edbd 1283 02bc 8707 503d
000001e0: b22d ea3d b13a 96bc c7c0 aeba 7d31 9d3d
000001f0: 1457 88bb 55a6 d4bd 7b1d ce3d 2a9b 1fbe
00000200: b613 d63d 415a 323d 4c30 2e3d 86f1 4fbd
00000210: 8814 223d 06c1 163e b599 33bd 5c89 773c
00000220: 4701 09be 2efb f8bd 47f2 0cbe fd65 e23d
00000230: 01ad 95bd 1f14 dfbd ee6a 053e 5b1a 083e
00000240: 1cda 68bd 16db 03bc 46d1 84bb 0f4f 2dbd
00000250: 5533 343c 423c ff3d f080 1f3d faf0 0d3d
00000260: 1300 ad3d 4b0c 0fbd 14f4 653d 1498 043d
00000270: 6c03 9fbd 9083 16bc 3a9e 813d 2f30 b3bc
00000280: ea0c 54bd 01d5 dbbd 141c 773c 6cb0 3abc
00000290: 8757 05bd 2265 b63d 66bd a13d 36c7 d43c
000002a0: 0827 0cbe 10c3 8ab9 88ff c93d 9084 7a3d
000002b0: a6be 753b d94e 46bd 26a6 1fbd a853 99bd
000002c0: f5e3 7ebd 789e 9bbc 2bc4 0ebe 4d5c 8c3d
000002d0: eb2b a8bc e3a0 dcbd d3e6 83bd a4ba 8c3d
000002e0: 942e 9c3d 320a 01be 1a79 8cbd cd7e a93d
000002f0: f568 f5bb f899 cebd 47f3 853c 2a16 10be
