Baseline_systems/SoMS/models/SoM_GRU_4/20_1.pth (torch, 10975 bytes, 3 tensors)

weight f4 [32, 64]
00000000: a868 d9bd 4f79 303d b0e5 10bd 698e 7b3d
00000010: 9048 2b3d d8d9 89bd 795e 04be af0f 0d3e
00000020: 3e1d 5abd 468a 9a3b 60c6 3b3c 1731 09be
00000030: 7f6e ba3d 0901 833c 7170 0a3e 388d b4bd
00000040: 1824 253d a7ae 59bd 3ab8 99bd 1a49 b2bd
00000050: 10a8 bebc 2368 2f3d aeaf 0bbe d22d 893d
00000060: a141 003e 35c4 453d f821 ff3d 8a7c a7bd
00000070: 92b2 093d 60e4 bf3d ceca 053e 8547 113d
00000080: 5ee1 03be 889e 8b3d 8314 9c3d e97a c0bd
00000090: 5f0e 35bd 4d76 a63d 8662 853d 1f2f 463c
000000a0: 6661 b23d d900 57bd 3081 54bd b54a 8cbd
000000b0: 9db0 913d 4c16 7a3c 8ab3 80bc 45bb 2bbc
000000c0: 3f92 e43d 2e7d a8bd 69e0 f63d d73e 88bd
000000d0: 990c f9bd 60a2 d23b 5d17 3fbc ad5b 6c3d
000000e0: bf24 ea3d f345 db3d 83bc e53d f07b b238
000000f0: f3b7 e2bd 7e14 ad3b d000 e5bd 5642 e23d
00000100: 7311 80bd 9531 903d 9d9f 02be 8ac1 c2bd
00000110: 8c71 d53d db48 11bb 312e ed3b d27a 56bd
00000120: b237 0e3c 0258 b3bd 8158 cc3c b552 253d
00000130: a595 083c 0f62 573c b62e e83d 579f a13d
00000140: 7465 0d3e 599a 97ba 61f8 c23d e0e0 4ebc
00000150: 71e2 ff3d dd87 a93d 769b f9bc 61b6 92bd
00000160: 39e7 27bd a400 fc3d 6d35 2abd 68e1 f43d
00000170: 944a 9bbc 079a 0dbd 0599 a53d 8e71 87bd
00000180: 4ea3 d63d 1a99 b0bd 1c68 00be 0bf0 d13d
00000190: 8893 24bd 1bd1 a83d c006 abbd 9cb9 c7bd
000001a0: 2e3d cabd 7fcb 9abd d152 9d3d 31bc f73d
000001b0: f28b 9dbc f4f8 afbd 3ba9 063e a6c0 ebbc
000001c0: bd01 f33d 5f50 b93d 6286 7cbd a313 1cbd
000001d0: 3048 bbbd 90cc c1bd 3caf a73b d96e 4ebd
000001e0: 44b0 7b3d 4b6c 87bc 4779 973d 9a80 b5bd
000001f0: ef59 01be 01ef 87bd d6ef a1bc 922c 6fbd
00000200: 529c 6c3d da8b 863d 5eb4 cdbc 6fc7 4abd
00000210: ccca 663d 82e4 e33d 4f01 8c3c b733 46bd
00000220: 2e99 1d3d 5310 483d 007e 5a3d 7b80 08be
00000230: 4211 a4bd ccfd ecbd 5fdf fc3d 0921 bb3d
00000240: 2b09 00bc 9a84 e8bd 8a1b 803d 72db 2e3b
00000250: 8965 2a3d 3d82 4a3c c373 4ebd a2a2 873c
00000260: e8c3 a13d ed8c 72bc 284c a13d 3de6 623d
00000270: f751 01bd 2ac4 26bd 88fe 5d3d aaef 693d
00000280: 5b55 02be de63 cbbd 3551 74bd 432a a33c
00000290: a0c9 a4bb 6ce6 a93d b918 02be 56eb e33d
000002a0: 4acb 96bd 23a9 af3d 82af 01bd 1264 bbbd
000002b0: c9cb 03be 8f69 c3bd d7ac b6bd 5153 84bd
000002c0: b030 ff3c 3e63 293c e909 f73d 8740 d2bc
000002d0: 22ef 8ebc 8bd2 c83d a2f0 0bbe 46c0 2dbd
000002e0: 70cb b1bd 7750 843d 694f 68bd 5454 97bd
000002f0: 7781 c6bd 1df2 623d 595c 85bd d9bf d83c
00000300: a165 f63c 8e10 a53d bea0 62bd 94cf 78bd
00000310: b0fe 0abe 61fd 8dbd 0305 0a3e 4ffa 913d
00000320: fc50 07be 9b5a ecbc 686c b0bd c11f 45bd
00000330: 3405 693d 9920 08bc ddc5 bebd e93b 0abe
00000340: 1b65 61bd 6abd 13bd d9dc a73d 7994 99bd
00000350: 9b73 853d b721 f7bc 6d58 96bd ac42 153d
00000360: 155d 35bd fde4 fdbd e8b7 7f3d bd1e c0bd
00000370: f034 43bd b040 493d dbef bdbd 23d0 13bc
00000380: 3014 c5bd 3216 e63d 0ac0 c5bd a85b efbc
00000390: 510a 5bbd 052f 5f3d 6480 b53d f0c9 1a3d
000003a0: e111 0b3e d29e 9abd 27a4 8f3c c55d 19bd
000003b0: 8712 493c 81fe dcbb 1c9e bd3d 372b b5bd
000003c0: d308 dabd c2b8 00bd d8e2 e9bd fa3f c6bd
000003d0: 9bd5 003d 180b 773d 8f96 a5bd 6b47 e73d
000003e0: dabd c43d ad11 143e 78b3 1c3b f70e 3f3d
000003f0: c8cb b33d c29e d7bd bbc4 49bd 23dd 03bd
-0.10615665 0.04308444 -0.035375297 0.06141511 0.041817248 -0.067310035 -0.12926663 0.13775514
-0.053250544 0.0047161905 0.0114608705 -0.13397633 0.09103107 0.015991705 0.13519455 -0.08815998
0.040317625 -0.053145077 -0.075058416 -0.08705349 -0.023273498 0.042823922 -0.13641235 0.06698193
0.12525035 0.04828282 0.12457651 -0.08178051 0.033617564 0.09369731 0.13065645 0.035468597
-0.1287894 0.06817347 0.076211 -0.09398443 -0.04420316 0.08128033 0.065129325 0.0120961955
0.087099835 -0.052491043 -0.051881015 -0.06850187 0.071137644 0.015264105 -0.01571061 -0.01048166
0.11160707 -0.08227001 0.120545216 -0.06652611 -0.12160606 0.006428048 -0.011663285 0.057704616
0.1143279 0.10706701 0.112175964 8.5107866e-05 -0.11070242 0.005281984 -0.111817956 0.11047809
-0.06253328 0.07040707 -0.127562 -0.09509571 0.10422048 -0.002216867 0.0072381725 -0.052363224
0.008680271 -0.087570205 0.024944546 0.04036208 0.008336459 0.013145938 0.113370344 0.0789172
0.13808233 -0.0011566385 0.09520031 -0.012626857 0.12494362 0.08277867 -0.030469637 -0.07163692
-0.040991995 0.1230481 -0.041554857 0.11957055 -0.01895646 -0.03457072 0.08085827 -0.06613456
0.10480367 -0.08622952 -0.12539715 0.10250863 -0.04017976 0.08243009 -0.08350897 -0.09752199
-0.0987495 -0.07558345 0.076818116 0.120964415 -0.01923177 -0.08592406 0.13150494 -0.028778385
0.11865566 0.09048533 -0.061651595 -0.038104665 -0.09144628 -0.09462845 0.005117325 -0.05039868
0.061447397 -0.01653113 0.07396179 -0.088624194 -0.12631963 -0.06637383 -0.019767683 -0.058392115
0.057766266 0.06569643 -0.02511042 -0.0495066 0.056345746 0.11127569 0.017090468 -0.048389163
0.03847616 0.048843693 0.05334282 -0.13330261 -0.08011104 -0.115718454 0.12347292 0.0913716
-0.007814686 -0.11353417 0.06255253 0.0026681093 0.041600738 0.012360153 -0.050403368 0.016557042
0.07898694 -0.014804107 0.07875854 0.055395354 -0.03157231 -0.04071442 0.054197818 0.057113327
-0.12727873 -0.099311575 -0.059647758 0.019917613 -0.0050289184 0.082959026 -0.12704743 0.11128871
-0.07362993 0.08577182 -0.031661518 -0.09149946 -0.12870707 -0.09541618 -0.08919685 -0.06461204
0.031151146 0.010338603 0.12062437 -0.025665535 -0.017448012 0.09805783 -0.13666013 -0.042419694
-0.08681381 0.0646066 -0.056716356 -0.07389131 -0.09692662 0.05540668 -0.065117545 0.026458668
0.030077757 0.08059798 -0.055329077 -0.060744837 -0.13573718 -0.06933094 0.13478474 0.07127821
-0.13214487 -0.028851798 -0.08614427 -0.048125986 0.056889728 -0.008308553 -0.09315083 -0.13499416
-0.055028062 -0.03606931 0.0819642 -0.07499022 0.065161906 -0.030167444 -0.07341085 0.036440536
-0.044278223 -0.12397192 0.062431246 -0.09380863 -0.047657907 0.049133956 -0.092742644 -0.009021792
-0.09622991 0.11234702 -0.09655769 -0.02921851 -0.053476635 0.0544882 0.08862379 0.03779024
0.13581039 -0.07549824 0.017534329 -0.03744294 0.012272484 -0.0067442064 0.092586726 -0.08846133
-0.10646214 -0.0314262 -0.1142022 -0.09680171 0.03145371 0.060313314 -0.080853574 0.11292919
0.09606524 0.14459868 0.0023910683 0.04664513 0.087791026 -0.105283275 -0.049259882 -0.032193314

bias f4 [32]
00000000: 08cf 91bd 22b1 a9bc 8237 c2bd be7b 093e
00000010: c28e 1bbc 155d 24bd 95c2 e9bb d4eb a03d
00000020: ad38 01be d643 59bd 63ba 913d 1a3c bebd
00000030: b840 fa3d 998d 263d 1534 503b 234f ab3d
00000040: 7207 4c3d 108f 373a 0c79 1fbd 9db0 c43d
00000050: 4ae1 c13d 2581 cc3d 5719 913c 62e6 913d
00000060: acc3 80bd 96cc ffbd d78f e7bc 83a8 bebd
00000070: a0ad ca3d f50c c33d ec1a d6bd 6f8f e0bd
-0.07119566 -0.020714346 -0.094832435 0.1342611 -0.009494485 -0.040127832 -0.0071337917 0.07857481
-0.12619276 -0.05304321 0.071156286 -0.09288807 0.12219375 0.04066238 0.0031769325 0.083647035
0.049811788 0.0007002214 -0.0389338 0.09603999 0.094667986 0.0998557 0.017712278 0.0712402
-0.062873214 -0.124901935 -0.02826683 -0.09309485 0.098963976 0.09523956 -0.10454354 -0.10964858

weight f4 [1, 32]
00000000: d5cb cc3d 549d 223d 4091 ea3d d5c8 35be
00000010: 2d4f eb3c 6d36 243e 4f09 3ebe b52f 1e3d
00000020: 8bc1 843c 2fcf a33d 3221 fe3d 26c9 2f3d
00000030: 28ab 25be 2485 d53d 2d4b e03d d94e ce3d
00000040: afc7 86bd 3c41 42bd f5b8 f3bd c99b 1e3c
00000050: 53b7 c4bd 92f6 1ebe 393a cabd a027 13be
00000060: 1b3c 713d 3192 3f3d 3f05 46be ed6e af3d
00000070: 9a62 cb3d 119c c8bd 90be 8a3d 81b3 063e
0.099998154 0.03970082 0.114534855 -0.17752393 0.028724277 0.16036387 -0.18558238 0.038619716
0.01620557 0.079985015 0.12408675 0.04291644 -0.16178572 0.10425785 0.10951839 0.10073633
-0.065810554 -0.047425494 -0.11900512 0.009680697 -0.09605279 -0.15523747 -0.09874386 -0.14370584
0.05889521 0.04677028 -0.19337939 0.08566079 0.09930916 -0.09795392 0.06774628 0.13154413
