Baseline_systems/SoMS/models/SoM_GRU_4/24_0.pth (torch, 213647 bytes, 8 tensors)

weight_ih_l0 f4 [192, 78]
0	0xbdd3cb59	-0.1034152
1	0x3d2655fa	0.040609337
2	0xbc745ddf	-0.014914959
3	0x3dea2da9	0.1143449
4	0x3d5a69ba	0.053323485
5	0xbda4ee69	-0.08053286
6	0xbde658c3	-0.11247399
7	0x3c0909ea	0.00836418
8	0xbdbea037	-0.09307902
9	0xbce6c617	-0.028170628
10	0xbc86e507	-0.01646663
11	0xbcbb5946	-0.022869717
12	0x3dc17723	0.09446552
13	0x3d461332	0.04835815
14	0xbe05da6a	-0.130716
15	0x3d317c9c	0.043331727
16	0x3db95f1a	0.09051342
17	0x3d283f6e	0.041076116
18	0xbd4c3cc9	-0.049862657
19	0x3dc75e7a	0.09734817
20	0x3dc46c9f	0.0959103
21	0x3da2cbaf	0.07949006
22	0xbd34314b	-0.043992322
23	0x3dde76fe	0.1086254
24	0xbe066e8f	-0.13128112
25	0x3db8e352	0.09027733
26	0xbdde1736	-0.10844271
27	0x3c54011c	0.012939718
28	0xbdc5644d	-0.096382715
29	0xbdad316f	-0.08456694
30	0xbdcf84e5	-0.101327695
31	0x3dad7a64	0.0847061
32	0x3d708314	0.058718756
33	0x3ab9b19d	0.0014167313
34	0xbdfef94c	-0.12449893
35	0xbcc071b0	-0.02349171
36	0xbd989523	-0.074503206
37	0x3cf09b5d	0.029370958
38	0xbd7b1db9	-0.061307643
39	0x3dee9549	0.11649568
40	0xbcfa33b3	-0.03054223
41	0xbc23ebbc	-0.010004934
42	0xbde47fd3	-0.11157193
43	0xbc9132c4	-0.017724402
44	0x3def1696	0.1167423
45	0xbd05446a	-0.032535948
46	0x3cec472f	0.028842537
47	0xbce70055	-0.0281984
48	0x3d03b2ab	0.032152813
49	0xbd154c96	-0.03644999
50	0xbdce427f	-0.10071277
51	0x3de0c72e	0.109754905
52	0xbdacc27e	-0.08435534
53	0x3d509453	0.050922703
54	0xbc057698	-0.008145951
55	0x3db4bc64	0.08824995
56	0xbdb9c510	-0.0907079
57	0xbdd1efd7	-0.10250824
58	0x3da41479	0.08011717
59	0xbda6e0dd	-0.08148358
60	0x3d777b0d	0.060420085
61	0xbde8d0c5	-0.11367945
62	0x3dbb6c7c	0.09151551
63	0xbdb5fc0b	-0.08885964
64	0xbdcdce45	-0.100491084
65	0xbdb23b89	-0.08702762
66	0x3e031632	0.12801436
67	0xbd3952a6	-0.045244835
68	0xbda63f37	-0.08117526
69	0x3dddac65	0.10823897
70	0xbd866264	-0.06561735
71	0xbdbb7862	-0.091538206
72	0xbcd1506f	-0.025551049
73	0x3d718257	0.058962192
74	0x3de8d68d	0.11369047
75	0xbe036ba1	-0.12834026
76	0xbd7ac127	-0.06121936
77	0x3dcd0224	0.10010174
78	0x3dbaec3f	0.091270916
79	0x3d6c2274	0.057650045
80	0xbd8d1e09	-0.068904944
81	0x3da2971c	0.07938978
82	0x3bb32cd3	0.00546799
83	0xbd1ab55d	-0.037770618
84	0xbdb49555	-0.08817545
85	0x3d4f0279	0.050539467
86	0xbddcf180	-0.1078825
87	0xbdee9a6d	-0.11650548
88	0xbddc5478	-0.10758299
89	0x3d779d04	0.060452476
90	0xbdd9cf3b	-0.10635229
91	0xbda25e28	-0.07928115
92	0x3de19490	0.11014664
93	0xbdb8d436	-0.09024851
94	0xbcae597d	-0.021282906
95	0xbc134c47	-0.008990354
96	0xbe0c29d1	-0.13687827
97	0xbc99d991	-0.018780502
98	0xbd6b8e83	-0.057508957
99	0xbb31dcf2	-0.002713975
100	0xbd857720	-0.06516862
101	0x3de57151	0.11203254
102	0xbd099e75	-0.033598382
103	0xbd92b769	-0.07163889
104	0x3daa664f	0.08320295
105	0x3d9cd05c	0.07656929
106	0xbddfb394	-0.10922924
107	0x3c911155	0.01770846
108	0xbd93be7c	-0.072140664
109	0xbc3ff207	-0.011715419
110	0x3c81e424	0.015855856
111	0x3c9ba056	0.018997353
112	0x3de2db75	0.11077014
113	0xbd65326b	-0.055956285
114	0xbde2d7aa	-0.11076291
115	0xbca87792	-0.020564828
116	0xbd494e83	-0.04914714
117	0x3b0b9e7f	0.0021304188
118	0xbcb78d45	-0.02240623
119	0xbcc052fc	-0.02347707
120	0x3e053cf1	0.13011529
121	0x3de83894	0.113389164
122	0xbd2c2d2b	-0.042035263
123	0xbdc7204e	-0.097229585
124	0xbcf41cdb	-0.029798916
125	0xbd31e956	-0.043435417
126	0x3c32cf31	0.010913656
127	0x3aafc932	0.0013411401
128	0xbd00ccec	-0.03144543
129	0x3af4ea28	0.0018685507
130	0xbdd8acdf	-0.105798475
131	0xbda6de08	-0.08147818
132	0xbbc165a7	-0.0059020105
133	0xbd9ce1ef	-0.07660281
134	0x3da246fc	0.079236954
135	0xbe07b973	-0.13254337
136	0xbdba2304	-0.0908871
137	0x3dbc9d94	0.09209743
138	0xbcac9114	-0.021065272
139	0x3dc9896a	0.09840663
140	0xbbb0f7ae	-0.0054006195
141	0xbd33eb82	-0.04392577
142	0xbd57a54e	-0.05264788
143	0xbd889e02	-0.066707626
144	0x3d48f3c2	0.04906059
145	0x3d10d670	0.035360754
146	0x3c40b7bf	0.0117625585
147	0x3d5f1daa	0.05447165
148	0xbd251a10	-0.04030806
149	0xbdc3734e	-0.09543477
150	0xbc7e7fa9	-0.015533366
151	0x3d96779e	0.07347034
152	0x3dfcbfc2	0.123412624
153	0x3d6f8d76	0.058484517
154	0xbc4f07d5	-0.012636145
155	0x3d69fe97	0.05712756
156	0x3d882a9f	0.06648754
157	0xbbdd4715	-0.0067528584
158	0x3d9e746c	0.077370495
159	0xbdac8ad0	-0.08424914
160	0x3de45a43	0.111500286
161	0x3db5bcf7	0.08873933
162	0x3daff3e9	0.08591444
163	0xbe02e88d	-0.12784024
164	0x3baf2b63	0.0053457483
165	0x3dbf7d70	0.09350097
166	0xbddbffdf	-0.10742163
167	0xbd3cbaac	-0.04607646
168	0x3de0a285	0.10968498
169	0x3d75145d	0.059833873
170	0xbd353940	-0.04424405
171	0x3b910ee0	0.004426822
172	0x3da7c975	0.08192722
173	0xbdbf7440	-0.09348345
174	0xbd76accc	-0.060223386
175	0xbc79b628	-0.015241183
176	0xbcb26ca5	-0.021780321
177	0xbda496b7	-0.08036559
178	0xb9dd55d4	-0.00042216352
179	0xbdd15294	-0.10220829
180	0x3d0848c4	0.03327252
181	0x3dcaca14	0.099018246
182	0x3d77fdcb	0.06054477
183	0x3b27895c	0.002556405
184	0x3d5e380c	0.05425267
185	0xbc313b63	-0.010817382
186	0xbd566051	-0.05233795
187	0xbdd01bb1	-0.10161532
188	0x3d811d5f	0.0630443
189	0xbcc70e05	-0.024298677
190	0xbd53fa90	-0.051752627
191	0xbcfb9954	-0.030712761
192	0x3c346db3	0.011012482
193	0x3c9fa774	0.019489028
194	0xbdcb2aa5	-0.09920243
195	0x3d783519	0.060597513
196	0xbd93233a	-0.07184453
197	0xbd0be384	-0.034152523
198	0x3d7a283c	0.061073527
199	0x3d5b4d76	0.05354067
200	0x3cca7651	0.02471462
201	0xbd8e9ad2	-0.069631234
202	0x3de80527	0.11329108
203	0x3dccab32	0.099935904
204	0xbd878016	-0.06616227
205	0xbcd6dfdc	-0.026229791
206	0x3c6aa0e4	0.014320586
207	0x3e09c0f9	0.1345252
208	0xbd6d36db	-0.057913642
209	0x3d28580c	0.041099593
210	0x3e0fb2db	0.14033072
211	0x3e029346	0.12751493
212	0xbddbf9b1	-0.10740984
213	0x3d89737d	0.06711481
214	0xbd49c413	-0.049259257
215	0xbdc4456b	-0.09583553
216	0x3d4ecb7d	0.05048703
217	0xbd6acbab	-0.05732314
218	0x3dacf0e8	0.08444387
219	0x3e15596b	0.14584891
220	0x3df2347a	0.11826415
221	0xbd2a146a	-0.041523375
222	0x3a3b3208	0.0007140939
223	0xbd9f2e26	-0.07772474
224	0x3dd57896	0.104233906
225	0xbc34c398	-0.011032961
226	0x3d15ba5c	0.03655468
227	0xbda6089e	-0.08107112
228	0xbde635d4	-0.11240736
229	0xbc5a22ae	-0.013313932
230	0x3bda0bd6	0.006654243
231	0xbce0e1de	-0.027451452
232	0xbc629f26	-0.013831889
233	0x3bab503c	0.0052280705
234	0x3de42ff4	0.11141959
235	0xb9a4735c	-0.00031366467
236	0x3def73b8	0.116919935
237	0xbbf457c8	-0.0074567534
238	0xbe1010d4	-0.1406892
239	0xbdf70f05	-0.120634116
240	0xbd562f3d	-0.052291144
241	0x3d220715	0.039557535
242	0xbae5eefd	-0.0017542538
243	0xbdb9f416	-0.09079759
244	0x3da34956	0.07972972
245	0xbdb05805	-0.086105384
246	0xbd098b38	-0.033580035
247	0x3dc8e63c	0.09809539
248	0xbc3ebf9b	-0.011642362
249	0xbdf2d339	-0.11856694
250	0x3d9d0c66	0.076683804
251	0x3d953af9	0.07286639
252	0x3d1b9e21	0.0379926
253	0x3c8eb1ec	0.017418824
254	0xbdaacad7	-0.0833947
255	0x3ce2549e	0.02762824

weight_hh_l0 f4 [192, 64]
0	0x3def6c65	0.116905965
1	0x3dd98468	0.106209576
2	0x3d0faf9d	0.035079587
3	0xbdc7f38e	-0.09763251
4	0x3b11cbfe	0.0022246833
5	0xbda8b5ac	-0.08237776
6	0x3d152953	0.036416363
7	0x3df45e62	0.119320646
8	0xbdc3cf37	-0.095610075
9	0xbcf25d86	-0.029585611
10	0xbdcccb53	-0.099997185
11	0xbc8d313a	-0.017235387
12	0xbda60a11	-0.08107389
13	0xbe03f6a6	-0.12887058
14	0x3ce2b4a2	0.027674023
15	0xbd4df124	-0.050278798
16	0x3bc9586d	0.0061445744
17	0xbdd21767	-0.1025837
18	0x3dc3180e	0.095260724
19	0x3cb95f91	0.022628577
20	0xbd8e0cb1	-0.069360144
21	0x3dd047d0	0.10169947
22	0xb9a52bd6	-0.00031503913
23	0x3d908d19	0.07058162
24	0xbdde26c6	-0.10847239
25	0xbe06abd2	-0.13151482
26	0xbdce9b6a	-0.10088237
27	0xbd7e9a66	-0.062158965
28	0x3d91586e	0.07096945
29	0xbd880406	-0.066413924
30	0x3d423a40	0.047418833
31	0xbc94eb94	-0.018178739
32	0x3dfd7941	0.12376643
33	0x3db16d0e	0.08663379
34	0xbd859de3	-0.06524255
35	0xbdfef48f	-0.124489896
36	0x3cf215bc	0.02955138
37	0xbd960328	-0.07324821
38	0xbd4303d5	-0.047611076
39	0x3dc70652	0.097180024
40	0xbdd193fb	-0.10233303
41	0xbd963ab1	-0.07335413
42	0xbdb24bf9	-0.08705897
43	0x3c347f8b	0.011016737
44	0xbc82d3e1	-0.015970172
45	0x3ce05897	0.027385993
46	0x3d6ca363	0.057773005
47	0xbcfae6b2	-0.030627582
48	0xbdc39388	-0.09549624
49	0x3de308b7	0.110856466
50	0x3d0a5ee1	0.03378189
51	0xbdd53cd4	-0.10411993
52	0xbd3c5192	-0.04597623
53	0x3c297b43	0.010344329
54	0xbddc1b51	-0.10747398
55	0x3d3d8307	0.046267536
56	0xbd64bc84	-0.055843845
57	0x3cbe408d	0.02322414
58	0xbcc69f77	-0.02424596
59	0x3d256084	0.040375248
60	0x3ce19a2e	0.027539339
61	0xbdf3c747	-0.119032435
62	0xbdde804e	-0.10864316
63	0x3c86c62c	0.016451918
64	0x3dc6ccb2	0.09707011
65	0xbdd5d65a	-0.10441275
66	0xbc3d4b02	-0.011553528
67	0xbd27bf4e	-0.040953927
68	0xbd01a300	-0.03164959
69	0x3d53eb41	0.051738027
70	0x3d24e6d7	0.04025921
71	0xbd1cc404	-0.038272873
72	0x3d91a406	0.07111363
73	0x3c9cdf26	0.019149374
74	0xbd44bf57	-0.04803404
75	0xbdd4cc7c	-0.10390565
76	0xbdd99daf	-0.10625779
77	0xbdb80854	-0.089859635
78	0x3d8b8b9c	0.06813738
79	0x3cb5fc83	0.022215134
80	0x3cc4daea	0.024030168
81	0xbde807b9	-0.11329598
82	0x3daa94d3	0.08329167
83	0xbdae4873	-0.08509912
84	0xbdbc3f0a	-0.09191711
85	0x3c922557	0.01784007
86	0x3db71a63	0.0894058
87	0xbe0706ce	-0.1318619
88	0xbe132695	-0.14370187
89	0xbdc1368e	-0.094342336
90	0x3d446835	0.047950942
91	0x3e060c9e	0.1309075
92	0x3de3cfa0	0.11123586
93	0x3d8a5a89	0.067555495
94	0xbcf38da6	-0.02973063
95	0x3d916551	0.07099403
96	0xbdcd50eb	-0.100251995
97	0x3cbee93d	0.023304576
98	0x3dd92f7a	0.106047586
99	0x3d944265	0.07239226
100	0x3dab1a13	0.08354583
101	0x3dcae135	0.09906236
102	0xbc20dd9a	-0.009818459
103	0xbd105a1d	-0.03524219
104	0x3c24183a	0.010015542
105	0xbd2e9037	-0.042618003
106	0xbdcb2c36	-0.09920542
107	0x3cd7f5b1	0.026362272
108	0x3d4fb08c	0.050705478
109	0x3d8fc8bd	0.0702071
110	0xbc97a1f1	-0.018509837
111	0x3c0b8cc0	0.008517444
112	0x3d6cb3c4	0.057788625
113	0x3c450a11	0.012026326
114	0xbd5298a1	-0.05141509
115	0x3da42bf1	0.08016194
116	0xbdfa8ba2	-0.12233664
117	0x3d886ea4	0.06661728
118	0x3cac55f6	0.021037083
119	0xbd3731ed	-0.044725347
120	0xbdc6527e	-0.09683703
121	0x3d9e8a7f	0.0774126
122	0xbd5940ce	-0.05304032
123	0xbd944380	-0.07239437
124	0x3d039c8d	0.03213172
125	0xbd07ef64	-0.033187285
126	0xbd1a8d67	-0.037732508
127	0x3d9f9fbf	0.07794141
128	0x3da4960d	0.080364324
129	0x3e16501c	0.14678997
130	0x3c2c3b0e	0.010512127
131	0x3d1e6c94	0.038677767
132	0x3c96fe57	0.018431826
133	0xbd9fdb70	-0.07805526
134	0x3df13463	0.1177757
135	0xbd71f033	-0.059066962
136	0xbd41b36e	-0.047290258
137	0x3da6d105	0.08145336
138	0xbe104832	-0.1409004
139	0xbb6bf26b	-0.0036002647
140	0x3d1261a6	0.035737656
141	0xbddcf3a5	-0.10788659
142	0x3de8ec66	0.113732144
143	0x3d2a863a	0.041631915
144	0xbdf6c249	-0.12048776
145	0x3c955109	0.018227117
146	0x3dffb7a8	0.124862015
147	0x3d93cb0e	0.07216464
148	0xbe0a3fee	-0.1350095
149	0xbbb5e4c4	-0.0055509526
150	0xbc912c52	-0.017721329
151	0xbd93ea48	-0.0722242
152	0xbca855e0	-0.02054876
153	0xbb3296b2	-0.0027250466
154	0x3c2b373e	0.0104501825
155	0x3e0ff6e7	0.1405903
156	0xbdb3ea2b	-0.08784898
157	0xbd7dfdd9	-0.062009666
158	0xbdd060b1	-0.101746924
159	0x39aa8238	0.00032521947
160	0xbdc61521	-0.09671999
161	0xbdf2d0ec	-0.11856255
162	0xbd8da2cd	-0.069158174
163	0xbdaea7e9	-0.0852812
164	0xbd883231	-0.06650198
165	0xbd5aedcf	-0.05344945
166	0xbdc3b3c6	-0.095557734
167	0xbc45665d	-0.012048331
168	0x3d9c450c	0.07630357
169	0x3baa8a3a	0.005204466
170	0x3d778341	0.060427908
171	0x3c5f0811	0.013612763
172	0xbce2745e	-0.027643379
173	0x3d26c0be	0.040711157
174	0x3d1601d4	0.036622837
175	0x3b6b0633	0.003586185
176	0xbaf5dc56	-0.0018757682
177	0xbcddb2d8	-0.027062818
178	0x3e0c756e	0.13716671
179	0xbd1b9b7c	-0.03799008
180	0xbcfadd86	-0.030623209
181	0x3d087996	0.03331908
182	0x3b9d3d02	0.0047985325
183	0x3bde9a07	0.006793264
184	0xbca92ca5	-0.020651171
185	0xbc853af1	-0.016263457
186	0xbe0ea56a	-0.13930288
187	0xbd877313	-0.066137455
188	0x3daf88e7	0.08571034
189	0xbc7d3adc	-0.015455928
190	0x3ced48d9	0.0289654
191	0x3e0fc5d6	0.14040312
192	0x3dcff511	0.101541646
193	0xbdb3fb56	-0.08788173
194	0x3d65a9db	0.05607019
195	0xbcd94447	-0.026521815
196	0x3db56935	0.08857957
197	0xbdb2ea6a	-0.08736117
198	0xbdce223e	-0.10065125
199	0x3d022942	0.031777628
200	0xbb87253e	-0.0041243127
201	0x3c81fff2	0.015869115
202	0xbd6cea94	-0.0578409
203	0xbb391e58	-0.0028246846
204	0xbd2b7260	-0.041857123
205	0xbd82e1af	-0.06390702
206	0xbb0f5120	-0.0021868423
207	0xbcb785a2	-0.022402588
208	0x3d87c50a	0.06629379
209	0x3dde795d	0.10862992
210	0xbd2a946d	-0.041645456
211	0x3dbbd012	0.09170546
212	0xbd422654	-0.047399834
213	0xbe045a1f	-0.12925003
214	0xbd7cb890	-0.06169945
215	0xbe0c9d6d	-0.13731928
216	0xbaa29af7	-0.0012405802
217	0x3d5a4c9b	0.053295713
218	0x3d4681d2	0.04846365
219	0xbc093569	-0.00837455
220	0x3d95dcf8	0.07317537
221	0x3dc7d9d4	0.09758344
222	0x3cfa4dbb	0.030554643
223	0xbd492c94	-0.04911478
224	0xbd9900a9	-0.07470829
225	0xbd97019f	-0.07373356
226	0xbc90bed9	-0.017669128
227	0xbe044a9e	-0.12919089
228	0x3d9cc0e3	0.07653978
229	0xbb9ea991	-0.0048419912
230	0xbe06a5cf	-0.13149188
231	0x3c90debe	0.017684337
232	0x3db880c8	0.09008938
233	0x3d8bc046	0.068237826
234	0xbda4b08f	-0.080414884
235	0x3b9f8257	0.0048678326
236	0x3da4beba	0.08044191
237	0x3da12060	0.07867503
238	0x3da82509	0.08210189
239	0xbc0caf92	-0.008586781
240	0x3e04174f	0.12899517
241	0xbbb4b87c	-0.0055151563
242	0xbde20694	-0.11036411
243	0x3ca38cce	0.019964602
244	0xbd88d2e3	-0.066808484
245	0x3ddf0206	0.10889058
246	0x3d55c9be	0.05219435
247	0xbde59fff	-0.112121575
248	0x3d7fb202	0.06242562
249	0x3de37c4a	0.11107691
250	0x3d0269c6	0.031839155
251	0xbd0ec929	-0.03485981
252	0xbd470a1b	-0.04859362
253	0xbd129f20	-0.035796285
254	0x3c6b8117	0.014374039
255	0xbd963631	-0.07334555

bias_ih_l0 f4 [192]
0	0x3db32c3e	0.08748673
1	0xbda4ebab	-0.080527626
2	0x3d5865a2	0.0528313
3	0xbc523d5a	-0.01283201
4	0xbdb2a6af	-0.087231986
5	0x3d605e26	0.054777287
6	0x3cece303	0.028916841
7	0xbdfcedc0	-0.12350035
8	0xbdc59a9f	-0.09648632
9	0x3daeb79b	0.08531114
10	0xbdc67118	-0.0968954
11	0x3de477aa	0.111556366
12	0xbd1badd0	-0.038007557
13	0xbd5c71e9	-0.05381957
14	0xbd4c32c6	-0.04985311
15	0x3d911d94	0.0708572
16	0xbd862f3a	-0.065519765
17	0xbd6648cf	-0.05622178
18	0xbd916b55	-0.0710055
19	0x3d4b029d	0.04956304
20	0x3d95e25e	0.07318567
21	0xbcd2c5bf	-0.025729058
22	0xbd891c3d	-0.06694839
23	0xbc98454e	-0.018587735
24	0xbcee15cd	-0.02906313
25	0xbd881a13	-0.06645598
26	0xbd86184f	-0.06547605
27	0x3d5cf25f	0.05394208
28	0xbda34ea5	-0.07973985
29	0x3b6cacc4	0.0036113719
30	0xbd32b030	-0.043625057
31	0x3d4fd9f0	0.05074495
32	0x3db94910	0.09047139
33	0x3cebb964	0.028774925
34	0xbd8054da	-0.06266184
35	0x3e0c38fd	0.13693614
36	0xbd930d1f	-0.07180237
37	0xbdc58977	-0.0964536
38	0x3d8a5759	0.067549415
39	0x3d75ef71	0.060042802
40	0x3ddb13e1	0.10697151
41	0x3da58711	0.080824025
42	0x3d909397	0.070594005
43	0x3de593d3	0.11209836
44	0x3dd27ad6	0.10277335
45	0x3da53ccc	0.08068237
46	0xbc9ca2f7	-0.019120676
47	0x3cc767fe	0.02434158
48	0xbda100d5	-0.07861487
49	0xbe0393e2	-0.12849382
50	0x3d28124d	0.041033078
51	0x3de5aaab	0.11214193
52	0xbd10f166	-0.035386465
53	0xbdf60eae	-0.12014519
54	0x3dc34c5b	0.09536048
55	0x3d59d10b	0.053177875
56	0x3dc16baa	0.094443634
57	0xbba1f776	-0.0049428297
58	0x3d825b8f	0.0636512
59	0xbdb0d3c8	-0.08634144
60	0xbd6819d5	-0.05666526
61	0xbd93d018	-0.07217425
62	0xbcf3395f	-0.029690443
63	0x3de287a5	0.110610284
64	0x3deba1f3	0.11505499
65	0x3dde6623	0.10859325
66	0x3ae15867	0.0017192484
67	0xbc3c65f7	-0.01149892
68	0xbd389726	-0.04506602
69	0xbd6f5cb0	-0.058438003
70	0x3d9033f0	0.07041156
71	0xbcc9e08e	-0.024643209
72	0xbd804b6c	-0.062643856
73	0x3ca58238	0.020203695
74	0xbb1f25e2	-0.0024284055
75	0xbcbf0e54	-0.023322262
76	0xbe003b55	-0.12522633
77	0xbc80c1b7	-0.01571737
78	0x3cbbb715	0.022914449
79	0x3d79c2fe	0.060976975
80	0x3c655d9c	0.013999369
81	0x3ae58564	0.0017511067
82	0x3d5a0245	0.05322482
83	0xbd68f0f0	-0.0568704
84	0xbccb46e3	-0.024814075
85	0xbd9de7bc	-0.077102154
86	0x3dac7217	0.084201984
87	0x3cd5c70c	0.02609589
88	0x3d803006	0.0625916
89	0xbb9dbd94	-0.0048138592
90	0xbc37c014	-0.011215229
91	0x3dea87a6	0.11451654
92	0x3d9dbe79	0.077023454
93	0x3dd5a7c6	0.10432391
94	0xbdd95615	-0.10612122
95	0xbd60e696	-0.054907404
96	0x3cf1cd8a	0.029516954
97	0xbd62870d	-0.055304576
98	0xbd41fab6	-0.047358237
99	0x3d9ce220	0.076603174
100	0xbccfcd8c	-0.025366567
101	0x3dc6fc53	0.09716096
102	0x3db7538c	0.08951482
103	0x3e16764b	0.14693563
104	0x3db4e764	0.08833197
105	0x3da61d99	0.08111114
106	0x3d96dda0	0.0736649
107	0xbcb0d284	-0.021584757
108	0x3cffe3b5	0.031236509
109	0x3ceee0b3	0.02915988
110	0xbda7f61a	-0.08201237
111	0x3dd0e565	0.102000035
112	0x3daa9c6b	0.083306156
113	0x3d44a566	0.0480093
114	0xbd647499	-0.05577526
115	0x3c2584a6	0.010102427
116	0x3dce2e6f	0.1006745
117	0xbdfa6bbb	-0.12227579
118	0x3d64fb77	0.055903878
119	0xbd444082	-0.047913082
120	0x3e0cbb2b	0.13743274
121	0x3d3cfe69	0.046141062
122	0x3d90fe08	0.070797026
123	0xbc7c408e	-0.01539625
124	0x3dc5cc57	0.09658115
125	0x3df22848	0.11824089
126	0xbdd3b39f	-0.103369944
127	0xbcf4f4ba	-0.029901851
128	0xbaa5f8aa	-0.0012662609
129	0xbdc3306c	-0.0953072
130	0x3dd718f3	0.105028056
131	0x3be9240f	0.007114894
132	0xbbc024a4	-0.005863743
133	0xbdbf33e2	-0.09336068
134	0x3d7d398c	0.06182246
135	0xbd3e7ed2	-0.046507664
136	0x3cb16c8a	0.0216582
137	0x3d51ac43	0.051189672
138	0xbcec1129	-0.028816776
139	0x3d56dc5a	0.052456237
140	0xbdf4235e	-0.11920808
141	0x3c137bbb	0.009001668
142	0x3d022e5f	0.031782504
143	0x3d2f1cf8	0.042752236
144	0x3d98120b	0.074253164
145	0xbb46ef9e	-0.0030355225
146	0xbdcf8fd7	-0.10134857
147	0x3dd296f8	0.10282701
148	0xbd5c4d31	-0.053784553
149	0x3c21f7bc	0.009885725
150	0x3dfa47af	0.12220704
151	0x3bad3956	0.005286376
152	0xbd88c4f4	-0.06678191
153	0x3e0956a5	0.13411959
154	0xbe053f40	-0.13012409
155	0x3d834074	0.06408778
156	0x3e0f1cef	0.13975881
157	0xbd68ba1e	-0.05681812
158	0xbd88a5f0	-0.06672275
159	0x3d67e6cf	0.0566166
160	0x3db57d5d	0.08861802
161	0x3dab1b52	0.0835482
162	0xbd1c1c2f	-0.038112815
163	0xbd4dcebb	-0.05024598
164	0x3e09ee25	0.13469751
165	0x3dbf8088	0.09350687
166	0x3cc84909	0.024448888
167	0xbb99f469	-0.0046983254
168	0xbc0b7a88	-0.0085131
169	0xbdda7ed8	-0.10668725
170	0xbda1e461	-0.07904888
171	0xbb7b80cb	-0.0038376327
172	0xbd03c56c	-0.032170698
173	0xbd00ab7e	-0.031413548
174	0xbdde41d2	-0.10852398
175	0xbd06445f	-0.032780048
176	0x3dbab8dc	0.091172904
177	0xbe030dfe	-0.12798306
178	0x3d300ac0	0.042979002
179	0xbcd5d887	-0.026104225
180	0xbdaaa9fa	-0.08333202
181	0x3c9aeece	0.0189127
182	0x3d055d8a	0.03255991
183	0x3cf09eaa	0.029372532
184	0xbbd0fd82	-0.0063778767
185	0xbd870889	-0.06593425
186	0x3cbd63d7	0.023118896
187	0xbd9ece42	-0.07754184
188	0x3d813b75	0.06310169
189	0x3d248493	0.040165495
190	0x3da5d377	0.08096974
191	0xbda92daf	-0.082606666

bias_hh_l0 f4 [192]
0	0x3de9d3b1	0.1141733
1	0x3c969ddd	0.018385822
2	0xbc61e7b0	-0.013788149
3	0xbbfdcb3b	-0.007745174
4	0x3d813579	0.06309027
5	0x3d845fc5	0.06463579
6	0xba77970c	-0.000944481
7	0xbc215762	-0.009847494
8	0x3b1b53c0	0.0023701042
9	0x3e075c9f	0.13218926
10	0x3d0b8fab	0.03407256
11	0x3ca77bd5	0.02044479
12	0xbca11a14	-0.019665755
13	0xbdda6141	-0.10663081
14	0x3d8c62d2	0.06854786
15	0x3e059e6d	0.13048716
16	0xbd5509d5	-0.05201133
17	0x3dbee3ad	0.093207695
18	0xbdde17c8	-0.1084438
19	0xbd423b94	-0.0474201
20	0xbdadd0ca	-0.08487089
21	0xbda3513c	-0.079744786
22	0xbde70e48	-0.11282021
23	0x3dcbf171	0.09958161
24	0xbc577690	-0.013150826
25	0x3d859f17	0.065244846
26	0xbdcec43e	-0.10096024
27	0xbd84dccb	-0.064874254
28	0x3d418ba2	0.047252305
29	0xbda48c6a	-0.08034594
30	0xbdd25e28	-0.10271865
31	0xbda45366	-0.080237195
32	0xbdcb58f6	-0.09929077
33	0x3dca9e7d	0.098935105
34	0xbde04583	-0.10950758
35	0xbd9a6da7	-0.07540446
36	0xbd266c1b	-0.04063044
37	0xbdd8b369	-0.10581095
38	0x3dc489b6	0.09596579
39	0x3dd0eafb	0.10201069
40	0xbc5c5e5e	-0.013450233
41	0xbc30e681	-0.010797144
42	0x3c8950f0	0.016762227
43	0xbdca57bc	-0.09880015
44	0x3daf5dfc	0.08562848
45	0x3da65a17	0.08122652
46	0xbdc03f84	-0.09387115
47	0x3dd7d4b8	0.1053862
48	0xbbb58bef	-0.005540363
49	0x3d997a26	0.07494001
50	0xbde39189	-0.11111743
51	0xbda24ba4	-0.079245836
52	0x3cc84fff	0.024452208
53	0xbdeef626	-0.11668043
54	0x3ddf2b09	0.1089688
55	0xbcc454e0	-0.023966253
56	0xbdd39fe8	-0.10333234
57	0x3bec24a0	0.0072065145
58	0x3e0b00b4	0.13574487
59	0xbce77588	-0.028254285
60	0xbd22d399	-0.039752577
61	0x3d8dc9ed	0.0692328
62	0xbab62d31	-0.0013898966
63	0x3d8fad0b	0.07015427
64	0x3e0da635	0.13832934
65	0xbd1df01a	-0.038559057
66	0xbdce3790	-0.100691915
67	0x3d29bfe7	0.041442778
68	0xbd01a2c1	-0.031649355
69	0xba417668	-0.00073800096
70	0xbd1645ed	-0.03668778
71	0xbd89f78d	-0.0673667
72	0xbc2e4e21	-0.010638745
73	0x3ce2a63e	0.027667161
74	0x3d824892	0.06361498
75	0xbda9b314	-0.082861096
76	0xbe0b9b1f	-0.13633393
77	0xbc3c07ed	-0.011476499
78	0xbd28e7c7	-0.041236665
79	0x3baaa754	0.0052079353
80	0xbdd8908e	-0.105744466
81	0x3d677b66	0.056514166
82	0xbd8830d0	-0.06649935
83	0x3e116430	0.14198375
84	0x3d3dec72	0.04636807
85	0x3c8791a1	0.016548933
86	0xbc894717	-0.016757531
87	0xbc1f08b9	-0.0097066695
88	0xbe035793	-0.12826376
89	0x3c324ae7	0.010882116
90	0x3d75805b	0.059936862
91	0xbcf0f4b3	-0.029413557
92	0xbe0b7d6d	-0.13622065
93	0x3dc72a92	0.097249165
94	0xbde073c9	-0.10959584
95	0x3d5a6ef9	0.053328488
96	0x3dc96bcb	0.09835013
97	0xbd70e5fc	-0.05881308
98	0x3db56ce7	0.08858662
99	0x3a788359	0.00094800215
100	0xbd592b07	-0.05301955
101	0x3db50db3	0.088405035
102	0x3caf99c5	0.021435628
103	0x3e108347	0.14112578
104	0xbdc35232	-0.09537162
105	0x3d4f7bcb	0.050655168
106	0xbdf101c4	-0.11767915
107	0xbd2cf4d0	-0.04222566
108	0x3d0858ba	0.03328774
109	0x3dbe04eb	0.09278282
110	0x3d8bc85f	0.06825327
111	0xbe06f615	-0.1317981
112	0xbdcbca0f	-0.09950649
113	0xbd9d0581	-0.076670654
114	0xbdd36e12	-0.103237286
115	0xb9a1d608	-0.0003086778
116	0x3d9a3052	0.075287476
117	0x3c927310	0.017877132
118	0xbda086bc	-0.078381985
119	0x3e005516	0.12532458
120	0x3c5b38c0	0.0133802295
121	0x3e0036ac	0.12520856
122	0xbdfcf429	-0.12351257
123	0x3e085910	0.13315225
124	0xbdd10ba1	-0.10207296
125	0x3d38b2ae	0.045092277
126	0x3e0ebe31	0.1393974
127	0x3ded219d	0.11578677
128	0x3cc5ad52	0.024130497
129	0x3c144b9b	0.009051229
130	0x3ccfa9be	0.025349494
131	0xbd8c5460	-0.06852031
132	0xbdba610a	-0.0910054
133	0x3d96bfbb	0.073607884
134	0x3d100ba6	0.03516736
135	0x3db6abad	0.08919463
136	0xbddd3f8c	-0.10803136
137	0xbd014120	-0.03155625
138	0x3d0165e3	0.031591307
139	0x3ba4b552	0.005026498
140	0xbde687e1	-0.112563856
141	0xbd5b001a	-0.053466894
142	0x3cdb761a	0.026789714
143	0x3da67229	0.08127243
144	0xbd656a77	-0.056009736
145	0x3d030df3	0.031995725
146	0xbd85d84c	-0.06535396
147	0x3d861dec	0.06548676
148	0xbdf0d2ab	-0.11758932
149	0xbd9fb2c0	-0.07797766
150	0xbc3b9164	-0.011448238
151	0xbdd4e16a	-0.10394557
152	0xbd8386fc	-0.064222306
153	0x3d703e1a	0.058652975
154	0xbdea4980	-0.114398
155	0x3d813725	0.06309346
156	0xbdcedd49	-0.101008005
157	0xbd4f0692	-0.050543375
158	0x3cda9c7a	0.026685942
159	0xbc92f4e0	-0.017939031
160	0x3c630552	0.013856249
161	0xbddd9b92	-0.10820688
162	0x3d479cb8	0.048733443
163	0xbdf68f26	-0.12039022
164	0x3c6ec227	0.014572657
165	0x3dd23a15	0.102649845
166	0x3de862e0	0.11346984
167	0xbd6ff7f0	-0.05858606
168	0x3c90a5f3	0.017657256
169	0xbda727ea	-0.0816191
170	0x3d2b27dd	0.041786063
171	0x3dcef472	0.10105218
172	0xbca1c440	-0.0197469
173	0x3e0d37a7	0.13790761
174	0xbde054c6	-0.10953669
175	0xbd8581a3	-0.06518867
176	0x3da1b2c2	0.078954235
177	0x3d720982	0.0590911
178	0xbd6335f4	-0.055471376
179	0x3d096915	0.03354748
180	0x3c202d58	0.009776436
181	0xbdc1dd16	-0.09465997
182	0xbd0cb2f4	-0.03435035
183	0x3d8de27f	0.06927966
184	0xbd8af1ce	-0.06784402
185	0x3d41e9e7	0.047342207
186	0x3cff6100	0.031174183
187	0xbd58cdfe	-0.052930824
188	0xbbaa5bd4	-0.005198935
189	0xbd566424	-0.052341595
190	0xbde980e8	-0.1140154
191	0x3e104b8e	0.14091322

weight_ih_l1 f4 [192, 64]
0	0xbdc2a2c1	-0.09503699
1	0xbd284031	-0.041076843
2	0xbd9850cf	-0.07437288
3	0x3d8b08de	0.06788801
4	0x3da4b155	0.08041636
5	0xbdd9e390	-0.10639107
6	0xbda99207	-0.08279806
7	0x3d7d565b	0.061849933
8	0xbd6c92a6	-0.057757042
9	0xbd993029	-0.07479889
10	0xbcd434de	-0.025904115
11	0x3b1ef635	0.0024255638
12	0xbda38c06	-0.07985692
13	0x3db57cd0	0.08861697
14	0xbe05dc8c	-0.13072413
15	0xbdc0cdfa	-0.09414287
16	0xbd893a0c	-0.06700525
17	0x3de08d6d	0.10964475
18	0xbda4525d	-0.08023522
19	0xbd989ac8	-0.07451397
20	0x3dd64948	0.10463196
21	0x3c9a37fb	0.018825522
22	0xbda60308	-0.08106047
23	0xbc03f5a5	-0.008054172
24	0xbd8ed2ce	-0.069738016
25	0x3d27a3c8	0.04092768
26	0x3cc09f44	0.023513444
27	0xbd92b713	-0.07163825
28	0xbddfe262	-0.10931851
29	0x3ddae5af	0.1068834
30	0xbcd7ecaf	-0.026357977
31	0xbd981e3d	-0.074276425
32	0x3dc98ba7	0.0984109
33	0xbdf605e0	-0.12012839
34	0xbddc137e	-0.10745905
35	0xbd9f0d84	-0.0776625
36	0x3d97c712	0.074110165
37	0x3b96800a	0.0045929
38	0x3d14e49c	0.03635083
39	0x3d23ca85	0.03998806
40	0x3d652131	0.055939857
41	0x3db36b6d	0.08760724
42	0x3e130f37	0.14361273
43	0xbd55961f	-0.05214512
44	0x3d151487	0.03639653
45	0xbd0d221d	-0.03445636
46	0x3d162a2d	0.036661316
47	0x3c60ffec	0.0137328915
48	0xbdaa5949	-0.08317811
49	0xbd120afe	-0.035655014
50	0xbd90b20b	-0.07065209
51	0xbc7a47e9	-0.015275934
52	0x3e034fad	0.12823363
53	0x3dc1d19c	0.09463808
54	0x3d9ec31a	0.077520564
55	0xbd1a63b2	-0.037692733
56	0xbd8ea31e	-0.06964706
57	0xbc0e6b04	-0.008692507
58	0x3c9c2c18	0.019063994
59	0xbd180bc0	-0.03712058
60	0x3d7becc9	0.061505113
61	0x3df75d88	0.120783865
62	0x3db12ba3	0.08650901
63	0xbe0b953b	-0.13631146
64	0xbdcf85da	-0.10132952
65	0x3c1e7329	0.009671011
66	0x3d0188d7	0.03162464
67	0x3da56cac	0.08077368
68	0x3de224f5	0.11042205
69	0xbd98ec59	-0.07466955
70	0x3dcf2aa5	0.10115556
71	0xbd275b7a	-0.040858723
72	0xbd1f98f6	-0.038964234
73	0xbde9e1e8	-0.11420041
74	0xbde0ae99	-0.10970802
75	0xbdca35d0	-0.09873545
76	0x3df50eb2	0.119656935
77	0xbd94e8c3	-0.07270958
78	0x3c610d74	0.013736118
79	0xb8182d00	-3.6281534e-05
80	0x3d2af778	0.04173991
81	0x3d06465f	0.032781955
82	0x3c3b1b76	0.011420121
83	0x3c9e4e2d	0.019324386
84	0xbd933be6	-0.07189159
85	0xbd6f0ff2	-0.058364816
86	0x3d860c74	0.06545344
87	0x3d189332	0.03724975
88	0xbdb3aebb	-0.087735616
89	0xbd944baf	-0.07240998
90	0xbe113a58	-0.14182413
91	0xbda70edf	-0.08157133
92	0x3d4f2e27	0.050581124
93	0xbd66e39b	-0.056369405
94	0x3cb32ac3	0.021870976
95	0xbddaef74	-0.10690203
96	0xbb5c10ba	-0.0033579306
97	0x3d83238a	0.06403263
98	0xbd796074	-0.060883
99	0x3b4ee221	0.0031567889
100	0x3dbb4369	0.09143717
101	0xbdceb9b2	-0.10094012
102	0x3da021cc	0.07818946
103	0x3d8f5d6f	0.07000243
104	0xbdbe8671	-0.093029864
105	0x3de78b8c	0.11305913
106	0x3b254a25	0.0025221196
107	0xbdb4d35d	-0.08829377
108	0x3dc75562	0.09733082
109	0x3e09bd18	0.1345104
110	0x3ddf0b6d	0.10890851
111	0xbce71dd7	-0.028212471
112	0xbdaf733f	-0.08566903
113	0xbd8b3df5	-0.06798927
114	0x3d78b05e	0.06071507
115	0xbd117dcf	-0.03552037
116	0x3d0a7d9d	0.0338112
117	0x3d09c3a4	0.033633843
118	0xbdd04f7b	-0.1017141
119	0xbdc51a05	-0.096241035
120	0xbdf89c36	-0.1213917
121	0x3de5afa6	0.11215143
122	0x3c1d0617	0.009583971
123	0xbdd9af33	-0.1062912
124	0xbdbf5592	-0.09342493
125	0x3cf56c27	0.029958798
126	0xbda60f12	-0.08108343
127	0x3de4f513	0.11179557
128	0xbd9c8817	-0.076431446
129	0x3db80771	0.08985794
130	0x3cfd9b10	0.030957729
131	0xbb76e7ba	-0.003767474
132	0xbd2dac85	-0.042400856
133	0xbe156ebd	-0.14593025
134	0x3d08bfa7	0.0333859
135	0x3dc407b1	0.095717795
136	0xbdb648e7	-0.08900624
137	0x3dae1b0a	0.08501251
138	0xbd66fa4b	-0.05639104
139	0x3d38090a	0.044930495
140	0xbdb84e7e	-0.08999346
141	0x3d66f572	0.05638642
142	0x3db6f1cb	0.08932837
143	0x3d7c704e	0.06163054
144	0xbccc8d7e	-0.024969812
145	0xbb9479ea	-0.004531135
146	0x3cb5c104	0.022186764
147	0xbc112b58	-0.008860432
148	0xbdf37dc7	-0.118892245
149	0x3dc0707e	0.09396456
150	0xbc9f0129	-0.019409733
151	0x3d1823ba	0.037143447
152	0xbcbd144b	-0.023080966
153	0xbdba38d4	-0.0909287
154	0x3d65d325	0.056109566
155	0x3a32ad60	0.0006815996
156	0x3d350470	0.044193685
157	0x3dd72944	0.10505918
158	0x3dab6681	0.083691604
159	0x3db8d711	0.09025396
160	0xbcb4e021	-0.02207953
161	0xbcc34408	-0.02383615
162	0xbdb4cfd9	-0.08828706
163	0xbe130719	-0.14358176
164	0x3d04c4fd	0.032414425
165	0xbe10cc1d	-0.14140363
166	0x3dbdcd9d	0.09267733
167	0xbd8f9788	-0.07011324
168	0xbdc48e6e	-0.09597479
169	0x3d034415	0.03204735
170	0x3b4e0c88	0.0031440575
171	0x3da11024	0.07864407
172	0xbdad3a83	-0.08458426
173	0xbdde92fd	-0.108678795
174	0xbd439e8c	-0.047758624
175	0xbde66c57	-0.11251133
176	0xbbb3e152	-0.0054895068
177	0xbd91d133	-0.0711998
178	0xbddc798d	-0.107653715
179	0xbdc29534	-0.095011145
180	0xbd4e520f	-0.050371226
181	0xbb9e02b1	-0.004822098
182	0x3df4a8b0	0.11946237
183	0x3d760e2a	0.0600721
184	0xbd9f98f9	-0.07792849
185	0xbde55c2e	-0.111992225
186	0xbdb78814	-0.08961502
187	0x3d5f0094	0.05444391
188	0x3dd046d8	0.101697624
189	0x3de523dd	0.11188481
190	0x3dc48de5	0.09597377
191	0xbc13b9b6	-0.009016445
192	0xbdbaab43	-0.09114697
193	0x3d4f795f	0.050652858
194	0xbd4a3b3c	-0.049372897
195	0xbc9980f5	-0.01873825
196	0x3d71a2fe	0.058993332
197	0x3dd3f122	0.10348727
198	0x3c27fd00	0.010253191
199	0xbd09a444	-0.03360392
200	0x3d4828e9	0.04886714
201	0x3ca51932	0.020153616
202	0xbd051b4b	-0.03249673
203	0xbde2a5b6	-0.11066763
204	0x3dc9c37a	0.09851737
205	0x3d24b691	0.04021317
206	0x3a9137f6	0.00110793
207	0xbcaaa085	-0.020828495
208	0x3db8c583	0.09022047
209	0x3d1cfc1b	0.038326364
210	0xbd0fcbbf	-0.035106417
211	0x3d29f7fa	0.041496255
212	0xbdba2869	-0.09089739
213	0x3cb63848	0.022243634
214	0x3d7975ad	0.06090324
215	0x3e01938b	0.1265394
216	0x3c33873c	0.010957535
217	0x3d880803	0.06642153
218	0xbdcdfcbf	-0.10057973
219	0xbd3d0f26	-0.046157025
220	0x3dd837df	0.105575316
221	0x3d86e7ee	0.06587206
222	0x3dfa6f8a	0.12228306
223	0xbdfbb004	-0.12289432
224	0xbdc1cbf8	-0.09462732
225	0x3d4d01b8	0.050050467
226	0xbd435c65	-0.047695536
227	0x3d0f9f88	0.03506425
228	0xbc85a5d3	-0.016314423
229	0x3cfd8b30	0.030950159
230	0xbd20f865	-0.039299387
231	0x3dbf672f	0.093458526
232	0x3d7643bb	0.060123187
233	0xbc8d2a4f	-0.017232088
234	0x3dcd7f7c	0.10034081
235	0x3e0bd623	0.13655905
236	0x3da1463f	0.078747265
237	0xbd731c3e	-0.059353106
238	0x3db4464d	0.08802471
239	0xbdd0b953	-0.10191598
240	0x3ddce351	0.10785545
241	0x3d1a9109	0.037735973
242	0x3db88c2e	0.09011112
243	0x3ad2c224	0.0016079587
244	0xbd97c05c	-0.074097365
245	0x3c4d7d88	0.012542136
246	0x3d9c8a9e	0.07643627
247	0xbd5161a2	-0.0511185
248	0xbcd09f2d	-0.025466526
249	0x3e0fc712	0.14040783
250	0x3dcbf85f	0.099594824
251	0xbc88e633	-0.01671133
252	0x3d9d2495	0.07672993
253	0xbdfad568	-0.12247735
254	0x3bc2c800	0.005944252
255	0xbe0b758f	-0.13619064

weight_hh_l1 f4 [192, 64]
0	0xbbd49a62	-0.0064881304
1	0x3dd6569f	0.104657404
2	0xbc0bed09	-0.0085404
3	0x3e03e0ad	0.12878676
4	0x3c87805d	0.0165407
5	0xbcf6922a	-0.030098993
6	0xbcd5e2eb	-0.02610918
7	0xbda33a7c	-0.079701394
8	0x3d4a40d9	0.04937825
9	0xbdd8a13f	-0.1057763
10	0xbb1536d0	-0.0022768266
11	0xbcd207dd	-0.025638515
12	0x3d9b8be0	0.075950384
13	0x3cd86aa6	0.026418041
14	0x3d9e43a6	0.07727747
15	0xbd383d59	-0.04498038
16	0x394b6ea0	0.000194008
17	0x3d840a19	0.064472385
18	0x3df0470b	0.117323
19	0x3ddd3c6e	0.10802542
20	0x3d963849	0.07334954
21	0xbdc06f25	-0.09396199
22	0xbe09d7df	-0.13461255
23	0x39c2d60a	0.00037162035
24	0xbda2e011	-0.079528935
25	0xbdaa46cf	-0.08314287
26	0x3cf37eb5	0.029723505
27	0x3df64948	0.12025696
28	0x3cc7a037	0.024368389
29	0x3d11e540	0.03561902
30	0xbdb2c854	-0.08729616
31	0x3ceb9dfb	0.028761854
32	0x3dab0269	0.08350069
33	0xbd88a606	-0.066722915
34	0xbdf92ee9	-0.121671505
35	0x3da0bdb9	0.07848687
36	0x3d8f936d	0.07010541
37	0x3cddea7f	0.027089356
38	0xbd8954e6	-0.06705646
39	0x3dd47123	0.103731416
40	0xbd9fc486	-0.07801156
41	0x3dd345f9	0.103160806
42	0xbc91ae7b	-0.017783394
43	0x3e0eb849	0.13937487
44	0xbd6bd1d1	-0.057573143
45	0xbe0719a8	-0.13193381
46	0x3d9a0f8d	0.07522497
47	0xbddf7be5	-0.10912303
48	0x3c37aa09	0.011209973
49	0xbbb2fcbd	-0.0054622577
50	0xbd83b162	-0.064303175
51	0xbd94238c	-0.072333425
52	0xbded2de9	-0.11581022
53	0xbd37a3db	-0.044834
54	0xbdf3ae75	-0.118985094
55	0xbd3dbbde	-0.046321742
56	0x3e11dc68	0.14244235
57	0x3cb9b398	0.022668645
58	0xbd8d0e55	-0.06887499
59	0xbc84bcd9	-0.01620333
60	0x3db5bb82	0.08873655
61	0xbbcce27f	-0.0062525864
62	0x3cc16cd3	0.023611462
63	0xb8df20c0	-0.00010639569
64	0x3d198d57	0.037488308
65	0x3de348c2	0.11097862
66	0xbd85d7e8	-0.065353215
67	0xbcd61f88	-0.026138082
68	0x3dcce74f	0.10005056
69	0x3cb27b3f	0.021787284
70	0x3d1e0f03	0.038588535
71	0x3d3b2ea9	0.045698795
72	0xbe0a9d6d	-0.13536616
73	0xbd636c0b	-0.05552296
74	0xbdc79fc4	-0.0974727
75	0x3d671a89	0.05642179
76	0x3d8489ff	0.06471633
77	0xbc0797c1	-0.008275927
78	0x3c510db4	0.012759615
79	0x3c9366b6	0.017993312
80	0xbd02bdfe	-0.031919472
81	0xbdc047c9	-0.09388692
82	0x3d098512	0.03357417
83	0xbc80608a	-0.015671033
84	0xbd093d96	-0.033506
85	0x3c981b59	0.018567728
86	0x3d8461b2	0.064639464
87	0x3d5cfe60	0.05395353
88	0xbdace8be	-0.084428295
89	0xbd16f1b7	-0.03685161
90	0x3da37941	0.07982112
91	0xbda0c4b0	-0.07850015
92	0xbce6f4f3	-0.028192973
93	0x3d6e2221	0.058138017
94	0x3da194f4	0.07889739
95	0xbdcf669d	-0.10126994
96	0xbcf412e8	-0.029794171
97	0xbd892333	-0.06696167
98	0xbdf830fd	-0.12118719
99	0x3daef23e	0.08542298
100	0xbd4b8fef	-0.049697813
101	0xbd883505	-0.06650738
102	0x3d636b9c	0.055522546
103	0x3dd48465	0.10376815
104	0xbd8e8b12	-0.06960119
105	0xbdda25b9	-0.10651726
106	0xbdd3567f	-0.10319232
107	0x3ddd8379	0.10816092
108	0x3d4115f2	0.04714007
109	0x3da2f853	0.0795752
110	0xbd8b3288	-0.067967474
111	0xbcf80c6a	-0.030279357
112	0xbdcd2e59	-0.10018606
113	0x3c924bb2	0.01785836
114	0x3dc41ff9	0.09576411
115	0xbe02939f	-0.12751625
116	0xbd8ff2ee	-0.07028757
117	0xbda85187	-0.08218675
118	0x3cf2c1e3	0.029633468
119	0xbce44f52	-0.027869854
120	0x3d642413	0.055698466
121	0xbd84be06	-0.064815566
122	0xbd915483	-0.070961975
123	0x3c9cf45d	0.01915949
124	0x3a235160	0.00062300824
125	0xbdb6798b	-0.08909901
126	0x3d94b7cb	0.07261618
127	0xbc1388fe	-0.009004829
128	0xbbaab510	-0.0052095726
129	0x3d88aad8	0.06673211
130	0xbdfc2f24	-0.12313679
131	0xbd86143b	-0.065468274
132	0x3dc1ed7c	0.09469125
133	0x3da00a35	0.07814447
134	0xbdb09b12	-0.08623327
135	0xbd95d8b8	-0.073167264
136	0x3def0b5e	0.1167209
137	0x3d665193	0.05623014
138	0x3dbce79a	0.09223862
139	0xbcae64a9	-0.021288233
140	0x3d7c5e7d	0.06161355
141	0x3cb43f33	0.022002792
142	0xbdcbbb23	-0.09947803
143	0xbd75f048	-0.060043603
144	0x3e1089b5	0.14115031
145	0x3dc48ed7	0.09597557
146	0xbcec4fde	-0.028846677
147	0xbb961244	-0.004579814
148	0x3dc65d56	0.09685771
149	0x3b1113e8	0.002213711
150	0xbd084428	-0.033268124
151	0x3cb8d341	0.022561671
152	0x3e0fe8ce	0.14053652
153	0x3b33fe6c	0.002746488
154	0x3c95faa1	0.018307986
155	0xbd6c2391	-0.057651106
156	0xbdbc415f	-0.09192156
157	0x3d8340ad	0.0640882
158	0x3dff493b	0.124651395
159	0x3cdc2249	0.026871817
160	0xbd26a5a5	-0.040685315
161	0x3d7c98d4	0.061669186
162	0xbdedb6f0	-0.11607158
163	0xbd7177b4	-0.05895205
164	0x3bc547f6	0.0060205413
165	0x3c0cf7f9	0.008604043
166	0xbdcdfc7a	-0.10057922
167	0xbd3887ae	-0.04505127
168	0x3d06ab11	0.032877985
169	0xbd171836	-0.036888324
170	0xbe0cad0a	-0.13737884
171	0x3c32e9d4	0.010920007
172	0xbe1352b0	-0.14387012
173	0xbe1058c3	-0.1409636
174	0x3de26a74	0.110554606
175	0x3d4539e5	0.048150916
176	0x3b3df88e	0.0028987261
177	0xbd0d8e67	-0.034559634
178	0xbaf5f7c8	-0.0018765861
179	0x3d793cbc	0.060848936
180	0x3c425412	0.011860864
181	0x3e07eee1	0.13274719
182	0x3c5ba396	0.013405701
183	0xbd41e384	-0.047336116
184	0xbd2b0494	-0.041752413
185	0xbd7ca67e	-0.061682217
186	0xbdb9ad3b	-0.09066244
187	0xbcaed761	-0.021342935
188	0xbceedb8f	-0.029157428
189	0x3cf0c2a7	0.029389692
190	0x3d0c2957	0.034219112
191	0xbde5ee03	-0.11227038
192	0xbc945b62	-0.018109981
193	0x3d932fa5	0.07186822
194	0xbc89dedb	-0.016829899
195	0x3df29768	0.11845285
196	0x3db17167	0.08664208
197	0xbcf626fc	-0.030047886
198	0x3c0e4019	0.008682274
199	0xbd727a42	-0.059198625
200	0xbd16bf6c	-0.036803648
201	0xbde72e54	-0.11288133
202	0xbd9b3812	-0.07579054
203	0x3d91a83a	0.07112165
204	0x3d91b971	0.07115448
205	0x3d9a91f1	0.07547367
206	0x3ddee8ef	0.10884272
207	0x3da5ce89	0.08096034
208	0x3dd41df0	0.103572726
209	0x3ccf53db	0.02530854
210	0x3d1f3190	0.038865626
211	0x3dbd8321	0.092535265
212	0xbd7fb9f9	-0.062433217
213	0x3b6d9c34	0.0036256434
214	0xbd58a5da	-0.052892543
215	0x3a75d0b2	0.00093771063
216	0x3dc6e978	0.097124994
217	0x3dd33e32	0.10314597
218	0x3dca0826	0.098648354
219	0x3dab680e	0.08369456
220	0x3e077707	0.13228999
221	0x3d52a8a3	0.051430356
222	0x3d78381d	0.06060039
223	0xbd14352d	-0.036183525
224	0xbd63f8db	-0.05565725
225	0xbce7a67e	-0.028277632
226	0xbddb91d8	-0.10721177
227	0xbd3fd04d	-0.04682951
228	0xbdeca1cb	-0.11554297
229	0x3de8992a	0.11357339
230	0xbd6f17c1	-0.058372263
231	0xbd0a40ce	-0.03375321
232	0x3cc5948b	0.024118682
233	0xbd821c8a	-0.063531
234	0xbda8509e	-0.082185015
235	0xbcfcbafa	-0.030850876
236	0x3cdcf5ca	0.02697267
237	0x3c8c2884	0.017109163
238	0x3d389149	0.04506043
239	0x3cb51437	0.022104366
240	0xbd57f632	-0.052725025
241	0xbd2477e8	-0.040153414
242	0x3e169c1e	0.14707991
243	0xbdb162ef	-0.08661448
244	0xbda6d638	-0.08146328
245	0xbdc82923	-0.09773471
246	0x3ccb0138	0.024780855
247	0x3d9820ed	0.07428155
248	0xbd27eb72	-0.040996023
249	0xbde2cf55	-0.11074702
250	0x3e1100bd	0.14160438
251	0x3de74b55	0.11293665
252	0xbd9ebaa5	-0.07750443
253	0x3dd8344d	0.105568506
254	0xbd583e21	-0.052793626
255	0xbdd02b06	-0.10164456

bias_ih_l1 f4 [192]
0	0xbd337765	-0.043815035
1	0x3d7d117c	0.061784253
2	0x3de3eb34	0.11128846
3	0x3cfe2512	0.031023536
4	0x3d498a46	0.049204133
5	0xbdc4fde0	-0.09618735
6	0x3d7b48ed	0.061348844
7	0xbb83a5d2	-0.00401757
8	0xbd223e36	-0.03961011
9	0xbcf3e718	-0.02977328
10	0xbdf0d37c	-0.117590874
11	0x3dbd9fcd	0.09258995
12	0x3dcf7509	0.101297446
13	0xbd3192c1	-0.043352846
14	0xbb954c62	-0.0045562247
15	0x3dd79675	0.10526744
16	0x3d80529e	0.06265758
17	0x3d289dcc	0.04116611
18	0x3dc5971b	0.09647962
19	0x3e0da1e2	0.13831285
20	0x3dbde660	0.09272456
21	0xbdc4cc0a	-0.0960923
22	0x3c38dbbe	0.011282859
23	0xbc533a89	-0.012892374
24	0x3ce7c6db	0.028293064
25	0x3d9cba9e	0.07652782
26	0x3d0afe0c	0.033933684
27	0xbd68808c	-0.056763217
28	0xbc9e14cd	-0.019297028
29	0x3de99e28	0.11407119
30	0xbdc6a762	-0.096998945
31	0xbdd3f604	-0.10349658
32	0x3d3c02cd	0.04590111
33	0xbd7cfdcd	-0.06176548
34	0x3dd4b050	0.103851914
35	0xbd379a8c	-0.04482512
36	0x3db2a7f2	0.08723439
37	0x3dbfe66f	0.093701236
38	0xbc9b164f	-0.018931536
39	0xbdf1e664	-0.11811522
40	0x3df38592	0.11890711
41	0x3dbb766c	0.091534466
42	0x3dc6552e	0.096842155
43	0xbda3ac95	-0.07991902
44	0x3da5111c	0.08059904
45	0x3dde6bfe	0.108604416
46	0x3df71cc9	0.12066037
47	0xbdbe4b9e	-0.092917666
48	0x3d7c2842	0.06156183
49	0xbd41e345	-0.04733588
50	0xbcb7baad	-0.022427881
51	0xbde6c0d8	-0.11267251
52	0xbbd63637	-0.0065372246
53	0xbd854b1a	-0.06508465
54	0x3d152c33	0.036419105
55	0x3e0fc7d8	0.14041078
56	0x3cba8600	0.022768974
57	0x3d23f966	0.040032767
58	0x3cb12b0a	0.021626968
59	0x3dd5a6e9	0.10432226
60	0x3d8a0f2b	0.06741174
61	0x3dcc4daa	0.09975751
62	0x3d284965	0.04108562
63	0x3e014c8a	0.12626854
64	0xbdaa2ccb	-0.08309325
65	0x3df81d56	0.121149704
66	0xbd727e1e	-0.059202306
67	0xbd5744cb	-0.05255584
68	0xbc97ccfe	-0.018530365
69	0xbdbb4b4e	-0.091452226
70	0x3df99790	0.121871114
71	0x3cb7c434	0.022432424
72	0x3da52094	0.080628544
73	0xb890a540	-6.897235e-05
74	0x3cc018f2	0.023449395
75	0xbc956e16	-0.01824097
76	0x3da9238b	0.082587324
77	0xbdcc8e66	-0.09988098
78	0x3d89282a	0.06697114
79	0xbde2b205	-0.11069111
80	0x3dafc7b5	0.08583013
81	0xbd8ed302	-0.0697384
82	0xbd8c7cbe	-0.0685973
83	0x3dc2f49a	0.0951931
84	0x3db73d6d	0.08947263
85	0x3de871de	0.113498434
86	0x3da865b1	0.08222521
87	0x3cef93d4	0.029245295
88	0x3b29db20	0.0025917962
89	0x3ddfe3ab	0.10932096
90	0xbd876a37	-0.06612056
91	0xbd844e56	-0.06460254
92	0x3cd2cc2c	0.025732122
93	0x3e0d44fb	0.13795845
94	0xbc6d4ca2	-0.014483603
95	0xbdbaff50	-0.09130728
96	0x3de9c6ea	0.11414893
97	0x3db4ec6e	0.08834158
98	0x3dbdb9e6	0.09263973
99	0x3d686440	0.05673623
100	0x3c948e86	0.018134367
101	0xbddc4182	-0.10754682
102	0x3d7ae8e5	0.06125726
103	0xbc53c868	-0.012926199
104	0x3d682952	0.05668003
105	0xbc49e1a5	-0.012321864
106	0xbd812fc8	-0.06307942
107	0xbba30a1a	-0.0049755694
108	0x3d86a072	0.06573571
109	0xbe0a101c	-0.13482708
110	0xbdf39f8d	-0.11895666
111	0xbdd961e8	-0.10614377
112	0x3c8d9f26	0.017287802
113	0x3d1931fc	0.037401184
114	0x3d190527	0.03735843
115	0xbe0cbe52	-0.13744476
116	0xbdfcd85d	-0.123459555
117	0x3d8de51c	0.06928465
118	0x3da7dd2e	0.081964836
119	0x3d97ff9d	0.07421801
120	0xbdc9be05	-0.098506965
121	0xbd2505cf	-0.040288743
122	0x3d36d0a2	0.04463256
123	0xbd1a8919	-0.037728403
124	0xbde2d194	-0.1107513
125	0xbd96be61	-0.07360531
126	0x3dca0998	0.09865111
127	0x3dbe219e	0.09283756
128	0xbd15074d	-0.036383916
129	0x3d228c80	0.039684772
130	0x3c17f9e4	0.009275887
131	0xbb81f2f7	-0.0039657312
132	0x3c524e59	0.012836062
133	0xbd8d5e8f	-0.06902801
134	0x3d0fc2e4	0.03509797
135	0x3db6a3a6	0.08917932
136	0x3ce4ff98	0.027953908
137	0xbd79cac5	-0.06098439
138	0xbe0b56a8	-0.13607275
139	0xbbd33581	-0.006445587
140	0x3ce7fefd	0.02831983
141	0x3dd20acc	0.102559656
142	0xbc2b46af	-0.010453864
143	0xbdd75148	-0.1051355
144	0x3d47a747	0.048743512
145	0x3da2fe47	0.07958656
146	0x3de5c0b7	0.11218398
147	0x3d82d00c	0.06387338
148	0x3decac45	0.11556295
149	0xbd32f369	-0.043689165
150	0x3de234e7	0.110452466
151	0x3db3b0eb	0.08773979
152	0xbca9aa8c	-0.020711206
153	0x3d0589df	0.032602187
154	0x3d317758	0.043326706
155	0x3dc54278	0.096318185
156	0x3da7abb9	0.0818705
157	0xbce97a83	-0.028500801
158	0xbd5ff792	-0.05467946
159	0x3dead8af	0.1146711
160	0xbd331aa8	-0.043726593
161	0x3d57ac78	0.052654713
162	0xbd4eed32	-0.050519176
163	0x3d93ee8f	0.07223236
164	0x3c9840b4	0.01858554
165	0x3cbb983b	0.022899738
166	0x3c967bd4	0.018369593
167	0xbcdea4c4	-0.027178176
168	0xbbac248e	-0.005253381
169	0xbc621b87	-0.013800508
170	0xbdd48fbe	-0.10378979
171	0x3dcdb783	0.10044768
172	0xbdf900e3	-0.12158372
173	0x3da3d196	0.0799896
174	0xbd1c79c4	-0.038202062
175	0x3bf229d5	0.0073902407
176	0xbddd9003	-0.10818484
177	0x3d7d9cfb	0.061917286
178	0xbc0f44de	-0.008744447
179	0x3d7b04e4	0.06128396
180	0xbc2d1442	-0.010563912
181	0x3ba94e7a	0.005166826
182	0xbdb57b74	-0.088614374
183	0x3dd854a9	0.10563023
184	0xbc26f9df	-0.01019141
185	0xbd9f8cf8	-0.077905595
186	0x3d3d0c1f	0.046154138
187	0x3ce75a79	0.028241383
188	0x3c7e0c03	0.0155057935
189	0xbd936480	-0.07196903
190	0x3d2b9861	0.041893367
191	0xbd2952e6	-0.041338824

bias_hh_l1 f4 [192]
0	0x3d863379	0.065527864
1	0x3dce6c39	0.100792356
2	0x3e0b00e4	0.13574558
3	0x3c52f7f2	0.012876498
4	0xbcc8e3c9	-0.024522679
5	0xbde16728	-0.110060036
6	0xbd47f746	-0.048819803
7	0x3cd1d6f4	0.025615193
8	0x3c84a061	0.016189756
9	0x3e123289	0.1427709
10	0xbd610921	-0.054940347
11	0x3ddc96b6	0.10770933
12	0xbd8d7789	-0.06907565
13	0xbce04e40	-0.027381063
14	0x3d991240	0.07474184
15	0xbdbb1539	-0.09134907
16	0x3d411175	0.04713579
17	0x3d2c138a	0.04201082
18	0xbd960be9	-0.073264904
19	0x3da85238	0.08218807
20	0xbd6b6648	-0.05747059
21	0xbd845697	-0.06461828
22	0xbcf1163e	-0.029429551
23	0xbdc55a97	-0.09636419
24	0x3d4063a9	0.046970043
25	0x3df657d6	0.12028472
26	0x3d5ce1f9	0.05392644
27	0x3d50673b	0.0508797
28	0x3d0f63d8	0.035007328
29	0x3d97ccd7	0.07412117
30	0xbc8431aa	-0.016136963
31	0xbd464cbd	-0.048413027
32	0xbd2ad53e	-0.04170727
33	0xbd0cbc14	-0.034359053
34	0xbc83fdd6	-0.01611225
35	0x3b960fe2	0.00457953
36	0x3d97edd3	0.07418408
37	0x3d60cd50	0.0548833
38	0xbd7584d4	-0.059941128
39	0x3d46bdbb	0.048520785
40	0x3d57386d	0.052544046
41	0x3cb9ea53	0.022694742
42	0xbc5abc1d	-0.013350514
43	0x3d35c47a	0.044376828
44	0xbddc3598	-0.1075241
45	0x3dbea3e4	0.093086034
46	0xbd60110c	-0.054703757
47	0x3db1334d	0.08652363
48	0x3dd6bc45	0.10485128
49	0x3da10beb	0.07863601
50	0x3d323d77	0.04351565
51	0x3ddbe722	0.107374445
52	0x3e1127f7	0.14175402
53	0xbd68e09e	-0.056854837
54	0xbc4de278	-0.012566201
55	0x3b0a81c1	0.0021134468
56	0xbdbef42e	-0.09323917
57	0x3d81951a	0.06327267
58	0xbd8abfb2	-0.06774844
59	0x3e0f3fa3	0.13989119
60	0x3d0d6dac	0.03452842
61	0xbcfbcd35	-0.030737499
62	0x3e037e31	0.12841107
63	0xbd316d54	-0.043317154
64	0xbcb97313	-0.02263788
65	0x3db965a0	0.090525866
66	0xbdb66dc1	-0.08907653
67	0xbd9f2376	-0.077704355
68	0x3d9c40dd	0.07629559
69	0xbc418555	-0.011811574
70	0xbd6677dd	-0.056266654
71	0xbdcf99bb	-0.10136744
72	0xbcbd492c	-0.02310618
73	0x3dd8612e	0.105654106
74	0xbd43d4c5	-0.047810335
75	0xbced5fce	-0.028976347
76	0x3ce55934	0.027996637
77	0xbcf8db98	-0.030378148
78	0x3cacf3d5	0.021112362
79	0x3c57fb3b	0.013182457
80	0xbd883187	-0.066500716
81	0xb95bc9c4	-0.00020960631
82	0x3daa5f64	0.083189756
83	0x3c9b4398	0.01895313
84	0x3d0ee4ee	0.034886293
85	0xbdd14b6b	-0.10219463
86	0xbd9e069c	-0.077161044
87	0xbda197cb	-0.0789028
88	0xbd9c8132	-0.076418296
89	0xbd9d93ba	-0.07694192
90	0x3c0ab8ef	0.008466943
91	0x3dd6bb86	0.10484986
92	0x3d50dc7e	0.050991528
93	0x3b9f75d0	0.0048663393
94	0xbc8d3baf	-0.017240373
95	0x3db12732	0.08650054
96	0xbdb51973	-0.08842745
97	0xbdc121c0	-0.094302654
98	0xbd0b0fc9	-0.0339506
99	0x3de362ab	0.11102804
100	0xbd52bdef	-0.051450666
101	0xbb928848	-0.0044718124
102	0xbdfdb960	-0.12388873
103	0xbdc86fb1	-0.097869284
104	0xbdc97fce	-0.0983883
105	0x3ce64fde	0.028114256
106	0xbd5fa9bc	-0.05460523
107	0x3d4790bc	0.048722014
108	0x3da97950	0.08275092
109	0x3b696a7c	0.0035616448
110	0xbdb56459	-0.088570304
111	0xbd6873fd	-0.05675124
112	0x3dc780b0	0.09741342
113	0xbca630d0	-0.020286947
114	0xbc2f7ff8	-0.0107116625
115	0x3da5f0b9	0.08102555
116	0xbd88d8f5	-0.06682006
117	0xbd9ad636	-0.07560389
118	0xbde9fdb9	-0.11425347
119	0x3de07932	0.10960616
120	0xbd9a3914	-0.07530418
121	0xbd90b213	-0.07065215
122	0x3d5aeb11	0.053446833
123	0x3bc55551	0.0060221334
124	0xbdadc344	-0.084845096
125	0xbd9316f3	-0.071821116
126	0xbcc4afe6	-0.024009656
127	0xbd3f7b8c	-0.046748683
128	0xbd90ba95	-0.07066838
129	0x3dbc124c	0.09183177
130	0x3d70a0dd	0.05874716
131	0x3d7d7b50	0.061885178
132	0xbc03fe71	-0.008056269
133	0x3d4be3b7	0.049777713
134	0x3cb1d9ad	0.021710241
135	0x3db19f0c	0.08672914
136	0xbdee6c39	-0.116417356
137	0x3d281dd3	0.041044068
138	0x3d7d34eb	0.061818045
139	0xbceaab89	-0.028646247
140	0x3d518f36	0.051161967
141	0x3c8f0c6f	0.017461983
142	0xbbfe6255	-0.007763187
143	0xbdb98d45	-0.09060148
144	0x3d4f30cc	0.050583646
145	0x3c261832	0.010137605
146	0xbc5b64ed	-0.013390762
147	0xbdb03470	-0.08603752
148	0x3e01ec11	0.12687708
149	0xbe05b4e1	-0.13057281
150	0x3de88a9e	0.11354564
151	0xbdd68f83	-0.104765914
152	0xbdc53e97	-0.09631079
153	0xbc20b0e9	-0.009807804
154	0x3d9bbdef	0.07604586
155	0x3d0af7eb	0.03392784
156	0xbd95f9c8	-0.073230326
157	0xbdb32d29	-0.08748848
158	0x3de0d686	0.10978417
159	0xbda3b557	-0.07993572
160	0xbdaae564	-0.08344534
161	0xbc45cffa	-0.012073511
162	0xbe082c84	-0.13298231
163	0xbdcf7b2e	-0.101309165
164	0xbd81a943	-0.06331112
165	0xbe0123e7	-0.12611352
166	0x3d9aeb15	0.075643696
167	0xbb947f2e	-0.0045317626
168	0xbdc6eb2e	-0.09712826
169	0xbdf1eb32	-0.11812438
170	0xbde94001	-0.11389161
171	0xbd9377cb	-0.07200583
172	0xbddb58cb	-0.10710295
173	0xbdb67c0e	-0.0891038
174	0x3d5768f6	0.052590333
175	0xbd9a1fbf	-0.07525586
176	0xbd6cbfdb	-0.057800155
177	0xbe17cc80	-0.14824104
178	0xbd42356c	-0.04741423
179	0xbe00e6cf	-0.12588046
180	0xbd5b12ae	-0.05348461
181	0x3df82f67	0.12118416
182	0xbd80e9af	-0.062945716
183	0xbcec78f6	-0.028866272
184	0xbdd55a2c	-0.104175895
185	0x3dc2ec8f	0.09517776
186	0xbdf3063e	-0.11866425
187	0x3e07fbe0	0.13279676
188	0xb9d6fd80	-0.00041006133
189	0xbd805ee7	-0.06268101
190	0x3daf9736	0.08573763
191	0x3de3344d	0.1109396
