Baseline_systems/SoMS/models/SoM_GRU_1/23_1.pth (torch, 10975 bytes, 3 tensors)

weight f4 [32, 64]
00000000: 3e7b 8b3d bae1 9cbd 9a55 683d 6c8e 50bc
00000010: 5f33 92bd 076e 9b3d 839f 3cbd 0b11 e23c
00000020: 80cd 043e 9308 debc 70f2 5b3c 7f8e 373d
00000030: 47c8 c33d 4214 77bd 905f d93d 59ea f03c
00000040: 5d97 81bd 0450 0cbe 3d93 1b3d fb90 093e
00000050: e0e0 8d3d 22e7 b13d 87e0 89bd e2a1 db3d
00000060: 17e5 ff3b 3524 0f3d 31b4 ecbd 5b8b b83d
00000070: 7318 bf3d b336 b43c a32e c5bd 8dd6 303b
00000080: 52a5 4f3b 7750 673d ad3e 04bd a67e 63bd
00000090: 1f7e 45bd 2c69 603d e4fa 943d a263 d43c
000000a0: b151 84bd e831 ae3b f770 a8bd e25b 10be
000000b0: 4602 8ebd 41bd 823d 5528 04be 7a51 fcbd
000000c0: a4a9 8a3c 80cc 5a3d ba7c 3d3d 3a1a 443c
000000d0: bdf9 743d 8bff f0bd 9321 d0bd ec5b 053b
000000e0: 58b9 b33d fdce 853d 0098 c43d a120 1f3d
000000f0: be29 e13d cb2e c53d 5358 d63c f456 903d
00000100: b9bf ef3c 7b90 db3d 965c 0f3c e368 df3d
00000110: b380 db3d e3bc c5bc 8cb6 b23d 9f13 4e3d
00000120: 14c8 17bc e5d3 b33b 686f 5abd 505e 12be
00000130: e285 7f3c 14f9 e13d fee6 01be 2f11 fe3d
00000140: 06f4 5c3d c45a fb3d 4546 ae3c 851f fdbd
00000150: 5d0e 7fbd 2158 f4bc 44f4 ae3d ee03 073d
00000160: 7d12 6ebd 9e6d 8e3d a979 00be 2b9d 1c3c
00000170: 565d 9e3d 9448 90bc a23d cfbd a1dd 70bd
00000180: cdd0 cc3d 5e06 2d3d 7124 bdbd 57e3 90bd
00000190: ab69 d9bc 0015 0b3d 5a1d ecbd eb2d 39bd
000001a0: 245e 91bc 717c cdbd 1172 9ebd ed0e af3d
000001b0: 33da 5f3c 27b8 ccbc 0a4c 323d 186e 4abd
000001c0: 377f 8abd 8309 e33d 3799 b2ba a147 e4bd
000001d0: 43da 49bc 23dc 4fbd 955e f2bd 0468 48bc
000001e0: 02c1 c93d 26cc 9ebd b3a4 963d b854 e5bd
000001f0: c175 033e e107 8abd 5274 983d c0b2 cbbd
00000200: 60ad 29bd 5bc1 53bd 079e 7c3d 5b4e 9dbd
00000210: f39a b3bc 8288 b0bd d12c fd3a b106 073e
00000220: 3c30 debd a8c9 bc3d 5356 cf3d ad1e 033d
00000230: 6f46 97bd 9ed5 283c 787d 9c3d 47ac 3e3d
00000240: 4f72 9d3d c3f5 03bc 0f4e b33d ccdb d1bd
00000250: c9ee dd3d c0b4 bd3d 05bf 9fbd 0b75 4cbc
00000260: 5870 b9bb 02d2 a63d 78f1 113d eb26 0ebe
00000270: c570 ac3c 66b6 813d 468a 47bb 8f97 bf3c
00000280: 4893 ae3d e3f5 873d e7f1 94bc 5c4a ea3c
00000290: 8cbd 22bd 13fe a2bc e835 fbbd 3a86 4c3b
000002a0: 5c81 d53d 1b1a 0dbd 7da6 c9bd 4e10 813d
000002b0: bb6e c03d 08a3 e73d a74d 943d 2421 053e
000002c0: 819c d33d eaf8 59bd 12c5 b93d cc87 b93d
000002d0: 75e2 203d 963f c53d 78de ff3d 25da e43d
000002e0: b1e4 e2bc dbb4 b6bd ead4 92bd 6851 a13d
000002f0: db82 853d 8338 5c3d 2253 073e 7649 7ebd
00000300: 30fc 8ebd 92cb 0b3e f9ba 343d 97bb 863d
00000310: 1a40 68bd 656b f5bd aec6 403d 5a9a 8d3c
00000320: a00e 7d3d 7c12 3b3d c647 3d3d 48a5 08be
00000330: 0623 743d 9bdd 36bd cc41 a6bd 9229 11bd
00000340: 28e3 093e 5474 8dbc dfe0 633d 571b c0bd
00000350: 5879 cebd 6e79 08be c5d6 ac3d 5340 cfbd
00000360: 6d35 06be 447e 81bd 413e ce3a 3c99 0fbe
00000370: d077 3a3d 9282 95bd 8e6b 9bbd 60f5 df37
00000380: c33e d63c d2ab 513d c768 fe3d f779 0dbd
00000390: d8b0 28bd b575 b53d fa23 07bd 10ac ee3d
000003a0: ce95 f43d 46a6 d63c 9f70 bb3d 13cf a8bd
000003b0: 2d15 8dbc 3f74 903d 4041 25bd ea50 5abd
000003c0: 1a3c 95bd a59c ccbc 7d08 ffbb bcb0 0fbd
000003d0: 3e1c d63d 8710 b0bd e33c 223d ce61 d6bd
000003e0: 1750 72bd 7176 013e 0da9 083e a3f2 413d
000003f0: e5dd f53d 7201 c0bc f4fa 163d 2390 f03d
0.06810616 -0.076602414 0.05672226 -0.0127292685 -0.071387045 0.075893454 -0.04605056 0.027596017
0.12969017 -0.027103698 0.013424501 0.04481363 0.09559684 -0.060322054 0.1061393 0.02940862
-0.063276984 -0.13702399 0.037982214 0.13434212 0.06927657 0.08686663 -0.06732278 0.10724236
0.007809292 0.03494664 -0.11557806 0.09010955 0.09330835 0.021998739 -0.09628036 0.002698335
0.0031684232 0.05647322 -0.032286335 -0.055540703 -0.04821598 0.0547878 0.07274416 0.025926415
-0.06460894 0.005316008 -0.08224671 -0.1409755 -0.069340274 0.063837536 -0.1290601 -0.12320228
0.016926594 0.053417683 0.046261527 0.0119691435 0.05980848 -0.11767491 -0.10162654 0.002034898
0.08775586 0.065336205 0.09599304 0.038849477 0.1099429 0.09628066 0.026165163 0.07047835
0.029266225 0.10720917 0.008750102 0.109086774 0.10717907 -0.02413792 0.08726224 0.05031168
-0.009264011 0.0054879063 -0.0533289 -0.1429379 0.015595885 0.11033836 -0.12685773 0.12405621
0.053943656 0.122731715 0.021273741 -0.123595275 -0.062269557 -0.02982718 0.08542684 0.032962732
-0.0581231 0.069545016 -0.1254641 0.009558956 0.07732646 -0.017612733 -0.101191774 -0.05880511
0.10000763 0.0422424 -0.09235466 -0.07074612 -0.026539644 0.033955574 -0.11529036 -0.045209806
-0.017745085 -0.10033501 -0.077366 0.08547769 0.013662863 -0.024990154 0.043529548 -0.0494214
-0.067625456 0.110857986 -0.0013625984 -0.11146475 -0.012320104 -0.050747048 -0.11834446 -0.0122318305
0.098512664 -0.07753782 0.07355633 -0.111977994 0.12837888 -0.06739784 0.07444061 -0.09946203
-0.04142511 -0.05169807 0.061674144 -0.07680961 -0.021924471 -0.08619787 0.0019315724 0.13186146
-0.10849044 0.092181504 0.10123887 0.032011677 -0.07386481 0.010304837 0.07641119 0.046551015
0.07687818 -0.0080542 0.08755123 -0.10247001 0.1083656 0.09262991 -0.07800106 -0.012479077
-0.0056591444 0.081455246 0.035630673 -0.13882034 0.021049866 0.06333618 -0.0030447408 0.023387698
0.085241854 0.06638696 -0.018181754 0.02859991 -0.039731547 -0.019896543 -0.12266141 0.0031207935
0.10425064 -0.034448724 -0.09846208 0.06301938 0.0939612 0.113103926 0.072413735 0.13000923
0.10332585 -0.0532159 0.09070791 0.09059104 0.039278466 0.09631269 0.124936044 0.1117442
-0.02769694 -0.08921214 -0.071695164 0.07876855 0.06519099 0.05376483 0.13215306 -0.062081777
-0.06981695 0.13651875 0.044123624 0.06578749 -0.056701757 -0.119833745 0.047064476 0.017285515
0.061781526 0.045671925 0.046211027 -0.133443 0.059603713 -0.044644933 -0.081180185 -0.035440035
0.1346556 -0.017267384 0.055634376 -0.09380215 -0.10081738 -0.13327572 0.084394015 -0.10119691
-0.13106318 -0.063229114 0.0015735106 -0.14023298 0.04552442 -0.07300295 -0.07588874 2.6697933e-05
0.026152974 0.05118925 0.124223284 -0.034540143 -0.041184276 0.088603415 -0.032993294 0.11653912
0.119426355 0.026202332 0.0915234 -0.08242621 -0.017222011 0.07053422 -0.04034543 -0.053299822
-0.07286854 -0.024977038 -0.0077829943 -0.035080656 0.104546055 -0.08596902 0.039608847 -0.104678735
-0.05915841 0.12642838 0.13345738 0.047350537 0.12005214 -0.02343819 0.03686042 0.11746242

bias f4 [32]
00000000: 22af 0e3e 0f4b 93bd 2b2c c53c 77a0 99ba
00000010: c3a2 b2bd 9654 8ebd 8859 d63d 752e b3bd
00000020: a9a0 bebd 2003 7d3d 9323 8fbd 651b 64bd
00000030: 5eca cdbd 7861 9f3d 2939 7cbd 6a27 623d
00000040: c964 6b3d f333 bc3c 37ca 783c 5f80 14bd
00000050: d82d 18bd d01f b13d ee2f 973d 5496 803d
00000060: bd26 de3d d402 4e3d 8c37 96bd b809 7c3d
00000070: bf9f 37bd bd31 a43d cb6c b53d b251 ea3c
0.13933995 -0.07192051 0.024068912 -0.0011720796 -0.087224506 -0.06949727 0.104662955 -0.08749095
-0.09307987 0.06177056 -0.06989207 -0.055690188 -0.10048364 0.077822626 -0.06157795 0.05521337
0.057469163 0.02297399 0.0151849305 -0.036255237 -0.037153095 0.08648646 0.07382189 0.06278673
0.108472325 0.050295666 -0.073348135 0.061532706 -0.04483008 0.08017299 0.08858641 0.028603408

weight f4 [1, 32]
00000000: 10bd 2f3e bf44 b1bd ebfc 94bc c4d8 babd
00000010: 24af 823d bcbb 9f3d 7b7f ae3d bfbb bd3d
00000020: 5dc0 d1bd 8101 78bd fcfb f53d 05d4 05be
00000030: d475 5bbd eda1 bdbd 4e1e 1a3e e6cf 723d
00000040: b1b8 103e 9de2 3c3e d113 e33d 3e52 203e
00000050: d9b6 39be 5155 ca3d 1105 343e a43a 0fbe
00000060: 3fd1 0abe fb65 fb3d f3a4 4e3d 85bd 33be
00000070: a6b7 e13d f99b 7c3d 482a e83d cfeb 123e
0.17161965 -0.086556904 -0.018187007 -0.09123376 0.06381062 0.07799479 0.08520409 0.09264325
-0.102417685 -0.06054831 0.12010953 -0.1306916 -0.053579167 -0.092594005 0.15050623 0.0592803
0.14132954 0.18445821 0.11087764 0.15656373 -0.18136157 0.09879554 0.17580058 -0.13987213
-0.13556384 0.122753106 0.050450277 -0.17552765 0.11021356 0.061672185 0.113361895 0.14347766
