Baseline_systems/SoMS/models/SoM_GRU_26/111_1.pth (torch, 10975 bytes, 3 tensors)

weight f4 [32, 64]
0.106332436 -0.035990424 0.0012559069 0.025739007 -0.09755403 0.07127334 0.13296111 -0.14570467
0.14315288 -0.05838066 0.087391675 0.05614622 -0.007446591 -0.11984972 -0.14991362 -0.16168341
0.085721694 -0.15451181 -0.03583438 -0.13905253 0.025438003 0.064441994 -0.15146737 0.073260844
0.10748447 -0.060111646 -0.071814366 0.001714187 0.052438047 -0.1814112 0.08621193 0.15211684
-0.14512579 0.0131494645 -0.0831595 0.09917567 -0.10892584 0.08470913 0.09134029 0.15649056
0.018433543 -0.1517778 0.06766024 0.040537354 0.047628142 -0.14291526 -0.137114 -0.026343882
0.1363392 -0.020076169 -0.13521029 -0.0053901365 0.021297 0.10323477 -0.0011881661 -0.16766255
-0.013267769 -0.062995635 -0.1459995 -0.053705145 0.09014503 0.021906842 -0.12775531 0.09344568
0.087779924 0.11334667 0.090893194 0.15902309 -0.077884704 0.07387692 0.085379004 -0.10967261
0.15367523 -0.09479885 0.007447747 -0.0013274438 0.12538502 -0.038664177 -0.021445744 -0.02659137
-0.003293124 -0.05332725 0.10215279 0.08664218 0.0003964906 0.12081676 0.07367563 -0.11746123
0.017145585 -0.15303285 0.00720542 -0.004372132 0.05051535 -0.065843135 0.011366079 0.022010757
-0.1467759 0.08082111 -0.016423909 0.08972871 -0.11398935 -0.015122334 -0.08032855 0.0929317
-0.019752502 -0.1287606 0.13203049 0.0035985895 -0.002914968 -0.13937847 0.006661236 -0.05048084
0.11979667 0.01415666 -0.12124873 -0.07868969 -0.16060154 0.058542356 -0.064747676 -0.15290959
-0.0649164 -0.074076414 -0.12968892 0.052480727 0.08859121 -0.08573122 0.045829367 -0.0468065
-0.11276145 -0.07395577 -0.09418294 0.073869936 -0.0796864 0.09632737 -0.05559768 -0.14169168
0.03918626 0.115651086 0.06147442 0.05729945 0.12074256 -0.116645016 0.01270491 -0.11314326
0.052866615 0.0755332 -0.092923895 0.11076468 -0.06844101 -0.106879644 0.053810086 0.037703354
-0.15394446 0.13979435 0.017656237 0.13505958 -0.011851122 -0.07911639 -0.15577403 -0.104454696
-0.0063891793 0.07697653 -0.07318173 0.11129414 -0.008061787 0.008249142 -0.12174275 -0.0732394
0.12191704 0.12026621 -0.053206474 0.085477225 -0.048665762 0.09086683 0.028153984 -0.017415322
0.05734271 -0.043821216 -0.06524384 -0.04968079 0.095657505 0.12570651 -0.08613334 0.12198048
-0.06065438 -0.070223585 -0.029637974 0.047249738 -0.08075395 -0.09741688 0.090195775 0.029125953
-0.05617944 0.007586461 0.008445928 -0.011770031 -0.0049828445 0.046130825 -0.038942315 -0.14505109
0.034159344 0.049950365 -0.11920836 0.09092965 0.13586044 -0.038647823 0.14222327 -0.12618814
-0.12598474 0.075088665 -0.019718274 0.021858677 -0.11148714 -0.05955226 -0.09633908 -0.010359464
0.090072684 0.10165064 0.04499761 0.034963474 -0.14243472 -0.09453521 -0.12542213 0.0034169382
-0.07103702 -0.07309469 -0.105151586 0.061660312 0.123384714 0.072813265 -0.096522994 -0.13226113
-0.022465495 -0.06050381 0.004818128 0.03581942 0.1758594 -0.07660227 0.06957425 0.08214239
-0.049977507 -0.012921689 0.07846275 0.03720021 0.01826607 -0.06651377 0.06387311 -0.0088689225
0.07424523 0.070652954 0.082495786 -0.03532779 -0.020838141 -0.1337412 0.13108143 -0.04202141
00000000: d2c4 d93d b26a 13bd 3e9d a43a 9cda d23c
00000010: 68ca c7bd c2f7 913d f526 083e 9b33 15be
00000020: ab96 123e 8f20 6fbd 68fa b23d 94f9 653d
00000030: 8802 f4bb c573 f5bd f582 19be 5690 25be
00000040: db8e af3d 5838 1ebe 12c7 12bd c963 0ebe
00000050: 5c63 d03c 2afa 833d 431a 1bbe c809 963d
00000060: d120 dc3d a137 76bd 6913 93bd 92ae e03a
00000070: 47c9 563d dcc3 39be e18f b03d 84c4 1b3e
00000080: db9b 14be da70 573c 874f aabd 9d1c cb3d
00000090: 8314 dfbd fb7b ad3d 9e10 bb3d 103f 203e
000000a0: f101 973c a46b 1bbe 7491 8a3d 7f0a 263d
000000b0: ba15 433d 6158 12be 9d67 0cbe 20cf d7bc
000000c0: 819c 0b3e c776 a4bc 9174 0abe be9f b0bb
000000d0: 0c77 ae3c c06c d33d 3dbc 9bba bbaf 2bbe
000000e0: 0e61 59bc db03 81bd e580 15be edf9 5bbd
000000f0: f59d b83d fa75 b33c 4ad2 02be 7360 bf3d
00000100: f6c5 b33d 4d22 e83d 3626 ba3d f3d6 223e
00000110: 0482 9fbd c84c 973d 30db ae3d 099c e0bd
00000120: 0a5d 1d3e e625 c2bd 3b0c f43b 9ffd adba
00000130: ee64 003e 545e 1ebd fcae afbc 25d6 d9bc
00000140: 74d1 57bb ad6d 5abd 7b35 d13d 7571 b13d
00000150: 11e0 cf39 c76e f73d 40e3 963d 838f f0bd
00000160: e674 8c3c a5b4 1cbe 721b ec3b 1a44 8fbb
00000170: 2fe9 4e3d c4d8 86bd ca38 3a3c e74f b43c
00000180: 6c4c 16be 8a85 a53d 6f8b 86bc b0c3 b73d
00000190: 4073 e9bd aac3 77bc 4b83 a4bd fa52 be3d
000001a0: 00d0 a1bc d2d9 03be 0033 073e 50d6 6b3b
000001b0: 0c09 3fbb 3bb9 0ebe 7f46 da3b ffc4 4ebd
000001c0: f557 f53d 56f1 673c 4151 f8bd 0f28 a1bd
000001d0: bb74 24be 1cca 6f3d 6e9a 84bd 5594 1cbe
000001e0: e4f2 84bd 60b5 97bd 2ccd 04be 08f6 563d
000001f0: 4f6f b53d da93 afbd 93b7 3b3d 2cb8 3fbd
00000200: 7aef e6bd 1f76 97bd fce2 c0bd 1f49 973d
00000210: a032 a3bd 4947 c53d 65ba 63bd a017 11be
00000220: c681 203d 7ada ec3d 9acc 7b3d d4b2 6a3d
00000230: e047 f73d 95e3 eebd 4128 503c a7b7 e7bd
00000240: aa8a 583d 26b1 9a3d e24e bebd 98d8 e23d
00000250: cd2a 8cbd b7e3 dabd f767 5c3d d56e 1a3d
00000260: 9ea3 1dbe 4026 0f3e d0a3 903c 0f4d 0a3e
00000270: 352b 42bc c607 a2bd 3a83 1fbe 58ec d5bd
00000280: 525c d1bb dfa5 9d3d 4ee0 95bd 2fee e33d
00000290: 9615 04bc 6927 073c 4354 f9bd 8afe 95bd
000002a0: a4af f93d 214e f63d 08ef 59bd af0e af3d
000002b0: c055 47bd 6318 ba3d 2fa3 e63c 94aa 8ebc
000002c0: 31e0 6a3d e07d 33bd 909e 85bd 167e 4bbd
000002d0: 15e8 c33d 35b9 003e ad66 b0bd e7d0 f93d
000002e0: ba70 78bd 62d1 8fbd 56cb f2bc f188 413d
000002f0: 5462 a5bd 8082 c7bd 90b8 b83d 8d99 ee3c
00000300: 6a1c 66bd d997 f83b ca60 0a3c 17d7 40bc
00000310: 2147 a3bb adf3 3c3d fa81 1fbd 4688 14be
00000320: abea 0b3d c198 4c3d 8323 f4bd 5339 ba3d
00000330: 001f 0b3e 2e4d 1ebd faa2 113e 7737 01be
00000340: 2502 01be 16c8 993d 3888 a1bc f810 b33c
00000350: 5f53 e4bd 12ed 73bd 6c4d c5bd beba 29bc
00000360: 0778 b83d 362e d03d 6a4f 383d dc35 0f3d
00000370: 68da 11be ad9b c1bd a96e 00be b6ee 5f3b
00000380: db7b 91bd abb2 95bd b759 d7bd 868f 7c3d
00000390: 20b1 fc3d 1f1f 953d d9ad c5bd 766f 07be
000003a0: 8f09 b8bc d8d2 77bd 63e1 9d3b 62b7 123d
000003b0: 7d14 343e a7e1 9cbd f27c 8e3d 453a a83d
000003c0: 37b5 4cbd 7eb5 53bc 14b1 a03d 3f5f 183d
000003d0: baa2 953c 5f38 88bd e8cf 823d f54e 11bc
000003e0: e20d 983d 7fb2 903d 8df3 a83d dfb3 10bd
000003f0: c0b4 aabc 74f3 08be 363a 063e a41e 2cbd

bias f4 [32]
0.14677796 0.07646205 -0.029985063 0.00040171892 -0.01947639 -0.06842973 -0.037944812 0.060002413
0.119073644 -0.039357536 0.12808935 0.06011178 -0.06510799 0.029582992 0.025005015 0.08570435
0.09779036 -0.0054473723 0.026373195 0.059694245 -0.049618766 0.097793564 -0.09119652 0.049445923
0.11497095 0.14137167 -0.024944788 -0.025927624 0.024222424 0.112008 0.062098183 0.010945207
00000000: f64c 163e 2398 9c3d 3ca3 f5bc cd9d d239
00000010: f38c 9fbc e324 8cbd 056c 1bbd 17c5 753d
00000020: e2dc f33d 5e35 21bd db29 033e c537 763d
00000030: 5657 85bd 0858 f23c 51d7 cc3c c385 af3d
00000040: 5046 c83d df7f b2bb 990c d83c f481 743d
00000050: 0c3d 4bbd fe47 c83d 3ec5 babd cf87 4a3d
00000060: e475 eb3d bcc3 103e 0359 ccbc 2b66 d4bc
00000070: 1b6e c63c 7364 e53d aa5a 7e3d 8753 333c

weight f4 [1, 32]
-0.17148443 -0.13003021 0.18105772 0.12606283 0.17618224 0.18164144 -0.11857219 0.09894787
0.1781286 0.08697619 0.17093764 0.19660722 -0.19668713 -0.08387941 0.14077161 -0.13826089
0.20042498 0.15303221 -0.13048688 0.08768982 0.1182152 0.13128084 0.11965321 0.10931321
-0.12632267 0.20176688 -0.14579058 0.10451435 -0.15769787 -0.13727689 0.09278756 -0.18716612
00000000: 9d99 2fbe a426 05be 3267 393e 9d16 013e
00000010: 1e69 343e 3700 3a3e fad5 f2bd 2ea5 ca3d
00000020: 5867 363e 9320 b23d 470a 2f3e 6753 493e
00000030: 5a68 49be f8c8 abbd 6f26 103e 4394 0dbe
00000040: 353c 4d3e 7ab4 1c3e 5a9e 05be b896 b33d
00000050: d01a f23d 7c6e 063e be0c f53d 9bdf df3d
00000060: bb5a 01be fa9b 4e3e 204a 15be 9f0b d63d
00000070: 8d7b 21be 5092 0cbe 6707 be3d 7aa8 3fbe
