Baseline_systems/SoMS/models/SoM_GRU_26/57_1.pth (torch, 10975 bytes, 3 tensors)

weight f4 [32, 64]
000000 26 5d c9 3d b8 93 37 bd ad cb 03 bb 3e 59 cc 3c
       0.0983222 -0.04481861 -0.0020110414 0.024944898
000010 9e 4d c8 bd f0 f6 88 3d fb d2 fe 3d d1 4e fe bd
       -0.09780429 0.066877246 0.12442585 -0.12417377
000020 3e 6e 0c 3e 6b 2a 68 bd 22 e8 b4 3d 4e 1f 8d 3d
       0.13713929 -0.056681078 0.08833338 0.068907365
000030 08 80 ac bc 43 9d e0 bd 90 30 12 be 92 58 01 be
       -0.021057144 -0.10967495 -0.14276338 -0.12631443
000040 c0 c7 8a 3d 5d 3f 18 be 36 9d 17 bd c8 cf 04 be
       0.067763805 -0.14867921 -0.037015162 -0.12969887
000050 38 06 56 3d 0b 22 87 3d e2 e8 16 be ba 75 96 3d
       0.052252024 0.0659829 -0.14737275 0.07346673
000060 70 b5 d4 3d ec a6 7e bd ae ef 89 bd 43 fa cd 3b
       0.10386169 -0.062170908 -0.067351684 0.006285937
000070 32 9d 41 3d a0 69 24 be de 72 a0 3d dd 09 17 3e
       0.047269054 -0.16055918 0.07834409 0.14749856
000080 2c b8 0b be 14 69 50 3c cc 48 c4 bd 9b 14 ca 3d
       -0.13644475 0.012720365 -0.095841974 0.098672114
000090 5c ff db bd 53 37 75 3d 60 31 c0 3d 31 52 18 3e
       -0.10742065 0.059867214 0.093844175 0.14875104
0000a0 dc 2e 41 bc 3f 5b 17 be aa e5 6e 3d e8 2d 5b 3c
       -0.011790957 -0.14780901 0.058324493 0.013377644
0000b0 dc 57 3d 3d 48 b0 04 be 83 15 04 be 44 ce a6 bc
       0.046226367 -0.12957871 -0.12898831 -0.020362027
0000c0 b5 2a e4 3d 6b b3 ba bc b0 5c c9 bd 5e 29 c3 bb
       0.11140958 -0.022790631 -0.09832132 -0.005955859
0000d0 89 11 e8 3c 3f 43 af 3d f0 14 a1 3a 24 15 27 be
       0.028328674 0.08557748 0.0012289565 -0.16316658
0000e0 ce 46 3b bc a5 fa 92 bd c4 8b 03 be f9 7d 95 bd
       -0.011430455 -0.07176713 -0.12846285 -0.07299418
0000f0 86 38 b6 3d 30 b6 b7 bb 59 57 08 be 18 68 a6 3d
       0.088975 -0.0056064352 -0.1331457 0.08125323
000100 a5 20 a0 3d 5f 9a cd 3d 35 73 b5 3d f8 72 22 3e
       0.078187265 0.100392096 0.088598646 0.1586417
000110 42 aa 9d bd e5 26 8b 3d db 7c 9a 3d b1 ea a9 bd
       -0.0769849 0.06794528 0.075433455 -0.08296717
000120 e8 36 18 3e 57 97 bf bd 1d 6c 0c 3c 8f 7e 4c 3c
       0.14864695 -0.09355038 0.008570698 0.012481346
000130 f3 59 e0 3d 23 66 d9 bc 75 88 80 bc 36 b7 3d 3c
       0.109546565 -0.02653796 -0.015690068 0.011579325
000140 7b 10 c6 bc bf d5 3e bd 39 15 d1 3d 14 4c c0 3d
       -0.02417778 -0.046590563 0.10209126 0.09389511
000150 ee c5 0b 3d c8 e4 00 3e 88 e2 9e 3d 52 db f3 bd
       0.034124307 0.12587273 0.07758051 -0.119070664
000160 95 81 5c 3c 3f 8b 1c be 23 57 22 3c 2c 49 0b 38
       0.013458629 -0.15287493 0.00990847 3.320833e-05
000170 b7 d0 3e 3d bf 17 34 bd 16 7f 5d 3b 33 a5 80 3c
       0.046585765 -0.04396796 0.0033797673 0.015703773
000180 5d 99 05 be 54 10 ad 3d 88 8f de bc 10 d8 b1 3d
       -0.13046785 0.0845038 -0.02716805 0.08683789
000190 8e 20 e9 bd 71 b2 37 bd d2 71 9e bd 75 8a b0 3d
       -0.113831624 -0.04484791 -0.07736553 0.086201586
0001a0 cb 9c 6a bd 9c 1b ff bd 64 cd 00 3e 2c 5d 05 bd
       -0.057278436 -0.12456438 0.1257835 -0.03255956
0001b0 43 28 a8 bb db fb fa bd b2 ea 86 3c 22 1e 3d bd
       -0.0051317527 -0.12255069 0.016469333 -0.046171315
0001c0 57 95 b8 3d 39 16 29 3c bf 09 a4 bd b1 6c 9d bd
       0.09012859 0.01032024 -0.080096714 -0.07686747
0001d0 7d 36 1a be 8d 3a 19 3d 82 41 7c bd df 44 18 be
       -0.15059848 0.037409354 -0.06158591 -0.14870022
0001e0 e5 6f 7d bd 46 80 af bd 4e a3 e6 bd 80 dd d0 3c
       -0.06187429 -0.08569388 -0.11261617 0.025496244
0001f0 5e 9b b3 3d 2f a1 e4 bd 67 ae 20 3d 59 45 87 bd
       0.08769868 -0.11163556 0.039228823 -0.06605024
000200 76 37 d4 bd 23 54 99 bd d6 59 bb bd c9 2e 9c 3d
       -0.10362141 -0.07486751 -0.09147994 0.07626111
000210 fa 49 bc bd e7 17 c2 3d 7b 21 65 bd 4e 97 10 be
       -0.091937974 0.09477215 -0.055940133 -0.14120218
000220 77 bf 57 3d 05 ae df 3d f8 f0 82 3d b3 9a 49 3d
       0.05267283 0.109218635 0.063936174 0.0492198
000230 1e 57 c1 3d 41 6c 07 be 11 d7 10 3c a0 a3 e1 bd
       0.094404444 -0.1322489 0.008840338 -0.11017537
000240 d5 e8 a9 3d 0d 6b 8a 3d c8 ee b9 bd 29 69 b1 3d
       0.08296362 0.067586996 -0.09078747 0.08662636
000250 24 21 7c bd 19 f2 d5 bd ac 16 4e 3d cc ab ff 3c
       -0.061555043 -0.10446567 0.05031459 0.031209849
000260 fd 90 0b be 19 50 c8 3d 8d 9a 84 3c e7 64 03 3e
       -0.13629527 0.097809024 0.016186977 0.1283146
000270 f4 f7 bc bb 09 c2 bc bd c3 00 16 be 3c 02 8e bd
       -0.005766863 -0.09216697 -0.14648728 -0.0693402
000280 68 c0 0d 3b 8f 15 aa 3d 69 a6 44 bd 05 e4 e0 3d
       0.0021629576 0.08304893 -0.048010264 0.10980991
000290 ae e0 34 bc 96 b8 92 3b a8 d2 f1 bd c8 e5 90 bd
       -0.011039896 0.0044775708 -0.118077576 -0.07075077
0002a0 47 6f f4 3d 60 0e f0 3d d1 ce 2c bd 67 9a 9f 3d
       0.11935287 0.11721492 -0.042189423 0.07793122
0002b0 39 79 a4 bd ce 17 c2 3d 4a a5 3d 3c b5 24 bb bc
       -0.08030934 0.09477197 0.0115750525 -0.022844652
0002c0 19 c8 61 3d 0c 99 3d bd 35 38 09 bd 4f 0a 2f bd
       0.05512247 -0.046288535 -0.03350087 -0.04273444
0002d0 30 c8 d0 3d 6d 30 ff 3d 26 6e cc bd 2c 69 ed 3d
       0.10194433 0.12460408 -0.09981947 0.115923256
0002e0 64 29 9a bd 8d 2b a1 bd 3e 70 24 bd de fb 17 3d
       -0.07527426 -0.07869635 -0.040146105 0.037105434
0002f0 16 08 98 bd 9b d1 a1 bd e2 ef b2 3d d4 87 88 3c
       -0.07423417 -0.07901307 0.0873716 0.01666633
000300 22 91 3a bd 56 18 06 3c ce 79 45 3c 26 80 0d bc
       -0.045548566 0.008184513 0.012052966 -0.00863651
000310 b9 fc a0 bc 87 c9 39 3d 0b c5 18 bd 16 75 15 be
       -0.019651758 0.045358207 -0.03729729 -0.14595446
000320 d8 7a 48 3d 5a 97 2c 3d 95 08 f1 bd 0f 63 a0 3d
       0.048945278 0.042136528 -0.11769215 0.07831394
000330 bd 76 ed 3d c7 ec 6d bd 78 89 0e 3e b7 36 00 be
       0.11594913 -0.058087137 0.13919628 -0.12520872
000340 6d 9f be bd 8a b9 86 3d c4 2f 8b bc f8 2d aa bb
       -0.09307752 0.065783575 -0.01699055 -0.005193468
000350 da af da bd d4 aa 71 bd e8 ab cd bd 87 fb 81 bc
       -0.10678072 -0.059000805 -0.10042554 -0.015867008
000360 6f aa e1 3d 41 73 60 3d 81 77 35 3d 21 95 dd 3c
       0.11018836 0.054797415 0.04430342 0.02704865
000370 85 f2 09 be 55 20 dd bd dd f5 ea bd 40 7d 28 3d
       -0.1347142 -0.107971825 -0.11472676 0.041135073
000380 51 82 82 bd fc 6a 89 bd 0f 4c 9b bd ad ae 7b 3d
       -0.06372512 -0.06709859 -0.075828664 0.06144588
000390 f4 af f8 3d 0b df 90 3d 29 e6 bd bd 5c 10 05 be
       0.121429354 0.07073792 -0.09272415 -0.12994522
0003a0 8f ca b8 bc d0 5c 84 bd b7 93 86 3c 8f 01 fa 3c
       -0.022557525 -0.06463015 0.016427858 0.030518321
0003b0 b2 e1 11 3e f2 7b 99 bd 89 8e 53 3d 9b d1 9d 3d
       0.14246252 -0.07494344 0.051649604 0.07705995
0003c0 6b 7f 48 bd b4 1f 6a bc f0 df dd 3d a4 c2 35 3d
       -0.04894964 -0.014289785 0.10833728 0.044375077
0003d0 dd 3b bf 3c 3c 9a 84 bd 25 1c 41 3d a5 75 8d bc
       0.023343975 -0.0647473 0.04714598 -0.017268011
0003e0 1b dd 6a 3d b6 52 80 3d 7e ac 93 3d 84 d9 37 bd
       0.05733977 0.06265776 0.07210635 -0.044885173
0003f0 74 10 4d bc fa d7 e8 bd ba f5 03 3e d2 d7 5d bd
       -0.01251613 -0.11369319 0.12886706 -0.0541609

bias f4 [32]
000000 13 f8 16 3e e5 1e 9c 3d 2d 56 1a bd aa 75 92 bb
       0.1474307 0.0762308 -0.03767984 -0.004469593
000010 1f 77 ca bc 5d c2 9f bd e4 ba 43 bd ce 96 8a 3c
       -0.024715004 -0.07800744 -0.047785655 0.016917612
000020 05 73 ea 3d b7 4c 30 bd 70 34 f8 3d 9e 42 63 3d
       0.114477195 -0.04304191 0.12119377 0.055483453
000030 83 0c 91 bd 9e ac f9 3c 4a 1b 9b 3c 53 5d 9e 3d
       -0.070824645 0.030477818 0.01893391 0.07732644
000040 f3 5d b8 3d 99 4d eb bc c5 85 dc 3c 71 9c 60 3d
       0.090022944 -0.028723525 0.026919255 0.054836694
000050 e2 2f 5c bd ca c9 bc 3d a3 a9 d0 bd 3c f1 22 3d
       -0.053756602 0.09218176 -0.10188606 0.03978084
000060 cf ed e9 3d ae 19 ee 3d 2e ec c2 bc 42 22 f7 bc
       0.114223115 0.11625992 -0.02379426 -0.030167703
000070 e3 fd c2 3c 77 bc e2 3d bb f5 61 3d a7 05 0e 3c
       0.023802703 0.11071103 0.055165987 0.00866834

weight f4 [1, 32]
000000 48 5b 25 be b2 b2 f7 bd d6 ca 31 3e 68 b7 f1 3d
       -0.16148102 -0.1209463 0.17362532 0.1180256
000010 b2 6d 29 3e fd b0 21 3e be df c8 bd 43 88 88 3c
       0.16545752 0.15790172 -0.098083004 0.016666537
000020 e9 a4 fa 3d 8c 4e 99 3d fb 96 24 3e 7a d7 3e 3e
       0.12238485 0.07485685 0.1607322 0.18636885
000030 bc b3 36 be 7b 27 99 bd 4b ef 04 3e 99 b2 f1 bd
       -0.17842 -0.074782334 0.12981908 -0.11801643
000040 43 62 45 3e 33 9a f3 3d 7d 51 fc bd 26 b3 9c 3d
       0.19275765 0.118946455 -0.1232023 0.07651357
000050 1d f4 e0 3d 85 1c fe 3d 57 11 db 3d e6 11 cd 3d
       0.10984061 0.124077834 0.10696667 0.100131795
000060 e5 ff e9 bd 7f 9b 04 3e 0d 47 07 be 36 fa c5 3d
       -0.11425761 0.12949942 -0.13210697 0.096668646
000070 13 14 14 be 8b 06 ff bd a0 9a a6 3d 5e c2 33 be
       -0.14460783 -0.1245242 0.08134961 -0.17554614
