Baseline_systems/SoMS/models/SoM_GRU_25/109_1.pth (torch, 10975 bytes, 3 tensors)

weight f4 [32, 64]
-0.078546636 0.009174844 0.13619426 -0.115029655 -0.16553555 -0.11065296 -0.103392795 -0.15443368
0.14779207 -0.039894987 -0.100525394 0.02674367 0.0055180965 -0.058466617 0.0653532 -0.017224818
-0.011027483 -0.05066581 0.038163725 -0.08521591 -0.072745234 -0.16699621 -0.06753432 -0.0892097
0.157157 0.05238473 -0.028693391 0.1379259 -0.0641151 -0.033353157 0.14817737 0.00083339255
0.121310815 -0.032522228 -0.078478545 -0.09451438 0.14714319 0.05205667 -0.07284784 0.057646517
0.02321759 -0.0068951417 -0.06501301 0.04133577 0.022058018 0.08842087 0.06700084 0.025529938
-0.015003493 0.13029322 -0.04271753 0.105329104 -0.12999667 -0.05039805 -0.13207252 -0.08669754
0.07652551 0.07551033 0.13339028 0.015774513 -0.035674527 -0.15552594 0.0926798 0.08651351
-0.10128626 -0.08881107 -0.019331794 -0.07345463 -0.13779922 0.020949377 0.05456242 0.016797619
-0.08636686 -0.0148798805 0.156529 0.028829843 -0.06543499 -0.030071579 0.13144115 0.14581916
-0.10911243 -0.016411992 -0.12159515 -0.023449171 0.058264744 0.09836752 0.10890639 -0.05095902
-0.0664864 -0.020492155 -0.055834815 -0.118091404 -0.14464916 -0.14029224 -0.12336933 0.005661302
0.045348514 -0.014516025 -0.11201274 0.12465218 -0.14434941 0.16186596 -0.081762254 0.14361879
-0.13590416 -0.049217332 -0.05343327 0.0739005 0.033453092 -0.15030165 -0.0055037434 0.08041644
0.108232126 -0.10640404 -0.049000427 -0.016297169 0.047000386 0.010690121 0.046988808 0.102609225
-0.1378131 -0.17338152 0.15583386 0.07066525 -0.00049865665 -0.03839509 0.13644606 -0.0372396
0.035113838 -0.07294663 -0.07050098 -0.052388202 -0.02212348 0.047127355 0.10280725 -0.016965719
0.10221715 0.046588004 0.009775006 -0.029506378 0.05999986 0.08586808 -0.0722615 0.01744127
0.021229932 -0.11744181 -0.12464512 -0.09056854 -0.064206004 0.08101704 0.14716308 -0.014661214
0.0960261 0.047897704 0.1326582 -0.08628354 -0.015064833 0.06331237 0.06097018 0.098515965
-0.12312849 0.0745257 -0.13132867 0.15636517 0.005058459 -0.020249233 0.035586853 -0.005284773
-0.09393279 0.06255312 -0.02863644 0.055155795 0.15494847 0.070293196 0.098331615 0.14301011
-0.03775336 -0.047725026 0.057200547 0.023940722 -0.03805382 -0.15239812 0.011459567 0.13412222
-0.08050818 -0.057506543 0.1057801 0.115930706 0.026534598 0.016858416 0.12219165 0.09224377
-0.10505105 -0.032153424 0.102713324 -0.084216 -0.07415692 0.12832831 -0.038065095 0.03328282
0.06412965 0.06231777 0.1168163 0.16405712 0.14122383 0.14555717 -0.0149639705 0.14347954
-0.0051913573 -0.12417935 -0.09152905 0.061741743 -0.023840457 0.1401221 0.06220572 -0.006995717
-0.029083852 -0.010220941 0.10515583 -0.15413146 -0.15926926 -0.024581168 -0.06210215 -0.053032573
-0.075326204 -0.0005035456 0.041689586 0.077462375 0.06982589 0.07412002 -0.15551364 0.093184926
-0.07599887 0.10994984 0.04295367 -0.15128034 -0.025729176 -0.15877725 0.09977163 0.12817705
-0.034055203 -0.1455794 0.0056173494 0.13471591 0.16261527 -0.075258076 0.07392828 -0.07711897
-0.13418464 -0.15473329 -0.008300951 0.12702064 -0.04951863 0.12042837 0.06649058 -0.037302088
00000000: 0fdd a0bd 1652 163c 8276 0b3e ab94 ebbd
00000010: 2782 29be 059e e2bd 9abf d3bd dd23 1ebe
00000020: ce56 173e ed68 23bd 42e0 cdbd 8b15 db3c
00000030: 26d1 b43b b17a 6fbd e6d7 853d 101b 8dbc
00000040: 9eac 34bc f486 4fbd 9151 1c3d ae85 aebd
00000050: 74fb 94bd 0e01 2bbe 6f4f 8abd 93b3 b6bd
00000060: c4ed 203e 5f91 563d 670e ebbc 723c 0d3e
00000070: c74e 83bd 529d 08bd cfbb 173e 0778 5a3a
00000080: ce71 f83d 0736 05bd 5cb9 a0bd c190 c1bd
00000090: b4ac 163e 6039 553d 4031 95bd c11e 6c3d
000000a0: d132 be3c a4f0 e1bb 8a25 85bd b24f 293d
000000b0: 04b3 b43c 0016 b53d bd37 893d 2924 d13c
000000c0: 36d1 75bc 966b 053e 94f8 2ebd c9b6 d73d
000000d0: d91d 05be 306e 4ebd 053e 07be 7b8e b1bd
000000e0: 68b9 9c3d 29a5 9a3d 7697 083e 8d39 813c
000000f0: 741f 12bd 3142 1fbe e8ce bd3d ff2d b13d
00000100: 2c6f cfbd 94e2 b5bd b65d 9ebc 626f 96bd
00000110: 3d1b 0dbe 079e ab3c d87c 5f3d 299b 893c
00000120: 1ce1 b0bd beca 73bc 2349 203e 902c ec3c
00000130: c802 86bd ac58 f6bc 8298 063e 9e51 153e
00000140: 5676 dfbd 7172 86bc e106 f9bd 7a18 c0bc
00000150: 03a7 6e3d e974 c93d 500a df3d 68ba 50bd
00000160: 062a 88bd 2adf a7bc 0cb3 64bd e8d9 f1bd
00000170: e91e 14be c5a8 0fbe 0fa9 fcbd 7182 b93b
00000180: 5dbf 393d 9fd4 6dbc ef66 e5bd a449 ff3d
00000190: 55d0 13be 31c0 253e f872 a7bd ce10 133e
000001a0: 762a 0bbe 1d98 49bd d8dc 5abd 2559 973d
000001b0: 1c06 093d ade8 19be bf58 b4bb 60b1 a43d
000001c0: cea8 dd3d 5cea d9bd acb4 48bd a481 85bc
000001d0: 7a83 403d 9e25 2f3c 5677 403d c924 d23d
000001e0: e11e 0dbe ed8a 31be e992 1f3e f1b8 903d
000001f0: 48b8 02ba 2b44 1dbd 84b8 0b3e 8d88 18bd
00000200: 87d3 0f3d 0b65 95bd d162 90bd 0395 56bd
00000210: 4d3c b5bc 9d08 413d 9c8c d23d b1fb 8abc
00000220: 3a57 d13d 10d3 3e3d 5927 203c 5cb7 f1bc
00000230: 6ac2 753d 9bdb af3d d6fd 93bd ffe0 8e3c
00000240: 65ea ad3c 5585 f0bd f145 ffbd 007c b9bd
00000250: 707e 83bd 43ec a53d ebb1 163e 9735 70bc
00000260: 55a9 c43d 6230 443d 8dd7 073e 6db5 b0bd
00000270: 7dd2 76bc eaa9 813d debb 793d bdc2 c93d
00000280: ca2a fcbd eea0 983d 067b 06be 311e 203e
00000290: 6ec1 a53b b8e1 a5bc 85c3 113d e42b adbb
000002a0: d65f c0bd da1b 803d f896 eabc 0beb 613d
000002b0: d0aa 1e3e e1f5 8f3d 1662 c93d 3e71 123e
000002c0: 44a3 1abd 517b 43bd 1f4b 6a3d 551f c43c
000002d0: 53de 1bbd 410e 1cbe e8c0 3b3c 5657 093e
000002e0: 79e1 a4bd fb8b 6bbd 3da3 d83d 146d ed3d
000002f0: 165f d93c a91a 8a3c 9e3f fa3d 4dea bc3d
00000300: 0125 d7bd 4fb3 03bd 5d5b d23d 7079 acbd
00000310: 95df 97bd 7f68 033e 25ea 1bbd 9153 083d
00000320: 6856 833d eb40 7f3d 623d ef3d 97fe 273e
00000330: fb9c 103e f00c 153e 712b 75bc 4dec 123e
00000340: 431c aabb be51 febd 9573 bbbd e9e4 7c3d
00000350: 104d c3bc 2b7c 0f3e 6dcb 7e3d 543c e5bb
00000360: 4241 eebc bc75 27bc f15b d73d a3d4 1dbe
00000370: 7b17 23be 725e c9bc d35e 7ebd af38 59bd
00000380: a044 9abd 6000 04ba b3c2 2a3d 98a4 9e3d
00000390: e000 8f3d 3dcc 973d f83e 1fbe bdd7 be3d
000003a0: 4ca5 9bbd 622d e13d 30f0 2f3d 3ce9 1abe
000003b0: fec5 d2bc 8196 22be 1155 cc3d d840 033e
000003c0: 787d 0bbd c412 15be be11 b83b f8f2 093e
000003d0: 9e84 263e e820 9abd b667 973d 8df0 9dbd
000003e0: b367 09be 6772 1ebe b600 08bc b311 023e
000003f0: 0cd4 4abd 26a3 f63d 372c 883d 13ca 18bd

bias f4 [32]
-0.0117207505 0.030302603 -0.022926824 0.13059661 0.12854342 -0.078619115 0.0026630654 0.04562711
0.08738565 0.11945203 0.1339419 0.0018954284 0.023362488 0.088227026 0.05610992 0.086795494
-0.06825645 -0.0126982285 -0.040480804 0.098806374 0.046062734 0.09438777 -0.068771794 0.1545553
-0.058291655 0.145332 -0.084264815 0.00019010552 0.12795177 0.034477238 -0.07489026 -0.05950906
00000000: 6408 40bc 2a3d f83c 09d1 bbbc 1ebb 053e
00000010: e3a0 033e 0f03 a1bd d386 2e3b 7ee3 3a3d
00000020: 3ff7 b23d 44a3 f43d 1128 093e 0670 f83a
00000030: b062 bf3c 5fb0 b43d 84d3 653d d6c1 b13d
00000040: 0aca 8bbd 3b0c 50bc 33cf 25bd ff5a ca3d
00000050: 47ac 3c3d 604e c13d 3ad8 8cbd bf43 1e3e
00000060: 3bc3 6ebd e9d1 143e 0893 acbd 1057 4739
00000070: ca05 033e 0138 0d3d 1160 99bd c6bf 73bd

weight f4 [1, 32]
-0.18404151 0.15116557 0.06851088 0.08506548 -0.165953 -0.13468301 -0.20357622 0.073453866
0.046211023 -0.08909395 0.05232673 0.17020933 -0.21887794 0.13716175 -0.04261756 0.11497485
0.17639638 0.046722006 0.14191318 0.089629166 -0.12052282 -0.1671966 -0.05986359 0.07012461
-0.15785375 0.12727006 -0.18583195 0.113898896 -0.18776788 0.066826746 -0.0930275 -0.062587164
00000000: 6175 3cbe 26cb 1a3e 6f4f 8c3d cf36 ae3d
00000010: 95ef 29be 58ea 09be 4976 50be fb6e 963d
00000020: c547 3d3d e476 b6bd 8e54 563d 5b4b 2e3e
00000030: 8a21 60be 2174 0c3e c08f 2ebd ef77 eb3d
00000040: 41a1 343e 935f 3f3d b051 113e 7f8f b73d
00000050: abd4 f6bd 9635 2bbe 8633 75bd 7e9d 8f3d
00000060: 6aa4 21be 1553 023e bb4a 3ebe d343 e93d
00000070: 3946 40be 76dc 883d 3485 bebd b32d 80bd
