Baseline_systems/SoMS/models/SoM_GRU_25/22_1.pth (torch, 10975 bytes, 3 tensors)

weight f4 [32, 64]
000000 a2 d8 c9 bd c7 dd c7 bb f4 b0 f8 3d 9b 22 cd bd
       -0.098557726 -0.006099436 0.12143126 -0.10016366
000010 3b bd 16 be 87 cc c1 bd 7f 36 bd bd 03 f4 02 be
       -0.14720623 -0.094628386 -0.0923891 -0.12788396
000020 b6 d1 c5 3d 38 0c 69 bd 5b db d6 bd 48 74 23 3d
       0.0965914 -0.05689642 -0.104910575 0.039905816
000030 30 d7 02 bd 25 93 9c bd 9e 5e aa 3d 1c 0b fa bc
       -0.0319435 -0.07645253 0.08318828 -0.030522875
000040 18 40 4c bd 37 9b 40 bd da 09 d1 3c c1 de 83 bd
       -0.049865812 -0.047023024 0.025517393 -0.06438971
000050 3d 80 51 bd ed 21 16 be 7a 8b 63 bd e8 1e cc bd
       -0.05114769 -0.14661379 -0.055552937 -0.099668324
000060 bf 47 13 3e 6a d0 be 3d 11 cd d8 bb f2 7c 02 3e
       0.14382838 0.093170956 -0.0066162427 0.12742975
000070 53 f0 0d bd ae 1e 03 bd 17 60 01 3e 62 1c 2a 3c
       -0.03465302 -0.03201168 0.12634312 0.010382744
000080 86 5f e5 3d 1d 29 8e bd f4 7e 90 bd 13 52 99 bd
       0.1119986 -0.069414355 -0.070554644 -0.074863575
000090 7e 6d f8 3d 8d 6a 17 3d 95 40 b1 bd 9f ff 94 3d
       0.12130259 0.03696685 -0.08654896 0.07275318
0000a0 7b c5 26 3d 3a b6 02 3c a0 67 53 bd 29 52 6a 3d
       0.040715676 0.0079780165 -0.051612496 0.05720726
0000b0 f9 cd 04 3d 5c d1 95 3d e5 56 8d 3d 70 ac 13 3c
       0.032422993 0.07315323 0.069013394 0.00901328
0000c0 d1 7a 2a bd b1 a3 b2 3d ee 26 86 bd ec 26 b8 3d
       -0.041621033 0.08722628 -0.06550394 0.08991799
0000d0 7e fa e2 bd 56 d6 8a bd 20 ec ff bd 64 b1 9e bd
       -0.11082934 -0.067791626 -0.12496209 -0.07748678
0000e0 72 e8 74 3d c6 54 b7 3d 10 cc 9c 3d 3f d7 05 3d
       0.05979199 0.08951716 0.07656109 0.032675978
0000f0 a7 9f 97 bc 3b 5c 0d be ff 12 90 3d 52 61 bf 3d
       -0.018508745 -0.13804714 0.07034873 0.09344734
000100 a9 62 ca bd e4 49 94 bd 5f 04 33 bd 7a 36 bb bc
       -0.09882099 -0.07240656 -0.04370534 -0.022853125
000110 c9 c4 b9 bd 00 2d 36 39 ef fb 1b 3d a6 16 8c bc
       -0.09070737 0.00017373636 0.03808206 -0.017100643
000120 76 34 e0 bd 60 f0 81 bc 1d cc 0e 3e 41 2f 40 3c
       -0.10947506 -0.01586169 0.1394505 0.011730016
000130 44 8a a9 bd b0 f1 87 bd 7c ce e2 3d 6f fc e1 3d
       -0.08278325 -0.06637895 0.1107454 0.11034476
000140 e7 68 b0 bd 0b fc 81 3c 90 f0 d4 bd 5a ae 36 bd
       -0.086137585 0.015867254 -0.10397446 -0.04459987
000150 c2 ed cd 3d b0 3d a3 3d b3 e7 b8 3d 42 20 a3 bc
       0.10055114 0.0797075 0.09028568 -0.019912843
000160 f2 03 48 bd 63 07 80 bb 29 f8 b1 bd c6 a4 cb bd
       -0.048831888 -0.0039071306 -0.08689911 -0.099435374
000170 a8 91 f5 bd 51 f8 f2 bd ff d1 cd bd 3b cb 55 bc
       -0.11990672 -0.11863769 -0.10049819 -0.013048942
000180 52 36 fa 3c 7a 9f 52 3c 5f a9 66 bd 09 67 c2 3d
       0.03054348 0.012855405 -0.05631387 0.09492309
000190 63 04 d3 bd 23 05 d5 3d 34 c1 86 bd 95 01 ec 3d
       -0.10303571 0.104013704 -0.06579819 0.11523739
0001a0 ab 72 c0 bd 25 04 3f bd 34 08 97 bd cd f5 c9 3d
       -0.09396871 -0.046634812 -0.073746115 0.09861336
0001b0 56 2e 1f 3c 1b ad 04 be 4c 1c af bc 6e 0d b1 3c
       0.009715637 -0.1295666 -0.021375798 0.02161285
0001c0 c3 55 b6 3d f0 a8 9b bd ac 9a f8 bc 5c 88 5c bd
       0.089030765 -0.07600582 -0.03034719 -0.05384098
0001d0 26 c9 e1 3c 91 52 25 3d 5d 74 d2 3c fe 82 b0 3d
       0.027561735 0.040361945 0.025690252 0.08618735
0001e0 0e 3e e7 bd 79 29 f7 bd 75 96 0d 3e 9a 6b 3f 3d
       -0.11291133 -0.12068457 0.13826926 0.046733476
0001f0 e6 1a 81 3d 74 62 5e bd f0 15 c9 3d c0 41 74 bd
       0.063039586 -0.05429311 0.09818637 -0.059633017
000200 b1 10 31 3d b3 78 54 bd a0 be c8 bd 56 77 b0 bb
       0.04322881 -0.05187292 -0.09801984 -0.0053853197
000210 3e 6d 27 3d 44 7d b5 3c b1 31 a7 3d ff c5 42 bd
       0.040875666 0.022154458 0.08163775 -0.047552105
000220 13 d3 89 3d 2e 12 1a 3d 6f 78 2d bc e3 8a 44 bd
       0.06729712 0.037614994 -0.010587796 -0.047984015
000230 bb bb 19 3d c1 cf 23 3d 68 06 cd bd 3c 28 be bc
       0.03753255 0.03999305 -0.100109875 -0.023212545
000240 fc 68 3e 3d 48 26 a0 bd ea fa df bd da a2 ec bd
       0.04648684 -0.078198016 -0.1093653 -0.11554499
000250 81 59 3d bc a4 8d 7d 3d 86 90 03 3e 3d 16 8f 3c
       -0.011556984 0.061902657 0.128481 0.017466659
000260 e2 c1 ed 3d 95 8b 8a 3d 9c 76 b4 3d 42 95 83 bd
       0.11609246 0.067649044 0.088116854 -0.06424953
000270 6a 60 af 3c 93 8c be 3d 5e 58 a2 3d 0f c4 9f 3d
       0.021408278 0.09304156 0.07927011 0.07801067
000280 d1 3e 09 be 3e 0d e5 3d d3 c9 87 bd 55 59 01 3e
       -0.13402869 0.11184166 -0.06630292 0.12631734
000290 ae 00 84 3d 09 70 90 bd 88 c6 56 3d bb 18 25 bd
       0.06445442 -0.07052619 0.052435428 -0.040306788
0002a0 2c 41 1a bd fe f7 63 3d 33 a7 6f bd eb ba bb 3d
       -0.03765981 0.055656426 -0.058509063 0.09166511
0002b0 47 65 fd 3d a1 58 c4 3d 97 82 a3 3d cf 68 bf 3d
       0.12372833 0.09587217 0.079838924 0.093461625
0002c0 3f d6 6d bd b8 7a 01 bc e7 66 9b 3d a1 1c a8 bc
       -0.05806565 -0.007902794 0.075879864 -0.020521464
0002d0 35 13 7c bd 42 e5 f2 bd 47 0f 79 bc 63 07 f4 3d
       -0.061541755 -0.11860134 -0.015201396 0.119154714
0002e0 45 9c 3d bd 61 f4 58 bc 28 ad b1 3d f4 47 aa 3d
       -0.04629161 -0.013241858 0.08675605 0.08314505
0002f0 4f 14 bc 3d 0c 6e 6a 3b fb 8d 9a 3d b0 84 7d 3d
       0.09183561 0.003577116 0.07546612 0.06189412
000300 60 bf d7 bd 9d e9 47 bc 30 f8 9c 3d b3 e7 22 bd
       -0.10534549 -0.012201694 0.076645255 -0.039771747
000310 8a 62 cc bc cf b7 d7 3d 48 34 6b bd 1c 53 88 3b
       -0.02494933 0.105331056 -0.057422906 0.004160298
000320 00 f1 14 3d 16 60 87 3d ba 47 c7 3d bb a7 14 3e
       0.036362648 0.06610124 0.09730478 0.14517109
000330 2d a3 f7 3d 01 b2 dc 3d da dc 1e bd 00 cd db 3d
       0.1209167 0.10776139 -0.03878484 0.1073246
000340 79 7f 9c 3c c0 29 b8 bd c5 bb 8d bd 25 1d 25 3d
       0.019103752 -0.08992338 -0.0692058 0.040310998
000350 3b 78 98 3c 2f bf f8 3d 23 76 27 3d ff f0 c4 3c
       0.018612018 0.121458404 0.04088415 0.024040697
000360 b4 e6 ff bb 66 71 3d 3c 9f b6 93 3d 29 50 08 be
       -0.0078094844 0.011562681 0.072125666 -0.13311829
000370 41 54 06 be 1e 72 71 3a 87 73 1d bd fa 13 9d bd
       -0.13118078 0.0009210425 -0.038440254 -0.07669826
000380 6a e9 a7 bd 96 55 07 3d c6 7f c7 3d 81 3e 3d 3d
       -0.08198817 0.033040605 0.09741168 0.046202186
000390 f6 e0 e7 3d 59 6a d6 3c 70 7c 0c be 8b 14 84 3d
       0.11322205 0.026173757 -0.13719344 0.06449231
0003a0 7a a4 03 bd 17 df d1 3d 3a 14 ac 3c 27 5f f8 bd
       -0.03213928 0.10247629 0.021005739 -0.12127524
0003b0 9e 6f 5a bd e4 3f 0c be 79 37 a5 3d a0 8c 9d 3d
       -0.053329103 -0.13696247 0.08067221 0.07692838
0003c0 9b f9 68 bd b6 27 e9 bd 54 4f dc 3c 01 e8 bf 3d
       -0.056878667 -0.113845274 0.026893295 0.09370423
0003d0 84 57 11 3e 2a e1 36 bd 78 16 53 3d 90 ae c5 bd
       0.14193541 -0.044648327 0.0515351 -0.09652436
0003e0 f3 8f df bd a2 13 dc bd 88 59 e7 bc 11 fd ce 3d
       -0.10916128 -0.10745932 -0.028240934 0.10106862
0003f0 a5 2d 5e 3c 5b da d1 3d f4 b1 d8 3c 45 35 82 bd
       0.013560687 0.10246726 0.026452042 -0.063578166

bias f4 [32]
000000 4a 39 c9 bc 65 b7 55 3c da 3c 42 bd d7 80 e1 3d
       -0.02456345 0.013044213 -0.047421314 0.110109024
000010 4d 46 f6 3d 78 fd b6 bd 78 e3 29 bc 8c 53 ce 3c
       0.120251276 -0.08935064 -0.010369174 0.025186323
000020 32 aa 89 3d 3c 54 f5 3d d6 7e d4 3d 80 cb 74 bc
       0.06721915 0.11978957 0.103757545 -0.014941096
000030 b6 9a 60 bc a4 7d 98 3d 10 3c 5f 3d 0e 08 8e 3d
       -0.013708761 0.07445839 0.05450064 0.0693513
000040 2d 5e ba bd b6 c6 b8 bc b7 db 73 bd 1a d6 a0 3d
       -0.09099994 -0.02255569 -0.05953571 0.07853337
000050 95 cd 13 3d ac 20 a9 3d 8f ba a8 bd b4 5a e6 3d
       0.03608473 0.08258185 -0.08238708 0.11247769
000060 12 34 8c bd a7 63 01 3e b5 ba c4 bd 26 07 9e bc
       -0.06845869 0.1263567 -0.09605924 -0.019290518
000070 c6 5e fb 3d 6a f1 4d 3c 54 d8 c1 bd d2 94 98 bd
       0.12273936 0.012569765 -0.094650894 -0.0745026

weight f4 [1, 32]
000000 ed bb 21 be 2c 31 f4 3d 58 54 14 3d 21 92 6a 3d
       -0.15794344 0.11923441 0.03621325 0.057268266
000010 bf b1 18 be d1 fe e6 bd d9 2e 3f be d1 53 2b 3d
       -0.14911555 -0.11279071 -0.18670215 0.04182798
000020 9a d8 68 3b 83 b1 8c bd 9c 29 a7 3c b4 d9 11 3e
       0.0035529495 -0.06869795 0.020405583 0.14243203
000030 f4 d6 05 be 9f b6 ed 3d 46 8a a2 bc 9b 5b a8 3d
       -0.1307028 0.11607098 -0.019841325 0.08220597
000040 de b6 06 3e 6b 29 ec 3c d6 13 e0 3d cf 88 70 3d
       0.13155696 0.028828343 0.109412834 0.05872422
000050 d3 10 ce bd d3 ce 18 be 4f b7 0f bd 11 6c b6 3c
       -0.10061803 -0.14922647 -0.035086926 0.022268327
000060 96 fb 00 be 87 d8 c7 3d ac b8 2b be b5 cb a7 3d
       -0.12595972 0.09758096 -0.16769665 0.08193151
000070 29 1b 2d be 85 4f 12 3d 96 10 83 bd 56 e6 20 bd
       -0.16904892 0.035720367 -0.06399648 -0.039282165
