Baseline_systems/SoMS/models/SoM_GRU_25/93_1.pth (torch, 10975 bytes, 3 tensors)

weight f4 [32, 64]
00000000: 4f81 a3bd 9e05 023c 1b6e 073e 354c e8bd
00000010: 5012 28be b89e ddbd 2875 d2bd db5d 1abe
00000020: f4cc 143e 5b91 27bd 1fc6 ccbd 4749 e23c
00000030: 76ad 633b 249d 73bd 2e52 8a3d 26b7 9bbc
00000040: 54ef 47bc 630b 57bd dc5e 1a3d 08f5 aabd
00000050: 1103 94bd fa66 29be ab94 89bd afee b8bd
00000060: 0ade 1f3e a410 623d 212f d0bc ce7d 0c3e
00000070: c17f 7fbd cee8 09bd 28ae 163e d04f e33a
00000080: 3463 f73d 0991 0fbd 4759 a0bd bab9 bdbd
00000090: a837 123e 907e 4a3d 3fd9 96bd e28e 6e3d
000000a0: 1e6c c93c 7590 b0bb 340e 83bd 19d3 283d
000000b0: 483b bc3c 6f5f b13d b2a2 863d 44e9 c33c
000000c0: 8f98 81bc 9b30 fd3d f94e 30bd ec25 d53d
000000d0: 9746 03be af98 51bd 78d9 04be 4c98 b1bd
000000e0: fe52 9a3d 55f6 9e3d bd69 043e d7ae 8b3c
000000f0: cfe4 0cbd e6b8 1ebe 2d65 b93d 2623 b43d
00000100: 48f4 cdbd 0dde b7bd a932 a6bc 67e6 8abd
00000110: ba48 0bbe 2dc5 a53c de7d 623d 3960 5e3c
00000120: 8970 b3bd 5f28 55bc 23fd 203e 84f7 e93c
00000130: 0649 86bd cd0d 00bd 54ab 053e 1414 133e
00000140: 8440 dcbd 1163 61bc d3a1 f9bd de81 c5bc
00000150: 7413 753d 1f8f c73d 226c df3d 84c4 51bd
00000160: c5f8 89bd 3198 b4bc b00e 6fbd a586 f2bd
00000170: fc91 12be 3e4b 0ebe b766 f9bd b968 e03b
00000180: 80bb 333d 13fa 47bc cb0f e2bd cb24 f73d
00000190: c60c 10be 4b4c 223e 707a a7bd 7b31 113e
000001a0: afb3 07be 79f2 49bd 3ab9 5ebd bb79 973d
000001b0: 1c66 053d cc2d 19be db49 a2bb 939c a03d
000001c0: 620b de3d eb92 d5bd ea3b 4abd b054 9ebc
000001d0: f1e2 3c3d ff8f 4f3c 29c5 3c3d 96cf cf3d
000001e0: 1320 0bbe 77ba 2dbe 7c45 1f3e 2395 8e3d
000001f0: d007 463b ecfe 23bd af23 093e 16f5 17bd
00000200: 3973 0d3d 30d3 99bd bd63 91bd 2037 3abd
00000210: 1789 85bc de84 3a3d 1d5a d53d c90d a1bc
00000220: f4c1 c53d a669 423d 7824 3c3c acb8 e5bc
00000230: fc43 6c3d 44d3 a53d 3bdb 95bd 3fc0 723c
00000240: 2185 ba3c 5ab0 e4bd 6033 02be 3e0f babd
00000250: 1d0a 70bd 4649 a43d 0acf 173e 7baa 6dbc
00000260: 7ea5 c03d 5c45 3b3d 8e66 023e 04ca b1bd
00000270: fb46 1bbc 438b 893d 7738 803d 650d ce3d
00000280: 9ffe fcbd 4aee 973d 5483 04be 21f3 1b3e
00000290: 0018 4c3c b63b afbc 573c 113d ea0d 13bc
000002a0: b627 b2bd 1b19 713d 92da 08bd 1b8f 683d
000002b0: 304d 1b3e f652 933d 952c ce3d b696 0f3e
000002c0: 7a56 1ebd c046 35bd fa5e 5f3d 253e a23c
000002d0: 4509 26bd 6e3f 18be f327 2a3c 16d8 083e
000002e0: 68e6 9cbd c30f 61bd 54a0 d83d 4d49 e73d
000002f0: 156a 003d 1b80 973c fa17 f13d 0c64 b93d
00000300: 2088 d9bd 2367 03bd 8234 cf3d 4ddf a1bd
00000310: f261 93bd d0ab 023e 2180 1abd 2ea1 053d
00000320: 38ef 7d3d d9a2 853d eb50 f03d 0b9c 273e
00000330: 4731 0f3e 772e 133e 2b1b 87bc fc96 103e
00000340: 105b 70bb 5fb6 f8bd d643 babd 511e 7c3d
00000350: 36ea adbc 532f 0e3e b625 7c3d 9181 06bc
00000360: 93f9 efbc a1f0 2ebc 5fe6 d13d 49de 1dbe
00000370: ff39 21be 0e4b b7bc d911 78bd 5650 58bd
00000380: 9f38 9bbd 8394 0a3b 59ac 303d b102 973d
00000390: bc99 953d 78df 923d 5af3 1ebe cf00 bc3d
000003a0: 98ad 93bd 7aec de3d 3fcd 2b3d 59ae 19be
000003b0: 6e5e debc 9c8f 21be f85b cc3d cd43 013e
000003c0: 9f15 0fbd 2753 13be be7f c23b c338 063e
000003d0: e2c7 253e b8c6 96bd 6cc4 963d 1951 a2bd
000003e0: 1fb3 07be 15db 1abe d798 16bc 28db 003e
000003f0: 55f0 3cbd 8efa f63d 7a52 823d 581b 19bd
-0.07983648 0.00793591 0.13225596 -0.1134266 -0.16413236 -0.10821289 -0.10276252 -0.15074866
0.14531308 -0.040910106 -0.09998726 0.027622832 0.0034740842 -0.059476033 0.06753956 -0.01900823
-0.012203056 -0.052501094 0.03768812 -0.08347517 -0.07227147 -0.16543189 -0.06717809 -0.090299
0.15612045 0.05519165 -0.025413098 0.13719866 -0.062377695 -0.033669285 0.14714873 0.0017342512
0.12079468 -0.035050426 -0.07829528 -0.0926394 0.14279044 0.049437106 -0.07365655 0.058241732
0.024587687 -0.0053883144 -0.063991934 0.041216943 0.022977486 0.08660781 0.065740004 0.02391494
-0.015819816 0.123627864 -0.043044064 0.10407624 -0.12819897 -0.051171 -0.12973583 -0.086716264
0.07535361 0.07761828 0.12930961 0.017051144 -0.034397896 -0.1550022 0.09052501 0.087957665
-0.100563586 -0.089779 -0.020287829 -0.06782227 -0.13601962 0.020235622 0.055295818 0.013572746
-0.08761699 -0.0130101135 0.15721564 0.028560407 -0.06556897 -0.03126316 0.13053638 0.14363128
-0.10754493 -0.013756529 -0.12189069 -0.024109777 0.059833005 0.09744095 0.109092966 -0.051212803
-0.06736902 -0.022045227 -0.058363616 -0.11842088 -0.14313501 -0.1389589 -0.121777944 0.0068484214
0.043879986 -0.012205618 -0.110381685 0.120675646 -0.14067373 0.15849416 -0.0817765 0.14179032
-0.13252138 -0.049303506 -0.054375865 0.07396265 0.032568082 -0.14958876 -0.004952652 0.07842364
0.10842015 -0.10428413 -0.049373545 -0.019327492 0.046114866 0.012668609 0.046086464 0.10147016
-0.13586454 -0.16965662 0.1555385 0.06962039 0.003021706 -0.040038034 0.13392518 -0.037098967
0.034533713 -0.07510984 -0.07099102 -0.045462728 -0.016300721 0.04553687 0.10417578 -0.019659894
0.09656134 0.047464035 0.011483304 -0.02804216 0.057682022 0.08096936 -0.073172055 0.014816343
0.022768559 -0.11166449 -0.1271491 -0.090849385 -0.058603395 0.08021788 0.14825073 -0.014505978
0.09406565 0.045720443 0.12734434 -0.086811095 -0.009477372 0.06716015 0.0626077 0.100611486
-0.123532526 0.07418497 -0.12940723 0.15229465 0.012456894 -0.021390777 0.035457935 -0.008975485
-0.086989805 0.058861833 -0.03341157 0.0567771 0.15166163 0.07193558 0.10067097 0.14022335
-0.03865669 -0.044256926 0.054533936 0.019805023 -0.040536184 -0.14867947 0.010385501 0.1336368
-0.07661134 -0.054946672 0.10577455 0.11293278 0.031351168 0.018493703 0.11772151 0.090522856
-0.10621667 -0.03208078 0.10117437 -0.07903919 -0.07196416 0.12760854 -0.03771985 0.032624416
0.061995715 0.06525201 0.11734184 0.1636812 0.13983642 0.14373194 -0.016492447 0.14120096
-0.0036675371 -0.121441595 -0.0909497 0.06155235 -0.021229845 0.1388524 0.0615594 -0.008209602
-0.029293811 -0.010677488 0.10249018 -0.15416826 -0.1574478 -0.022374656 -0.060563896 -0.05281099
-0.07579159 0.0021145649 0.043133114 0.0737356 0.07304713 0.071715295 -0.15522519 0.09179842
-0.07210845 0.10884948 0.041943785 -0.15007915 -0.027144637 -0.15777439 0.09978479 0.1262352
-0.03493273 -0.14387189 0.005935638 0.1310759 0.1618953 -0.07362121 0.07361683 -0.079256244
-0.13251923 -0.15122636 -0.009191713 0.12583601 -0.046127636 0.12059508 0.063633874 -0.037379593

bias f4 [32]
00000000: 44b1 5bbc 8616 f23c 4812 bbbc 5bae 033e
00000010: 1765 043e 57b3 a2bd e22e 9f3a fcb1 463d
00000020: 99f4 ab3d cf6f f43d fcd3 023e db15 2f3b
00000030: b7b9 0d3c b4fc bb3d 6071 643d 5576 b53d
00000040: 68e1 92bd 4006 febb e0ab 21bd ae0c c63d
00000050: 9b99 383d 0a66 bf3d 6094 92bd 7cd0 163e
00000060: 3913 75bd 277c 153e 502a aebd badd b939
00000070: 895c 023e aa0e 0b3d 3869 cebd 96f1 84bd
-0.013408963 0.029551756 -0.022835866 0.1285948 0.12929188 -0.079443626 0.001214471 0.048509583
0.08396263 0.11935388 0.12776178 0.0026715908 0.008650235 0.09179059 0.055772185 0.08860461
-0.07171899 -0.00775221 -0.039470553 0.09670387 0.045068365 0.09345634 -0.071572065 0.14727968
-0.059832785 0.14598142 -0.08504164 0.0003545115 0.12730612 0.03394953 -0.10078663 -0.06491391

weight f4 [1, 32]
00000000: c894 38be b4f8 183e 0de7 833d b523 ab3d
00000010: 0574 28be 34c4 06be a818 4fbe d26a 933d
00000020: dd2c 323d ec8d b2bd 0583 4e3d 1538 2d3e
00000030: e49e 43be 47f4 0c3e ddd7 25bd df42 e83d
00000040: 3c44 323e faaf 423d 29c1 0f3e b001 b43d
00000050: 54cc f3bd dec9 29be b933 63bd 1724 883d
00000060: fad0 1dbe f133 013e 57ec 3cbe f6c4 e53d
00000070: e454 3ebe fb7d 853d 13d1 6fbd 68f0 70bd
-0.18025506 0.14938623 0.06440554 0.0835642 -0.16450508 -0.13160783 -0.2022425 0.07198109
0.043499816 -0.08718476 0.05041792 0.16915925 -0.1910358 0.1376506 -0.040489066 0.1134088
0.17408842 0.047531106 0.14038529 0.08789384 -0.11904207 -0.16580912 -0.05546925 0.066475086
-0.1541175 0.1261747 -0.18449531 0.11219208 -0.1858707 0.065181695 -0.058548998 -0.05882302
