Baseline_systems/SoMS/models/SoM_GRU_20/14_0.pth (torch, 213647 bytes, 8 tensors)

weight_ih_l0 f4 [192, 78]
000000 36 16 d3 bd 14 0f 6b 3d e9 ec ab 3d c4 53 dd ba
       -0.10306971 0.057387426 0.083947964 -0.0016885926
000010 56 0b e8 bd 43 12 ab bd 60 0c df 3d de a4 d7 3d
       -0.11330287 -0.083530925 0.10891032 0.10529493
000020 e8 66 cf bd 4b a7 14 bc fe 08 89 3d a9 33 c0 3d
       -0.1012705 -0.009073089 0.06691168 0.093848534
000030 95 b8 01 bc c8 3c a8 3c 3c 4a 8c bd 6c 6a 36 bc
       -0.007917543 0.020536795 -0.068500966 -0.011133771
000040 6c 1d 5a bd 19 16 32 3c 30 d7 e9 3c 57 e9 b4 bb
       -0.053250715 0.010869526 0.028544992 -0.0055209803
000050 f1 db d9 3d 6e 4a bd bd 16 a7 e8 bd 34 62 02 3d
       0.106376536 -0.09242712 -0.11359994 0.031831935
000060 2b 57 ee bd 7f c0 8d bd bc aa e7 3d ad ec c6 3d
       -0.1163772 -0.06921481 0.11311862 0.09713111
000070 68 47 2b bc 34 96 7f 3d da 0f c5 3c 56 15 80 bd
       -0.010454036 0.062399104 0.02405541 -0.062540695
000080 f7 fa f0 bd 84 e5 b8 3d fd a6 d0 bd 35 e4 87 3d
       -0.11766618 0.09028152 -0.101881005 0.06635324
000090 3f d7 5a bc 0a 31 ca 3d c0 29 ee 3d 4f 70 97 3c
       -0.013356983 0.09872635 0.11629057 0.01848617
0000a0 15 c5 98 3d 28 02 96 bd cb 53 0e bd 83 b2 42 3d
       0.074594654 -0.0732463 -0.03474788 0.047533523
0000b0 d4 ca 82 3d 75 1b b5 bd ba c6 0d 3d 9e 70 36 3c
       0.06386343 -0.08843128 0.03461335 0.0111352485
0000c0 ac af 82 bd 62 f1 d0 3d 11 d3 7f bd 45 fb c9 bc
       -0.06381163 0.1020229 -0.062457148 -0.024655947
0000d0 fd a7 30 bc 75 8a b8 bd 4f a3 9a bd 5c 98 4c bd
       -0.010782239 -0.090107836 -0.0755068 -0.04994999
0000e0 4d 14 8e bd ac 25 dd bd ef cc 97 3d dd dc 68 bd
       -0.06937466 -0.10798201 0.07412135 -0.056851257
0000f0 cb 4a 8a 3c 38 2a f9 3d a7 b7 35 3d 32 d4 bc 3d
       0.016881367 0.12166256 0.044364598 0.092201605
000100 32 58 da 3c a3 8b 8d bd e1 9c c2 3d 8c a8 1a 3c
       0.026653383 -0.06911399 0.095025785 0.009439599
000110 15 d6 83 bd 25 c0 12 bd 91 e4 df 3b 67 f9 a3 bd
       -0.06437317 -0.035827775 0.006832667 -0.08006554
000120 9e 97 b3 bc 4b 22 96 3a 27 30 5a bd cc 74 06 ba
       -0.021922883 0.0011454312 -0.053268578 -0.00051290984
000130 b4 4b 8a 3d 9b 23 8e bc 9f 82 ee 3c a6 a3 df 3d
       0.067527205 -0.017350962 0.02911502 0.10919885
000140 d2 90 f0 3d 4d cd 03 bd 2b 32 03 be 73 53 5d bd
       0.11746372 -0.032178212 -0.12812106 -0.05403466
000150 78 43 db 3b 91 73 d3 3d e4 d2 cf bd 6b 8c 9c 3d
       0.0066913925 0.10324777 -0.10147646 0.0764397
000160 d8 40 bd 3d 76 34 b7 bc 6d bd b2 bd 8c dc 6b 3d
       0.092408836 -0.022363883 -0.08727536 0.057583377
000170 c2 68 1d bd c3 13 9e bd c1 dc 3f 3d a5 c3 e5 3d
       -0.038429983 -0.07718613 0.046841387 0.11218957
000180 41 f5 2d 3d 16 10 97 3d 35 97 d4 bd 12 d1 04 3d
       0.04247022 0.07376115 -0.10380403 0.032425947
000190 c4 a0 e2 3b cb 69 08 bd da d9 a2 3d e5 36 04 3e
       0.0069161374 -0.033304017 0.07951708 0.12911566
0001a0 e6 8f 3b bd 52 75 d8 bd 3c 7e 23 bd 10 77 98 3c
       -0.04579153 -0.10569252 -0.03991531 0.01861146
0001b0 63 60 8d 3d 1d 2f ea 3d 2e 14 8b 3d 64 ba e3 3d
       0.0690315 0.114347674 0.06790958 0.111195356
0001c0 02 8c 78 3a a2 29 27 bd 26 e6 06 3c 89 12 90 bd
       0.0009481312 -0.04081119 0.008233583 -0.07034785
0001d0 19 64 0a 3e 80 7a e7 3d bd ad ac 3d 47 10 60 3c
       0.13514747 0.11302662 0.084315754 0.013675756
0001e0 7c 58 9c bd 73 18 b6 3d 09 4f 07 3d 38 4e 62 bd
       -0.076340646 0.08891382 0.03303436 -0.055250376
0001f0 7b 64 09 bb dd 1e b3 3c 64 09 d5 bd dc 5f b7 3b
       -0.0020964432 0.021865303 -0.10402182 0.005596144
000200 b2 85 0e bd ee ab 73 bd c6 52 b4 bd 63 9e 81 3d
       -0.03479547 -0.059490137 -0.0880485 0.06329038
000210 b3 f1 b4 bc 24 ee 61 3d 33 32 c5 3c 1d c6 8e bd
       -0.022087907 0.05515875 0.024071788 -0.06971381
000220 ca 27 00 3e 39 12 0e bd 7b 43 d4 bd de a3 6c 3d
       0.12515178 -0.034685347 -0.103644334 0.057773463
000230 bb 9c 07 3c 52 f5 b5 3d 41 08 a7 3d 75 89 43 bc
       0.008277114 0.08884682 0.08155871 -0.011934628
000240 30 20 b0 3d bb 38 26 3d 18 c0 22 3d cd a2 11 bb
       0.08599889 0.040581446 0.039733976 -0.002222228
000250 46 bd e8 3d de 58 8c bd f1 3d b8 bd 38 b9 f7 bc
       0.11364226 -0.068528876 -0.089961894 -0.030239686
000260 5a 22 70 3c 65 76 fb 3d 86 bc 03 be de 70 35 bd
       0.014656628 0.12278441 -0.12864885 -0.04429709
000270 72 2d 8f bd 30 d6 cb 3d d6 68 29 3d e1 85 69 bc
       -0.0699109 0.099529624 0.041359745 -0.014253111
000280 4a 15 b3 3d aa 02 b2 3d 29 45 1e 3c 4c f0 ce 3c
       0.08744295 0.086919144 0.009660044 0.025261067
000290 83 32 c2 bd 13 a4 00 be 0c 07 2f bd e4 2a 99 3d
       -0.094822906 -0.1256259 -0.04273133 0.07478884
0002a0 11 19 ee bd 9a 05 e1 bd e4 4a be bd 14 7e b1 3d
       -0.11625875 -0.109873965 -0.09291628 0.086666256
0002b0 2c fa d1 bc c5 80 40 bc 37 5f ce bd 1d a1 5c bd
       -0.025631987 -0.011749451 -0.100767545 -0.053864587
0002c0 e0 f1 24 3c 87 5c 58 bc b6 c7 b1 3d 70 3f ca bd
       0.010067433 -0.013205654 0.0868067 -0.09875381
0002d0 d5 39 00 be a5 b3 dc bb 70 ad 8d 3d f4 2c 8b bd
       -0.12522061 -0.0067352825 0.06917846 -0.067956835
0002e0 a8 26 bb bd 18 2f e2 bd 82 70 c0 3d ca 11 d7 3c
       -0.091382325 -0.11044139 0.09396459 0.0262536
0002f0 20 4b c8 3d a8 d4 da bc c3 7e ac bc 03 f6 9e bd
       0.09779954 -0.02671273 -0.021056538 -0.07761767
000300 79 b9 e6 bd b1 91 80 3c 9b 54 ee 3c b6 16 16 3d
       -0.11265845 0.015694471 0.029093077 0.036642753
000310 4b d3 ad bd 24 ae c3 bd e7 ae e1 bd 4f fe be bd
       -0.084875666 -0.09554699 -0.11019688 -0.09325849
000320 9e 65 d8 bd ae 40 3b bd 3c 11 04 bd 45 97 36 bd
       -0.10566257 -0.04571598 -0.032243 -0.044577856
000330 6b c4 f5 bc 3a 4c d2 bd 3b 5a 03 bc 02 bc ae bd
       -0.030000886 -0.10268445 -0.008017118 -0.085319534
000340 40 da 69 3d 69 14 1d 3d e3 2f fa bd a8 4f a9 b8
       0.057092905 0.038349543 -0.12216165 -8.073385e-05
000350 99 e9 07 be 8d b3 08 be 3c b4 ee bc ef c4 4d bd
       -0.13272704 -0.13349743 -0.029138677 -0.05023664
000360 30 56 f5 bd 8d 1e 21 bd e4 5d 6f bd 62 56 80 bd
       -0.119793296 -0.039335776 -0.05843915 -0.06266476
000370 ab e3 1d bb ef 1c a0 3d 67 de 88 3b a4 8e ae bd
       -0.0024092 0.07818019 0.004176903 -0.085233
000380 f6 ec 34 bd 07 00 7c 3d b8 55 bd 3d 8a 7f 28 bd
       -0.044171296 0.061523464 0.09244865 -0.041137256
000390 a2 1e 67 ba 93 0d 00 be ff 70 4a 3c fb ab dc 3d
       -0.00088165153 -0.12505178 0.012356042 0.1077499
0003a0 32 d8 92 bb ab 1b a0 3d cd 8c 01 be 75 35 de 3d
       -0.004481339 0.07817777 -0.12651367 0.1085004
0003b0 41 44 c2 bd fc bb f4 bc 26 7f d5 3c 09 5c be bc
       -0.09485675 -0.029874794 0.026061606 -0.023237245
0003c0 21 b6 26 3d d2 6c 3f bd ef c6 d0 bd 5e 3f 95 3c
       0.040701035 -0.04673464 -0.101941936 0.018218692
0003d0 e1 2e 18 3d bb 1f 51 bd 7b ba 4d bd 21 d4 a8 3d
       0.037154082 -0.05105565 -0.05022667 0.082435854
0003e0 e9 76 14 3d 85 cf 49 3d d3 d7 bb 3c f8 b1 d7 3d
       0.036246214 0.04927017 0.022930061 0.10531992
0003f0 5d b6 70 bd 62 55 e9 3c f9 9e 1f bd ca ca 18 bd
       -0.058767665 0.028483097 -0.038969968 -0.03730277

weight_hh_l0 f4 [192, 64]
000000 cf 76 45 3d 77 0f 93 3d 51 40 6c bb 59 83 b3 bd
       0.048209008 0.07180684 -0.0036049078 -0.08765287
000010 fa 44 aa 3d 3e 6d ea bd e3 25 8e 3d ee 9f a2 3d
       0.083139375 -0.114466175 0.0694082 0.079406604
000020 d6 b0 ac bd ad a5 52 bd bd fd 94 bd b9 31 ef 3a
       -0.08432166 -0.051427532 -0.07274959 0.0018249071
000030 35 28 63 3d 8e da d6 bc c5 99 79 3d e0 a5 8d 3d
       0.055458266 -0.026227262 0.06093766 0.06916404
000040 bf 17 a2 bd 8a b4 01 bc 4c e0 ce bc 54 c8 d8 bd
       -0.079146855 -0.007916579 -0.025253437 -0.105850846
000050 47 d3 4d 3d c8 ed 51 bc 74 d6 24 3b 9b d0 be bd
       0.050250318 -0.012813039 0.0025152238 -0.09317132
000060 1a 0c 51 3d ab 3e 8d bb d0 17 69 3d 18 95 17 3d
       0.05103693 -0.004310449 0.056907475 0.03700742
000070 02 9e 82 3b 8e 84 dd bc 6d 63 8c bd ce fe 4c bd
       0.003986121 -0.027040746 -0.068549015 -0.05004769
000080 74 92 fd 3c f2 3d 87 bd ba 88 be 3d de 92 e6 3d
       0.030953623 -0.06603612 0.09303422 0.112584814
000090 d7 16 f7 3d 54 fe 45 ba a6 22 a1 bc 38 ad b2 3d
       0.12064903 -0.00075528515 -0.019669842 0.08724445
0000a0 35 14 20 bd 01 22 10 3d 62 62 a0 bd e3 5a eb bc
       -0.03908177 0.03518868 -0.07831265 -0.028729862
0000b0 64 61 d6 bd be f1 c8 bb 6d 20 cc bd bb 89 98 3d
       -0.104677945 -0.0061323335 -0.09967122 0.07448145
0000c0 b8 cb e7 bd b2 4c a0 3c e7 98 cf bd 61 5b d8 bd
       -0.11318153 0.019567821 -0.10136586 -0.10564304
0000d0 95 eb 4b bd 4a 4c fb 3d 27 78 3d bd 8a 61 87 bc
       -0.049785215 0.1227041 -0.046257164 -0.016526002
0000e0 c7 a8 b2 3c 2e 72 e1 bd 33 9d 25 3d 3e 24 44 bd
       0.021808995 -0.11008106 0.04043312 -0.047886126
0000f0 02 10 bb 3d e1 07 83 3d 64 5f 84 3d 9d bb 88 3d
       0.091339126 0.06397987 0.06463507 0.066764094
000100 df c7 45 bd 64 10 47 3d 3b 76 04 bd 5e ee c2 bd
       -0.048286315 0.048599616 -0.032339316 -0.09518121
000110 47 9a 82 3d 2b 9d e7 3d 03 35 97 bc 62 d0 4b bd
       0.06377082 0.11309274 -0.018457895 -0.049759276
000120 6d a1 39 3d 07 52 d4 3d 0d ac 37 3d 70 ba 80 bc
       0.045319963 0.10367208 0.044841815 -0.0157139
000130 d3 b0 46 3b e7 7f 7f 3d fb ac 88 bd 5d 8e cd 3d
       0.0030317798 0.062377837 -0.066736184 0.10036919
000140 1d a0 cb bd 99 ea 04 bd 62 bb 48 bd b0 a7 83 3d
       -0.099426486 -0.032450292 -0.049006827 0.06428468
000150 51 fe 43 3d ee dd 6a bd f2 56 28 bd ca f8 68 bd
       0.047849957 -0.057340555 -0.041098543 -0.05687789
000160 c9 38 0f bd 15 be dc bd e1 b2 87 3d 2b 6b 62 bd
       -0.034966264 -0.10778443 0.06625915 -0.055277985
000170 da 25 96 bd 26 d6 a9 bd c5 6f aa bc c6 31 9f 3d
       -0.07331438 -0.08292799 -0.020805249 0.077731654
000180 4d b9 e4 bd 68 6a 04 3e 36 e4 79 bc f7 d2 44 bd
       -0.11168156 0.12931216 -0.015252164 -0.048052754
000190 a8 69 a2 3d 1d 22 9d 3d c4 dc 07 bd 08 f9 76 3c
       0.079303086 0.07672522 -0.033169523 0.015074022
0001a0 3f 9d 15 3d f4 aa e4 3c 6c df 15 3d 72 f5 50 bc
       0.036526915 0.027913548 0.036590025 -0.012753831
0001b0 5a 7f ec bd 07 c8 6d 3c 08 c6 9d bd bc 8f 2b 3d
       -0.11547728 0.014513022 -0.07703787 0.041885123
0001c0 85 82 57 bd 4a 46 1d bd dc b5 d0 bd dc b6 b3 3b
       -0.052614707 -0.03839711 -0.10190937 0.005484445
0001d0 0b d3 35 bd a6 6b 94 bd b1 00 6b 3c 52 55 31 3c
       -0.04439072 -0.07247095 0.014343427 0.010823565
0001e0 3e bd 05 3e 58 2c d4 bd 50 66 eb bd 7b 6d b2 bd
       0.13060471 -0.103600204 -0.11494124 -0.08712288
0001f0 1d 30 c1 bc 80 11 6b 3d 67 5c 1a bd 8a b6 c9 3c
       -0.023582513 0.057389736 -0.037685778 0.024623174
000200 f2 0b 15 3d f9 86 66 bd 21 cc d7 bd 3e bb d1 3d
       0.036388345 -0.056281064 -0.105369814 0.10240792
000210 2a dc 88 bd a0 cc 35 3d 17 f3 e1 bd 7b 7b 09 3d
       -0.06682618 0.0443846 -0.11032694 0.033565026
000220 e9 c6 d4 3c ba 60 4d 3c ed 2a a3 bc fd 4b 39 bd
       0.025973754 0.012535268 -0.01991793 -0.045238484
000230 da e2 b9 bd 00 4c d7 bd cd a3 bd 3d d3 2c 9b bc
       -0.090764716 -0.10512543 0.09259758 -0.018942272
000240 20 60 82 bd 6f 10 ca bd 71 83 ef 3d c8 b5 89 3d
       -0.06365991 -0.09866416 0.11694992 0.06724125
000250 1a 4f f6 bd 68 b5 4a bd cc 5f 85 bc 12 c6 ac bd
       -0.12026806 -0.04948941 -0.016281031 -0.084362164
000260 ed 05 38 bd 33 1a 19 bd f1 13 57 bd cb 5f 3e bd
       -0.044927526 -0.0373785 -0.052509252 -0.046478074
000270 27 6c 8f bd b7 7f da bd 58 43 88 bd 0e 27 fc 3c
       -0.0700305 -0.10668891 -0.0665347 0.030780341
000280 6d 74 c4 3d 28 e6 bc bd 9d c0 0f bd 20 73 93 3d
       0.09592519 -0.09223586 -0.0350958 0.07199693
000290 4b ba 4c bd ad 69 34 3d 30 16 ea 3d ad a3 ab 3c
       -0.04998235 0.044046093 0.11430013 0.02095207
0002a0 58 c7 da bd 15 1d ea bd 50 1e 0f 3d 26 18 ac 3d
       -0.10682553 -0.11431328 0.034941018 0.084030434
0002b0 d8 5e ac bd 8b 94 1c bd f4 99 a0 bd 48 0f f2 bd
       -0.084165275 -0.0382276 -0.07841864 -0.11819321
0002c0 4b 6d 9c 3d 86 20 ed bd d7 4a a2 3d b9 29 c5 bd
       0.076380335 -0.11578469 0.07924431 -0.096270986
0002d0 42 df 95 3c a0 f8 a1 bd c6 d5 12 bd 02 3c 81 3d
       0.018294934 -0.079087496 -0.0358484 0.06310274
0002e0 56 7c a5 bc fc de a4 3d 3f 72 94 3d ba 03 e5 bc
       -0.02020089 0.080503434 0.07248353 -0.027955879
0002f0 0c af 75 3d 26 9b c1 3c c7 65 b0 3d fa 87 ca bd
       0.05998139 0.02363355 0.086131625 -0.09889217
000300 1a d2 48 3c a3 91 ef 3a 4a 18 cd bd d6 6a af 3d
       0.012257123 0.0018277656 -0.100143984 0.08565299
000310 da 2e ad bd 55 6e 4f 3c 3b cc 9c 3d 50 82 21 3d
       -0.08456202 0.012660583 0.07656141 0.039430916
000320 50 6f 29 bd 9c 97 93 3d 2b 73 96 bd d6 83 d7 bd
       -0.04136592 0.072066516 -0.07346185 -0.105231926
000330 fc 60 1b bd 9f f1 3c bd 4e 08 db 3d 06 70 71 bd
       -0.03793429 -0.046128865 0.10694943 -0.058944725
000340 28 69 fa bb 3e 67 bf 3d 61 4a f4 bd 80 7b fc 3c
       -0.00764193 0.09345864 -0.11928249 0.030820608
000350 dd 31 b4 bd 57 95 da bd 34 70 fb bb db f1 02 bd
       -0.08798573 -0.106730156 -0.0076732878 -0.031968933
000360 be 2f 2a 3c ec 7a e7 3c bc de b6 3c 1e f4 d4 bd
       0.010387359 0.028256856 0.022323005 -0.10398124
000370 95 a6 d4 bd cf 97 e5 3d 08 e1 1f bd 7a 50 af bd
       -0.103833355 0.11210596 -0.039032966 -0.085602716
000380 a8 98 9b bd 84 a5 d7 3d 88 f9 f5 3d 5b 5f db 3d
       -0.07597476 0.105296165 0.12010485 0.10711547
000390 f5 8e 92 bd 34 bb bf 3d ca a5 d7 bc 3e a4 07 3e
       -0.07156173 0.09361878 -0.026324172 0.13246247
0003a0 a7 b1 57 bd 8f bb ef 3c 12 44 c4 bc e5 18 0a be
       -0.052659657 0.02926424 -0.02395824 -0.13486059
0003b0 01 6d 40 bd 27 58 b9 3d 40 a8 c6 3a cd 04 15 3d
       -0.046978954 0.09050017 0.0015156344 0.03638153
0003c0 00 1c 83 3d bb 9f 38 bd 96 3b de 3d d3 12 c4 bd
       0.06401825 -0.045074206 0.10851209 -0.09573903
0003d0 1b 28 8f 3c 39 5d 7f bc c9 5b c2 3d 26 26 08 be
       0.017475178 -0.015586191 0.09490163 -0.13295802
0003e0 1a 0a 37 3c 66 e7 d7 bc cf ad db bd 51 af 27 3d
       0.011171842 -0.026355457 -0.10726511 0.04093868
0003f0 8e 00 e0 bd a3 65 e8 bd 8b fa 9a bd 12 8a 24 3d
       -0.10937606 -0.11347511 -0.075673185 0.040170737

bias_ih_l0 f4 [192]
000000 fb b9 ba 3c dd 08 b9 3d be da 98 3d 2d e5 2d 3d
       0.02279376 0.09034894 0.07463597 0.042454887
000010 9d 7b f1 bc 0b b6 af 3d 12 71 d9 bd 29 93 89 bd
       -0.029477889 0.08579644 -0.106172696 -0.06717522
000020 5e 93 d9 bd 2b 23 4d 3d 7f 73 49 3d 0a 2a b6 bd
       -0.10623811 0.050082367 0.04918241 -0.08894737
000030 91 5d 96 3d 18 09 87 3d 0f 87 4b bd 90 9b 4c bd
       0.07342065 0.06593531 -0.04968935 -0.049953043
000040 62 0e 07 3d 34 d9 a8 bc 6e ee 30 3d 97 1c a1 3d
       0.0329727 -0.020611383 0.043196134 0.07866781
000050 0d 59 6b 3c 9b 6a e2 3d a1 95 02 3e 6a ad e1 3b
       0.014364493 0.1105549 0.12752391 0.0068871276
000060 40 4f 56 3d 67 3f b0 3d cc 14 be bd 01 45 eb bd
       0.052321672 0.08605843 -0.092813104 -0.11487771
000070 37 9e 91 3c f9 18 a1 bd f6 a9 9a 3b e2 ab 7f 3d
       0.017775638 -0.07866091 0.004719968 0.06241978
000080 15 07 b8 bd 19 51 bd 3c f5 34 93 bb 89 39 b7 3c
       -0.08985726 0.02310996 -0.004492397 0.022366302
000090 8a 1b ef bd 2a 31 18 bd 13 fe f2 bc 3a 67 df 3d
       -0.116751745 -0.03715626 -0.029662168 0.10908361
0000a0 b4 71 38 bd 01 59 96 3c 68 bd ad 3d 01 64 1e bd
       -0.04503031 0.018352987 0.08483392 -0.03866959
0000b0 fd d6 dd 3c a4 6b 54 3d 4c 9d 04 3e 90 d6 61 bd
       0.027080053 0.051860467 0.12950629 -0.055136263
0000c0 cf 2c 92 3d 9b 4d 10 3d fb b0 f5 3d 6a 3a 8e bd
       0.07137453 0.03523026 0.11996647 -0.06944735
0000d0 e4 2e 13 3d cf 17 f7 3d 82 72 81 3d c1 e5 85 bd
       0.03593339 0.12065088 0.06320669 -0.06537963
0000e0 28 7f e5 3d 31 af 39 3c db 5e 36 bc 5f 79 2a bd
       0.11205894 0.011333273 -0.011131014 -0.041619655
0000f0 63 58 89 3d e0 a0 36 3d 9f 89 02 bd df c5 82 bd
       0.067063116 0.044587016 -0.031869527 -0.06385397
000100 60 32 ec 3d cd e4 9c 3c d9 e6 28 3c ec 52 69 bd
       0.11533046 0.01915207 0.010308945 -0.056963846
000110 97 31 df bd 95 5b da 3d 4d 2c e7 3b 22 0b e8 3d
       -0.108981304 0.10661999 0.0070548416 0.113302484
000120 9d 6a 89 3b 51 05 46 bd 26 7f 46 3c 30 9c 57 bc
       0.0041936175 -0.048344914 0.0121152755 -0.013159797
000130 d1 35 99 3d 77 a9 05 be 8a c0 44 3c 71 c0 9b bd
       0.07480968 -0.13052927 0.0120087955 -0.07605065
000140 e8 a2 6e bc 7c a7 90 3c 1a 6b 52 bd cb 70 a9 bd
       -0.014565207 0.017657988 -0.05137167 -0.08273467
000150 eb 31 37 3d 0c 64 a7 3c 6a 32 aa 3c 1e 54 b7 bc
       0.04472534 0.020433448 0.020775992 -0.022378977
000160 6e 48 b3 3d b3 ce e7 bd da d9 a8 3b 04 86 8e bd
       0.08754049 -0.113187216 0.005152923 -0.06959155
000170 94 da 9f 3d 6a 18 61 bd a8 08 01 3e d0 af 90 bd
       0.07805362 -0.054954924 0.12600958 -0.070647836
000180 45 c8 8b bd 8a 62 82 3d 63 4b e0 3d 91 a9 d7 bd
       -0.06825308 0.06366451 0.10951879 -0.10530389
000190 31 6e 89 bc 5b 70 b5 bd c3 42 86 bc 60 9b a9 bd
       -0.016776176 -0.08859321 -0.016389256 -0.082815886
0001a0 96 46 a6 3d 4d 13 99 bd 06 c5 27 3d 17 66 28 bd
       0.08118932 -0.074743845 0.04095938 -0.041112985
0001b0 9b b5 c2 3d a3 28 7d 3d ed 34 c1 bd f9 42 e9 bd
       0.09507295 0.061806332 -0.09433923 -0.11389727
0001c0 7a e3 e7 3b 83 1f 8e 3d 14 6a b8 bc b1 36 93 bd
       0.007076678 0.06939604 -0.02251152 -0.07188166
0001d0 88 83 bf bc 40 57 72 bd 0f 3b bf 3d cf 4a c1 3d
       -0.023378149 -0.05916524 0.093374364 0.09438097
0001e0 d8 aa b2 bc 51 8b 90 bd 52 2b 6a 3d 79 b6 e2 bd
       -0.02180998 -0.070578225 0.05717022 -0.1106996
0001f0 15 61 19 bd 22 58 4d bd dc d4 2d bb b1 cd a7 3d
       -0.0374461 -0.050132878 -0.002652458 0.081935294
000200 39 da 06 bd 3d d3 bb 3d 26 89 35 bd 66 a8 22 3d
       -0.032922957 0.0917115 -0.044320248 0.03971138
000210 12 9c 53 3d af b9 fb 3d 61 87 c7 3c 7c d6 0e bd
       0.051662512 0.12291276 0.024356546 -0.034872517
000220 d9 e0 86 3b a0 2b 8f 3d de a8 ec bd c4 58 0b bd
       0.0041161594 0.06990743 -0.11555646 -0.0340202
000230 ab 5c 75 bd 55 3e aa bd 84 7d f1 3d 73 83 17 bd
       -0.05990283 -0.0831267 0.11791518 -0.036990594
000240 0d 65 63 3d 1a 07 0d be 76 04 5f 3d 63 f5 a9 bc
       0.05551629 -0.1377224 0.054447614 -0.020746892
000250 68 a6 01 3e a2 d4 a7 3d 2e 94 5c 3c 74 d9 30 bd
       0.12661135 0.08194853 0.013463063 -0.04317613
000260 35 12 18 3c 75 37 da 3d 0c 2e 8a 3d ae e9 11 bd
       0.009281685 0.10655109 0.06747064 -0.035623245
000270 84 cb 94 3d e9 52 c3 bd 37 7e d9 bc 91 bd 06 bd
       0.0726538 -0.09537298 -0.026549442 -0.03289563
000280 0d 6b 0a bc 42 57 4b 3d d6 ad 86 bd 8a 4d 78 bd
       -0.008448374 0.049643762 -0.06576125 -0.060620822
000290 04 d4 04 3e 1a 7f cd bd a1 be 83 3d 9f c6 8b 3d
       0.12971503 -0.10034008 0.06432844 0.06824993
0002a0 fd 4b c1 bd c3 e9 17 bd 83 b2 a8 bd 93 df 9c 3d
       -0.09438322 -0.037088167 -0.082371734 0.07659831
0002b0 c1 12 db 3d 34 ef cc 3d 64 ad 08 3b c3 dc b1 bd
       0.106969364 0.10006562 0.0020855302 -0.08684685
0002c0 8b 3f 8c bd 2f 5e 9f bd 4a 1f 37 3d 84 01 ae bd
       -0.06848057 -0.07781636 0.044707574 -0.08496383
0002d0 50 29 ea 3c c6 39 60 bc 0e 05 80 bd 15 7c 0e 3d
       0.028584152 -0.013685649 -0.06250964 0.034786303
0002e0 36 cc ff bd 59 d7 17 bd fa 24 c1 bd 70 aa ae 3d
       -0.12490122 -0.037070606 -0.09430881 0.08528602
0002f0 c5 b3 2b 3d 66 13 bd bc 63 95 63 bd be 44 8d bd
       0.04191949 -0.023080539 -0.05556239 -0.06897877

bias_hh_l0 f4 [192]
000000 d6 53 8f bd 37 36 0e be 50 8c db bd d6 29 a4 bd
       -0.06998412 -0.13887869 -0.10720122 -0.08015792
000010 7b 27 1a bd 01 6b 9c bd 90 eb bd bd d7 eb c6 bd
       -0.037635308 -0.07637597 -0.092734456 -0.09712952
000020 5f af 92 bd 13 f6 0f bd f9 77 e4 3d b5 ae a4 3c
       -0.07162356 -0.035146784 0.111556955 0.020102838
000030 c0 a1 a9 bd 0d 44 87 bd 52 d5 85 ba 77 14 89 bd
       -0.082828045 -0.066047765 -0.0010210669 -0.066933565
000040 b9 a4 98 3d 70 32 eb bd 22 e4 e3 bd 99 d0 7a bd
       0.07453293 -0.114842296 -0.11127497 -0.06123409
000050 2c ec 37 bd 0d 22 0f bd d8 a6 fd 3d 8a 46 ff 3d
       -0.044902965 -0.034944583 0.123853385 0.12464626
000060 34 7c d1 bd c2 23 df bb 4e 6a 9e bd 8a 4a da bd
       -0.10228768 -0.0068096826 -0.0773512 -0.106587484
000070 8f b8 a0 bd 8e b8 93 bd 90 38 f4 bd af 00 be bc
       -0.07847702 -0.072129354 -0.11924851 -0.023193685
000080 83 e8 a4 bc 3a 02 02 3e 3f 44 e3 3d 97 aa e4 bd
       -0.020130401 0.12696162 0.11097001 -0.1116535
000090 fc 93 bd 3d b0 55 78 bd 4d a5 8c bd 1d 4d 99 bd
       0.092567414 -0.060628593 -0.06867466 -0.07485411
0000a0 2f fb 9b bd cf 3a 8e bd a4 97 88 3d ad 77 86 3c
       -0.07616269 -0.069448106 0.06669548 0.016414488
0000b0 e8 c7 d6 bd b7 30 c7 bd b5 24 00 3e 0f 48 8b 3d
       -0.10487348 -0.097260885 0.12514003 0.068008535
0000c0 bb c5 0c bd 08 f0 3a 3d 6b f7 c0 3d 5d 61 a4 bd
       -0.034368258 0.045639068 0.09422191 -0.08026383
0000d0 88 75 a2 bd 99 47 12 3d 5b 7a 8f 3d 93 d7 f6 bd
       -0.079325736 0.035712812 0.07005759 -0.12052836
0000e0 82 82 ed 3d 16 de 5f 3d 0a fb c5 3d 1a 60 f6 3d
       0.11597158 0.054655157 0.096670225 0.12030049
0000f0 e0 07 2f bc f4 18 88 bb d5 af f9 3c a4 7a bb 3c
       -0.01068303 -0.0041533653 0.030479351 0.022885628
000100 d4 56 b4 3b f2 eb 8d 3d b2 c8 8e 3d 5c c0 9b bd
       0.005503515 0.069297686 0.06971873 -0.07605049
000110 49 d4 88 bd a5 19 30 3d 68 b2 67 3d bd 7d 32 bd
       -0.06681115 0.042993207 0.056566626 -0.043576945
000120 47 12 9f bd b7 e2 f7 3d c3 c0 69 3c 68 4f 2c 3d
       -0.07767158 0.12103789 0.014267149 0.042067915
000130 a9 d6 5f 3d dc 79 1a 3d 39 c9 95 bd 5d e3 87 bd
       0.054648075 0.03771387 -0.07313771 -0.06635163
000140 e5 77 00 be c7 1f de bd 21 a8 2b 3c 59 4f ca 3d
       -0.12545736 -0.10845905 0.010477097 0.098784156
000150 b1 6b 45 bd 3c a5 5e 3d 75 45 b6 3c cb e6 cb 3d
       -0.048198406 0.0543568 0.022249917 0.0995613
000160 d7 1d 78 bd 55 93 b8 3d 00 0a 61 3d ce cf ba bc
       -0.060575332 0.09012476 0.054941177 -0.022804167
000170 32 50 ad 3d 02 f5 19 3d c9 51 b5 bc 50 9f 0a bc
       0.08462562 0.037587173 -0.022133725 -0.008460835
000180 4d 32 10 bc 1f 29 45 bd 97 b3 f7 3d e6 86 c0 3d
       -0.008801055 -0.04813492 0.12094801 0.0940073
000190 6a 72 a4 bb d7 ce d1 bd ed df 04 be e9 05 59 bd
       -0.005018522 -0.1024453 -0.12976046 -0.052984152
0001a0 57 56 45 bd 13 80 eb 3d 2c 94 b4 3c df 2a 0d 3c
       -0.048178043 0.114990376 0.02204331 0.008616178
0001b0 59 57 95 3d 8b 1f be bd 1d 67 08 bd f8 f1 ce 3d
       0.07292051 -0.0928336 -0.03330146 0.101047456
0001c0 94 d8 25 bd 4d 22 9a 3d ea 76 11 3d 32 40 04 be
       -0.040489748 0.075260736 0.035513796 -0.12915114
0001d0 46 b7 88 bd d0 42 ec bd 36 06 52 bd 58 79 b0 bc
       -0.06675582 -0.11536181 -0.051275454 -0.021542236
0001e0 b3 bb a2 bd a6 77 6d bd 18 9d 8c bd 69 49 00 bc
       -0.07945957 -0.057975434 -0.06865901 -0.007830002
0001f0 58 b9 a6 bc c9 00 08 3e f8 17 ac bb ca 8a 09 3c
       -0.02035205 0.1328155 -0.0052518807 0.008394906
000200 b8 36 69 3d 01 15 01 be 5a c2 0e 3c 02 0f 4f bd
       0.05693695 -0.12605669 0.008713329 -0.050551422
000210 0a 37 7c bd 9b 33 df bd 57 9d e7 bd 44 c9 eb bd
       -0.061575927 -0.10898515 -0.11309307 -0.11512998
000220 32 22 38 bd 5c f6 ba bd 29 ea b4 3d 59 07 b7 bc
       -0.044954486 -0.091290206 0.08833725 -0.02234237
000230 6e f6 68 3c aa 06 59 3d b5 bb 9d bc 98 66 77 bc
       0.01421891 0.05298487 -0.019254545 -0.015100144
000240 7b a1 6f bd 4b 67 22 3b 7d 14 05 3e 6c bf 20 bd
       -0.05850361 0.0024780806 0.12996097 -0.039245054
000250 5e 2c 57 bd ff ca 0c 3c a4 27 24 3d ca dd 94 bd
       -0.052532546 0.00859332 0.040076867 -0.072688654
000260 47 6c 71 bd 49 3a 03 3d 28 3f 79 3d b3 d4 24 bc
       -0.058941152 0.032038007 0.060851246 -0.010060477
000270 3b e2 de bd 8e 05 fb bd 08 5f 10 3d 01 62 c1 bd
       -0.10882994 -0.12256919 0.03524688 -0.09442521
000280 52 62 a0 bd c6 64 bd 3d e5 a2 9b 3b dd 25 76 bd
       -0.07831253 0.09247737 0.004749643 -0.060094703
000290 9f aa ff 3d 19 33 a3 3a a5 4d 99 3d aa 1d 71 3d
       0.12483715 0.0012451141 0.07485513 0.05886618
0002a0 d5 bd 2a 3d bd 35 ef bd 37 02 d6 3d 38 e0 3f 3d
       0.041684944 -0.11680172 0.10449641 0.04684469
0002b0 2f e6 9c bd 43 f8 44 bd dd eb bb bd de b3 9a bc
       -0.076610915 -0.048088323 -0.09175847 -0.018884595
0002c0 53 b0 4e 3d e3 17 5b 3d cd f3 5f bd 36 79 6f 3d
       0.050461125 0.053489577 -0.054675866 0.058465205
0002d0 b8 40 3e 3d 3c 1b 9a 3c f1 7b f6 3c 1f 1a bc 3d
       0.04644844 0.018811814 0.030088397 0.0918467
0002e0 c0 9e d9 bd f8 01 c9 3d f2 91 cb bd cd 12 89 bc
       -0.10625982 0.09814829 -0.09939946 -0.016732598
0002f0 46 8d ad 3d bf 9a bc bd 49 ab 5a bd 56 99 e0 bd
       0.084742114 -0.09209203 -0.053386007 -0.109667465

weight_ih_l1 f4 [192, 64]
000000 fe 3e aa 3d ae 52 cb ba 92 22 cd 3d d6 2a 47 bd
       0.08312796 -0.0015512311 0.100163594 -0.048624836
000010 34 a0 6a 3d 6b 85 87 3d ef d8 f3 bb 91 ba 94 bc
       0.057281688 0.06617244 -0.007441632 -0.018155368
000020 0a 79 8a bd 06 52 20 3d b5 9d 22 bd 8c e8 f8 3d
       -0.067613676 0.039140724 -0.039701182 0.1215373
000030 cd e1 62 bd 09 22 b9 3d 08 f3 79 3a 5e ad 07 3e
       -0.05539112 0.09039695 0.00095348107 0.13249728
000040 30 14 a5 ba 85 8c e2 3d 99 67 e5 3d 97 dd ca bd
       -0.0012594517 0.11061958 0.112014 -0.09905546
000050 b4 58 8a bd 6c d3 3b 3d 6b 9e 20 3d 73 01 c3 bd
       -0.067552 0.045855924 0.03921358 -0.09521761
000060 95 93 fb bd 84 ee ed bd a2 39 55 bd 9f 24 3d 3d
       -0.122840084 -0.11617759 -0.052056916 0.046177503
000070 fb e2 cc bb 5c c0 c9 3d 60 3e 00 3e 79 5f 58 3d
       -0.006252644 0.09851143 0.12523794 0.052825425
000080 7e c3 0c be bb 1f 96 3d 92 67 d7 bd 00 e1 bd 3c
       -0.1374645 0.07330271 -0.10517801 0.023178577
000090 dd 2b d6 3d ed eb 89 bc 6a 86 25 bd d3 4c 04 bc
       0.10457585 -0.016836131 -0.04041139 -0.008074957
0000a0 e7 da e1 3d a8 79 b8 bc c3 f4 04 3e 31 e7 eb 3d
       0.110280804 -0.022518948 0.12983994 0.11518706
0000b0 8f 4f 7a 3c 0d d7 80 bd 60 e0 3c bd ec 4f 47 3d
       0.015277757 -0.06291018 -0.04611242 0.048660204
0000c0 2c 4a 2e bd 23 2f 12 3d 56 0b 37 bd 93 cf ab bd
       -0.042551205 0.035689484 -0.044688545 -0.08389201
0000d0 bf d3 c3 3d 36 7c dc 3d f5 58 2f bc d0 51 f8 bd
       0.09561872 0.10765879 -0.010702361 -0.121249795
0000e0 cb 25 0b 3d 81 93 b3 3c f7 93 6d 3d eb fe ba 3c
       0.03397159 0.021920921 0.05800244 0.022826632
0000f0 e5 62 94 3c 98 9b eb 3d df be 24 bd 10 db 74 3c
       0.018113563 0.115042865 -0.04022109 0.014944807
000100 26 39 3b 3d 2c 2b 02 bd b3 23 42 bd 52 37 1f 3c
       0.045708798 -0.031779453 -0.047397327 0.009717779
000110 e8 90 c8 3d 9b 9d 17 3d a1 8a 3f 3d 66 84 d6 3d
       0.09793264 0.03701554 0.046763066 0.10474472
000120 18 d7 df bb e5 c9 04 3e d3 6d a7 3b 57 df 5f bd
       -0.006831061 0.12967642 0.0051095276 -0.054656353
000130 8f 6b e6 3d b3 1b 48 3d 8d 87 38 bd dd 38 ae bd
       0.11250984 0.04885454 -0.045051146 -0.085069396
000140 28 b8 e7 3d 89 6b f2 bd 01 dc a6 bd 71 ac 52 bc
       0.11314422 -0.11836917 -0.08147431 -0.012858496
000150 5f 78 34 3d eb e0 a2 3d d4 de cb 3d 6a 6b e2 3d
       0.044060107 0.07953056 0.099546105 0.11055644
000160 b8 3a 55 3d a4 2b b3 bd 49 fd 01 bd 21 de 40 bd
       0.05205795 -0.08748558 -0.031735692 -0.04708684
000170 9a 41 8f bc 43 c3 01 bd 0f b3 d2 bd 61 37 0a 3e
       -0.017487336 -0.031680357 -0.10288059 0.13497688
000180 dd 95 a3 3d 10 ef bc 3d 31 ae 8d 3c 18 7c dd 3c
       0.079875685 0.09225285 0.017294975 0.027036712
000190 cf 52 96 3c ce c3 83 ba 3f e4 91 3d 85 ad b1 3d
       0.018350033 -0.0010052861 0.071236126 0.08675674
0001a0 b9 5c a1 3d 15 44 88 bd 3f 4f 90 bd 7a 57 35 bc
       0.078790136 -0.066536106 -0.07046365 -0.011068219
0001b0 cb ef 08 be 58 69 0c be 9e 20 8a 3d 51 cb 01 be
       -0.13372724 -0.1371206 0.067445025 -0.12675215
0001c0 2e ab bc 3c ed a5 f3 bc c4 6a bb b9 b5 5f ac 3d
       0.023030844 -0.029742206 -0.00035746966 0.08416692
0001d0 9b e1 c8 3d a9 d9 9f bd 52 a0 c6 bd cf f7 55 3d
       0.09808656 -0.07805187 -0.096985474 0.05223828
0001e0 cc df c0 bd 7f d2 84 bd 46 84 e6 bc fe 47 0a 3e
       -0.09417686 -0.064854614 -0.028139245 0.13504025
0001f0 74 f8 95 3d f4 fe 93 bd c8 60 c8 bb 58 fc bc bd
       0.07322779 -0.07226363 -0.006115053 -0.09227818
000200 d2 22 df bd 2d 70 50 3b 39 d5 9d bd b3 e1 50 bd
       -0.10895313 0.0031805143 -0.077066846 -0.050996494
000210 5f a0 80 bd d7 2a ac 3d 98 34 04 bc 86 a0 a2 3d
       -0.06280588 0.084066086 -0.00806918 0.07940774
000220 a7 8a 67 3d b4 3a c4 3d 8c 50 9e bd e7 f9 d2 bc
       0.056528714 0.09581509 -0.07730207 -0.025753928
000230 85 45 e4 3d fd 52 2f 3c 54 f1 a5 3d bf f7 53 3d
       0.11146072 0.010700938 0.0810267 0.05174994
000240 18 58 48 3d 29 83 68 bd 97 2b 82 3d 71 68 84 bd
       0.048912138 -0.05676571 0.0635597 -0.06465233
000250 87 dc aa 3d f8 51 07 3d 25 ee cc bd 21 48 df bd
       0.083428435 0.033037156 -0.1000636 -0.10902429
000260 48 ac 0a 3c ab 51 0a bc a4 51 79 3d 95 bd 93 bc
       0.008463927 -0.008442323 0.060868874 -0.018034736
000270 eb a8 5a bd 8b 2a e2 3d 0d 89 02 3e 5e 20 a8 bc
       -0.05338375 0.11043271 0.12747593 -0.020523246
000280 c7 f3 ec bd f4 7f c8 bc 24 9f f0 3c da ab 58 3c
       -0.11569934 -0.024475075 0.02937276 0.013224566
000290 ce 29 cb bd d6 ca 59 bd 54 32 3b bd c2 93 0a 3d
       -0.09920083 -0.053171955 -0.045702294 0.03383232
0002a0 2e df f8 3c 7c a8 78 3d 11 4a f1 3c 21 c0 cc 3c
       0.030379858 0.060707554 0.029454263 0.024993958
0002b0 49 0c 88 3d 58 da 80 bd 9e c1 98 bc ef 9f 45 bd
       0.06642968 -0.06291646 -0.018647011 -0.048248228
0002c0 ef 5b 26 3d 21 6c d1 3d 0e 09 66 bd 09 a4 73 3d
       0.04061502 0.10225702 -0.05616098 0.059482608
0002d0 18 90 a8 3d 61 49 de 3d 84 24 f5 3c 7f fc ea bd
       0.08230609 0.1085384 0.029924639 -0.11473941
0002e0 04 8c e9 3d 10 62 21 3c e2 3b 08 3d b7 a5 ab 3d
       0.11403659 0.00985004 0.033260234 0.08381217
0002f0 81 66 eb bd 50 73 12 3c b6 c0 a6 3c fe 7b ce bd
       -0.114941604 0.008938625 0.020355564 -0.100822434
000300 84 a4 e5 bd 70 7a 9e bd 06 ec 93 bd c6 a2 d8 3d
       -0.112130195 -0.07738197 -0.07222752 0.105779216
000310 b4 a6 d6 bd 1d 78 0b 3c be 24 cc bd 4a 89 da bd
       -0.10481015 0.008512524 -0.099679455 -0.10670717
000320 f6 3f c7 3d 31 09 e5 bd a6 c6 7c bd 99 f8 f1 3d
       0.097289965 -0.11183394 -0.061712883 0.11814994
000330 bc 93 f2 bd 85 b0 d1 3c 40 66 0c 3e c7 76 04 3e
       -0.11844584 0.025596866 0.1371088 0.12935935
000340 e9 56 7e 3d 11 a9 88 bd 5a 4a 95 3d b3 b3 b2 3d
       0.062094603 -0.06672872 0.07289572 0.08725681
000350 05 ae bf 3d cd 84 cd bc 71 69 cc 3d e0 14 e5 3d
       0.093593635 -0.025087738 0.09981049 0.11185622
000360 32 91 e5 3d 6b df a3 bc b0 7b 27 3d 71 99 de 3d
       0.112093344 -0.020003995 0.040889442 0.108691104
000370 4b 05 60 3d 7e 91 da bd 70 5c 8c 38 e2 92 ac 3d
       0.054692548 -0.10672282 6.692938e-05 0.08426453
000380 9d bf ab 3c 85 2b c4 3d 1e c3 11 bc 4e cd 6e 3d
       0.020965392 0.09578613 -0.008896617 0.058301263
000390 a8 35 1d bd 80 65 85 3d fd 30 a2 bd 03 4a 8e bd
       -0.03838125 0.065135 -0.079195 -0.0694771
0003a0 2d 94 b9 bd aa 59 be bb 32 81 c1 3d 8c 9c ae bd
       -0.090614654 -0.0058090286 0.0944847 -0.08525953
0003b0 84 5b af 3c 9b 65 bb 3d 82 78 2c 3d 9c 5b d9 3d
       0.021405943 0.09150239 0.042107113 0.10613176
0003c0 27 75 0e bc 32 b4 d8 3d 71 b5 e8 3d 22 72 b2 bc
       -0.0086949235 0.105812445 0.11362732 -0.021782938
0003d0 d2 6c 1f bd 10 e0 ac 39 dc c2 eb bd 0a 96 d4 bd
       -0.03892214 0.00032973336 -0.11511776 -0.1038018
0003e0 f4 2e 0a be 4d 75 e1 bd f5 8e 33 bd fa 1b e9 bc
       -0.13494474 -0.110087015 -0.043837506 -0.028455723
0003f0 8e 2a cd bd 05 d8 bc 3d 81 e9 b7 bd 5d f2 75 bc
       -0.10017882 0.0922089 -0.08980084 -0.015011397

weight_hh_l1 f4 [192, 64]
000000 df e2 dc bd 40 16 f6 3d 55 c4 0d 3c 11 2b 80 3d
       -0.1078546 0.120159626 0.008652766 0.06258214
000010 f4 7d 86 bd 6d df 9d bc 42 11 8e 3d 1d 69 a9 bd
       -0.065669924 -0.019271577 0.069368854 -0.08272002
000020 c0 05 ef 3d bc 6e c5 b9 d7 10 41 bd 6f 76 9f 3d
       0.116710186 -0.00037657272 -0.0471352 0.07786261
000030 7b 8a c2 3c fa 35 09 bd 09 65 53 bc da d6 a2 bc
       0.023747673 -0.03349874 -0.012902507 -0.01987784
000040 ea 65 78 3d 22 c6 72 bd 8b 99 08 bc 42 b0 0b 3d
       0.060644068 -0.059270985 -0.008337389 0.03410364
000050 90 bc e4 3c b1 61 a0 bd 64 d0 e1 3d 69 27 6c 3d
       0.027921945 -0.07831133 0.110260755 0.057654772
000060 f8 7f 9a ba 8b d8 22 3d 0e 9a fd 3d 16 de 2f 3d
       -0.0011787405 0.039757293 0.12382899 0.042936407
000070 96 36 53 bd d9 8e 20 3c 84 ad 02 3d dc 21 db 3d
       -0.05156573 0.009799683 0.03190376 0.106998175
000080 f3 b4 75 bd d7 70 06 3e 42 c3 e8 3d c5 dd c5 3b
       -0.05998702 0.13128982 0.113653675 0.0060384
000090 cc 85 9e bd 5d 01 bc 3c 68 ba 88 3c f5 7e 1b bd
       -0.077403635 0.022949869 0.016690448 -0.037962873
0000a0 95 d3 01 3e 7f 98 37 3d e9 29 fd bd 1a 96 01 3e
       0.12678368 0.044823166 -0.12361509 0.12654915
0000b0 5f 9f 87 bd f3 5e 13 3d 42 3a 7a bd 8b 54 8e 3d
       -0.066221945 0.035979223 -0.061090715 0.06949719
0000c0 16 29 e5 bd 1e e3 89 3d f3 9a a7 3c 0b 21 84 3d
       -0.11189477 0.06732772 0.020459628 0.06451615
0000d0 bb 30 f9 ba 82 78 6c bc c2 37 09 3d 6f dc 85 bd
       -0.0019011715 -0.014433028 0.03350044 -0.06536185
0000e0 96 1c fa 3a 3f 1c 80 3c 11 44 3e bd 39 f3 f9 3d
       0.0019082006 0.015638469 -0.046451632 0.12204594
0000f0 ff df 1a bd 5c 0e bd bc c5 24 9f 3d c5 76 e3 bd
       -0.037811276 -0.023078136 0.07770685 -0.11106638
000100 f4 67 7e 3d aa 14 47 3d d5 93 d1 3d 4a 74 f9 bd
       0.062110856 0.04860369 0.10233275 -0.121803835
000110 95 6a a9 bd ee 8b b9 bc 34 71 a3 3d 59 56 8b 3c
       -0.08272282 -0.022649731 0.07980576 0.017008947
000120 17 f9 0c 3d 1f e2 53 bd 3d a3 43 3d a8 ba de bd
       0.034417238 -0.051729318 0.047763098 -0.108754456
000130 04 c3 bd 3b b7 54 6d 3d e9 c6 e9 bd a1 99 5e 3c
       0.00579107 0.05794212 -0.11414892 0.013586433
000140 b0 43 4a bc e4 a6 61 bc ea 81 b2 bd bf e8 00 be
       -0.0123452395 -0.0137727 -0.087161854 -0.12588786
000150 f0 22 4d bd 0e cf 71 3c 1b a5 05 3c 93 dc 55 3d
       -0.050082147 0.014758838 0.00815704 0.05221231
000160 b8 a7 3b 3c 03 f4 e4 3d d6 8d a7 bd d4 1f 30 bd
       0.0114535615 0.11179354 -0.0818135 -0.042999104
000170 51 e0 f8 bd 09 e8 af 3d 77 cc 75 bc c4 e2 ff b9
       -0.1215216 0.08589179 -0.0150023615 -0.00048806344
000180 c1 4e ad bd da dd d5 bc 2c 92 0a 3d 95 fc c1 bd
       -0.08462287 -0.026106764 0.033830807 -0.09472004
000190 8d 31 4d 3b f4 16 10 3c 5e c2 95 3c 65 f0 88 3d
       0.0031310052 0.008794535 0.018281158 0.066864766
0001a0 74 79 2d 3d 00 a6 4c bd 20 d6 5f bd f5 58 cf bd
       0.042352155 -0.049962997 -0.054647565 -0.10124389
0001b0 94 36 3b bd 7f 10 35 3d 04 ed 95 bc 61 14 27 bd
       -0.045706347 0.044205185 -0.018301494 -0.04079092
0001c0 9f e7 be 3c ed c4 1d bd 13 38 2c 3d 00 b3 60 bd
       0.023303805 -0.03851788 0.042045664 -0.054858208
0001d0 00 99 c1 bd 26 67 92 3d 25 82 bb bd f3 3a b7 bd
       -0.094530106 0.0714858 -0.091556825 -0.089467905
0001e0 57 12 82 bd 3f 36 05 bd c0 6c aa 3d ed 2d b2 3d
       -0.06351154 -0.032522436 0.08321524 0.08700166
0001f0 36 e2 ec bb 66 a2 88 3d ef 3d bf bd 02 94 8e 3d
       -0.007229115 0.066716 -0.09337985 0.06961824
000200 bc 8c bd bd 28 ac d3 3d 28 6a ff bc 04 de a1 bd
       -0.092553586 0.103355706 -0.031178549 -0.07903674
000210 aa 00 e8 3c a7 bc a9 bc 4d eb b3 bd 20 ff 13 bb
       0.02832063 -0.02071984 -0.087851144 -0.0022582486
000220 07 b6 05 3d e0 02 a3 3d 6d b8 e8 bc f2 8b ae bc
       0.032644298 0.07959533 -0.028408254 -0.021306966
000230 a9 4e ce bd 98 99 4a 3d c2 8e 4c 3d cc 4b 81 bd
       -0.10073597 0.049462885 0.049940832 -0.06313285
000240 98 23 3a bd 46 10 fa 3c f8 6f 04 be 57 6e 05 be
       -0.0454441 0.030525338 -0.12933338 -0.13030373
000250 b6 e6 c4 bc 1e d0 36 bd 03 0b 06 3e f6 7a 42 bd
       -0.024035793 -0.04463207 0.13090138 -0.047480546
000260 6c 79 5c 3d 95 7e de bc 34 24 4a bb 86 38 2e bd
       0.053826734 -0.027159968 -0.0030844333 -0.042534374
000270 97 90 ec 3b 2f 44 69 3d ea d5 fc bd 27 7a 57 bd
       0.007219385 0.05694979 -0.12345488 -0.052606728
000280 0a b0 d7 3a 2c 33 88 ba a0 2e 03 bd 10 13 b8 3d
       0.0016455662 -0.0010391227 -0.032026887 0.08988011
000290 03 9e d4 bd 80 42 73 3d d3 76 f0 3d e3 9f b0 bd
       -0.10381701 0.05938959 0.11741414 -0.08624246
0002a0 55 18 66 bd 43 56 8e bd d8 c2 f1 3c 19 67 ed bd
       -0.05617555 -0.06950047 0.029511854 -0.1159193
0002b0 45 bc 2b 3d 79 dc 8e 3d b4 7d 07 3d af 99 e7 bc
       0.041927595 0.069756456 0.033078864 -0.028271524
0002c0 5f 4a d0 bd 12 68 4a 3d 2b d4 30 3d 84 91 7a 3d
       -0.10170435 0.049415655 0.04317109 0.06117393
0002d0 0a 09 f0 bd 69 d8 19 bc bb 4f 94 bd 08 fb 2b 3d
       -0.11720474 -0.009389975 -0.0724177 0.04198745
0002e0 31 c7 ae 3c 54 05 f7 3c ef 3c 00 bd 50 3e 24 3d
       0.021335216 0.030153908 -0.03130811 0.04009849
0002f0 20 b8 e1 3d b1 3f 9e bc 76 c1 8d bb 44 fa d1 bd
       0.11021447 -0.01931748 -0.004326041 -0.102528125
000300 00 87 78 3c ad 6b 13 3d 20 b0 85 bd b5 83 ad bd
       0.015168905 0.03599136 -0.06527734 -0.08472387
000310 04 88 f8 bd b0 94 38 3d c8 af 59 bd 3c 48 0b bc
       -0.12135318 0.045063674 -0.053146154 -0.008501109
000320 1b 34 9d 3d cc f0 96 3d 5e 8c df 3d 24 db d9 3d
       0.07675954 0.07370147 0.10915445 0.10637501
000330 d1 97 f8 3c ef 5c 22 3d 83 cf f5 bd 4f b4 85 3d
       0.03034583 0.03963941 -0.1200247 0.06528532
000340 e7 f2 ce 3d 54 17 eb 3d 7d 2f ac 3d 98 a2 90 3d
       0.10104924 0.11479059 0.08407495 0.07062262
000350 c2 c7 d7 3d c8 19 ad 3d 28 be b7 bd c2 fb 55 bd
       0.10536148 0.08452183 -0.08971816 -0.052242048
000360 5b 6f 18 3d 35 57 d7 bd df 3a 9d bd 8f 22 29 bc
       0.03721557 -0.1051468 -0.076772444 -0.010323181
000370 2c 3b 8c 3d fc 4e 0d 3d 6e c7 e9 bd 96 26 d9 3d
       0.06847224 0.034499153 -0.11414991 0.10603063
000380 12 5b e5 3d 24 50 1f bd 00 ee d1 3d 9c 3f c1 bd
       0.11199011 -0.038894787 0.10250473 -0.09435961
000390 5a ca 73 bd e2 fd 9b bd 81 22 4e 3d a7 e3 e1 bc
       -0.05951915 -0.07616784 0.050325874 -0.027574373
0003a0 a9 1a a8 bd bb 95 56 bd 8c d4 e5 3d 24 57 81 3d
       -0.0820821 -0.052388888 0.11222181 0.06315449
0003b0 06 f4 de 3d 91 73 ba bd 5d ca 9c bd 75 b8 8d 3d
       0.108863875 -0.09104074 -0.07655785 0.06919948
0003c0 06 13 66 3d d8 aa bc bc 31 38 b0 bd a1 98 94 bc
       0.056170486 -0.023030683 -0.08604468 -0.018139185
0003d0 06 ac cc 3d b6 ee 14 bd c4 3c 5f 3d c9 b5 f8 3d
       0.09993748 -0.036360465 0.05450131 0.12144048
0003e0 53 e6 1b 3d 6e be 79 bd b3 7d fa 3d 57 b2 12 3d
       0.03806145 -0.060972624 0.122310065 0.03581461
0003f0 2b b9 a5 3d be 34 da 3d 28 45 80 3d d8 ee 02 bd
       0.080919586 0.10654591 0.062631905 -0.03196606

bias_ih_l1 f4 [192]
000000 fd 65 80 bd e1 c3 00 3e 39 2f 89 bc 10 2c 86 3b
       -0.06269453 0.12574722 -0.01674615 0.004094608
000010 90 45 49 3d 5f 4b 90 3d bd fb c2 bd 7e 53 05 3e
       0.049138606 0.07045626 -0.095206715 0.13020131
000020 61 5c 54 bd e0 1c a3 bd 32 45 1e 3d 83 30 5b bd
       -0.051845912 -0.07964492 0.03864021 -0.05351306
000030 60 c4 9b 3d a6 26 ce 3c 90 15 c8 bd da b2 d5 3c
       0.07605815 0.025164913 -0.09769738 0.02608626
000040 63 57 90 bd c7 62 6f 3c 57 ff 25 3d c2 74 83 3d
       -0.07047918 0.014610953 0.040526714 0.06418754
000050 86 a5 6c 3d 3b 61 b8 bd 90 3b ca bd 66 b3 95 3c
       0.057775043 -0.0900292 -0.09874642 0.01827402
000060 a8 9c 74 3d 8c 50 07 bd d5 87 7d 3d 63 b6 8c bd
       0.05971971 -0.0330358 0.061897118 -0.06870725
000070 70 51 80 bc 30 eb 61 bc 46 f5 ac bd 7a e2 bc 3d
       -0.015663832 -0.013788983 -0.0844522 0.092228845
000080 3c bf 08 3e 8e 31 82 3d dd 35 85 bd 4d e3 c3 bd
       0.133542 0.06357108 -0.06504414 -0.095648386
000090 16 2f 0a 3e 23 8b 6f bd 96 23 2d 3c 5a 3d 2c 3d
       0.13494524 -0.0584823 0.010567566 0.042050697
0000a0 06 21 7f 3d 06 6f 97 3d db df 80 bc 08 08 de 3d
       0.062287353 0.07394223 -0.015731743 0.108413756
0000b0 04 51 02 3c e4 17 34 3d 9f 21 a1 bd f0 9b 67 bd
       0.007953886 0.043968096 -0.07867741 -0.056545198
0000c0 9d 18 ac bd 86 bb 0e 3d 62 65 4a 3c 6c fc 05 3d
       -0.08403132 0.034846805 0.012353273 0.03271143
0000d0 76 d7 d3 bd 0d b0 33 3d 56 62 39 3c 58 6d 75 bd
       -0.1034383 0.043869067 0.011314949 -0.05991873
0000e0 e9 e9 06 be fa 52 41 bd 67 03 f9 bc 39 0b cd 3d
       -0.13175167 -0.047198273 -0.03039713 0.10011906
0000f0 a2 70 ef bc 5d 64 f0 3c 90 65 7f b9 13 fe 5f 3d
       -0.029228512 0.029344732 -0.0002435653 0.054685663
000100 29 42 bd bd 6a ce 92 bd 81 51 cf bc 85 e6 fc 3c
       -0.09241135 -0.071682766 -0.025307419 0.030871639
000110 a5 ea 47 3c de c4 93 bd a3 f8 9b bd 1c 80 be 3b
       0.01220194 -0.07215284 -0.07615783 0.0058136117
000120 3b 3a 89 3c de 1a a5 bd 23 c7 e9 bd 23 f2 05 bd
       0.0167514 -0.08061765 -0.114149354 -0.032701623
000130 73 dd 6a bd 6f ba 79 bd b7 83 fb 3b b4 da b7 3d
       -0.057340097 -0.060968813 0.0076756137 0.08977261
000140 7d 15 e7 bd dc de c2 3d 15 ac 84 3d d1 6f 6e bd
       -0.112833954 0.09515163 0.064781345 -0.058212105
000150 b2 30 e0 bd 8d 5b d8 bd cd 7b 61 3d 04 07 5c ba
       -0.10946788 -0.10564337 0.055049706 -0.00083933794
000160 60 c3 01 3d e8 63 75 bd 4b f6 2b bd 2e 4c 0d 3c
       0.031680465 -0.05990973 -0.04198293 0.00862412
000170 6c f1 a6 3b 21 cb 76 bc 79 89 ac bd c2 6c db 3d
       0.0050946977 -0.015063078 -0.08424658 0.10714103
000180 55 0e db bd b4 ab 78 bc eb 5d 32 3d c3 f9 c3 3d
       -0.10696093 -0.015177656 0.0435466 0.09569123
000190 b7 0f d7 3d bf 7d ca bc 7b 4e d7 3c dc a9 f3 bb
       0.10501044 -0.024718164 0.02628254 -0.0074360203
0001a0 8f d4 b9 3c 8b d9 e0 3d e3 a7 0b bd d3 05 f2 3d
       0.022684364 0.10978993 -0.034095656 0.11817517
0001b0 4a 5f e4 bd dc 50 41 bc 0d ba c6 3d 54 a7 dd bd
       -0.111509874 -0.0117990635 0.09703455 -0.10822931
0001c0 19 ea 99 bb 5d 9e da 3d fc 2b cc 3d e3 68 57 3d
       -0.004697096 0.10674737 0.09969327 0.052590262
0001d0 9d 96 8f 3c 9d 7f c4 3d f7 69 ca bc 8b 71 0e 3d
       0.017527873 0.09594653 -0.024708731 0.03477625
0001e0 dc b7 e4 bc 0b a9 e0 3d f0 51 a4 3d 8e b8 09 bc
       -0.027919702 0.109697424 0.08023441 -0.008405818
0001f0 b9 6d 63 bd 81 33 d3 3d a7 f6 88 bc 3e 9a cc 3d
       -0.05552456 0.10312558 -0.016719176 0.09990357
000200 39 c0 fc 3d 25 08 a0 bd 4f f0 02 3e 37 fb b0 bd
       0.12341351 -0.078140534 0.12786983 -0.086416654
000210 f2 96 b4 3a 81 2d b4 3d b2 27 92 bd 42 60 1f 3d
       0.0013777895 0.08797742 -0.071364775 0.038910158
000220 e1 13 0c bd ae 7e f1 3c 0c db a7 bd ca d0 9b 3d
       -0.034198646 0.02947935 -0.08196077 0.07608183
000230 3c 8e be bd 86 97 1c ba fc e9 08 3e d4 36 bd 3d
       -0.09304473 -0.00059735065 0.13370508 0.09238973
000240 d9 2c 57 3c aa ce 99 bd a0 45 04 3d 9c 7e 38 bd
       0.013133251 -0.07510121 0.032292962 -0.04504262
000250 8c 28 6a 3d 51 51 19 3d 23 ff 89 3d 64 f4 6d 3d
       0.057167575 0.037431065 0.067381166 0.058094397
000260 74 ec b8 3c 76 07 05 bd 2e d7 a0 3d 4b d9 d1 bd
       0.022573687 -0.03247782 0.07853542 -0.102465235
000270 5c bc 60 3d 44 a8 20 3d 55 98 75 3d 8f d7 2e bd
       0.054867133 0.03922297 0.05995973 -0.04268604
000280 d0 1d d8 bc de b7 a6 3d 82 f9 a8 3d 58 b3 ea 3d
       -0.026381403 0.08140539 0.08250715 0.11459988
000290 52 f2 e4 bc 60 72 a5 3d e6 15 95 bd ce 31 05 3d
       -0.027947579 0.08078456 -0.072795674 0.0325182
0002a0 84 c9 3f 3d 2f da 10 3d 09 6d c4 bd 09 ba f2 bc
       0.04682304 0.035364326 -0.09591109 -0.029629724
0002b0 12 04 b2 3d ca cb a5 bd 10 27 76 3d 94 a3 05 3d
       0.086921826 -0.0809551 0.060095847 0.032626703
0002c0 26 d9 e7 3d 29 f2 39 bd fb d9 f8 3c a9 7d b6 3d
       0.11320715 -0.045396958 0.030377379 0.089106865
0002d0 84 e3 82 3d 17 85 d0 bd f3 f9 d0 3d 74 4d ee bd
       0.063910514 -0.10181635 0.10203924 -0.11635867
0002e0 b5 e9 d5 bd b1 6e 14 bd 0d c6 cd 3d 1d ca 27 bd
       -0.10444967 -0.036238376 0.10047541 -0.040964235
0002f0 e0 40 54 3d fd 2f ee bd 17 54 ba 3c b1 75 d4 3d
       0.051819682 -0.11630247 0.022745175 0.1037401

bias_hh_l1 f4 [192]
000000 33 d0 0e 3d 67 00 95 3d b7 d4 a9 3d 59 cc de bd
       0.034866523 0.07275467 0.08292525 -0.1087882
000010 74 00 a1 bd 81 62 ef 3d 80 e6 69 bc 75 dd e5 bc
       -0.078614146 0.1168871 -0.014276147 -0.0280597
000020 fb 65 d1 3c 26 fa 31 3d 7c 7a d2 bb 5f 94 e5 bc
       0.025561323 0.04345145 -0.0064232927 -0.02802485
000030 ef 50 b2 bd 04 64 e1 bc 6d 80 88 3d 31 f9 54 bd
       -0.08706843 -0.027513511 0.0666512 -0.05199546
000040 66 f8 6f 3d 33 35 26 bd 33 5e e5 3d 49 61 5d bd
       0.0585865 -0.04057808 0.11199608 -0.054047856
000050 bb 68 26 3d 98 a2 7a bc 90 78 d3 3d ee f4 f5 3d
       0.040627223 -0.015297554 0.1032573 0.12009607
000060 98 3f d5 3d e2 27 c9 3c cb 71 13 bd d8 fc e3 bd
       0.1041252 0.02455515 -0.035997193 -0.111322105
000070 b6 01 5b bc 5f ba 2c bd 74 ca 17 3d f7 59 f9 3c
       -0.013367107 -0.042169925 0.03705831 0.030438406
000080 f9 2c 0b 3b a0 48 0a 3e 33 27 d4 3d 55 a1 90 bd
       0.0021236523 0.13504267 0.10359039 -0.07062022
000090 14 03 dd bd b0 13 43 3d 95 84 83 bd f6 bc 3e bd
       -0.10791603 0.047626197 -0.064217724 -0.046566926
0000a0 a9 88 6d bd 4d 44 7c 3d 49 ea 54 bd 2e 60 eb bd
       -0.057991657 0.061588574 -0.051981244 -0.11492954
0000b0 74 c3 2c 3c 51 ac d1 3d 3f 5e c4 bd 13 bd 5c bd
       0.0105446465 0.10237945 -0.095882885 -0.053891253
0000c0 de ad 2d 3d 9d 76 ea bd 34 37 44 bb 2c 65 c0 3d
       0.04240214 -0.11448405 -0.002994013 0.09394297
0000d0 96 6d 82 bd be fe 6c 3d 4f cb 83 bc 04 15 73 bc
       -0.06368558 0.05786013 -0.016088156 -0.0148365535
0000e0 3d 3e 99 bd 5e f3 91 3b 36 86 fd 3d 23 12 52 bd
       -0.07482574 0.0044540605 0.12379114 -0.051286828
0000f0 ec f8 e8 3c 58 a3 71 3d 1c d6 53 bd 73 d6 f8 bb
       0.028439008 0.058993667 -0.051717862 -0.0075939237
000100 43 02 fb 3c 04 a7 05 3c 04 63 a8 3d cc 8c c6 3d
       0.030640727 0.008157495 0.08222011 0.096948236
000110 e5 8a e6 bd ef 00 da 3c 11 53 ba bd 00 fb 06 3e
       -0.11256961 0.026611773 -0.09097875 0.13181686
000120 13 b4 5a 3d 72 d5 68 3d e7 ea df 3d 55 27 77 bd
       0.05339439 0.056844182 0.10933476 -0.060340244
000130 ca ec a6 3d 42 db 95 bc 52 9f a4 3d 9e e7 c8 bb
       0.08150633 -0.018293027 0.080382004 -0.0061311265
000140 d5 21 88 3d 33 f5 47 bd b3 0c c0 bd 7f 34 8b 3d
       0.06647078 -0.048817825 -0.09377422 0.06797122
000150 1a 96 e9 bd c6 17 82 3d a5 94 70 bd 63 87 21 bd
       -0.11405583 0.06352191 -0.05873551 -0.039435755
000160 40 26 b4 3b e1 72 e0 3d 51 73 1c bd 06 b7 d1 bd
       0.005497724 0.109594114 -0.03819591 -0.10239987
000170 c1 3d b7 ba 97 20 71 3d 6c 83 6b 3c dc 1d 65 bc
       -0.0013980196 0.05886897 0.014374595 -0.01398417
000180 48 a5 01 be 9a f4 81 ba 50 35 39 bc 43 d6 cb 3d
       -0.12660706 -0.0009914816 -0.011304215 0.099529766
000190 46 e8 02 be 15 5d aa 3d 64 58 b9 3d 67 f1 58 bd
       -0.12783918 0.08318535 0.09050062 -0.052964594
0001a0 62 1e ae 3d 39 5c 0c bd 51 71 56 3d a1 f3 ac 3d
       0.08501889 -0.034267638 0.05235416 0.08444906
0001b0 b5 33 a6 3c 93 f1 b6 3d 8f d5 84 bc 7f 4d de bb
       0.020288328 0.089327954 -0.016215114 -0.0067841406
0001c0 a3 f8 29 3b 1d 41 75 3d 20 f2 fe 3c ad 8d ab bd
       0.0025935553 0.05987655 0.031121314 -0.08376632
0001d0 2e be e1 bd dd 52 a9 3d 66 f2 4c 3d 62 68 c4 bd
       -0.11022602 0.08267758 0.050035857 -0.09590222
0001e0 f2 63 9b bd a7 1f 23 3d 78 ff 37 bd 8c 90 ed bd
       -0.075874224 0.039825108 -0.04492137 -0.11599836
0001f0 d0 51 0b be e7 bb d4 3c d8 92 01 be ee 35 88 3d
       -0.13605428 0.025968505 -0.12653673 0.06650911
000200 92 3a 8f 3d 47 1e e3 3d 8c 5f a8 bd 96 74 d1 bd
       0.06993593 0.11089759 -0.08221349 -0.10227315
000210 15 4c 50 3d 12 93 8d bd 49 4d 76 3d 78 60 ea bd
       0.050853807 -0.06912817 0.0601323 -0.11444181
000220 91 f6 a7 bd d6 df f2 bc 94 b8 55 3c 84 0f 79 bc
       -0.08201326 -0.029647749 0.013044495 -0.015201453
000230 ff bc 98 bc 0f 1b 05 be 92 12 87 3d 65 f9 ca 3c
       -0.018644808 -0.12998603 0.06595339 0.024777124
000240 e2 b1 c5 3d bd 08 95 bc 81 d1 64 3c e0 90 7d 3d
       0.09653069 -0.018192643 0.013965965 0.06190574
000250 8f b0 0b bd db f4 a8 bd c7 63 63 3d 0b 46 f1 3d
       -0.034103926 -0.082498275 0.055515077 0.11780938
000260 98 85 02 3e 7c 90 63 bd de 6f ff 3c 76 c2 80 3d
       0.12746274 -0.055557713 0.031181272 0.062870905
000270 9d b9 30 bd 25 77 26 bd 90 21 07 be 70 f3 9c 3b
       -0.043145765 -0.04064097 -0.13196397 0.004789762
000280 9f 7d 0e bd af b0 52 3c a8 7b 7f 3d 26 5c 0a be
       -0.03478777 0.012859507 0.062373787 -0.13511714
000290 0a 6d 88 3d 07 e0 c6 3d 63 b5 1c bd 0a ef ef bd
       0.066614226 0.097106986 -0.03825892 -0.11715515
0002a0 bc 10 a6 3d 3a f3 20 3d a4 9f 99 bd ac 18 ee 3b
       0.081086606 0.03929446 -0.07501152 0.0072661247
0002b0 d2 f5 b5 3d 7e 09 a9 3d 71 41 e0 bd 4f c6 80 bd
       0.08884777 0.082537636 -0.10949982 -0.06287824
0002c0 25 59 d6 3d b5 6b f9 3d f3 84 ae bc a9 6f e2 bc
       0.10466222 0.121787466 -0.02130363 -0.027641134
0002d0 d3 a4 bf bd b0 5e 3c 3d 60 31 09 be 61 9a b9 3d
       -0.093576096 0.04598874 -0.13397741 0.090626486
0002e0 cc 9f 00 3c 4e e3 e8 bd 36 79 d5 3b 60 f8 77 bc
       0.007850599 -0.1137148 0.0065146936 -0.015134901
0002f0 4a 14 5e bd 45 48 1e bc db 31 a6 3d 51 12 74 3d
       -0.054218568 -0.009660785 0.08114978 0.05958778
