Baseline_systems/SoMS/models/SoM_GRU_20/44_0.pth (torch, 213647 bytes, 8 tensors)

weight_ih_l0 f4 [192, 78]
00000000: 8482 acbd 559f aa3d 555b c13d 4422 9a3c
00000010: 7e5f b8bd f099 85bd b5e1 eb3d 2437 f63d
00000020: 70a9 03be 1fb7 eebc 7dc1 8d3d 3301 e13d
00000030: 2ceb 12bd 8d69 9e3c 9c29 9fbd 7ba0 f1bc
00000040: 7035 98bd 7841 02b9 db75 d73c c2fd 98bc
00000050: 4aeb e93d a435 a3bd 44d0 dbbd d9e5 453d
00000060: 935c d3bd c6c4 91bd 15ef d23d 9904 b93d
00000070: acfc 01bd d8f3 013d ae23 073c 6fa2 8abd
00000080: c75e 06be c7fc e13d 8dee 95bd a340 c23d
00000090: 22f7 4c3c 244c f33d 9ceb 0b3e f453 003c
000000a0: 53f8 823d bd1d a5bd bc88 25bd 3f23 163d
000000b0: 36f8 4a3d 5b12 afbd e76c f93c 5fcf 3ebc
000000c0: d397 90bd 3230 c23d c522 67bd 38f5 04bd
000000d0: 6c2e 80bc 4667 a8bd 897e aebd 1617 7cbd
000000e0: 9457 a5bd 0767 ffbd b2d2 933d 65b7 86bd
000000f0: b610 fcbb 2a53 df3d f4e5 b73c 18d9 c63d
00000100: 8f51 123d b22b 91bd 52e5 d53d 6442 65ba
00000110: b7e5 a1bd f6c1 3fbd 3bf6 33bc 8c3d b1bd
00000120: 5ac0 edbc 8f76 bdbc 28ca 86bd 6132 d1bc
00000130: 1509 913d 3b75 c1bb 4d37 ab3c 07eb b13d
00000140: 650a 0f3e 6dfd 5dbd a9e9 0bbe 8068 a1bd
00000150: fc49 e33b 0d8c ba3d e7a3 a2bd 6324 c63d
00000160: 6960 f53d ae77 38bd 789f 8fbd 646e 003d
00000170: 9c67 1fbc a927 ddbd 6ca1 c43c 7d8f 013e
00000180: 7912 8d3d 7920 cb3d 3d65 92bd dc2c 2e3c
00000190: e292 9ebc 9c32 25bd a568 a63d e519 1f3e
000001a0: a60b 89bc 0442 9bbd dbb5 87bd d232 eaba
000001b0: 455f 423d 642c 133e c2c9 c53d 2356 e73d
000001c0: 41eb 0c3b 7910 10bd c329 44bc bab7 61bd
000001d0: a7c8 133e 81bf a73d 7339 573d 691b 5ebc
000001e0: 40b6 d5bd f2d9 d93d 5fa4 5e3d 4fc4 9ebd
000001f0: 2c0f 32bb 2d52 1b3d 3f1d debd 20a7 db3c
00000200: 03e0 69bd b747 b7bd c9f3 edbd cedb 1c3d
00000210: 2be8 513a 092b 8c3d a60c 213d 4165 71bd
00000220: 5455 e73d dbb0 69bc e6ea c2bd 8b46 8b3d
00000230: 2b4c da3c 029a 833d 0f78 633d f604 23bd
00000240: 1a87 7b3d 1c17 833d f889 5c3d 4e8e 2d3c
00000250: 797b fb3d 3da4 8ebd ca5f 95bd 28c4 e0bc
00000260: 2130 b03c eccf 103e a08f 1dbe 2612 8fbd
00000270: 6ad2 84bd 20c1 c93d 94d3 3c3c f619 11bb
00000280: d986 d53d 3f60 a73d 248f 8a3b 20cd 24bb
00000290: 84ef cbbd a640 07be c6dc 13bd a16d c83d
000002a0: ce55 f4bd 625a a3bd 85b7 d9bd 1609 e13d
000002b0: f579 38bd f09a f4bc a26d e3bd 0d8e a9bd
000002c0: 8109 2cbc bcc0 5abc 1d47 e63d 6839 abbd
000002d0: 1e88 1fbe ef11 aabc 35a1 b73d 4467 20bd
000002e0: cdc7 85bd 6515 bdbd 335f a13d a2e0 4ebb
000002f0: b89b 8c3d 5de9 60bd ff6e 41bd be39 81bd
00000300: bce1 dcbd 3c49 27bc f32a 1d3c 9924 fd3c
00000310: 7b89 b7bd 6a7d babd f357 d4bd 473a c8bd
00000320: d54f edbd 38c5 a5bc adae eabb fad2 56bd
00000330: 9a44 1abd b912 c3bd 5cf0 683c 27a2 b2bd
00000340: 631c 5f3d 2ed4 0c3d 4a3b f8bd 77cd cd3b
00000350: ac7f 05be 32db 00be 7dc9 7ebc 58fb 0dbd
00000360: 6728 fcbd c683 47bd 8816 62bd 5e85 1bbd
00000370: 9edd 5cbc 4925 b13d 43b1 a73b a1c6 abbd
00000380: 4ab6 1cbd 4609 8e3d 2697 d43d 319c 06bd
00000390: 05fa 533c 2e13 01be b616 7f3b a17a e93d
000003a0: 2f99 673c 6375 9c3d 6c16 e6bd f2a8 d93d
000003b0: 629d ffbd 4ae3 10bd d1e9 643c 239b e9bc
000003c0: 8570 383d f84c 47bd 4eef d1bd 6d3b 903c
000003d0: 86dc 043d 4576 e0bc b1a1 43bd 58a6 ed3d
000003e0: 9503 853d 22c8 763d de30 503d 09d8 f23d
000003f0: 7e48 babd ca0d afbb c218 6ebd 62b5 6bbd
-0.084233314 0.083311714 0.09441248 0.018815167 -0.09002589 -0.06523502 0.115176596 0.12022236
-0.12857604 -0.029140053 0.069216706 0.10986557 -0.03586881 0.01933744 -0.07771608 -0.029495468
-0.074320674 -0.00012422155 0.026301315 -0.018675689 0.11421831 -0.079692155 -0.10733083 0.048314903
-0.103203915 -0.0711761 0.102995075 0.0903408 -0.031735107 0.03172669 0.008248253 -0.06769263
-0.13122092 0.110345416 -0.073208906 0.09484985 0.012510093 0.11879757 0.13664097 0.007832516
0.0639502 -0.08062313 -0.040413603 0.036654707 0.04955312 -0.08548423 0.030447436 -0.011646121
-0.07060208 0.09481849 -0.056429643 -0.03246042 -0.015647136 -0.08222823 -0.085202284 -0.061545454
-0.08073345 -0.12470823 0.07217921 -0.065779485 -0.007692422 0.10904534 0.022448517 0.09709376
0.03572231 -0.07088412 0.1044413 -0.000874555 -0.07905143 -0.046815835 -0.010983999 -0.08654317
-0.029022384 -0.023127822 -0.06581527 -0.025536718 0.070818104 -0.0059038675 0.020900393 0.08687406
0.13968809 -0.054196764 -0.13663353 -0.0788126 0.00693631 0.09108744 -0.07941418 0.09674909
0.119812794 -0.04503601 -0.07012838 0.031355277 -0.009729292 -0.1079858 0.024002753 0.12652393
0.06888289 0.09918303 -0.07148216 0.0106308125 -0.019357149 -0.040331468 0.08125428 0.15537222
-0.016729187 -0.07580951 -0.06626483 -0.0017867929 0.047454137 0.14372402 0.09657623 0.11295726
0.0021502527 -0.03517196 -0.011972847 -0.055106856 0.14432012 0.08190823 0.052545022 -0.01355634
-0.10435152 0.10637273 0.054355975 -0.07752287 -0.0027169688 0.037920166 -0.10845422 0.02681309
-0.0570984 -0.089492254 -0.11618764 0.03829556 0.0008007313 0.06844146 0.039318703 -0.058934454
0.11295572 -0.014263357 -0.095174596 0.068005644 0.026647648 0.06425859 0.05553442 -0.039799653
0.06140814 0.06400892 0.053842515 0.01059301 0.1227941 -0.0696492 -0.07293661 -0.027437285
0.021507325 0.14141816 -0.1538682 -0.069858834 -0.06485446 0.09851289 0.0115250535 -0.0022140718
0.10426111 0.08172654 0.0042284895 -0.0025146678 -0.09957793 -0.13208255 -0.036099218 0.09786535
-0.119304284 -0.079762235 -0.10630707 0.10988061 -0.045038182 -0.029859036 -0.11104895 -0.08279047
-0.010500313 -0.0133516155 0.112440325 -0.08360559 -0.15579268 -0.020760505 0.08966295 -0.03916098
-0.065322496 -0.09232596 0.07879486 -0.0031566997 0.068656385 -0.054910053 -0.047224995 -0.063098416
-0.10785243 -0.0102103315 0.009592759 0.03090124 -0.08961769 -0.09105952 -0.103683375 -0.097767405
-0.115874924 -0.020235643 -0.0071619363 -0.052447297 -0.03766308 -0.095250554 0.014217462 -0.08722334
0.05447043 0.034382038 -0.121206835 0.006280597 -0.13036984 -0.12583616 -0.015550968 -0.03466353
-0.12312394 -0.048709653 -0.05519727 -0.037968986 -0.013480572 0.0864969 0.005117567 -0.08387495
-0.038259782 0.069353625 0.10380392 -0.0328638 0.012938027 -0.12604973 0.003892345 0.11400343
0.014135643 0.07639577 -0.112347454 0.10627927 -0.1248119 -0.03537301 0.013971762 -0.028516358
0.045029182 -0.048657387 -0.10250722 0.017606461 0.03243687 -0.027400145 -0.047761623 0.11603993
0.06494824 0.060249455 0.050827853 0.11857612 -0.09095858 -0.00534222 -0.05812908 -0.057546027

weight_hh_l0 f4 [192, 64]
00000000: 9067 873d ae2e bc3d b160 8c3c 8827 b5bd
00000010: df9c ab3d 1639 d3bd 702c ab3d 8cd8 b03d
00000020: 0893 a4bd d492 d1bc 93d3 d0bd 942e f13b
00000030: 30de 783d c5a2 ebbc 6a2e 813d ff9c 9c3d
00000040: 7cf6 7cbd 11e5 c7bc 1c0b 0dbd 7000 febd
00000050: 50f6 803d e75f c9bc 753a aa3c 54e9 c9bd
00000060: 7a98 9e3d 98d9 79bc 0605 263d 0424 4f3d
00000070: 01bb 033d 9675 25bc ca91 6abd 3373 69bd
00000080: 45e1 403c b264 4fbd dabc a53d 6f5c c53d
00000090: 6315 173e 35a8 3fbc a8d5 12bb 041b ea3d
000000a0: 756d 0fbd 7335 263d c326 a0bd dba9 e3bc
000000b0: 2ea5 e2bd 8a89 19bd 13fe 90bd 7e21 603d
000000c0: 822d dfbd 74f0 45bb 6116 f3bd dbdc 01be
000000d0: 0233 19bd 7d5e e93d 74e3 a0bd a710 dabc
000000e0: ce3d 0e3d 9d63 f5bd 1134 403d 559c 4abd
000000f0: a9fd c23d f29e 4c3d 604b 5e3d 4c40 953d
00000100: bcb1 9bbd e864 9d3d c915 1fbd 0728 e4bd
00000110: 5b78 a43d 632a c73d 22e0 1ebd bde1 a5bc
00000120: 49b2 883d b3d5 b53d 3c64 3a3d b879 2c3c
00000130: 8912 d63c b8d6 b63d d8c2 74bd 7b0e 093e
00000140: f5c8 aabd da47 5fbd 0fae 48bd 2d13 523d
00000150: 61bb 863d 0625 1bbd ef25 71bd d61d acbd
00000160: 8038 99bc ab16 a6bd b717 ae3d c4d0 aabd
00000170: 1098 9ebd e295 c3bd 63a7 45bd 5e34 d43d
00000180: 1d6c f6bd 8694 fd3d 0d31 a0bc 2daf cfbc
00000190: 79e1 893d 67e1 473d b393 40bd abc6 263d
000001a0: b4fa 7d3d 8f66 613d ab30 0d3c 2315 453c
000001b0: 51c3 11be 7f79 f03c 9d79 d2bd baa5 8c3d
000001c0: 1db9 e4bc c3e1 b5bc 1af7 d5bd bbc7 f63c
000001d0: 5122 31bd 3d46 3fbd 6222 8b3c 2e15 0c3c
000001e0: fe48 243e 4126 07be 0e94 10be 0a3a 68bd
000001f0: 8593 31bd 425a 623d a444 b5bc caf1 523d
00000200: 0173 6c3d 148b 64bd 7946 c6bd 2c91 f73d
00000210: 3763 81bd 5969 243d f7e5 11be 874d 203d
00000220: 163c 0e3c a088 293c 0f86 fabc 256d 98bd
00000230: 0a24 f0bd be48 ccbd e757 983d 08a1 133a
00000240: eccc 74bd 8171 b0bd 3475 033e 5837 9c3d
00000250: ce98 07be baf3 3cbd c8a3 55bc 7d3e a2bd
00000260: 55a6 48bd 9982 c8bc f438 99bd 90b7 abbc
00000270: f34b 91bd f9a1 ebbd 486d 5abd b322 e63c
00000280: 90e2 ef3d 607d fdbd 739e 59bc 2180 8f3d
00000290: 6f33 62bd 7f27 633d 0a04 f43d 2389 513c
000002a0: 6aa3 09be cbdd 15be a8a6 6f3d 2600 9c3d
000002b0: b79d 67bd cc0e e4bc e8a7 65bd f272 04be
000002c0: 4df3 4d3d a6f6 ffbd a483 a63d d660 c5bd
000002d0: 980e 05bc 964c a6bd 0dd8 9cbc 825e 7a3d
000002e0: cf34 7cbc 9123 cb3d f430 713d e5ce 31bd
000002f0: db51 993d b8c6 2e3d ba64 ab3d cb00 04be
00000300: 213e 073d 37cc 48bc 9b85 d1bd f090 923d
00000310: 87f3 c3bd 9644 a4bc 600a 2b3d df66 013d
00000320: b170 77bd d618 983d e01d 82bd 7423 0dbe
00000330: 2ae9 8cbd d645 5fbd ddea dd3d 0037 81bd
00000340: a98e 56bb 384c b83d ae81 ffbd a8fb b23c
00000350: adae fbbd c065 c7bd 41f3 623c 0818 0139
00000360: e846 383c 6fc0 443d 4ee0 703a e426 acbd
00000370: 0cc7 d1bd 7c6b bc3d 6899 55bd 551f a7bd
00000380: 8344 2ebd ee83 8f3d 7a7f 1d3e 9719 c23d
00000390: 29de afbd d0e1 fe3d 14d4 d9bc 4a02 043e
000003a0: 46fe aabd acd8 12bb 5178 0ebc 57eb 29be
000003b0: ff6f 50bc a4fa b63d f0b6 8cbc fe0b 063d
000003c0: a93c 2f3d dd5e 2bbd 2a1d 093e 7bee a7bd
000003d0: f805 adbb 4294 88bc c766 cd3d 8ee2 f3bd
000003e0: 6595 0a3c b42a 4c3b 8e57 fabd 6b03 683c
000003f0: 3d0b c5bd 2805 06be 8172 c2bd 2990 d13b
0.0661155 0.09188591 0.01713595 -0.088454306 0.0837953 -0.10313623 0.08358085 0.08635053
-0.080358565 -0.025582708 -0.101966046 0.007360289 0.06075877 -0.028764138 0.06307681 0.07647132
-0.061758503 -0.02440122 -0.034434423 -0.12402427 0.062969804 -0.024581863 0.020779828 -0.09858957
0.07743926 -0.015249632 0.040532134 0.050571457 0.032160763 -0.010098835 -0.05726794 -0.05699463
0.011772458 -0.05063314 0.08092661 0.09636771 0.14754252 -0.0116978185 -0.002240518 0.11430934
-0.035016496 0.040578317 -0.07819893 -0.027790954 -0.11066662 -0.037484683 -0.07079711 0.05471944
-0.10897352 -0.0030203136 -0.11869503 -0.12681906 -0.03740216 0.11394975 -0.07855883 -0.026619269
0.03472691 -0.1198189 0.046924654 -0.049465496 0.09521038 0.04995627 0.054271102 0.07287654
-0.076022595 0.07685262 -0.038839135 -0.11140447 0.080307685 0.097248815 -0.03878797 -0.020249242
0.0667463 0.088786505 0.045505747 0.010527067 0.026131885 0.08927673 -0.05975613 0.1338443
-0.08339111 -0.054511882 -0.04899412 0.05128782 0.065787084 -0.037877105 -0.058874067 -0.08404128
-0.0187037 -0.08109792 0.08500617 -0.083406 -0.07743847 -0.09550072 -0.048255336 0.10361551
-0.1203234 0.12381844 -0.01955464 -0.025352085 0.067324586 0.048798945 -0.047015857 0.04071681
0.062006667 0.055029448 0.00861756 0.012028965 -0.14234664 0.029354809 -0.10277102 0.06867547
-0.0279203 -0.022202378 -0.104475215 0.030124536 -0.043245617 -0.046697844 0.016984168 0.0085499715
0.1604347 -0.13198186 -0.14118978 -0.056695975 -0.043353576 0.055261858 -0.022127457 0.05150012
0.057726864 -0.055796698 -0.0968141 0.12088236 -0.06317752 0.04013953 -0.14247881 0.039136436
0.008681318 0.010347515 -0.030581502 -0.07442693 -0.11725624 -0.09974812 0.07438641 0.00056316005
-0.05976574 -0.08615399 0.12837678 0.076277435 -0.13241884 -0.046130873 -0.013039537 -0.07922075
-0.04898675 -0.024476336 -0.07481566 -0.020961553 -0.07094564 -0.11505503 -0.053326875 0.028092718
0.11713135 -0.12377429 -0.013282406 0.070068605 -0.055224832 0.05545759 0.11914833 0.012789044
-0.13441244 -0.14635389 0.058508545 0.07617216 -0.056546893 -0.027839087 -0.05606833 -0.12934473
0.050280858 -0.12498216 0.08130577 -0.096376106 -0.008121155 -0.08120076 -0.01914599 0.061125286
-0.01539345 0.09918893 0.058884576 -0.0434102 0.07486316 0.04266998 0.083688214 -0.12890927
0.033018235 -0.01225572 -0.10230561 0.07156551 -0.095679335 -0.020052236 0.04175794 0.031592246
-0.060410205 0.07426612 -0.063533545 -0.13783056 -0.0688041 -0.05450996 0.10835812 -0.063093185
-0.003273884 0.089989126 -0.12475906 0.021848515 -0.12289176 -0.09736204 0.013851942 0.00012311351
0.011247374 0.04803508 0.00091886974 -0.08405855 -0.10243043 0.092001885 -0.052148253 -0.08160273
-0.042545807 0.070075855 0.1538066 0.09477537 -0.085872956 0.12445414 -0.026590385 0.12891498
-0.0834928 -0.0022406979 -0.008695678 -0.16593681 -0.012722014 0.08934525 -0.017177075 0.03272628
0.04278246 -0.041838516 0.13390031 -0.081997834 -0.0052802525 -0.016672257 0.10029369 -0.11908446
0.00845847 0.0031153383 -0.12223731 0.014160971 -0.09621284 -0.13087904 -0.09494496 0.006395359

bias_ih_l0 f4 [192]
00000000: c9b9 503d db70 903d 536c a63d 81ef 223d
00000010: e5c1 18bd 428a b63d 64ae c9bd e163 89bd
00000020: e55d cfbd 35f2 793d 0776 2d3d bea8 94bd
00000030: 3e79 c43d 872a 113d 1132 bfbc 381f 79bd
00000040: 5293 383d eb0d d3bc 428e 803d 1cdd a53d
00000050: ed06 e73c 6899 fa3d 0816 083e 5a45 8a3c
00000060: 92a9 9d3d 1c9f c63d 11ba b9bd 0369 afbd
00000070: e3c2 db3c 0cbe adbd c2a1 853a 5815 a93d
00000080: 7683 dabd c35a 0c3d 5894 713b 93ab 463d
00000090: c686 06be 9ebd 2dbd 0454 a0bc a089 ac3d
000000a0: 7faa 17bd 639f 043d d88a f23d 5b33 09bd
000000b0: cdc6 153d ce1e 773d fb65 0e3e 491d 11bd
000000c0: 2f44 8f3d 2be4 863c a64e 043e 0996 8bbd
000000d0: 2d8d 5d3d b73e fc3d 22a7 363d 50f6 73bd
000000e0: da11 f03d b5ce 913c 619a 07bc adc0 23bd
000000f0: c894 aa3d 533f 523d 4529 abbc edf0 8abd
00000100: b134 093e 0cbf c7b9 225a fe3b e751 90bd
00000110: 1f2f 04be 6dfd d83d 9efe 413b 93c7 0f3e
00000120: 3bd2 6a3c 2839 0ebd 0884 39bc 3f42 493c
00000130: ee4a b93d 0086 15be c4f8 cabb 77bd d8bd
00000140: 1f6d 31bd 5a38 363d 5770 6dbd 64ab a2bd
00000150: 520e 973d ba30 f33c a368 223d 14f3 a8bc
00000160: 4bb5 aa3d 539d 0abe bb56 9cbc cb11 12bd
00000170: 0682 a43d befe 48bd 2a55 123e c71f c7bd
00000180: 3abe b3bd e43b 933d 2e11 cd3d 438a 03be
00000190: cdcc c2bb daeb 76bd 2853 34bd fd94 e9bd
000001a0: 926c a43d 79fd 80bd f557 cc3c 9aae 26bd
000001b0: 908f a53d dad0 383d 13b5 a4bd 0012 d7bd
000001c0: 0e49 083c fb77 913d 6eda a8bb a227 afbd
000001d0: 1e7c dabc e77e a3bd d8ec b43d 5316 eb3d
000001e0: a04e 51bd f811 d1bd 01f4 843d d2cd 0cbe
000001f0: 4a38 37bd 4e7c 62bd 08bc e0bc e8b3 d63d
00000200: 2209 e7bc 680c bf3d 56fb 81bd 5c76 203d
00000210: 0b15 5c3d 728f 0a3e 29fd 053d a8fd bdbc
00000220: e2c2 683b 3961 a03d c0c6 d6bd 43ee 31bd
00000230: 356b 5dbd d31f b6bd 9b34 023e fe5c 4abd
00000240: e4a7 7c3d 5ef8 0ebe 4342 8c3d be71 46bc
00000250: b0a6 193e c278 953d 579d 9f3b 22f8 12bd
00000260: 3336 943c 510e ef3d 34e4 9b3d 2a4c fcbc
00000270: cf46 bd3d 9ea2 bcbd 1d64 aebc 36b8 3cbd
00000280: 97f7 c63b c7b1 973d d12d 57bd f3f3 2ebd
00000290: 6ab7 0a3e 3088 b0bd 3b19 5f3d 564e 9b3d
000002a0: 33c0 b1bd 2db8 43bd 8c0a 96bd 13ff ae3d
000002b0: c822 f63d 46c8 e03d c4e3 acbb 2931 acbd
000002c0: b868 9bbd cfb2 aebd e8d9 3f3d 9d7f a8bd
000002d0: 1cd3 453c 6564 afbc 4453 8bbd 9842 ce3c
000002e0: 23ae 05be 5629 02bd b17c a7bd bc88 9c3d
000002f0: bba3 1f3d 70af cdbc 7acf 39bd 92a4 9bbd
0.05095843 0.070527755 0.0812613 0.03977919 -0.037294287 0.08913089 -0.098477155 -0.067085035
-0.10125331 0.061022002 0.042348888 -0.072587475 0.095934376 0.035440948 -0.023339303 -0.06082079
0.04506237 -0.025763473 0.062771335 0.08098814 0.028201545 0.12236291 0.13289654 0.016878773
0.076983586 0.096983165 -0.090686925 -0.08564951 0.026826328 -0.08483514 0.0010195302 0.08256024
-0.106696054 0.034266245 0.0036862101 0.04850347 -0.1313735 -0.04241716 -0.019571312 0.084246874
-0.037027832 0.032378566 0.118428886 -0.033496242 0.036566544 0.060332112 0.1390609 -0.03542832
0.06995427 0.01646622 0.12920627 -0.06815726 0.054089714 0.123166494 0.044592984 -0.059561074
0.11722155 0.01779876 -0.008276553 -0.03997867 0.08329159 0.051329922 -0.020893702 -0.06784234
0.13399006 -0.0003809858 0.0077622095 -0.07046872 -0.129086 0.10595212 0.0029601227 0.14040975
0.014332349 -0.034722477 -0.011322983 0.012283861 0.09047495 -0.14601898 -0.006194206 -0.105830126
-0.043316957 0.044487335 -0.057968464 -0.079428464 0.07375778 0.02968632 0.03965057 -0.020623721
0.0833536 -0.13536577 -0.019084325 -0.0356615 0.080326125 -0.049071066 0.142903 -0.09722858
-0.08776517 0.071891576 0.100130424 -0.12845711 -0.0059448243 -0.06028352 -0.044024616 -0.114053704
0.08028521 -0.06298346 0.024944285 -0.040693857 0.08084023 0.04512105 -0.0804235 -0.1050148
0.008318199 0.071029626 -0.005152992 -0.08552481 -0.026670512 -0.07983189 0.08834237 0.114788674
-0.051100373 -0.102085054 0.064918526 -0.13750389 -0.044731416 -0.055294327 -0.02743341 0.10483533
-0.028202597 0.09328538 -0.06346767 0.039175376 0.053731006 0.13531283 0.032712135 -0.023192242
0.003551655 0.07831044 -0.10487127 -0.043440115 -0.05405732 -0.08892789 0.1271538 -0.04940509
0.06168355 -0.13961932 0.06848576 -0.012112079 0.15004992 0.07298423 0.0048710513 -0.03588117
0.01809225 0.116726525 0.07611886 -0.030798037 0.09242021 -0.09210704 -0.021287972 -0.046074115
0.0060719955 0.07406955 -0.05253393 -0.042713117 0.1354653 -0.08619726 0.05446742 0.07583301
-0.08679237 -0.047783066 -0.073262304 0.08544745 0.12018353 0.10975699 -0.005276175 -0.08407814
-0.07588333 -0.08530199 0.04683867 -0.08227465 0.012074258 -0.021410177 -0.06802991 0.025178239
-0.13054709 -0.031777702 -0.0817808 0.076432675 0.038974505 -0.02510807 -0.04536388 -0.07599749

bias_hh_l0 f4 [192]
00000000: da4a 2bbd 3982 22be b2fa cdbd a6a4 a9bd
00000010: 9b2b 3abd ce96 95bd e928 aebd 92bc c6bd
00000020: ed79 88bd 144e c6bc 3c79 d63d f659 153d
00000030: 290c 77bd e6b7 c5bd b57e cf3c 4a56 9fbd
00000040: 2d67 b13d a6bf f5bd 15cd bbbd 994f 71bd
00000050: 067e febc d088 bdbc d453 043e 86de 093e
00000060: 46fa 9ebd 16d8 863b 9b0f 9abd 946e 9ebd
00000070: 572f 8ebd a55d a0bd aecc fbbd e618 48bb
00000080: 126d 17bd c46e 0d3e 2e04 f43d 3323 afbd
00000090: f5a1 9f3d 18f1 86bd 8df5 6fbd b92a ccbd
000000a0: 9d97 8bbd b102 63bd 1565 cd3d d0d8 b03c
000000b0: 485a c3bd 19d7 b5bd 68ed 093e b7a4 b33d
000000c0: f196 12bd fd28 dc3c c0e3 d33d f4bc a1bd
000000d0: da8c 7abd 6b95 1c3d dab6 523d f9ec eabd
000000e0: 3415 f83d ab59 7a3d a0d3 cb3d 6bbc f93d
000000f0: 8ab6 b53b c5b4 293b cccc 293d 70ce 9a3c
00000100: aff1 c53c f9d5 4b3d 7591 893d cb68 b7bd
00000110: ef00 b2bd 565d 2d3d c4ec 563d 65eb 86bc
00000120: a94e 8abd 66e4 093e 6842 16bc 8243 8a3d
00000130: 7200 903d 830f b63c d410 bbbd 61e0 c4bd
00000140: fce8 1dbe 7d2d a7bd c04c 7e3b bd14 d13d
00000150: f301 9dbc cc45 823d 2772 283d 107f cf3d
00000160: 0da2 84bd 5f27 8b3d ca86 fb3c 6449 363c
00000170: a2f7 b13d af0e 323d 32b7 abbb c187 0fbd
00000180: 11f1 e7bc 6a76 23bd 6e79 e43d f21b 913d
00000190: 8879 be3b 69d4 97bd 602c 21be 917c acbd
000001a0: 4e0a 49bd f5ca 013e 3f88 c53b d708 143c
000001b0: 9b62 703d 724b e0bd d3ce 9ebc f022 e13d
000001c0: c8c2 20bd c57a 9d3d aa90 583d ab38 12be
000001d0: 6775 8fbd 084b 0bbe ada2 66bd 42b4 94ba
000001e0: 50b8 debd 7a42 b7bd 847d 79bd b5dc 0dbd
000001f0: c867 e2bc bfb7 023e 6f07 f6bc 212f 003d
00000200: f68f 703d 55bf 09be e9e1 06bc 804a 2cbd
00000210: 4a43 29bd 3fde debd 7214 dcbd 44bc cfbd
00000220: 5ebc 5dbd cf22 b7bd 9cf5 cf3d bf91 10bd
00000230: 4f63 303c 1e40 793d 3cac 0ebc 5a66 90bc
00000240: a722 78bd 3aed c63b e268 0f3e e26b e0bc
00000250: 725f 3fbd 006d 50bc abad 153d dcbe 85bd
00000260: 08c4 4bbd f005 003d 5397 983d 3b71 f0bb
00000270: 938a b2bd a669 e1bd 6946 163d 5994 d1bd
00000280: 3a76 98bd 1cbd fb3d 3e18 433c 0e9f 46bd
00000290: bad2 0b3e dc6c b33c ce20 8a3d f1a3 963d
000002a0: 9ea7 403d 0cc4 03be 2917 f43d 7c70 583d
000002b0: b6ff 70bd c7ea ffbc d620 c7bd b4f0 8dbc
000002c0: fde1 253d e15d 403d b19b 47bd 99c7 843d
000002d0: 104b f83c 87a7 173c f9c6 f43c 7352 af3d
000002e0: 61d0 efbd a981 cc3d 24e1 b8bd 0883 e1bc
000002f0: dbcd 9e3d 691e c5bd eb0e 46bd e9fa e9bd
-0.04181943 -0.15869989 -0.10057582 -0.08283357 -0.04545174 -0.07304154 -0.08503897 -0.09703936
-0.066638805 -0.024207152 0.10472342 0.036462747 -0.06031433 -0.096542165 0.025328973 -0.0778013
0.08662257 -0.11999445 -0.09169976 -0.0589138 -0.031065952 -0.023136526 0.12922603 0.13463792
-0.077625796 0.004115115 -0.07522508 -0.07735935 -0.06942623 -0.07830361 -0.12294899 -0.0030532419
-0.036969252 0.13811785 0.1191486 -0.085516356 0.07794563 -0.06588954 -0.058583785 -0.09969086
-0.06816027 -0.05542249 0.100290455 0.02158776 -0.09538704 -0.08878917 0.1346947 0.08771651
-0.03578848 0.026875013 0.10346174 -0.07897368 -0.061169483 0.038228434 0.051443912 -0.1147098
0.12113419 0.06112067 0.09952474 0.12194141 0.005545442 0.00258951 0.041455075 0.018897265
0.024163095 0.049764607 0.06717197 -0.089555345 -0.08691584 0.04232534 0.05247189 -0.016469667
-0.067532845 0.13466033 -0.009171106 0.06751157 0.07031335 0.022224193 -0.09134069 -0.096131094
-0.15420908 -0.08162973 0.003880307 0.10209034 -0.019165969 0.06360969 0.04112449 0.10131657
-0.06476221 0.06794619 0.03070392 0.011125896 0.0868981 0.043471035 -0.0052403444 -0.035041574
-0.028313192 -0.03990785 0.111559734 0.07085408 0.0058128275 -0.07413561 -0.15739584 -0.08422197
-0.049082093 0.12675078 0.0060282047 0.009035311 0.058687788 -0.1095189 -0.01938573 0.10992992
-0.039248258 0.07689432 0.052872337 -0.1427943 -0.070048146 -0.13602841 -0.056307483 -0.0011345225
-0.108749986 -0.08948226 -0.060910717 -0.03463431 -0.027637377 0.12765406 -0.030032841 0.031294946
0.05873104 -0.13451894 -0.008232572 -0.042063236 -0.041323937 -0.10882234 -0.10746087 -0.10143331
-0.05413472 -0.08942186 0.10154268 -0.035295244 0.0107658645 0.060852163 -0.008708056 -0.01762693
-0.060579922 0.00607076 0.14004853 -0.027395193 -0.046721883 -0.0127213 0.036542576 -0.06530544
-0.049747497 0.031255662 0.07450738 -0.007337717 -0.08717837 -0.11006479 0.036688242 -0.10233373
-0.07444425 0.12291929 0.011907635 -0.04849153 0.13654605 0.021902494 0.06744538 0.07355488
0.047034852 -0.12867755 0.1191848 0.05284165 -0.058837615 -0.03123988 -0.0972306 -0.01732669
0.040498722 0.04696453 -0.048732463 0.06483383 0.03030923 0.00925625 0.029880034 0.08560648
-0.11709667 0.09985668 -0.09027317 -0.0275283 0.077541076 -0.09624941 -0.04835407 -0.114248104

weight_ih_l1 f4 [192, 64]
00000000: ff17 b33d 6850 2abc abda f93d f1eb 47bd
00000010: 8b3e 763d 1a2a 423d 3d0a debc e6a1 9bbc
00000020: 0492 64bd 1c41 6a3d 78bb 85bd ca7f fa3d
00000030: aa47 54bd 1e35 c93d 723c b9bb 0a7a 263e
00000040: 6247 fb3a 3cee ca3d c923 d93d 08ed e6bd
00000050: 5d69 83bd fa53 823d efb2 893d d81a cfbd
00000060: a406 ddbd 334a 07be 8c5d 88bd e27d 603c
00000070: ac0e a63c 8258 a63d 18ab e73d 2f52 7c3d
00000080: 5087 14be 3fb1 5f3d 1709 b9bd 55b4 4c3c
00000090: 07fa c23d fc32 f7bc 1628 49bd 9819 cb39
000000a0: bbd6 e53d 05ae a5bc 05be ff3d 5c3a f23d
000000b0: 7c1f 453c 0d85 8ebd ece3 d0bc b844 383d
000000c0: 3671 32bd 6eca 003d d4a2 73bd 0385 b5bd
000000d0: 59e1 c63d a53d e23d 906d 8b3a 01f3 c8bd
000000e0: e64e 523d d099 c13c 04ea 4c3d 12c4 9d3c
000000f0: ffca a13c 582e f73d 4c0f 90bd b001 163c
00000100: cbe3 853d 47f4 abbc ab42 02bd 3840 c83c
00000110: c5c2 d63d fbde 4a3d 9361 703d 7e92 f23d
00000120: 5e4e 2c3b 2bd6 153e 97a4 4a3c 90af 88bd
00000130: 3a3f f43d eb97 7b3d c11b 73bd 1f4f 8bbd
00000140: 79e9 fa3d 9d04 e9bd 70a6 75bd 0c67 abbc
00000150: 34c0 693d e127 8c3d c718 f33d 08b6 c93d
00000160: c6f2 6f3d 3d07 bbbd 062b 4ebd 600a fdbc
00000170: 88bd cd3b b353 adbc 5de3 b4bd 8fd0 123e
00000180: 846f a23d 122b aa3d b0e1 2c3c 2a30 423c
00000190: fa9a 0a3d d48e e4bb 751e a83d d6b9 cb3d
000001a0: bc84 bb3d 78b6 b2bd 98fc 60bd 93ff 633b
000001b0: 5cf3 0bbe fc74 1cbe 0aa7 b53d 2287 12be
000001c0: b25a 863b 3c49 30bd 19c3 66bc b6f7 8e3d
000001d0: d5bd b03d cff1 8fbd 4fcc d1bd 12ca 253d
000001e0: 88d8 b1bd 95a8 4dbd 890b 15bd 0a62 0c3e
000001f0: 1470 b53d b0eb 78bd 2248 a7bc 5606 ddbd
00000200: ebde c6bd b594 353c a179 89bd ce83 5abd
00000210: ad83 87bd 18d3 a13d ff6a 66bc e0cf cc3d
00000220: eb1b 873d 942b e13d 97a6 a5bd 709f debc
00000230: a0cb ed3d ddf8 9f3c 7b64 8f3d 8377 9c3d
00000240: d8cf 523d 33f3 3cbd 20a9 833d 0077 a1bd
00000250: f729 b53d dd91 0a3d 4fb7 97bd 8f2e fcbd
00000260: 6b4c 1e3c fa8e 91bc dfaf 233d dd1e 46bc
00000270: de17 1ebd e5b1 ec3d 479e 093e fbdc 1cbc
00000280: 1e70 d1bd 9b57 11bd 7eb7 f23c 1e6c e13a
00000290: 4529 c3bd eea8 84bd e2cd 2cbd e2c0 1b3d
000002a0: 0bcc e63c ad69 6d3d e734 b93c 55f0 e23c
000002b0: 2b3a 8b3d c631 9abd 902f 2c3c 36d5 55bd
000002c0: ec1a 113d 42ab bf3d 5da2 85bd 9075 373d
000002d0: 3456 ba3d 43ce d13d 05e2 1d3d 0e48 f2bd
000002e0: 3c8c ea3d 076a 913c 38e0 1d3d 176e 993d
000002f0: 1449 e3bd 877f fb3b ec82 ed3b 35d5 ddbd
00000300: dee1 cfbd 206b bcbd 9007 aabd ed4b b03d
00000310: a474 c9bd 67bc 3abc 68c1 e9bd 657f bfbd
00000320: 0e49 ce3d 0993 d5bd 04b3 4fbd 64dd 063e
00000330: c16a e0bd 32dd 043d f566 0e3e a5a1 133e
00000340: fb95 9f3d b42d a3bd daf7 8d3d 1406 aa3d
00000350: 25fa d53d 86d4 683a f719 cc3d 0ea6 e53d
00000360: 2c9a f53d 9e26 dc39 6b1a 403d 72b2 b63d
00000370: eac2 683d 511b ecbd 8e5a ddbc d178 cc3d
00000380: 3b34 b93c da19 a03d 5ca9 96ba 7dfb a23d
00000390: a15d 10bd 98d3 803d 161f d0bd ffb6 5dbd
000003a0: ac7b afbd 41e3 4d3b a424 863d 840e 9bbd
000003b0: 2848 9c3c ec31 b53d 1725 0b3d 005f df3d
000003c0: 0fd0 d8ba c78e fa3d 12cf f93d 4c19 643b
000003d0: ac2d 29bd bc41 c4bb 55b9 fdbd 78ca c4bd
000003e0: 1639 04be 917f ddbd 6e51 30bd 2ccc a2bc
000003f0: 2af7 dcbd 4d79 b23d a6ec a8bd 5b34 05bb
0.08744811 -0.010395147 0.12199911 -0.048808996 0.06011824 0.047403432 -0.027104491 -0.018998098
-0.055803314 0.057191 -0.065298975 0.12231405 -0.051826157 0.098245844 -0.0056529576 0.16257492
0.0019171054 0.09908721 0.106025286 -0.11275679 -0.06416581 0.063636735 0.06723582 -0.10112542
-0.10792282 -0.13211899 -0.06658468 0.013701888 0.020270668 0.0812235 0.113119304 0.061601814
-0.14504743 0.054612394 -0.09034937 0.012494166 0.09520345 -0.030175678 -0.049110495 0.00038738246
0.11222597 -0.02022458 0.12487415 0.118275374 0.012031432 -0.06958971 -0.025499307 0.04498741
-0.043564998 0.031443052 -0.059481457 -0.088632606 0.097109504 0.11046914 0.001063751 -0.09811974
0.051344775 0.023632914 0.050027862 0.019258533 0.019750116 0.12069386 -0.07034168 0.009155676
0.06537589 -0.020990504 -0.03180186 0.024444684 0.10486368 0.049529057 0.058686804 0.118443474
0.0026291828 0.1463248 0.012368343 -0.06674111 0.11926122 0.061424177 -0.05935264 -0.068022005
0.122515626 -0.11377833 -0.05997318 -0.02092316 0.057068065 0.06843544 0.1186996 0.09849173
0.058581136 -0.0913224 -0.050334 -0.030888736 0.0062786974 -0.021158075 -0.088324286 0.14337371
0.07931426 0.08308996 0.010551855 0.0118523035 0.033839203 -0.0069750343 0.08208934 0.09947555
0.091561764 -0.087262094 -0.054928392 0.0034789785 -0.13667053 -0.15279001 0.08869751 -0.14309362
0.004100167 -0.04303859 -0.014084601 0.06980841 0.086299576 -0.07028543 -0.10244047 0.040475912
-0.08683878 -0.0502096 -0.036387954 0.13709274 0.08859268 -0.060771644 -0.020420138 -0.10792224
-0.09710487 0.011082818 -0.06712652 -0.053348355 -0.06616912 0.07901591 -0.014063596 0.100005865
0.06597122 0.1099464 -0.08088415 -0.027175635 0.11611104 0.019527847 0.07001587 0.076399826
0.051467746 -0.04613037 0.064287424 -0.078840256 0.08845895 0.033830512 -0.0740801 -0.12313568
0.009661774 -0.017768372 0.039962646 -0.012092319 -0.03859698 0.11557368 0.13439284 -0.00957417
-0.10226463 -0.035483938 0.029628512 0.0017198359 -0.09529356 -0.06477533 -0.042188533 0.038025744
0.028173467 0.05796211 0.022608234 0.02770249 0.06798204 -0.07529025 0.010509387 -0.052205287
0.035426065 0.09358837 -0.06525109 0.04478985 0.09098473 0.102444194 0.038545627 -0.118301496
0.11452529 0.017750753 0.03854391 0.07491701 -0.11097923 0.0076751146 0.007248273 -0.10831682
-0.101505026 -0.0920012 -0.08302224 0.08608232 -0.098367006 -0.011397458 -0.114138424 -0.093504705
0.10072528 -0.10428435 -0.050707832 0.13170391 -0.10957862 0.03243751 0.13906462 0.14417131
0.077922784 -0.079677016 0.069320396 0.083019406 0.10448102 0.0008881766 0.0996589 0.11213313
0.119922966 0.00041990442 0.046900194 0.089207545 0.05682651 -0.11528648 -0.027020719 0.099839814
0.022607913 0.07817431 -0.0011494565 0.07958124 -0.03524554 0.06290358 -0.10162179 -0.054129597
-0.085685104 0.0031415971 0.065499574 -0.07571128 0.019077376 0.088474125 0.03397092 0.10906792
-0.0016541498 0.12234264 0.12197699 0.0034805117 -0.04130332 -0.0059892815 -0.12388865 -0.0960893
-0.12912402 -0.10815347 -0.043046407 -0.019872747 -0.1078933 0.087145425 -0.08248262 -0.0020325396

weight_hh_l1 f4 [192, 64]
00000000: a719 07be db2e 0d3e 3593 38bb e148 893d
00000010: a870 86bd 782b 20bb 249b 9f3d 0a89 bcbd
00000020: d08c f63d 83d5 42bc 2ede 94bd 477b 5d3d
00000030: b63e 0b3a 860f d9bc ad5c d1bc 514f 82bb
00000040: 3da0 5f3d f8db 73bd fd13 c4bc e892 a63c
00000050: 5aa1 b13c d3ea 9abd ded2 ee3d ba35 503d
00000060: 7493 15bc 32ba ed3c b813 f93d c7ec 233d
00000070: 32b7 4cbd 1288 a53c 13e8 2c3d 6efa 063e
00000080: c9f1 7cbd 6b01 1e3e 5e59 fb3d 8246 a6bc
00000090: 1bd7 9bbd f2c2 8f3c 8bfa e3ba 3172 a9bc
000000a0: b9cc fc3d 3a33 253d dd7e 08be 402c 0f3e
000000b0: 2e43 82bd bc3e 823c 1544 8dbd 9b62 bf3d
000000c0: b5b4 ebbd 4e6d 683d 6264 273c fdc6 663d
000000d0: 3130 d1bc 253b d5bc 616f 183d 1751 47bd
000000e0: f243 3f3c 4639 003d c830 1fbd 1cc2 053e
000000f0: aa46 48bd d1ee a6bc b516 bc3d 4cb9 ddbd
00000100: 00a8 383d 0c16 853d b5bd b23d 276c 0abe
00000110: af27 c4bd 06e9 dbbb cc16 c23d 5d77 86ba
00000120: 7ed4 513d f1c2 8bbd 6bc7 033d 3bf1 01be
00000130: 73d9 8abc da84 913d f75a 09be 0025 fa3c
00000140: 21d0 50bc 076d e6bc f9a8 b3bd f626 ddbd
00000150: f5b7 82bd 3d23 9ab9 8062 c13c 66f2 813d
00000160: 63c8 d7bb 6b9e c23d 7636 90bd b9f5 7cbd
00000170: 6624 dabd f36b cd3d fd02 3f3b e79d 9a3c
00000180: 0a61 8dbd 8d64 02bc afd9 463d 3c4e e6bd
00000190: c091 3ebc 95b0 49bc 3163 b7ba 2ae4 b23d
000001a0: f05d 613d d0ca 4ebd fb6a a0bd 6070 a2bd
000001b0: ed9e 77bd 6a48 333d 5213 13bd b93b 91bc
000001c0: 6a93 c23c 1b19 5dbd 1fc7 d33c 1f6e 1dbd
000001d0: 8092 e6bd 3bd8 5e3d a8ae 95bd ddd0 86bd
000001e0: b1f7 3ebd 6796 8abc 4ffa c63d cfbf ce3d
000001f0: 4774 debc 8b8d 753d 503d 9cbd f126 ae3d
00000200: 85e0 f9bd 653e ef3d 7054 30bd 20c9 9fbd
00000210: 9be5 d13c 9e8b 053b 4fd3 8dbd a379 8cbc
00000220: 61a2 0e3d 4f9e 843d c17e 3ebd f72c 4bbd
00000230: 95c0 03be 4514 653d 6a73 143d d95c 31bd
00000240: 2180 57bd a176 db3c be37 0fbe 16f1 01be
00000250: 3be8 08bd 3923 3dbd 7877 0b3e ed32 54bd
00000260: d077 103d bf07 3ebd e009 f3bb 5e5b 5bbd
00000270: 2bb0 023c c046 a63d d442 e0bd cd5d d1bc
00000280: a963 813b 83d3 cc3c 3acc b4bc 0114 8c3d
00000290: 53c8 d9bd bb74 4e3d 8985 bc3d f290 7ebd
000002a0: 1640 6abd 6268 95bd f6d2 b83c f4b2 c2bd
000002b0: 6f46 2a3d 5e21 713d ee8d 973c 3c9e 18bc
000002c0: 2a0a d6bd ea01 073d e5fa ea3c b37b 893d
000002d0: f6d2 13be de63 b4bc 921e 85bd 6893 5e3d
000002e0: c1be d63c 65f9 433d 08fc c5bc 4f4a 503d
000002f0: 820f c73d c4d3 7ebc 90eb 973c b440 c6bd
00000300: 813b cc3c 6ec5 db3c f83b 78bd 3570 9fbd
00000310: 4600 febd 93c9 373d 7806 50bd 6c9d 55bc
00000320: 99a8 8f3d 6794 9d3d ddfb e73d 7e96 df3d
00000330: 5113 ee3c fef2 2c3d 8501 eebd 6818 743d
00000340: 6dac d43d 0111 123e 8c0b aa3d 095c 2d3d
00000350: 15c9 c63d 1f23 bd3d 10df cabd 2863 63bd
00000360: 537b 283d ef0c ccbd 92f4 a5bd bfbc 693c
00000370: d20f 8a3d efbf f43c 3e8b eabd 600e d23d
00000380: 10e5 c93d e9cb 37bd 97f8 d53d 2de0 abbd
00000390: 3d8b 58bd 7762 9ebd 7573 903d f394 d7bc
000003a0: 7146 b5bd edf9 65bd 99e2 143e d2c0 853d
000003b0: e501 e03d 0703 c7bd a6fa 96bd 92c1 793d
000003c0: 16ed 613d 0fe1 89bc 15e0 8bbd 805e 2dbd
000003d0: ddc1 d93d e2b0 f9bc dfae 5e3d a1ec f03d
000003e0: b1fe 043c 33e8 8abd 4943 043e f120 fc3c
000003f0: daee a33d 412f e53d 5025 623d 3836 79bd
-0.1319338 0.13787405 -0.0028163914 0.06703354 -0.06564456 -0.0024439972 0.077932626 -0.092058256
0.120385766 -0.0118917255 -0.0726894 0.054072645 0.0005311774 -0.02649666 -0.025556887 -0.0039767404
0.054596175 -0.05953595 -0.023935312 0.020333722 0.021683384 -0.075643204 0.116613135 0.050832488
-0.009129394 0.029019449 0.12161964 0.04002073 -0.049979396 0.020206485 0.04221351 0.13181469
-0.06175402 0.15430228 0.12272905 -0.020297293 -0.076093875 0.017549012 -0.0017393393 -0.020684334
0.12343735 0.040332057 -0.13329645 0.13981724 -0.0636047 0.015899055 -0.06897751 0.093449794
-0.115090765 0.056744866 0.010216804 0.056342114 -0.025535675 -0.026029179 0.037215594 -0.048661318
0.011673914 0.03130462 -0.03886488 0.13062328 -0.048895516 -0.020377548 0.091840185 -0.10826358
0.045082092 0.06498346 0.0872759 -0.1351782 -0.095778815 -0.006711128 0.094770044 -0.0010258962
0.05122804 -0.068242915 0.0321726 -0.12689678 -0.016949391 0.071054175 -0.13413607 0.030535221
-0.012744934 -0.02812816 -0.08772463 -0.10798447 -0.06382743 -0.00029399424 0.023606539 0.06345062
-0.0065851673 0.09502872 -0.070416376 -0.061757777 -0.10651474 0.10030355 0.0029146068 0.018874122
-0.06903274 -0.0079585435 0.048547443 -0.11245391 -0.011631429 -0.012310167 -0.0013991353 0.08734925
0.055021226 -0.050486386 -0.07832905 -0.0793159 -0.060454298 0.04377023 -0.035907097 -0.017728673
0.023751933 -0.05397902 0.025851784 -0.038435098 -0.112584114 0.054405432 -0.07308704 -0.06582806
-0.046622936 -0.01691742 0.09715711 0.10095178 -0.027155055 0.05994944 -0.07628882 0.08503521
-0.12201027 0.11681823 -0.043049276 -0.078020334 0.02562218 0.0020377408 -0.069250695 -0.017147845
0.034822825 0.064755075 -0.0465076 -0.04960343 -0.12866433 0.055927534 0.03624288 -0.043301437
-0.052612428 0.026789965 -0.13986108 -0.12689623 -0.033424597 -0.04617617 0.13619792 -0.05180638
0.035270512 -0.046394106 -0.0074169487 -0.05355393 0.007976572 0.08118963 -0.109502465 -0.025557423
0.003948648 0.0250032 -0.022070039 0.06839753 -0.10633912 0.05040429 0.09205157 -0.06214995
-0.057190023 -0.072953 0.022561532 -0.09506789 0.041571077 0.058869712 0.018500295 -0.00931507
-0.104511574 0.03296081 0.028684089 0.06713047 -0.14435944 -0.022020277 -0.064999714 0.054339796
0.026214005 0.047845263 -0.02416803 0.050852116 0.09719755 -0.015553419 0.018544942 -0.0968031
0.024930717 0.02682754 -0.060604066 -0.07785074 -0.12402396 0.04486997 -0.05078742 -0.013038021
0.07014579 0.07694321 0.11327336 0.10917376 0.029061945 0.042223923 -0.116213836 0.059593588
0.1038445 0.14264299 0.08302984 0.0423241 0.09706322 0.092352144 -0.09905827 -0.055514485
0.041133236 -0.099634044 -0.08103289 0.014266192 0.06741299 0.029876677 -0.114523396 0.10256648
0.09858143 -0.0448722 0.104478054 -0.083923675 -0.052867163 -0.077336244 0.07053272 -0.026316142
-0.08851326 -0.05614655 0.14539565 0.06530918 0.10937861 -0.09717374 -0.07372026 0.06097562
0.055157743 -0.01683095 -0.0682985 -0.04232645 0.106326796 -0.030479852 0.05436599 0.117638834
0.008117364 -0.0678257 0.12916292 0.030777426 0.08004542 0.111906536 0.055211365 -0.060842723

bias_ih_l1 f4 [192]
00000000: cf14 81bd 92b1 0f3e 7707 42bc e5e7 25bb
00000010: 4166 463d 6d80 a13d 82ab e1bd 847f 0e3e
00000020: e88e 78bd a124 bfbd a8ff 453d db33 61bd
00000030: 1c14 ab3d 92f8 053d 5e61 b7bd bc6d c33c
00000040: 442a 82bd 11ea 293d 053c 223d cb6b 6c3d
00000050: a8e2 4b3d 9721 87bd c8b7 debd 7c07 e53c
00000060: 58a7 633d 1b36 b1bc fe36 8f3d e708 90bd
00000070: 4845 12bb 6f8f cebc 90c2 9dbd 6500 c33d
00000080: 26e2 223e f569 993d 427a 89bd 0c70 adbd
00000090: ee69 1d3e aeae 50bd 6d74 7fbb dd69 1b3d
000000a0: 22b3 9c3d fbfc a53d 6224 4fbc 5b40 e43d
000000b0: 7e0f b03c c86f 6e3d 5b2d a5bd 5f3d 82bd
000000c0: d2ac 9abd e2ba 313d 07e3 0f3c de17 563c
000000d0: 7ee2 bdbd e561 ca3c 1b75 b93c 957a 80bd
000000e0: c2ea 08be bbf8 2cbd a152 babc 5f0c d93d
000000f0: f68b 9cbc 28f5 f83c 2aa1 c1ba 2e33 993d
00000100: 4a60 edbd 15b6 9abd cfb8 1dbd bcd4 263d
00000110: 8f37 973c 5a75 c3bd c6a4 b8bd 37d7 0dbb
00000120: aa8b 503c 9f7b e2bd a341 0abe c2fe 7abd
00000130: 49b2 acbd 14bd 94bd fa29 89bc 65bb aa3d
00000140: 4bad 10be e8e2 d63d e775 303d 4a90 9dbd
00000150: aa22 f8bd cc1c c1bd d0dc 8b3d df3f f8bc
00000160: a244 c93c 7370 acbd 08cd f8bc 0514 08bc
00000170: 099c aa3c f9e6 1bbd 7830 e5bd 28a8 b23d
00000180: 4131 05be d3ef a1bc 122d a33c 9147 c73d
00000190: 0e6b b83d 8c3f 03bd 9329 293c 5f3d edbc
000001a0: 727d b2bb 2e0a d03d 8010 6bbd 1f32 bb3d
000001b0: f38f 07be 06b9 133b 5978 8e3d 2985 e9bd
000001c0: 71ee a3bc ad18 b13d 1d90 a13d d319 893d
000001d0: f070 1e3b ff41 943d 4d19 5fbd 0c2b 2e3c
000001e0: 057a 55bd c2b1 a93d c183 5b3d 46be f5bc
000001f0: afc9 adbd 7b15 b93d dc11 1fbd b0ef a33d
00000200: a454 063e ace5 85bd 01f5 043e ae7f c6bd
00000210: e8d9 dbbb 205b 9e3d 175d a8bd 720f 533d
00000220: 2279 ffbc d945 a13c da65 93bd d1b3 ba3d
00000230: c552 b1bd 270c bfbb f903 113e 6727 c83d
00000240: 7e16 9f3b 6153 abbd 24a4 313d b05e 2bbd
00000250: 305b 793d e00d e43c 85ce 9f3d 1ec7 8f3d
00000260: 300f b03c 82be 0bbd 3fd3 b43d afdd dbbd
00000270: 488d 6d3d 4bf2 053d 62c6 4b3d 7843 50bd
00000280: 09e2 59bc 45c3 b13d 2eb1 973d 12b7 d53d
00000290: af73 0ebd 2075 b63d 73cf adbd 2155 f13c
000002a0: 98bf 683d 30d9 313d 7dfc d9bd 95a8 21bd
000002b0: fd15 9e3d da59 8cbd d0c9 853d 0af5 cb3c
000002c0: 9978 fe3d 9173 1dbd 2f0e c33c f0d4 cb3d
000002d0: 9787 933d 870d dcbd 14b0 d83d 6fae febd
000002e0: 72c3 c4bd 5b3a 01bd 5138 d53d 39e0 36bd
000002f0: bdba 513d 96a8 01be 8373 803c 3224 ec3d
-0.06302797 0.14032581 -0.0118426 -0.0025315222 0.04843736 0.078858234 -0.11019041 0.13915831
-0.06068316 -0.09333158 0.048339516 -0.054981094 0.08353445 0.03270776 -0.08954118 0.023856036
-0.06355718 0.04148299 0.03960802 0.057719987 0.049776703 -0.06598204 -0.10874897 0.02795767
0.055579513 -0.021632245 0.06992911 -0.07032948 -0.0022319127 -0.025214879 -0.077031255 0.095215596
0.15906581 0.07490913 -0.06712772 -0.08468637 0.1537244 -0.050947838 -0.0038979307 0.037942756
0.07651354 0.08104893 -0.012642952 0.11145087 0.021491762 0.05821207 -0.080652915 -0.06359362
-0.07552494 0.043391116 0.008782155 0.013067214 -0.092717156 0.024704883 0.022638848 -0.06273381
-0.13370803 -0.042229395 -0.022744479 0.10598063 -0.019109707 0.030390337 -0.0014772762 0.07480465
-0.11590631 -0.07554261 -0.038506325 0.040730223 0.01845911 -0.095438674 -0.09015803 -0.002164317
0.012728611 -0.11058735 -0.13501601 -0.061278112 -0.08432443 -0.07262626 -0.016743649 0.08336524
-0.14128606 0.10492498 0.04308119 -0.076935366 -0.12115987 -0.09429321 0.06829226 -0.030303894
0.02456886 -0.084198855 -0.030371204 -0.008305554 0.020826356 -0.03806207 -0.11190885 0.087234795
-0.1300707 -0.019767677 0.019918952 0.09730447 0.09004794 -0.032043025 0.0103248535 -0.028959928
-0.005447083 0.101581916 -0.057388783 0.09140419 -0.13238506 0.0022540702 0.06956548 -0.114023514
-0.020011159 0.08647285 0.078888156 0.06694379 0.0024176203 0.0723915 -0.054467488 0.01063038
-0.05211832 0.08285858 0.053592447 -0.029997956 -0.08485734 0.090373 -0.03883539 0.08004701
0.13118225 -0.06537947 0.12984087 -0.09692322 -0.006709326 0.077322245 -0.082208805 0.0515284
-0.03118569 0.019686626 -0.07197161 0.091163285 -0.08658365 -0.005830306 0.14161672 0.097731404
0.004854976 -0.08365513 0.043369427 -0.041838348 0.06087798 0.027838647 0.07803062 0.070204005
0.021491617 -0.03411723 0.088293545 -0.10735642 0.057996064 0.03270177 0.04974974 -0.050845593
-0.01329852 0.08679823 0.07406841 0.104353085 -0.034778293 0.089090586 -0.084868334 0.029459538
0.056823343 0.043420017 -0.106438614 -0.039467413 0.07719038 -0.06853075 0.06532633 0.024897117
0.12425346 -0.03844029 0.023810474 0.09952724 0.07203596 -0.10744768 0.10580459 -0.12435614
-0.09607591 -0.031549793 0.10411132 -0.04464743 0.051203478 -0.12661967 0.01568008 0.11530341

bias_hh_l1 f4 [192]
00000000: 9c72 0d3d c7db b23d 91df b33d 545e ecbd
00000010: 1b70 a2bd c64b 003e 48b2 efbc 277d 9cbc
00000020: f300 893c 49d5 f33c 0fb2 563b 1b9b f1bc
00000030: 2c01 a3bd 8199 a3bc a234 993d bd1b 5ebd
00000040: 5529 863d 408f 60bc 887c e33d 05df 77bd
00000050: d5a5 053d aa5a 0f3c 56fc be3d fae4 043e
00000060: ebc4 cc3d 6549 133d 2b17 e5bc 594f e7bd
00000070: dee2 8738 5487 5bbd dd2f 363d dce8 083d
00000080: fc7c e23c d6e4 153e d5e2 cf3d 185c 74bd
00000090: 618d b6bd 20f0 613d a924 a1bd 6f90 4fbd
000000a0: 6d43 33bd 1cb0 8c3d 8043 48bd e527 e5bd
000000b0: c748 c53c 48d8 ee3d fe69 c8bd ea9b 79bd
000000c0: 6f85 503d f2f6 d8bd 8620 d7bb f529 983d
000000d0: 3ef1 58bd 9b7f 1e3d a41d 9cbb 279a 90bc
000000e0: ec3f 9dbd bd62 1a3c 3199 063e dc0f 3abd
000000f0: ccee 1d3d afeb 753d c9e3 58bd c835 4d3c
00000100: 1027 ea3b 71d3 8c3b 025b 8d3d 87bd da3d
00000110: 55ba d9bd e8f7 593b 35ff d6bd 459f fd3d
00000120: e039 4a3d e527 dc3c c82e b53d fe19 b6bd
00000130: 7352 5f3d b35a f5bc 2e39 653d 506e 4dbc
00000140: 71b9 1b3d 1aed 1fbd d37d ecbd 40b8 493d
00000150: 0ac4 00be 8656 993d d356 3abd 9b1b 8dbd
00000160: 4188 d3ba 64b4 ae3d 27c7 d9bc 0b63 f4bd
00000170: b9d7 6a3c 6dec 123d 9cb4 59bc aad0 0abd
00000180: 5f4f 19be 14e5 b6bb b714 0fbd 1024 cf3d
00000190: 963a 12be c25c 9b3d f6a9 983d 6e8d 98bd
000001a0: cf02 693d f9fa 2dbd 6611 ee3c dc3f 6c3d
000001b0: ead7 19ba 75b9 d33d 2eee 32bd 7415 4ebc
000001c0: 9e69 50bc c335 223d 4505 293c 4b28 8ebd
000001d0: 2858 00be 7e2a 723d 311c a63c c9db f5bd
000001e0: fef2 ccbd 3ac4 543c c88f 92bd 87e4 0cbe
000001f0: 3b5b 29be a587 583c 7b38 18be bf16 3f3d
00000200: 7b16 903d 2ffd fe3d 7b3d a5bd a7f4 e4bd
00000210: 81c8 503d e92a a2bd 9a51 453d c1b0 cfbd
00000220: 6553 abbd 66af 11bd f5c2 943c 7215 91bb
00000230: 37ba 46bc 91dc 08be ad8f 953d e8e6 383d
00000240: b9ce b53d cde8 f5bc d8be ce3c 45a3 8d3d
00000250: 2cfd 02bd 6b11 c1bd 35a6 803d 70c5 043e
00000260: 7adf fe3d f4d8 5fbd 01ab 2b3d b18b 703d
00000270: 61ba 05bd 5fce 42bd 5a98 10be 1b6c d83a
00000280: c99f a6bc 7689 be3c ce9b 6c3d 6ef0 15be
00000290: b13b 683d a7c2 d53d 49eb 4cbd b60c 00be
000002a0: 3382 bf3d 419e 493d 154d b7bd 0b41 88ba
000002b0: 0802 a03d 31df c13d d338 f5bd 40df 88bd
000002c0: 6fbc ec3d dd4c fb3d 6591 e6bc 8990 9ebc
000002d0: 0505 cbbd edb6 3b3d 8611 0cbe 6e9a b33d
000002e0: 2ea0 9f3c ed7f f6bd 0280 9d3b 8306 a3bc
000002f0: 3225 4dbd bfa2 9ebc 4cc8 943d fc86 893d
0.03453313 0.087333255 0.08782876 -0.11541429 -0.07931539 0.12528905 -0.029259816 -0.019102646
0.016724085 0.029764788 0.003275994 -0.029492905 -0.07959208 -0.019970657 0.07480742 -0.054225672
0.06550852 -0.013706028 0.11107737 -0.060515422 0.032628853 0.008749643 0.09325473 0.12977973
0.099984966 0.035958666 -0.027965149 -0.11294431 6.479559e-05 -0.053595856 0.04447924 0.033425197
0.027647488 0.14638075 0.10150687 -0.05965814 -0.08913685 0.05516064 -0.078683205 -0.050674852
-0.043765474 0.06869528 -0.048892498 -0.1118925 0.024082555 0.11662346 -0.097858414 -0.060939707
0.050908502 -0.10593976 -0.0065651564 0.07429878 -0.05296444 0.038695913 -0.0047642756 -0.01765163
-0.07678208 0.009422955 0.13144375 -0.04542528 0.038557813 0.06003922 -0.052951608 0.0125250295
0.00714577 0.0042976667 0.06902124 0.10680681 -0.10631243 0.0033259336 -0.10497896 0.12383894
0.0493716 0.026874492 0.088468134 -0.08891676 0.05452199 -0.029950475 0.055962734 -0.012538508
0.038018648 -0.039044477 -0.115474366 0.04924798 -0.12574783 0.07487206 -0.04549296 -0.06890031
-0.0016138629 0.085305005 -0.026584221 -0.119329534 0.014333659 0.035870004 -0.01328769 -0.033890404
-0.14971684 -0.0055815075 -0.034931865 0.101143 -0.14280161 0.075860515 0.074542925 -0.074488506
0.056887444 -0.042475674 0.02906103 0.05767809 -0.00058686605 0.103381075 -0.043684177 -0.012578357
-0.012720494 0.039602052 0.010316198 -0.06941279 -0.12533629 0.059122555 0.020277115 -0.12004811
-0.100072846 0.012986237 -0.0715633 -0.13759051 -0.16538708 0.013215934 -0.14865296 0.04665255
0.07035538 0.12450635 -0.08068367 -0.11179476 0.050972465 -0.07918341 0.048173524 -0.10141135
-0.083655156 -0.035567664 0.018159369 -0.0044276053 -0.012129358 -0.1336539 0.073027946 0.045142084
0.0887732 -0.030018235 0.025237486 0.06915907 -0.031979725 -0.0942715 0.062817015 0.12965941
0.124449685 -0.054650262 0.04191113 0.05872697 -0.032648448 -0.047560092 -0.14120618 0.001651171
-0.020339863 0.023258906 0.057765774 -0.14642498 0.05669755 0.104375176 -0.050029073 -0.12504849
0.093510054 0.04922319 -0.08950249 -0.0010395361 0.078128874 0.094663985 -0.11973729 -0.066832066
0.11559378 0.1227052 -0.028145501 -0.01935603 -0.09913067 0.04582875 -0.1367856 0.087696895
0.01948556 -0.12036119 0.0048065195 -0.019900566 -0.0500843 -0.019364713 0.07264766 0.06715199
