Baseline_systems/SoMS/models/SoM_GRU_41/56_0.pth (torch, 213647 bytes, 8 tensors)

weight_ih_l0 f4 [192, 78]
00000000: 42fd 4abd 768d c53d 99e1 12be fb7c bcb9
00000010: 0caf 1b3d 2d30 ec3d e3d7 42bc a6e4 a23d
00000020: 0938 1fbe 7b32 a8bd 611a 973c f517 90bd
00000030: bc1c c93c ef99 f03d b00d 453d 2273 94bc
00000040: 1601 e13d 3771 f1bc 495e d63d 5422 adbd
00000050: 544c 44bd 4e80 aabc 851a 5b3c 8108 0b3e
00000060: 353b b1bd e001 eebc c2a1 c83d 71a0 b83d
00000070: 33ba 57bc 9491 ad3d 025f ba3d 39c6 b7bd
00000080: c6fc ba3c 641c aabd a234 ae3d 445a 4e3d
00000090: 48dc 2abd a045 48bd 9fc5 703d 4eba c93d
000000a0: dae6 09be e190 4cbc 1ccc 93bd a87b a33d
000000b0: 3605 6b3d 62c6 d4bc 04e7 e5bc 78ff 6d3d
000000c0: a97d e73c 2ed8 1a3c 9b02 b53d 2ca5 e63d
000000d0: b7f3 e13c cea2 85bc d58f 8a3d f812 fa3a
000000e0: 5c10 a1bd bb24 2fbd 039a 0cbe 7bca 52bd
000000f0: 7481 2dbd ee08 02bd ee18 e13c 6b83 05bd
00000100: fd49 b5bc c8c7 93bd caf4 91bd ee8c 7bbb
00000110: bf5f 35ba 5c8d 223d fc6e b2bb 1f15 f0bc
00000120: 884c afbd 96a3 b1bd e290 4ebd 5260 e93c
00000130: 8d97 27bd 8bf5 0abc 668b a83d 6330 eb3c
00000140: 9f91 0f3d da8d 883d b67a 89bc cde2 8d3d
00000150: f4d0 0b3d 00c1 3c3c b6df 98bd d652 75bc
00000160: 132f b13d 1c82 c2bd 52a0 c43d 50e6 b43d
00000170: 12a2 973d 3acf d73d 2cf0 063e 6e89 3c3e
00000180: fdf0 c5bd fe0b 92bd 619e c0bd b86c c2bd
00000190: b2c8 dabd addd 0e3d d56f aebd f1cb 053d
000001a0: bda0 b1bd 1ea9 bbbc ba15 ab3c 6d18 6abd
000001b0: f5f8 243e 679a e63d 929b e23d 56e6 23bd
000001c0: 6d48 0abe b7ce 923d f903 67bd 6d89 74bd
000001d0: c9ef e5bc b51e eb3d 1e84 e3bd a492 0c3d
000001e0: effe 46bc d861 0f3d e238 fc3d 3f72 df3d
000001f0: 9e53 e03d d8a0 e6bd 0a39 e43d 55e8 573d
00000200: c375 9ebd dee6 003d 4bc0 2d3d 618f 3b3d
00000210: cb72 e4bd b93d c23d 7a53 d3bd 4775 c9bd
00000220: 2360 75bc ee2e 563d 2cf3 07bd e0e3 c43c
00000230: 8572 64bd 44d6 80b9 4de2 0f3e 668c c63d
00000240: a603 89bd 4871 d73d 8a94 83bd 146a 64bc
00000250: 9c68 6abd 053d f73d b4b2 08bd 21d1 04be
00000260: 4167 cfbd 1175 9ebb 128c b83d 5014 043d
00000270: a104 7ebd 042e 99bd 1b1c c1bd aacd b8bc
00000280: 2d15 13be 9708 d2bc 68d4 7abd 277d 0c3e
00000290: cd5f 6a3d cf21 b23c 4d27 a23d 6e8e a4bd
000002a0: c13c c4bc ea6c 3c3d a52d 203d 0434 f33d
000002b0: c53e 3dbe 8a52 41bd 427c f2bd adb5 823d
000002c0: 108a 3abd ab35 e83d 0b48 87bd 1052 dabc
000002d0: e19e 393d bdb7 313d 0c62 323c c25a 323d
000002e0: f90c 043e 73b7 d7bd 990e 03bd 0f54 bf3d
000002f0: 98fa df3c 399f 1b3d cddc bf3d d5e9 b43c
00000300: 80f4 883c a14b d93d de81 f63d 4ff8 18be
00000310: 9d21 acbd 2c19 773c 0f17 b73d 15cb 80bd
00000320: a2d9 e93c 86e5 c33d 6f92 c3bd bcb7 22bd
00000330: 99bd 063e 2567 8f3d ff4c db3d c099 21be
00000340: 57cb 1dbd d33e d8bd 0858 9fbd 3dc4 0bbc
00000350: 817b 75bd fad1 2abd 02ce 61bd 97fb 57bd
00000360: 29ab 663c 86cf 14bd 2a5b 23be c2cd c93c
00000370: df76 83bd 54cd d2bb 7dc5 f0bb 79dd 123d
00000380: 610e 4f3d 3fcb 6abd 63ff f23d 1d9b b63d
00000390: 5e80 553b 1bb6 923d 84e6 ed3c ec96 133c
000003a0: 86f8 603d e98e d73c 099d edbc 3c60 08bd
000003b0: 6bdf 18be f452 093d 97d7 8b3d 896a 09bd
000003c0: 55ab 373d 4208 b83c cc4a 513d df29 37bd
000003d0: 25df a3bd 25f2 0ebe 370a ac3d 2820 8c3d
000003e0: ba6a 95bc 2d4c f83c d0e4 20bd 28aa 953d
000003f0: 46f8 aabd 8833 bbbc a802 6a3c 737f 073c
-0.04955793 0.09646122 -0.14343871 -0.00035951272 0.038008735 0.11532626 -0.011892292 0.079537675
-0.1554872 -0.082127534 0.018445196 -0.070358194 0.024549834 0.117481105 0.048108757 -0.018121306
0.10986535 -0.02947293 0.10467202 -0.08453813 -0.047924355 -0.020813134 0.013373022 0.13577463
-0.08653871 -0.029053628 0.09796478 0.09014977 -0.013166952 0.084750324 0.091001526 -0.08973355
0.02282561 -0.08306196 0.08506133 0.050379053 -0.041713983 -0.048894525 0.058782216 0.09849988
-0.13466969 -0.012485714 -0.07216665 0.0798257 0.057378016 -0.025973503 -0.028064258 0.058104962
0.028258162 0.009450955 0.088383876 0.11261973 0.027582033 -0.016312983 0.06765715 0.001907914
-0.078644484 -0.04275964 -0.13730626 -0.05146263 -0.042359784 -0.031746797 0.027477708 -0.032596033
-0.022130007 -0.072158396 -0.07126768 -0.0038383561 -0.00069188693 0.039685592 -0.0054453593 -0.029306946
-0.08559519 -0.0867378 -0.05043114 0.028488312 -0.040916014 -0.008481394 0.08229713 0.028709596
0.035050984 0.06667681 -0.016782146 0.069280244 0.03413482 0.011520624 -0.074645445 -0.014973363
0.08651557 -0.09497473 0.09600891 0.08832991 0.07403959 0.10537572 0.13177556 0.184118
-0.096651055 -0.071311936 -0.094052084 -0.09493393 -0.10682811 0.034879375 -0.08517424 0.032665197
-0.086732365 -0.02290779 0.020884383 -0.0571522 0.16110595 0.11259919 0.11064829 -0.040014587
-0.1350419 0.07168334 -0.056400273 -0.059701372 -0.02806844 0.11480466 -0.11109184 0.034319535
-0.012145742 0.03500542 0.12315537 0.109104626 0.10953449 -0.11261147 0.11143692 0.052711803
-0.07737305 0.031470172 0.042419713 0.045791034 -0.111547075 0.09484429 -0.10318656 -0.09836822
-0.014976534 0.05229085 -0.03319089 0.02403444 -0.055773277 -0.00024573703 0.1405117 0.096947476
-0.06690149 0.105196536 -0.06424816 -0.013941307 -0.05722867 0.120721854 -0.03337355 -0.12970401
-0.10127116 -0.0048357327 0.09011091 0.032245934 -0.062016133 -0.0747948 -0.09429189 -0.022559006
-0.14363547 -0.025638862 -0.061237723 0.13719617 0.05722027 0.021744637 0.07917652 -0.08034979
-0.023954751 0.046002306 0.03910603 0.118751556 -0.18480976 -0.047197856 -0.118401065 0.06382308
-0.045541823 0.11338361 -0.06605538 -0.026650459 0.045317534 0.043388117 0.010887634 0.043543585
0.12895574 -0.10533037 -0.031996343 0.09342205 0.027341172 0.037993643 0.09368286 0.022084156
0.01671815 0.10610128 0.12036489 -0.14938472 -0.08404849 0.015081685 0.08939945 -0.06288735
0.028546158 0.095652625 -0.09549414 -0.039726004 0.13158263 0.07002095 0.10708045 -0.15781307
-0.038523998 -0.10558858 -0.077804625 -0.008530674 -0.059932236 -0.041704156 -0.055128105 -0.05273017
0.014078894 -0.036330722 -0.15952745 0.024634246 -0.06419157 -0.0064331684 -0.007347761 0.035855744
0.050550822 -0.057322737 0.118651174 0.08916304 0.0032577734 0.0716364 0.029040582 0.009008151
0.05492451 0.026313262 -0.029005544 -0.0332949 -0.14928977 0.033526376 0.0682823 -0.033548865
0.04484113 0.022464875 0.051096722 -0.044717666 -0.08001546 -0.13959558 0.08400386 0.06842071
-0.018239368 0.030309761 -0.039280713 0.07307845 -0.08348136 -0.02285172 0.01428286 0.008270132

weight_hh_l0 f4 [192, 64]
00000000: 461d 103e 546d a43d 4dab 79bd 1cad a5bd
00000010: 0f5c a33d 5a76 b3bd 6ccb efbd 19bf 25bd
00000020: f1c4 acbb 2b5a 5dbd 897d 7c3c 9eed 5e3c
00000030: 8117 b53d 7be2 70bd e96b f23c 04bd e73a
00000040: f074 753d 28e9 33bd 59ed ce3c 37b6 3ebd
00000050: 267c 48bd 342d 5f3d 654f a4bd c505 ad3d
00000060: c708 bd3a d9e8 8f3d 2c82 253e 2b55 eb3d
00000070: ac26 c5bd 3cfc d2bd 8570 443d b285 e83d
00000080: 364d 993c 570b d73d fbe5 533c b082 493d
00000090: 2730 d1bc eaf5 003d d8d8 09bd 6ce9 8cbb
000000a0: ac17 833d 4a94 173c 4702 603c 3c79 e73a
000000b0: 62ab 11be 0218 c23d 449c 8b3d ce7f 5dbd
000000c0: 62e1 0c3d 5917 433d f34e 783d b8f7 9b3d
000000d0: 4e0e 7b3d f8e1 be3c b54a 783c 8e7c 343d
000000e0: 8d65 213d 6ae4 24bc 8e73 acbd 2d68 6dbd
000000f0: 2af5 28bc fdf3 f0bd e13b d23d 1c8b 8b3d
00000100: ad2a af3d b426 553d 1a95 44bc 70cc cd3b
00000110: ce79 253d daca 363d 09a9 023d 1fa6 10bd
00000120: f8b5 41bc 650a 083d 939d abbd ed57 953d
00000130: 07a6 363d 69f9 51bd 3530 8bbd 28c8 fbbd
00000140: a37a b03d f602 e33d 1673 aa3d 2a0b 523d
00000150: c89e 613d 2f39 dd3d ddef 913d 6096 913c
00000160: 45c8 f33c 03e7 743d 0872 c9bd 2ac8 053c
00000170: f79c ac3d 017f 683d 5f82 7cbd 5bd7 3a3d
00000180: d9a5 8f3d 68a2 cebd 43d5 d23d fb71 353d
00000190: 9103 de3d 6759 e53d 9a29 05bd 64e8 3ebd
000001a0: bea0 cbbd c2cc f3bc be74 e93c 3bb1 07be
000001b0: 44ee 96bd 4a5f e9bb 28d6 b6bd 4cba 97bd
000001c0: 19f3 f2bc b1dc 09be ea93 a9bd c392 9c3c
000001d0: 0450 a13b da55 89bd 1495 053e e126 543d
000001e0: c4d1 81bd 58a3 d7bb 1e95 babb d362 363d
000001f0: 297c 06be 504a 5a3d 4fb0 a9bc ef5b 9bbd
00000200: 40cd b3bd 25f2 b5bd 7f7e 00bd 7f41 ffbd
00000210: 51b6 c73d 8cf9 77bd 4117 6bbd 9537 043d
00000220: d68f d9bd 7acc bd3d 5f8a aa3d 2080 c53c
00000230: 0b3e 5bbd 51d4 00be dfaf 863d a6b9 83bc
00000240: 3c5f 4c3d 2299 60ba 3541 643d 01fe d0bd
00000250: a950 673d 6426 263d 8db5 883d 3cd4 00bc
00000260: 41ca dfbd 6b71 ea3c 2688 d2bd a55d d4bd
00000270: a33a ee3c a4f7 adbd 5010 99bd 1df8 323d
00000280: 1cfa 78bd 36d9 28bd 551a a43d 0324 c3bc
00000290: 6ed6 1e3d b3f8 cb3d 0c10 ebbd 1be1 543d
000002a0: 25ce 933d 7e25 b5bd a0fa 513d 23d2 fe3c
000002b0: d0f3 48b9 818d 033e 1cb9 78bd df28 803d
000002c0: 48a0 a03c 78ba 76bd ebf2 453d 761c 95bc
000002d0: 2614 c13d cc03 3abd 4f78 c43c 5024 00be
000002e0: 4278 da3c 39c3 8a3c 4505 eebb 685f 56bd
000002f0: 86b4 b8bd 83bf 9e3c 5456 72bd cb77 e33d
00000300: 9b97 0fbd 3149 d8bd 0f52 90bb 21e4 d2bc
00000310: 4db8 bcbd 74b7 18bc 13e0 93bc f295 863d
00000320: 5b02 0ebd e0b2 c53d a213 eb3c 00c5 05be
00000330: 7926 2dbd 3398 5cbd 2204 18be 7ed7 f6bc
00000340: 33cd f8bc 93cd acbd e205 a2bd 1006 f3bc
00000350: 4f28 833d 365d 013d 1a22 323e e6a3 f8bc
00000360: ea0e e8bd a3a4 1c3d 5046 a0bd 48de 3e3d
00000370: 7deb f7bd 0843 053e ab40 063c 7f89 fd3c
00000380: c59f 043e 645e cdbc 3a96 c53d 980a fdbc
00000390: d92b 1a3d 880a d6b8 7a79 31bc 4247 89bd
000003a0: e432 b7bd ddf9 6cbd 689c 283e 47bd 0ebe
000003b0: fc5c 013d 7fd1 ec3d c4e3 ba3d 8f3b ddbd
000003c0: bef8 393d 02ad eebc e9bc 4c3d 165d 223d
000003d0: dc2f b93d f312 b8bd d481 9abd 4576 2b3d
000003e0: f4a5 cfbd cd01 f43d 318a f73c 3711 943b
000003f0: a912 ce3d 7e14 64bb 44fd b03c b1cf 9b3c
0.14073667 0.08028665 -0.06095438 -0.080896586 0.07976543 -0.08762808 -0.117087215 -0.040465448
-0.0052725007 -0.05404107 0.015410789 0.013606457 0.08842374 -0.05880974 0.029592471 0.0017680232
0.059925973 -0.043923527 0.02525966 -0.046560492 -0.048946522 0.05448647 -0.08022956 0.08448366
0.0014422172 0.07026834 0.16162938 0.11490854 -0.09626517 -0.10302016 0.04795887 0.11353625
0.018713575 0.1050021 0.01293325 0.0491969 -0.025535656 0.031484522 -0.033654064 -0.004300287
0.064009994 0.009251663 0.013672418 0.0017660032 -0.14225534 0.094772354 0.06816915 -0.054076962
0.03439463 0.047629688 0.060622167 0.07615608 0.06129294 0.02330111 0.01515453 0.044064097
0.039403487 -0.010064224 -0.08420478 -0.057960678 -0.010312358 -0.11765287 0.10265327 0.068136424
0.08553062 0.052038863 -0.011998439 0.0062804744 0.040399365 0.044627048 0.031899486 -0.035314675
-0.01182317 0.033213038 -0.08379664 0.07292161 0.04459193 -0.051263247 -0.06796304 -0.12294036
0.08617141 0.11084549 0.08322732 0.051280178 0.055083066 0.108019225 0.071258284 0.0177719
0.029758582 0.059790622 -0.09836203 0.008165399 0.08428376 0.056761745 -0.06164777 0.045615535
0.07014055 -0.1008957 0.10294583 0.044298153 0.10840524 0.11198693 -0.032510377 -0.046608344
-0.099427685 -0.029760722 0.02849805 -0.13251202 -0.07369664 -0.007121955 -0.08927566 -0.0740858
-0.029656934 -0.13463093 -0.082801655 0.01911295 0.0049228687 -0.06705828 0.1304515 0.05179489
-0.06338838 -0.0065807514 -0.0056940457 0.04452784 -0.13133301 0.053293526 -0.020713953 -0.07585894
-0.08779383 -0.08884076 -0.031370636 -0.12463664 0.09751571 -0.06054072 -0.057395224 0.03227957
-0.10623138 0.092675164 0.083271734 0.024108946 -0.053525966 -0.12580992 0.065765135 -0.016079735
0.04989551 -0.00085677404 0.05572625 -0.102046974 0.056473408 0.040563956 0.06675253 -0.007863101
-0.10927249 0.028618535 -0.102798745 -0.10369424 0.029080695 -0.08494499 -0.074738145 0.04369365
-0.060785398 -0.041222773 0.08012835 -0.023820883 0.038778715 0.09959545 -0.1147767 0.05197249
0.07217053 -0.08845042 0.051264405 0.03110606 -0.00019164314 0.12846948 -0.06072341 0.062577955
0.019607678 -0.060236424 0.048327368 -0.018202048 0.09427671 -0.045413777 0.023983149 -0.12513852
0.026668672 0.016938793 -0.007263812 -0.05233708 -0.09018807 0.01937843 -0.05916436 0.11106833
-0.03505669 -0.10560835 -0.0044043134 -0.025743546 -0.0921484 -0.009321082 -0.018051183 0.065715685
-0.034670215 0.09653258 0.028695885 -0.13063431 -0.04227302 -0.053856086 -0.14845327 -0.030132052
-0.030371284 -0.08437648 -0.07911278 -0.029665977 0.06404173 0.031583034 0.17395821 -0.03035159
-0.1133097 0.038242947 -0.07825911 0.046598703 -0.12105463 0.13013852 0.008194129 0.030949352
0.12951572 -0.025069423 0.09647794 -0.03088884 0.037639473 -0.00010206277 -0.010832185 -0.067030445
-0.089452535 -0.057855476 0.16465914 -0.13939391 0.031582817 0.11563396 0.09125474 -0.108023755
0.045403235 -0.02913523 0.049984846 0.039639555 0.090423316 -0.08987989 -0.07544294 0.041860837
-0.10139075 0.11914406 0.030217262 0.0045186537 0.10062153 -0.0034802253 0.021605141 0.019019933

bias_ih_l0 f4 [192]
00000000: 3d2c f43c 5096 03bd 9c0b 9bbd c718 0dbe
00000010: c564 0c3c 5a1f 54bd 3f78 153e 6b0e 45bc
00000020: 62ca babb 2a05 19bd 81eb 3d3b 3636 863d
00000030: 5dab 0fbe 004b c23d 8b2b 753d efd2 edbd
00000040: e26c 163e 2e3f 02be c23d 143e adf6 5f3d
00000050: b2eb 993d f90c 0f3d 76a1 d83d 5782 9bbd
00000060: fe66 6e3c 5adf 763d a264 473d 935a b2bc
00000070: 19fa a63c 5b54 e63d 6494 463d 19b9 93bd
00000080: 066b e13c 0024 ecbd 953d 843d efc0 e73d
00000090: 875f 8a3d 012f 82bc 626e 493d 4445 a1bd
000000a0: be1e f1bc 7d98 a53c 6ffb 90bc b119 5a3d
000000b0: b8b7 9f3c b8c4 a8bc 00ba b3bd 5713 05bc
000000c0: 2bec 92bd 96ac 84bd 67cd 11bd 99d4 daba
000000d0: f5c6 8d3d c26f bd3a bf00 113e cede c83d
000000e0: f87e 63bd 5a26 173e 5a7d 12bc 23f1 1f3d
000000f0: 4a6e 6f3d da79 3bbd b87a a4bd a64a c3bd
00000100: a85a 24b9 399e ab3d e8a5 47bd 8c11 a83c
00000110: 238c 5a3d 046a 043c ddb9 8abd 0bba d6bd
00000120: b6a8 a1bd 89a5 503d f128 83bd e1f1 2c3d
00000130: 921e 653d e6a4 913d 1afc 87bb efe4 0c3d
00000140: 6776 173d c9ab 42bc 18c9 6dbd b8a3 33bd
00000150: cf05 0bbe e9c1 d7bc 7ee4 2f3c eaba c03c
00000160: 5f8d b1bd 51e8 a1bd ac81 f9bc 4072 1fbc
00000170: 8845 50bd d83f 4dbd c4da 67bd 3fd6 a0bd
00000180: b453 233c d022 b6bc 667c 353b bf9c 133d
00000190: 0e6b 6f3d 0382 06be c7b1 f13c 023d c8ba
000001a0: c7ca 44bd 9b37 6abd 91be 8abd 1e21 643d
000001b0: ea47 26be 923d e23a 2e0f 803d af3e 8e3d
000001c0: 57be 04be 889c dbbd 1a91 0f3d b0db 253d
000001d0: f0e5 a1bd e701 3fbd 99cc 28be 08bd 80bd
000001e0: a39f 19be b0ca 873d 639d aabd ddbf 07be
000001f0: 03b0 973d 89dd 153d 5140 e6bb 90da 0e3c
00000200: 3393 d33d b497 3d3c 80df 663d 318b 3bbd
00000210: a374 3f3d 5e20 ac3b f9ae b3bd 6743 49bd
00000220: cce8 f6bd e124 d33b ce4f 333d 561a 4cbd
00000230: 92d6 d4bc 5f67 bc3c 0ade b13d e665 e6bd
00000240: 56c5 873d b393 2fbc f12e 88bd 7286 adbc
00000250: 243d fabd 0a10 9dbd e09e 4fbd 621b 943b
00000260: 2639 89bd 6cd6 d439 13b4 773b 3e25 23bd
00000270: e276 0c3e 0bcf 5c3d b39b b3bd f067 b8bd
00000280: ea68 013e dae1 cebd c6de 17bc 6223 d33c
00000290: 0962 c73d e9fe afbd 7f6b af3d 9848 1bbd
000002a0: 6070 423d 5134 533d e195 52bd af6f 41bd
000002b0: 3cb7 35bc 868d 04be c00e f5bc 4109 99bd
000002c0: 0c15 bd3d 3c28 0fbe 7ca2 7b3c 5084 cbbc
000002d0: 9dfa 7c3d 6bd2 11be 3dc5 44bd 8db3 9cbd
000002e0: 049b a4bd 3d50 11bc d911 923d 7d54 f7bd
000002f0: dc09 e23d a505 f83d 041c 3ebd ec5f 863d
0.02980625 -0.03212577 -0.07570574 -0.13778983 0.008568947 -0.05178771 0.14596651 -0.012027363
-0.0057003954 -0.03735844 0.0028979483 0.06553309 -0.14030214 0.09486961 0.05985598 -0.11612498
0.14689973 -0.12719414 0.14476684 0.054678608 0.075156584 0.03492448 0.10577671 -0.0759322
0.014550922 0.0602716 0.048679955 -0.021771705 0.020382928 0.11246558 0.04848136 -0.07213039
0.027516853 -0.11530304 0.06457058 0.11316096 0.06756502 -0.015891554 0.049177535 -0.078745395
-0.029433604 0.020214314 -0.017698018 0.053247157 0.019496784 -0.020601615 -0.08775711 -0.008122287
-0.07173952 -0.06478231 -0.035596278 -0.0016695439 0.06922714 0.0014452862 0.14160441 0.098081216
-0.05554101 0.14760724 -0.008941019 0.039048325 0.05845479 -0.045770504 -0.08031219 -0.095357224
-0.00015674031 0.08379788 -0.048742205 0.02051618 0.0533563 0.008081917 -0.06773732 -0.10484704
-0.07893507 0.050939117 -0.06404293 0.04222286 0.055937357 0.0711153 -0.004149926 0.034398016
0.03697815 -0.011881777 -0.058053106 -0.043857306 -0.13576435 -0.02633758 0.010735629 0.023526628
-0.086695425 -0.07905639 -0.03045734 -0.009731829 -0.05084756 -0.050109714 -0.056605116 -0.07853364
0.009968687 -0.022233397 0.0027692555 0.036038157 0.058451705 -0.13135533 0.029503716 -0.0015276971
-0.048044946 -0.057181936 -0.06774629 0.055695646 -0.1623837 0.0017260781 0.06252895 0.0694555
-0.12963234 -0.10723215 0.03505049 0.040492713 -0.07905185 -0.046632674 -0.16484298 -0.06286055
-0.15002303 0.066304564 -0.083308004 -0.13256784 0.074066184 0.036588226 -0.00702671 0.008719102
0.103308104 0.011571813 0.05636549 -0.04578704 0.046742093 0.005252882 -0.08773608 -0.049136546
-0.12056121 0.0064436053 0.04377728 -0.049829803 -0.025981221 0.02299851 0.08684929 -0.11249904
0.06629436 -0.010716367 -0.06649578 -0.021182273 -0.12218693 -0.07669075 -0.050688624 0.004519866
-0.06700353 0.00040595548 0.0037796542 -0.03983044 0.13717225 0.05390839 -0.08769932 -0.090041995
0.12637678 -0.101016715 -0.009269422 0.025773708 0.097354956 -0.08593542 0.08565425 -0.037911028
0.04747045 0.051563565 -0.051412467 -0.04722565 -0.01109105 -0.12944612 -0.02991426 -0.07472468
0.0923253 -0.13980192 0.0153585635 -0.024843365 0.06176244 -0.14240424 -0.048039664 -0.07651434
-0.080373794 -0.008869228 0.071323104 -0.12076662 0.11037037 0.121104516 -0.046413437 0.065612644

bias_hh_l0 f4 [192]
00000000: 6b96 b8bd ab85 e2bd d61b 9a3d 3b8b 903c
00000010: e86e f83c 04ec 463d 9f35 443d 3210 dc3c
00000020: 9752 9a3d 362f 033e dc0f 853c 6df8 a43d
00000030: 9c44 333d 7911 df3d 3871 163d 1b15 143b
00000040: a179 96bd 0d47 e0bd 6963 6ebd 9fad b9bd
00000050: 3662 80bd 5c55 9cbd 5b8f aebd b9d0 913d
00000060: dc24 ff3d e9fb b73d 45f2 fdbd d601 ff3d
00000070: 2ff4 e53d 513e 32bc 820b 3abb 1f4a b73d
00000080: 706a 2d3d 1130 bc3d 87d3 fc3d 9747 073d
00000090: 497e 67bd d24b c83c 2161 4dba dbab b4bd
000000a0: 7526 92bd 9bab 24bd 6cca 37bd 714c 7cbd
000000b0: 6396 fcbd 4f2b e13d 9823 fdbd 71ca c1bd
000000c0: ba54 7abd ffd5 7f3d dfca 3fbd 8841 1d3e
000000d0: 7246 01be 9d87 c93d ef5f c7bb 00c7 ce3d
000000e0: b27c 46bd e77b 6abd 6def 0d3e 211c c83d
000000f0: 2149 153c 6094 40bc f7cb 193d f65b 923d
00000100: 7cf4 033e 225c b53b ddd3 d93d d781 073c
00000110: 06bb e1bd 47e1 a83c 8c61 27be 6645 d83d
00000120: 98c1 cbbc 4ae7 3ebd b126 c5bd 1694 8abc
00000130: 254d 883d 52ec e83d 00bc 58bd ead0 9d3b
00000140: e499 fc3c bcfe 80bd 3dbc 2b3d e0ec 4fbc
00000150: d0f7 fcbd 2d94 a4bd 8353 d8bd 4fb2 0fbe
00000160: 424c 613d 545e 523d 70ae 343d a3a7 5b3d
00000170: de50 52bd 0313 b2bd 490c f1bd 8ff7 c33c
00000180: a756 2c3d 5e41 3bbd e224 c5bd 6a98 eabc
00000190: 8c00 edbd 46d4 a0bc 2b93 be3d 1466 9d3c
000001a0: 15f2 a43d 279c 1b3d 53db c43b b71c c7bd
000001b0: 6aa2 2e3d 7c39 c63d e1f1 bd3d b6ba 29bd
000001c0: 1782 693d 8918 a93d 0a71 babd b300 9bbd
000001d0: c2fb 0ebc 144f ef3d 935d 6cbd e0d7 633d
000001e0: b7c2 a2bd bcf8 eebd e697 9c3d dd64 24be
000001f0: 43d3 c8bd 7f1f 933d dc87 0c3e c830 2f3d
00000200: bbbc 293d 79e0 f4bc c730 293d e06c 56bc
00000210: d653 1dbd 1c35 72bd 7b3b 17bd ba4a 713b
00000220: a148 1abd e926 063e 3cef b33c b883 a3bc
00000230: 5a98 98bd 7025 b43d 8c2f cfbc ef99 da3c
00000240: 1e68 50bd 5f53 cf3d 554f d43d 9e5a b73d
00000250: 7eb2 8c3d 30f8 8c3c b2ca 87bd 3c4a a0bc
00000260: 2852 7c3d fcd9 bebd 51c7 1abd a46d 8ebb
00000270: 8495 c9bd 58e7 053c 1716 093d 3bd8 82bd
00000280: 498a 0e3c 23d2 1a3d 050f 8fbc 654f b8bd
00000290: 02a8 e03d e998 01be 684c ad3c b2d4 373d
000002a0: b12e e2bd b91a a1bc 66ef eb3c bf21 833c
000002b0: c34e 573d 1c8e 43bd 79d2 83bd 8946 cebd
000002c0: 65f6 42bd 7e25 1cbe 9195 d9bd cfd8 b8bc
000002d0: 7ebc cebd 2a83 80bd fea3 c3bd 5164 813d
000002e0: 17a8 463d 4937 09be 30ad d13d 7b67 c03d
000002f0: 05fb 243c 9e03 123d 790d bc3d 6c13 67bd
-0.09013065 -0.110606514 0.075248405 0.017644515 0.030326322 0.048564926 0.0479027 0.026863191
0.07535284 0.12810978 0.016242914 0.08055196 0.043766603 0.108920045 0.036729068 0.0022595588
-0.073474176 -0.10951052 -0.058200274 -0.09066319 -0.06268732 -0.076334685 -0.08523437 0.07119889
0.12458202 0.08983595 -0.12399725 0.12451522 0.11228215 -0.010879115 -0.0028388207 0.08949684
0.042337835 0.091888554 0.12345033 0.033027258 -0.05651692 0.024450216 -0.0007834603 -0.08821841
-0.07136241 -0.04020272 -0.04487078 -0.061596338 -0.123333715 0.109945886 -0.123603046 -0.09462441
-0.061115958 0.062459942 -0.046824332 0.1535703 -0.12624529 0.09840319 -0.006084434 0.1009655
-0.048458762 -0.05724707 0.13860865 0.0977099 0.009111674 -0.011754125 0.03754803 0.071464464
0.12886232 0.0055346647 0.10636113 0.008270702 -0.11022 0.020615233 -0.16345805 0.10560112
-0.024872586 -0.046607293 -0.096265204 -0.016916316 0.06655339 0.113731995 -0.052913666 0.0048161643
0.0308351 -0.06298587 0.041927565 -0.012690753 -0.12351954 -0.08036075 -0.105628036 -0.14032863
0.055004366 0.05135949 0.04411167 0.053626668 -0.051346652 -0.086950324 -0.11769921 0.023921756
0.042074826 -0.045716636 -0.096261755 -0.02863713 -0.1157237 -0.01963247 0.09305414 0.019213714
0.08053986 0.037990715 0.006007591 -0.09722274 0.04263536 0.09678933 0.0927465 -0.041437827
0.05700883 0.08256633 -0.09103592 -0.07568493 -0.008727016 0.11685005 -0.057706427 0.055625796
-0.07947295 -0.11668536 0.0764616 -0.16054101 -0.0980592 0.07183742 0.13723701 0.04277113
0.041439753 -0.029892193 0.041306283 -0.013087481 -0.03841003 -0.05913268 -0.03692196 0.0036818222
-0.03766692 0.1310078 0.021964662 -0.01996027 -0.07450934 0.08796203 -0.025291227 0.02668473
-0.050880544 0.10123324 0.10366694 0.08952831 0.06869982 0.017208189 -0.06630458 -0.019566648
0.061601788 -0.09318921 -0.03778774 -0.0043465663 -0.09842971 0.008172832 0.033468332 -0.06388899
0.008699962 0.03779806 -0.017463217 -0.08999518 0.10969545 -0.12655987 0.021154597 0.044880576
-0.11044062 -0.019666063 0.028800678 0.016007302 0.052565347 -0.047742948 -0.06436629 -0.10072047
-0.04759826 -0.15248677 -0.10624231 -0.02256432 -0.10094546 -0.062750176 -0.095527634 0.06317962
0.048500147 -0.13399996 0.10238111 0.09394737 0.010069613 0.03564798 0.09182257 -0.056415007

weight_ih_l1 f4 [192, 64]
00000000: 2872 e4bd fbe2 11bd b958 b1bd b023 96bc
00000010: 81f8 8c3d 9fac 90bd eef7 85b9 2925 26bb
00000020: 5156 01bd 2856 8d3d 5874 e23d 758f b9bd
00000030: b668 04bd 7ddb 5fbd 1b6e d43b 8e0d 0bbd
00000040: f697 96bd d28d 08bd 2160 41bd 2705 13bc
00000050: 40de 493b ecb5 f43c 88d4 ce3d 2943 863c
00000060: d04b 3bbc f46b a03d 2504 fd3d f3d3 83bc
00000070: 9a7a c2bd cbef 693d 0b55 ae3a 4e43 623c
00000080: f620 a23d 0da6 bf3d 3a4e 9abd 827e debd
00000090: 083c 8cba de55 cb3d 7814 05be c4de b9bd
000000a0: 5d52 ee3d ecf1 44bc a1f8 cb3c 6a0d c0bd
000000b0: 9c50 ff3d 4d10 053e e1e0 21bb 6ce3 8c3d
000000c0: 4395 8e3d aaaa 6c3d ceac a4bc fb2f 80bc
000000d0: 9a19 c73d 2e70 1abd 1888 97bd 4c0b 8abc
000000e0: 3866 c53d fce5 89bd 4028 a03d f906 fcbc
000000f0: a069 00bd cc29 5bbd fd77 573d 3d24 b7bc
00000100: 814c 82bd c08b 88bd 1fc0 2ebb a585 8cbd
00000110: 3941 843d af76 96bd 1159 e03b f7ea a1bd
00000120: 3f6c 51bd 0150 bc3d 83b3 63bd 4d9b b4bd
00000130: dd99 a13d 1b68 69bd 8e92 d23d 029b e3bc
00000140: ad07 b0bd 19ed f83c 5910 58bd 8c5c 863d
00000150: 886f 7ebb 8a08 b3bd d4af 433d 4ff7 8d3b
00000160: c97a f93c 315c c6bd e07d ab3d d53e 37bd
00000170: 9118 b5bd a083 833c aeed 353d 31b5 203e
00000180: 43d1 963d 39d2 e13c 9125 bbbd c2f7 493d
00000190: 22be afbd 01e9 f0bc dba9 03be f732 a93d
000001a0: 8803 1bbd 2b98 6d3d c10c 143d 6f93 01bd
000001b0: 43da 12bd 7811 e63b 70bd 84bc 3795 e4bd
000001c0: 1c40 003e 5212 153d ff51 783c f8b6 fbbc
000001d0: 5495 90bd 957a 02be 9d36 663d dc55 d03d
000001e0: 5452 4d3d 0779 543d b431 103e a6ea ba3c
000001f0: ee9d 35bd 0a43 83bd 2172 bebd f417 ae3d
00000200: b449 e03c eaff f0bc 5ebd 143b 3626 9e3d
00000210: b07c 86bd c225 0ebe ef15 b43c 57a4 b03c
00000220: e200 893b 0f71 0c3e 4c98 92bd 20ec 64bd
00000230: c8b8 303e 7fd4 ebbd d5de 85bc 2a5d b0bd
00000240: 3167 933d 8bf7 593d 92aa f73c fa4c d8bd
00000250: 6aaa 32be ded5 de3d f6d2 ad3d b52a cd3d
00000260: 0f95 6fbd ecd3 bf3d 4e42 82bc cfb9 a23d
00000270: d011 ab3d 5f82 95bd 0615 493b fbfd 563d
00000280: f779 41bc 6c27 923b 5282 843d 8c64 0dbd
00000290: b769 34bd e242 4c3d 4c15 d6bc c602 ffbd
000002a0: 4208 993d b827 9d3d 0e58 003e b4e3 7ebd
000002b0: 1b20 93bc 478a d93d 4a4b a03d 1993 2dbe
000002c0: caf3 103e e7d0 593d a5f5 1f3d b799 513d
000002d0: 8365 003e c180 c4bd 1880 9dbd bada 43bd
000002e0: 553c 8c3c ddfb 8e3c 10bc 35bd f1c2 e73d
000002f0: 8c4b 00be 7483 8dbd 09e6 0d3e 39a8 9d3c
00000300: fc21 2c3d 7a87 dd3d 18a8 c7bd aa89 b6bd
00000310: e9ed 10bd 6ab8 92bc 8cd4 9a3d 044a 12be
00000320: 9b06 013e 54c4 7a3d 7022 cbbd bf31 abbd
00000330: bcfa 1e3e 4d89 ca3c 2016 21bd 9a90 bc3d
00000340: 2f3f db3d e99b 5bbd 7cf5 483b 7059 b63d
00000350: 87fd 963d f895 c53d 14f5 5ebc e9d8 e3bd
00000360: 9005 aabd b992 30bd 5dfc 98bd 9842 35bc
00000370: 3aca 71bc 0aef eabb a52d ffbd e00e 0d3e
00000380: c01a c2bc 1324 093e a4a7 21bd 4a7d b5bc
00000390: 6a88 a53d 408f f4bd 535e 5fbd c44d 9e3c
000003a0: f199 6d3d f08e ec3d 4983 9d3d d105 b13d
000003b0: afaf 833d 9e45 aebd c3e9 a13d 79af ecbd
000003c0: ea92 173e 548d 5b3d ffbb c53d 4373 24bd
000003d0: 1e12 f1bd 8af3 8ebd 0b72 5abd 9a03 d3bd
000003e0: f3c6 ddbd 829c 6cbc d197 8abd 5348 873d
000003f0: 7761 9f3d 38d5 e9bd b439 be3c b30f 873d
-0.11154586 -0.035616856 -0.08659501 -0.018327564 0.06883336 -0.07064175 -0.0002555246 -0.002535174
-0.03157646 0.069011986 0.11057347 -0.090605654 -0.032326423 -0.05465268 0.006482852 -0.033948474
-0.07353203 -0.033338375 -0.047210816 -0.008973396 0.0030802637 0.029871903 0.10099131 0.016389446
-0.011431649 0.078330904 0.12354306 -0.016092276 -0.09496041 0.05711345 0.0013300491 0.013809992
0.07916443 0.093578435 -0.07534452 -0.10863973 -0.0010699043 0.09928487 -0.1299609 -0.09075692
0.11636803 -0.012020569 0.024898829 -0.093775585 0.12466547 0.129945 -0.0024700689 0.06879315
0.06962063 0.057779945 -0.020101931 -0.015647879 0.0972168 -0.03770464 -0.07399005 -0.01685109
0.09638637 -0.06733319 0.07820177 -0.030765044 -0.03135073 -0.053506657 0.052604664 -0.022356147
-0.06362248 -0.0666728 -0.0026664806 -0.06861428 0.06457753 -0.07346856 0.006846555 -0.07906144
-0.051128622 0.09194947 -0.055591118 -0.08818684 0.07890675 -0.05698405 0.10281859 -0.027783874
-0.08595214 0.030386494 -0.052749965 0.06560621 -0.0038823802 -0.08741863 0.047775105 0.00433246
0.030454056 -0.09685553 0.08373618 -0.044737656 -0.08842576 0.016053975 0.044416122 0.15694119
0.07364132 0.027566062 -0.091380246 0.049308546 -0.08581187 -0.02940798 -0.12857763 0.08261674
-0.037845165 0.058006447 0.036144976 -0.031634744 -0.03585268 0.0070211254 -0.016203612 -0.11161273
0.12524456 0.036394425 0.015156268 -0.030726895 -0.07059732 -0.12742074 0.056204427 0.101726264
0.050127342 0.051873233 0.1408146 0.022816967 -0.044340067 -0.06409271 -0.09299112 0.085006624
0.027378894 -0.029418904 0.002269588 0.07722132 -0.06566751 -0.13881591 0.021983115 0.021562738
0.0041810134 0.13715003 -0.071579546 -0.05588925 0.17257988 -0.1151514 -0.016341606 -0.0861152
0.071974166 0.05321459 0.030232701 -0.10561557 -0.1744782 0.10880636 0.08487503 0.10017911
-0.058491763 0.09366593 -0.015900757 0.079455964 0.08353007 -0.07300257 0.0030682697 0.05248831
-0.011808864 0.004460266 0.06470169 -0.034519717 -0.04404613 0.049868472 -0.026133202 -0.12451701
0.07472278 0.076735914 0.1253359 -0.062228873 -0.017959645 0.106220774 0.0782686 -0.16950645
0.14155498 0.05317774 0.039052624 0.051171985 0.12538724 -0.0959487 -0.076904476 -0.047816016
0.017118612 0.017454082 -0.044368804 0.11316479 -0.12528819 -0.06909838 0.13857283 0.019245254
0.042024598 0.10816856 -0.09748858 -0.08912976 -0.03538314 -0.017910201 0.07560071 -0.14286047
0.12600176 0.06122239 -0.09918678 -0.08359098 0.15525335 0.024723673 -0.03932774 0.09207268
0.10705411 -0.053615484 0.0030663898 0.089037776 0.07372575 0.09647745 -0.013608236 -0.11125357
-0.08301842 -0.043108676 -0.074700095 -0.0110632405 -0.014757687 -0.007169609 -0.12459878 0.13775206
-0.023694396 0.13392667 -0.039466515 -0.022154469 0.080826595 -0.11941385 -0.054533314 0.01932419
0.058008138 0.11550701 0.07691056 0.086436875 0.06429993 -0.08509372 0.07905915 -0.11556906
0.14802137 0.053601578 0.09654998 -0.040148985 -0.11771034 -0.06980045 -0.053331416 -0.10303421
-0.10828962 -0.014441611 -0.06767238 0.066055916 0.07782262 -0.114176214 0.023220874 0.06594791

weight_hh_l1 f4 [192, 64]
00000000: 98de 983d f7c4 a53b ec45 a53d ace1 113d
00000010: bb71 d6bc 4146 283d ea82 0abd 1f20 e43d
00000020: 0ca4 b9bb a6da 4f3d 63fe debb b577 17be
00000030: 8cca 463d 9140 85bc 40d2 b93d 6745 1b3d
00000040: 35c0 e5bd e894 f1bd 0b09 7f3d 29a3 8cbd
00000050: c2b8 acbd b210 c73d 9805 acbd ee01 88bd
00000060: 77a5 a23d 4a9c acbc 5617 873d c440 063e
00000070: 0f92 e33c 6169 85bc 273f d8bc 6c7e 8d3d
00000080: a299 e23d 6f47 7a3c 12ca fe3c 04d1 183b
00000090: c5eb 613d 9d08 403d 0d72 8a3d f38a 453d
000000a0: d0aa 243d 2f44 32bd d9e1 6ebb 945f 5c3d
000000b0: 365a d9bc f54e a13c 31c3 9b3d 2273 34bd
000000c0: d307 933d b03d ad3c 5bfe 493d 3487 dabd
000000d0: c415 373c 9b34 b1bd 9357 dcbd d3f2 2e3c
000000e0: 23b1 febd a4f8 613d 9378 083e 034b ca3d
000000f0: 2f60 66bd 5467 ff3c d0db a13c f2d0 d1bd
00000100: bb98 c4bd a052 f3bd 7f1f 1b3d cebf a5bd
00000110: dfe6 573d 74ed 133e 62e6 553d 539e 06be
00000120: 7991 56bc 35ee a7bd 629c 91ba 104b 07bc
00000130: b478 8fbd 74a6 6a3d 14c0 ca3d 7a03 a63d
00000140: 7c5f 293e b7f8 ac3d e7e8 633d a70d a23d
00000150: cf74 8f3d f69d 80bd 50a1 9c3d 727e 94bd
00000160: 52af a2bd 87f0 133e e7aa 273e 9ba6 a1bd
00000170: c602 debd 4775 753d fa2f c7bd 8100 7dbd
00000180: 851d ba3c 30b9 37bd 0e8e c53c 8d7a 3cbb
00000190: 96c1 e53d 5f78 21bd 616b 74bd 0762 64bd
000001a0: 319d d83c 2d12 68bc 7050 88bd 149f 06be
000001b0: 8250 28be b02b ee3d 62b5 83bd 63a7 12bd
000001c0: d10a 113e 4376 7e3d 409d 793d 6df8 0a3d
000001d0: b024 dd3b df16 ac3d 1fdf fabd 2405 e73c
000001e0: 63bc b63d c16c 073e 3e4d 61bd efd0 543d
000001f0: af3a 9abd 35e3 edbd b982 cbbd 528d 903a
00000200: 884d c43d 4b9e f1bd 707f 0cbe 88cb cabc
00000210: e270 603d b996 1f3d 7926 17bd f955 793d
00000220: c8f2 f23d 442c 8c3c e036 213d 5abd 2abe
00000230: ab39 043e dfe8 cd3d ccd7 8fbc 3fd2 b93d
00000240: bec8 013b ec69 12be 55d3 0b3e 2b98 55bd
00000250: 6c07 c0bd a45f 8dbd b082 cabc 5078 0bbe
00000260: 5213 bc3d b5be 083e 8595 76bd 4d67 4e3d
00000270: 0a49 0fbc 371a 253d 15ba 4fbd 2c1b 3fbd
00000280: 6915 b33c c783 3dbd bc2e 653d 125d f53d
00000290: e81b f8bc 54fe 74bc f947 e93a a381 debd
000002a0: e5c5 f7bc 334d b5bd f9f3 523d b168 793d
000002b0: 8520 293d ebfd 0a3e 7857 5a3d 60a5 cbbd
000002c0: d3af e43d 022f 12bc aee7 3a3c ce8a 333b
000002d0: 2f85 cd3b 9688 dd3d d0e2 103d 1625 60bc
000002e0: 8769 f9bd ad6d e43d 2972 a9bd b5f3 953c
000002f0: 7bd7 973d 6e01 58bd 5289 9abc 0bd2 2abd
00000300: f739 b0bc 34da 283d a682 683d fe45 5abd
00000310: 252d 5fbc 16ba 013e f487 f5bd c7d4 863d
00000320: 8a2e 893d 8f32 b33d e170 f23c dca2 3a3b
00000330: d5ca e9bd 9ee3 a93d 9c73 8dbd 7042 843d
00000340: 6da4 9c3d 1a7f d7bc 2f71 f43d 7a8d d9bd
00000350: 8ab9 c8bd 3697 433b 4ce7 e0bd 6097 e4bd
00000360: aeeb a13c 690b 33bc ad48 e03c 66cf 05bd
00000370: db76 523d aebf 933b 146f 77bd 22f5 7f3b
00000380: 41b7 8abd 4712 873d 519b 8abd 38f8 5f3d
00000390: 86e8 563c d601 0bbd 8c6c 293d 0a5a a0bd
000003a0: ac2a 05be 0b9c 17be 2892 a03b 87b2 d0bd
000003b0: a697 9abd f0c2 bd3d 9189 293b 4603 e2bc
000003c0: 685d fe3c 0545 9bbd a271 8ebd bd27 b4bd
000003d0: 35b2 fd3c fcdd d1bc b244 d23d 62bd 803d
000003e0: b1f0 683d 76b6 77bd 562e 303d 1e63 7fbd
000003f0: f373 d13d 498b 853d 8dce c9bd 3b19 0cbe
0.074643314 0.0050588804 0.08069977 0.035615608 -0.026177278 0.041082624 -0.033816256 0.11138939
-0.005665308 0.05074563 -0.0068052276 -0.14791758 0.048533008 -0.01626614 0.09073305 0.037907984
-0.11218301 -0.1179598 0.062264483 -0.06867058 -0.08433677 0.09719981 -0.083995044 -0.06640993
0.07941716 -0.021070618 0.06596248 0.13110644 0.027779607 -0.0162856 -0.0263973 0.06908879
0.110644594 0.01527582 0.031102214 0.0023317942 0.055156488 0.046883214 0.06760035 0.048228215
0.040201962 -0.043522056 -0.0036450534 0.053802088 -0.026532274 0.01969097 0.07605589 -0.04405511
0.07179227 0.021147579 0.049314838 -0.10670319 0.011174623 -0.08652612 -0.10758891 0.010678011
-0.1243613 0.055168763 0.13327245 0.098775886 -0.05624407 0.0311772 0.019758135 -0.10244931
-0.095994435 -0.11880994 0.037871834 -0.080932245 0.05271041 0.1444605 0.052221663 -0.13146333
-0.013096207 -0.08199731 -0.0011109228 -0.008257642 -0.07005444 0.05728765 0.09899917 0.08106132
0.1654033 0.08445876 0.055642035 0.0791276 0.07004701 -0.06280129 0.076479554 -0.0725068
-0.07943596 0.14447223 0.16373788 -0.078931056 -0.10840373 0.059926298 -0.09725948 -0.06176806
0.022719154 -0.044854343 0.024115589 -0.002875957 0.11218564 -0.039421435 -0.059672717 -0.05575755
0.026442142 -0.01416449 -0.06655967 -0.13146621 -0.16436961 0.116294265 -0.064310804 -0.035804164
0.14164282 0.062124502 0.06094098 0.033928324 0.0067487583 0.084028 -0.12249588 0.028200693
0.08922651 0.1322508 -0.055005305 0.051957067 -0.07530724 -0.11615602 -0.09937043 0.0011028445
0.095851004 -0.1179777 -0.13720489 -0.024755254 0.054795153 0.0389621 -0.036901925 0.060873006
0.11862713 0.017110951 0.039358974 -0.16673794 0.12912624 0.10054182 -0.017558955 0.090733044
0.001980349 -0.14298218 0.13654836 -0.05214707 -0.093764156 -0.069030076 -0.02472052 -0.13620114
0.091833726 0.13353999 -0.060201187 0.050391484 -0.008745441 0.040308204 -0.05071457 -0.046656772
0.021860795 -0.04626825 0.055952772 0.119806424 -0.030286744 -0.014953215 0.0017797939 -0.1086457
-0.03024573 -0.08852615 0.0515022 0.060890857 0.04129078 0.13573425 0.053306073 -0.09943652
0.11166348 -0.00892234 0.011407776 0.0027395966 0.0062719802 0.10817067 0.035372555 -0.013680717
-0.12178331 0.111537315 -0.082737274 0.018304685 0.074141465 -0.05273574 -0.018864308 -0.04170422
-0.021512015 0.04122372 0.05676522 -0.053289406 -0.013621603 0.12668642 -0.119888216 0.06583553
0.0669833 0.08749878 0.02959484 0.002847842 -0.1141564 0.08295368 -0.06906816 0.064579844
0.07648549 -0.026305724 0.119356506 -0.10622688 -0.09801014 0.0029844767 -0.109816164 -0.11161685
0.019765701 -0.010928013 0.027378405 -0.032668494 0.05138288 0.004508934 -0.060408667 0.0039056023
-0.06773234 0.06595283 -0.067679055 0.05468008 0.013116961 -0.033937298 0.041363284 -0.078296736
-0.1300456 -0.1480562 0.0049002357 -0.101903014 -0.07548456 0.09265697 0.002586935 -0.027589452
0.031050399 -0.07581524 -0.069552675 -0.08796642 0.030968765 -0.025618546 0.10267009 0.06286122
0.056870166 -0.060476743 0.04301294 -0.062350385 0.10227194 0.06520707 -0.098538496 -0.136815

bias_ih_l1 f4 [192]
00000000: 19df 723d 1661 e5bc 8650 fe3a 7f65 21bd
00000010: 5515 12bd 2ca4 1abd b3a0 88bd 8955 4b3d
00000020: 5a57 49bd 3181 f0bc ef31 243d fa63 f4bd
00000030: 8892 073d 42c5 beba 9aa2 8ebd f396 043a
00000040: 6554 273d e2bd be3d 8b80 74bd a2c9 d6bd
00000050: 6fb2 99bd 62ba af3d 8ea5 a1bd 1dd7 95bc
00000060: 735c 293d 04ce b13c 9477 a9bd 401f babc
00000070: eb4a ad3c 1ce8 19bc cc26 7dbb 2e6c 1f3d
00000080: f91c 8f3d bbfb afbc 8306 b73d 95e9 f0bb
00000090: 8d6b a03d 02ea c73d 0f81 073e 7ef0 18bd
000000a0: 2c80 373d 34bf 233d 90a9 da3d b170 dd3d
000000b0: 1ee2 d13d a7a7 903c 49c3 83bd deaf e73d
000000c0: 5a6a b5ba 150c e1bb a5f0 373d 48ba 173e
000000d0: 41ef 9a3d 4621 cd3c a806 e53d 9ac0 563c
000000e0: bf04 e03d 611d 5b3b de9f 6f3a 9eb1 50bc
000000f0: b349 c43d 46a6 b8bd 5553 eebc b448 053b
00000100: c23a 05be 7ac2 4bbb 1303 01be 4e32 ed3d
00000110: eac0 2abd d3c2 dabd 015e 253d d5d6 a8bc
00000120: 3abe 01bd 169a 28be ed77 bf3d d2b7 9bbc
00000130: cb11 03be 8251 5abd f597 8ebd 98a1 52bd
00000140: 3831 b93d 68f7 2ebd de08 cdbd 43dd 89bd
00000150: bdc8 b93d d919 c93d 8510 40bd 50dd 97bd
00000160: e280 ab3d dc03 f8bd d961 bdbd af4a 273c
00000170: 38fe 03be d865 adbd be75 dcbd 6415 d9bd
00000180: 1ab4 a3bd 6ffb 0d3d e801 fdbd 0c64 013d
00000190: 6014 54bb 70b5 dd3c 46c9 833d 3f53 28be
000001a0: 76d4 0fbe 98e7 14be 5aef 953d 29c1 95bd
000001b0: 1883 b2bc 503c 5fbd 286e 713d 5873 e43c
000001c0: 20dc 973d a909 0d3d 01cd 983d ed3d d13b
000001d0: 5982 f0bd e033 c9bd 0bd4 1fbd dc2a 5bbd
000001e0: a91b 81bd edf2 ca3c 1efe fcbc 08f2 5f3c
000001f0: 0fa7 de3c 116a e6bc ba1b 03be e32d 83bd
00000200: 2c4e 1a3d 42ad a7bd b74a fcbd 3e2f cb3c
00000210: 37b0 97bd faaa 663b af87 77bc 3906 1bbe
00000220: 2678 6b3c ff54 69bd 1838 f0bd 1141 eabd
00000230: ae89 0d3d c65d 01be ec53 9dbd a8be 06be
00000240: c577 f23d 2fdf c0bd 3937 0a3d 92c2 adbd
00000250: 6cb4 f7bd c5f1 49bd e5f5 8a3d c286 90bd
00000260: bfd7 66bc c89a 54bd 53d0 ae3d 1b4f 43bd
00000270: 2fc7 9c3d dd9c dd3d 51b0 08bd 41e3 4b3d
00000280: c610 00bd 4125 ff3d d5f2 0f3e 0a5a c53d
00000290: 7717 b33d a725 dabc c1bd 413d 8cb2 30bd
000002a0: 77d4 73bd df91 433d ac1c 9b3c 1cf6 b93d
000002b0: a84d 943d 84f3 cfbd 845e a8bc 3239 dfbc
000002c0: 7ba3 bb3d fc55 cbbd 4d12 b83d 8a37 983d
000002d0: b720 8cbd 2a43 053e 1c10 e2bd 1767 0a3e
000002e0: 56d6 603d 2ece 89bd 1ac0 273d 381c 0d3d
000002f0: 9880 c13d f67f 24bb 35da 923d 987c dcbc
0.059294794 -0.028000396 0.001940266 -0.039403435 -0.035664875 -0.037754223 -0.06671276 0.04964212
-0.04915557 -0.029358478 0.040086683 -0.119331315 0.033098727 -0.0014554637 -0.069646075 0.00050578936
0.04085197 0.09313561 -0.0596929 -0.10487677 -0.07504737 0.085804716 -0.07892905 -0.01829105
0.041347932 0.021704681 -0.08274761 -0.02271998 0.021153888 -0.009393718 -0.003862786 0.038921528
0.06987948 -0.02148234 0.08936789 -0.007352064 0.07833014 0.0976143 0.13232826 -0.037338726
0.04479997 0.039977267 0.10676873 0.1081251 0.102482066 0.017658068 -0.06433732 0.11312841
-0.0013840899 -0.0068678954 0.04490723 0.14817154 0.07565165 0.02504028 0.1118291 0.013107443
0.10938405 0.003343426 0.00091409485 -0.01273766 0.095843695 -0.09016089 -0.02909247 0.0020337524
-0.13010696 -0.003109126 -0.12598829 0.115818605 -0.041687883 -0.10681691 0.040372852 -0.020610252
-0.031675555 -0.16465029 0.09349046 -0.01900855 -0.12799756 -0.05330039 -0.06962577 -0.05142364
0.09042591 -0.042716414 -0.10011457 -0.067316554 0.09071491 0.09819383 -0.046890754 -0.07415259
0.08374192 -0.12110111 -0.092471786 0.010210677 -0.12889946 -0.08466691 -0.10764645 -0.10599783
-0.07993336 0.034663614 -0.12353879 0.031589553 -0.0032360777 0.027064055 0.06434874 -0.16438006
-0.14045891 -0.14541471 0.07321043 -0.07312233 -0.021791026 -0.054500878 0.058942944 0.027887031
0.074150324 0.03443304 0.074609764 0.006385556 -0.11743612 -0.098243475 -0.03902058 -0.05350767
-0.06304104 0.02477404 -0.030882891 0.013668545 0.02717927 -0.028126748 -0.12803546 -0.064052366
0.037672207 -0.08187343 -0.12318938 0.0248028 -0.07406657 0.0035197125 -0.015108033 -0.15139093
0.014371907 -0.056965824 -0.11729449 -0.11438192 0.03455513 -0.12633428 -0.076820225 -0.13158667
0.118392505 -0.09417569 0.03374407 -0.08484377 -0.120949596 -0.049302835 0.06785182 -0.07056953
-0.014089524 -0.051905423 0.085358284 -0.047682863 0.07655179 0.10820935 -0.033371273 0.049777273
-0.031265996 0.124582775 0.14057477 0.09636314 0.0874471 -0.026629282 0.047300104 -0.043139026
-0.059528794 0.047746535 0.01893457 0.09080145 0.07241374 -0.10153869 -0.020552881 -0.027248953
0.09162041 -0.099285096 0.089878656 0.07432468 -0.06842177 0.13013902 -0.11038229 0.13515888
0.054891907 -0.06728779 0.040954687 0.03445074 0.094483554 -0.0025100685 0.07170526 -0.02691488

bias_hh_l1 f4 [192]
00000000: cc05 83bd 3805 133e b999 493d c048 113e
00000010: da5f 97bd 6e98 d83d c37e cc3d 8a49 61bd
00000020: 758a 873d 6051 db3d 33c8 21bc 0eac e93c
00000030: 4894 553d 4f52 75bd 4fcf 5f3a 4dc3 8dbd
00000040: f5ab e4bc 1c49 a63c c5a4 95bc 322b 863d
00000050: 7bdb 0f3e 161f 063d 00f2 fc3d 6f8f 8cbd
00000060: fb91 5f3c 4da8 31bd ab04 413d ac4a 02bd
00000070: 79f8 a6bd ee8d b93d 2286 cd3d 5f87 96bd
00000080: 65ea ddbd ddc1 ee3d b877 96bd 36e6 4abc
00000090: 5b9a 073e 742f 8e3d 01ba 7ebc 4111 0a3e
000000a0: a668 0a3e 4d2f d5bb 762d 033d 2c37 ad3d
000000b0: 637c babc 1e91 02bd 7c77 88bd b7bf 0d3d
000000c0: 569e debc 6801 d23d 5f70 9ebd c692 d73d
000000d0: f443 753d 6ebd 033e 41eb cf3c f9c7 d03d
000000e0: 59e9 40bd 6006 de3c 56e3 d43d 91a9 5cbd
000000f0: f49f 64bd dc51 b43d 39af a33d 357d 1f3e
00000100: 7534 8d3d b290 41bd 0af2 a2bb 68a1 043d
00000110: 897d 5abd 348f 69bc 4d1c 973d 8e17 b23d
00000120: 6c95 ab3c 3ec7 e2bd 0e09 7cbd 707b 263c
00000130: 96e6 a43d b60d 99bc 9962 603d 23fa fdbd
00000140: 2205 b23c bf86 5ebd 8c1e 90bc 06fc acbc
00000150: d672 b03d b51b c73d 86dc ffbd 05e3 ddbd
00000160: 794a 6abd ceed 1abe d37f e3bd fd90 783d
00000170: 9326 ccbd e6f9 40bb 3312 b4bd 96c5 7b3d
00000180: a1f5 b83d 5106 c13c c4af 9b3d dcc9 fabd
00000190: 32a4 c9bb c0aa 13be 4442 163d 906a 16bc
000001a0: 46a4 0bbd dce1 973d 6321 203d 1d6a f33c
000001b0: ac80 913d eef7 03be caca 8fbd 21d0 d3bd
000001c0: 323f 1fbd 8841 523d 6f7f 9cbd a2d2 c5bc
000001d0: ee79 15be 729e 96bd baba 0fbe 6d5b 03be
000001e0: 1a41 53bd cae5 16be 8059 23bd 4744 12be
000001f0: dc2d 35be 85fb edbd 515f 4b3d ae25 47bd
00000200: 1874 993d aa8d 0bbd 6ec6 34bd d3dc 383d
00000210: 7e46 c63d fec8 543d bc77 7fbc 8215 ef3c
00000220: 778f 553d 0838 e43d 72c8 40bb d32b 2cbc
00000230: 4b88 0fbd b433 873d b836 a2bc f08e 18bd
00000240: f0be b43d cdf4 c4bb 9135 ff3d f49f 0fbe
00000250: 4e45 02bd 8a3a b9bd f0b8 87b9 4743 4f3d
00000260: 9ddd 7b3c b6f7 09bd 7a7f ab3c 0edb 97bd
00000270: 178b 26bc f668 a53c c654 5dbd 8414 953d
00000280: 7edf 9abd 7af2 633d c036 74bd 831b 56bd
00000290: 6b63 8b3d 05d9 c43b 7334 c8bd 6bd2 e53c
000002a0: 38a0 cf3d 9e70 5ebd 20e0 3ebc ea79 15bc
000002b0: 174a 853c 86ba 99bd 3d4c 48bc e5d5 123d
000002c0: b042 96bd cc67 2a3d 0da6 00be 87c2 48bd
000002d0: b1fb ca3d a315 e23d 1077 063e 4d01 143e
000002e0: 1b18 343d d389 f2bd 8cec fc3d 0771 a9bd
000002f0: 550f 883d 3557 013d d015 8cbd 77d2 b9bd
-0.0639759 0.1435746 0.049218867 0.14187908 -0.07391329 0.10575949 0.099851154 -0.055001773
0.066182055 0.107088804 -0.009874391 0.028524425 0.052143365 -0.05989295 0.0008537666 -0.06922016
-0.027914027 0.020298533 -0.018267045 0.065512076 0.14048569 0.03274449 0.12350845 -0.06863295
0.013645644 -0.043373395 0.047123592 -0.031809494 -0.08152861 0.09060274 0.100353494 -0.07350039
-0.10835723 0.1165807 -0.07347053 -0.012383988 0.13242476 0.06942645 -0.0155472765 0.13483144
0.13516483 -0.006505883 0.032025777 0.08457789 -0.02276439 -0.031876676 -0.06663415 0.03460666
-0.02717511 0.102541745 -0.07736277 0.10526042 0.05987926 0.1286523 0.025380732 0.10194392
-0.047097538 0.02710265 0.103949234 -0.05387265 -0.055816606 0.08804676 0.079924054 0.15575106
0.06894771 -0.047257133 -0.004972701 0.03238049 -0.053342376 -0.014255334 0.07378445 0.08695899
0.020945273 -0.11073159 -0.061532073 0.010161266 0.08051793 -0.018683296 0.05478153 -0.124012254
0.021730963 -0.054327723 -0.01759269 -0.021116268 0.08615653 0.097220816 -0.124932334 -0.10834316
-0.05719993 -0.15129778 -0.11108365 0.060685147 -0.09968295 -0.0029445826 -0.08792534 0.06146773
0.09031225 0.023562582 0.07601884 -0.12245533 -0.006153607 -0.14420605 0.03668429 -0.00918068
-0.03409221 0.07416126 0.03909434 0.029713685 0.0710462 -0.12887546 -0.07021101 -0.10342432
-0.038878627 0.051332027 -0.076414935 -0.02414829 -0.14597294 -0.0735444 -0.14036074 -0.12827845
-0.051575758 -0.14736095 -0.039880276 -0.14283858 -0.17693275 -0.11620239 0.049651448 -0.04861992
0.07492846 -0.03407065 -0.04413455 0.04513247 0.09681414 0.051949494 -0.015592512 0.02918506
0.05213877 0.111434996 -0.002941635 -0.010508495 -0.03504209 0.066016585 -0.019801483 -0.03724569
0.08825481 -0.006010628 0.12461389 -0.14025861 -0.031804375 -0.090443686 -0.00025886996 0.05060127
0.015372661 -0.0336835 0.020934809 -0.07414828 -0.010164998 0.02019165 -0.054035924 0.07279304
-0.07562159 0.055651166 -0.059622526 -0.05227233 0.06806072 0.006007316 -0.09775629 0.028054437
0.10137981 -0.05430662 -0.011650115 -0.009123305 0.01627068 -0.0750628 -0.012225208 0.035848517
-0.073369384 0.041602895 -0.12563343 -0.04901364 0.099112876 0.11039283 0.13131356 0.14453621
0.0439683 -0.11842694 0.12349805 -0.082735114 0.06643549 0.031577308 -0.06840098 -0.09073346
