Baseline_systems/SoMS/models/SoM_Mix_20/22_0.pth (torch, 27487 bytes, 3 tensors)

weight f4 [32, 193]
0.04299836 -0.011869934 -0.0067085936 0.054042812 -0.052659135 0.05963692 -0.0038951978 0.018675739
0.029061021 -0.0022062683 0.039201193 0.0031639335 0.046883933 -0.005979362 -0.02566856 0.008060957
-0.008166659 -0.010109681 0.07977263 0.043742783 -0.012214732 -0.061299603 -0.027072039 -0.03224688
-0.0012438066 0.024726504 0.06452419 0.060097396 -0.09122839 0.061670046 0.011439778 0.048448246
0.028157894 -0.06426257 -0.07578503 -0.037061583 0.082274966 -0.018986382 0.044139676 -0.051572904
0.048971698 -0.016013931 0.07486924 0.016222784 -0.05663877 0.059198443 -0.021357575 0.038453326
-0.02220073 0.010378961 -0.05013661 -0.015603972 0.023036214 0.0017520073 0.091943555 0.038056873
-0.024344848 -0.043538004 0.025142003 0.0017602721 -0.06532891 0.06626928 0.05569278 0.0427426
-0.036231924 0.009186674 0.019377014 0.0071239574 -0.07246877 -0.0312379 0.06122965 -0.03265003
0.019351745 -0.01500026 0.0034756633 0.010352514 0.007891203 0.02460136 -0.085554816 0.055237107
-0.028953966 -0.034818154 0.022714965 0.0035938371 0.022750527 -0.0613057 -0.04209936 0.030674307
-0.028345115 0.039746426 0.043957546 -0.032877963 -0.0022857524 -0.00078801217 -0.034667015 -0.013193615
0.036626592 0.0065363445 -0.011129318 -0.01387312 0.044395693 0.0048971623 0.03387109 0.0132428985
-0.06459898 -0.08254546 0.085858144 0.014159218 0.06896539 0.035244253 0.007159137 0.074746646
0.0783069 -0.0663684 -0.0050194087 0.06556783 0.039970625 0.06472761 -0.07129727 -0.05316448
-0.026947914 0.021230573 0.09312562 -0.028583152 0.057410896 -0.020290036 -0.04704772 -0.026965177
0.021668592 0.04775841 -0.025511017 0.0043039126 0.04303054 0.06758221 0.025933653 0.035672802
0.027403526 0.00909237 -0.029844705 -0.040693454 -0.014030729 0.0074494625 -0.06361361 0.0055378336
0.04090906 0.0027269158 0.004793658 0.018219542 0.024686646 0.067471564 -0.004883051 0.053348858
0.010914727 0.019265074 -0.08751821 -0.054725368 -0.023057628 -0.05142877 0.030786406 -0.0039472557
-0.035037458 0.0085588135 0.0038964201 0.058475293 -0.05613575 -0.0032487586 -0.008723426 0.0031384774
-0.038007896 -0.033901084 -0.04244317 0.012721322 0.03241261 -6.0462975e-05 0.08962253 0.08916055
0.04669884 0.015726663 -0.0688742 0.07501832 -0.03724076 0.0147433635 -0.081151664 -0.033493496
-0.06565404 0.08859617 -0.08142197 -0.036754064 0.016932424 -0.058110572 0.017189544 -0.00855777
-0.054150514 -0.00989202 0.064261064 -0.06395342 0.046159506 0.058903225 0.08526325 -0.06375309
0.0036246604 -0.05083372 0.07375798 -0.014353583 0.057107646 0.019280396 -0.019775705 0.015049177
-0.0014498804 0.0198119 -0.001867242 0.03512302 -0.0783916 0.06328263 0.048958503 0.072686926
0.039951526 -0.06681273 -0.04050186 0.050181787 -0.043164164 0.08336408 -0.042897116 -0.06392965
0.032434996 -0.065204054 -0.02956003 0.03822818 0.042494047 0.08148922 -0.001299904 -0.06886542
0.0674225 -0.009454304 -0.044735633 0.0037613048 -0.03745491 0.061268423 0.029432114 -0.043038588
-0.048987046 -4.2320557e-05 0.016128719 0.011505389 -0.02290133 -0.011635478 -0.054061886 -0.059430905
-0.05981563 0.07218172 0.07612847 -0.03772044 0.019637812 0.019428875 0.015874902 -0.022237055
00000000: 0c1f 303d 1d7a 42bc c3d3 dbbb ff5b 5d3d
00000010: 1bb1 57bd d845 743d 9346 7fbb ddfd 983c
00000020: 6111 ee3c 0a97 10bb 6e91 203d ff59 4f3b
00000030: 5e09 403d 86ee c3bb df46 d2bc 1b12 043c
00000040: 73cd 05bc 13a3 25bc d55f a33d a22b 333d
00000050: 4d20 48bc 4b15 7bbd 2ec6 ddbc 4e15 04bd
00000060: 3907 a3ba 3d8f ca3c 4225 843d b028 763d
00000070: f3d5 babd bb99 7c3d e86d 3b3c ab71 463d
00000080: 62ab e63c 189c 83bd 2f35 9bbd e3cd 17bd
00000090: c77f a83d 5489 9bbc cecb 343d 1c3e 53bd
000000a0: 8c96 483d a62f 83bc 0b55 993d a5e5 843c
000000b0: 0efe 67bd 117a 723d 15f6 aebc 3c81 1d3d
000000c0: 4ede b5bc 850c 2a3c 0c5c 4dbd cda7 7fbc
000000d0: 71b6 bc3c 9ca3 e53a e74c bc3d 86e1 1b3d
000000e0: d96e c7bc e854 32bd 9af6 cd3c eeb8 e63a
000000f0: 2acb 85bd 30b8 873d 1d1e 643d dd12 2f3d
00000100: ed67 14bd b483 163c 8bbc 9e3c 1670 e93b
00000110: 826a 94bd a0e6 ffbc f1cb 7a3d 0abc 05bd
00000120: 8d87 9e3c a7c3 75bc f4c7 633b 979d 293c
00000130: 1b4a 013c cb88 c93c 5d37 afbd 4e40 623d
00000140: de30 edbc 7b9d 0ebd bc14 ba3c 9586 6b3b
00000150: 505f ba3c b01b 7bbd 6170 2cbd af48 fb3c
00000160: 0434 e8bc 26cd 223d d40c 343d 0bab 06bd
00000170: 90cc 15bb 9a92 4eba 00ff 0dbd 082a 58bc
00000180: c405 163d d52e d63b be57 36bc 154c 63bc
00000190: 42d8 353d 6078 a03b 69bc 0a3d bef8 583c
000001a0: 784c 84bd 980d a9bd 65d6 af3d 11fc 673c
000001b0: ba3d 8d3d 475c 103d 3297 ea3b c514 993d
000001c0: 5e5f a03d 28ec 87bd da79 a4bb 6d48 863d
000001d0: 3db8 233d e98f 843d 4e04 92bd ffc2 59bd
000001e0: dfc1 dcbc bdeb ad3c a5b8 be3d 3727 eabc
000001f0: b027 6b3d 4a37 a6bc 1cb5 40bd 13e6 dcbc
00000200: 5582 b13c 539e 433d 7bfc d0bc d607 8d3b
00000210: cb40 303d 8b68 8a3d d072 d43c a51d 123d
00000220: 5c7d e03c 2af8 143c e27c f4bc 2eae 26bd
00000230: 25e1 65bc 9f1a f43b da47 82bd b776 b53b
00000240: 4290 273d 0eb6 323b 1e14 9d3b 2641 953c
00000250: a63b ca3c 882e 8a3d 0002 a0bb 5584 5a3d
00000260: afd3 323c cad1 9d3c bf3c b3bd b527 60bd
00000270: 5ae3 bcbc f9a6 52bd c633 fc3c fb57 81bb
00000280: 7083 0fbd 443a 0c3c 155b 7f3b ca83 6f3d
00000290: 9aee 65bd 20e9 54bb b3ec 0ebc eaae 4d3b
000002a0: 2bae 1bbd dddb 0abd e4d8 2dbd 176d 503c
000002b0: 16c3 043d a099 7db8 048c b73d ce99 b63d
000002c0: 4847 3f3d 34d5 803c eb0d 8dbd 34a3 993d
000002d0: c489 18bd 268e 713c d832 a6bd 7a30 09bd
000002e0: a075 86bd e971 b53d 90c0 a6bd 6e8b 16bd
000002f0: deb5 8a3c 5a05 6ebd 16d1 8c3c e435 0cbc
00000300: eecc 5dbd 2412 22bc 4e9b 833d 03fa 82bd
00000310: c011 3d3d 8244 713d 809e ae3d fb90 82bd
00000320: b68b 6d3b 0537 50bd 6c0e 973d 4a2b 6bbc
00000330: b5e9 693d ecf1 9d3c a900 a2bc d390 763c
00000340: ea09 beba 914c a23c 3fbe f4ba 28dd 0f3d
00000350: c68b a0bd 539a 813d b688 483d e2dc 943d
00000360: 36a4 233d 1dd5 88bd 47e5 25bd 6b8b 4d3d
00000370: e8cc 30bd c9ba aa3d e3b4 2fbd 8ced 82bd
00000380: 8fda 043d b489 85bd e027 f2bc 2795 1c3d
00000390: 3d0e 2e3d d2e3 a63d 8a61 aaba 5009 8dbd
000003a0: cf14 8a3d 3ae6 1abc b63c 37bd 3980 763b
000003b0: 526a 19bd 99f4 7a3d 9e1b f13c 3b49 30bd
000003c0: a4a6 48bd 5a81 31b8 6020 843c 1981 3c3c
000003d0: 929b bbbc bba2 3ebc ff6f 5dbd d26d 73bd
000003e0: 3c01 75bd 02d4 933d 3ee9 9b3d c080 1abd
000003f0: 7adf a03c 4e29 9f3c 150c 823c 7c2a b6bc

bias f4 [32]
-0.041018344 -0.060225252 -0.028208325 0.0053675193 -0.046672348 0.06039338 -0.01725202 -0.040219754
-0.026728721 -0.004233358 0.03652776 0.010288729 -0.07510569 0.019246383 0.08977482 -0.018203523
0.029987995 0.03929294 -0.022534542 -0.0342656 0.057753656 -0.015204099 0.015868217 0.082802445
0.04953683 0.061351668 0.05986077 -0.01232673 0.042020734 0.06573098 -0.031364996 0.042126566
00000000: da02 28bd c1ae 76bd 2515 e7bc 04e2 af3b
00000010: 812b 3fbd 0c5f 773d 1c54 8dbc 78bd 24bd
00000020: 31f6 dabc fbb7 8abb 229e 153d 0f92 283c
00000030: 03d1 99bd 97aa 9d3c dcdb b73d 8e1f 95bc
00000040: 62a9 f53c a2f1 203d 5c9a b8bc 165a 0cbd
00000050: 198f 6c3d 9d1a 79bc 10fe 813c 5494 a93d
00000060: 22e7 4a3d e34b 7b3d 9130 753d 0ef6 49bc
00000070: ef1d 2c3d f79d 863d 9578 00bd e88c 2c3d

weight f4 [1, 32]
-0.073979005 -0.13806202 -0.15401651 0.015780065 -0.14543152 0.11866869 -0.038710546 -0.06203161
-0.1591208 0.07007464 -0.101132855 0.1499339 -0.0026072406 -0.14939642 0.1536773 0.15788555
-0.17543395 -0.12432126 -0.09960509 -0.14494601 0.040603764 -0.14369172 0.115396515 -0.16712283
-0.18021856 0.02750504 0.015803633 0.06045258 -0.16781096 0.17013212 -0.15099445 0.15706506
00000000: 4e82 97bd 2160 0dbe 81b6 1dbe 3245 813c
00000010: 00ec 14be 9208 f33d f38e 1ebd dc14 7ebd
00000020: 90f0 22be 4b83 8f3d be1e cfbd 4688 193e
00000030: 3dde 2abb 60fb 18be 955d 1d3e c0ac 213e
00000040: f5a4 33be 259c febd c1fd cbbd ba6c 14be
00000050: 2250 263d ec23 13be 0255 ec3d 3f22 2bbe
00000060: 378b 38be 4052 e13c 9f76 813c 209d 773d
00000070: a3d6 2bbe 1d37 2e3e 4a9e 1abe aad5 203e
