Baseline_systems/SoMS/models/SoM_Mix_42/14_0.pth (torch, 19295 bytes, 3 tensors)

weight f4 [32, 129]
0	0x3d35ba2d	0.044367004
1	0xbd562fd8	-0.05229172
2	0xbb72f4fe	-0.0037072296
3	0x3cebcf38	0.028785333
4	0xbdc636ff	-0.096784584
5	0x3d88a394	0.06671825
6	0xbbafd8c4	-0.0053664166
7	0x3d6ed8bc	0.058312163
8	0x3c56967e	0.013097404
9	0x3b38eef8	0.0028218608
10	0x3c30e117	0.010795853
11	0xbc1f667a	-0.009729022
12	0x3ca0b12f	0.019615738
13	0xbd3978db	-0.045281272
14	0x3bfc74a0	0.0077043325
15	0xba936363	-0.001124483
16	0x37fc5b80	3.0083349e-05
17	0x3c38cec3	0.011279765
18	0x3db8bdee	0.09020601
19	0x3c71014d	0.014709783
20	0xbc9c5153	-0.019081747
21	0xbd70fd23	-0.05883516
22	0xbcc1e25b	-0.023667505
23	0xbcfe56b1	-0.031047197
24	0xbc72929b	-0.014805461
25	0x3c8d24a1	0.01722938
26	0x3d1f6667	0.038916018
27	0x3d0fc48a	0.035099544
28	0xbd9552d3	-0.07291188
29	0x3d8a2d07	0.067468695
30	0x3d1872c1	0.037218813
31	0x3d9067f4	0.070510775
32	0x3d919484	0.07108405
33	0xbdb77cb6	-0.089593336
34	0xbdb497c4	-0.088180095
35	0xbd029538	-0.031880587
36	0x3db8c484	0.090218574
37	0xba830542	-0.0009996074
38	0x3d5415c6	0.051778577
39	0xbd096d80	-0.033551693
40	0x3db8f74e	0.090315446
41	0xbcc955d1	-0.024577053
42	0x3d5b471c	0.053534612
43	0x3c72b017	0.014812491
44	0xbd06b549	-0.03288773
45	0x3d12d902	0.035851486
46	0xbd74f1ed	-0.05980103
47	0x3c4fd164	0.0126842
48	0xbd1c21d8	-0.038118213
49	0xbca6b5ae	-0.020350304
50	0xbdc78bbb	-0.09743448
51	0xbcf16e50	-0.029471546
52	0x3d0ccc8f	0.03437477
53	0xbd05f408	-0.03270343
54	0x3dcf55db	0.101237975
55	0x3dab7731	0.08372343
56	0x3b60b72d	0.0034288869
57	0xbd3cb9bb	-0.046075564
58	0x3d2264cf	0.03964692
59	0x3d285a29	0.04110161
60	0xbd345a9b	-0.04403172
61	0x3d308cd9	0.043103073
62	0x3d22dd99	0.039762113
63	0x3d856c66	0.06514816
64	0xbd159397	-0.036517706
65	0xbcd7f0c2	-0.02635992
66	0x3c4ad4b0	0.01237981
67	0x3cda5bf0	0.026655167
68	0xbd5824fc	-0.052769646
69	0xbd48635e	-0.04892289
70	0x3d7533e8	0.059863955
71	0xbbeacd34	-0.0071655754
72	0x3d596e64	0.053083792
73	0x3c90d28a	0.017678518
74	0x3cb07ec8	0.021544829
75	0x3d015a92	0.031580515
76	0x3d328346	0.043582223
77	0x3d3ef94e	0.046624474
78	0xbdc14383	-0.09436705
79	0x3cff7b29	0.031186657
80	0xbd4561e7	-0.04818907
81	0xbda26c75	-0.07930843
82	0xbac803c0	-0.0015259907
83	0xba9bdcd4	-0.0011891373
84	0x3d74c6f7	0.05976006
85	0xbd752527	-0.059849884
86	0xbd878bf9	-0.066184945
87	0x3d990d68	0.0747326
88	0xbc432e6c	-0.011912923
89	0x3d7a372b	0.06108777
90	0x3c759c78	0.014990918
91	0xbda0fbdd	-0.07860539
92	0x3c752200	0.0149617195
93	0x3d0b1fa1	0.03396571
94	0xbd3b22dd	-0.045687545
95	0xbcee2403	-0.029069906
96	0x3d305546	0.043050073
97	0x3c1264b8	0.008935146
98	0xbccabe1b	-0.024748852
99	0xbd22a0bc	-0.03970407
100	0x3d91f03c	0.07125899
101	0xbcf4bfbf	-0.029876588
102	0x3d7e3f30	0.06207198
103	0x3cca41e7	0.024689628
104	0xbd8e0b82	-0.06935789
105	0xbd988a94	-0.07448307
106	0x3dadf232	0.08493461
107	0xbc062161	-0.008186669
108	0x3d41205e	0.04715001
109	0x3c4f409c	0.012649681
110	0x3cb8fceb	0.022581538
111	0x3d56df95	0.05245932
112	0x3d92353b	0.07139059
113	0xbd92601e	-0.07147239
114	0x3c2520b5	0.010078599
115	0x3d58889c	0.052864656
116	0x3d50aad6	0.05094417
117	0x3d8ae326	0.067816064
118	0xbd86a44d	-0.06574307
119	0xbd9abfdb	-0.07556125
120	0xbd5bfd9e	-0.053708665
121	0xbae0b637	-0.0017144148
122	0x3dd063fd	0.10175321
123	0xbd33084e	-0.04370909
124	0x3d0b54f3	0.03401656
125	0xbd135d8a	-0.035977878
126	0xbd902c42	-0.070396915
127	0xbd029161	-0.031876925
128	0x3d8350e6	0.064119145
129	0x3dc41c22	0.095756784
130	0xbd8bc6e5	-0.068250455
131	0x3d0618bf	0.032738443
132	0x3d7f87e7	0.062385466
133	0x3d36b3c3	0.044605028
134	0x3d8c1f06	0.06841855
135	0x3d9c00b8	0.076173246
136	0x3d8de943	0.06929257
137	0x3c0de82c	0.008661311
138	0xbd3e81ee	-0.04651063
139	0xbdb34d06	-0.087549254
140	0xbd5da47c	-0.054111943
141	0xbcc34de9	-0.023840861
142	0xbd8a2ea0	-0.06747174
143	0x3d3c0212	0.045900412
144	0x3d197d2c	0.03747289
145	0xbd096d29	-0.03355137
146	0x3d4229ac	0.047403023
147	0x3d2be974	0.041970685
148	0x3d247383	0.040149223
149	0x3d952318	0.07282084
150	0xbd29092d	-0.041268516
151	0x3d94c8ac	0.072648376
152	0x3b48fc23	0.0030667863
153	0x3c2bc5f3	0.0104842065
154	0xbd8e587a	-0.06950469
155	0xbd8fbc6e	-0.07018362
156	0xbd852e81	-0.065030105
157	0xbcc5253a	-0.024065603
158	0x3d9c0e3f	0.07619905
159	0xbc794354	-0.015213806
160	0xbda2a1d6	-0.07941024
161	0x3d42809f	0.047485944
162	0x3c70d68c	0.014699589
163	0x3d3175d1	0.04332525
164	0xbd034038	-0.032043666
165	0x3d05c53f	0.03265881
166	0xbc9739e1	-0.018460216
167	0xbbc5dfbe	-0.006038635
168	0xbd686e9d	-0.056746114
169	0xbcdc43fa	-0.026887883
170	0xbc5ad878	-0.013357274
171	0x3cc6a733	0.024249649
172	0x3cf4ae43	0.02986825
173	0x3d1063d1	0.035251442
174	0x3d987c08	0.07445532
175	0x3d93e0a4	0.07220581
176	0x3d3e4421	0.04645169
177	0xbc310bc6	-0.01080603
178	0xbd982d8a	-0.07430561
179	0x3d622039	0.05520651
180	0xbc09ce8e	-0.008411063
181	0xbca995cd	-0.020701313
182	0xbdb6f408	-0.08933264
183	0xbb7abeb2	-0.0038260636
184	0xbd30c740	-0.04315877
185	0x3dc0fe46	0.09423499
186	0xbd80056b	-0.062510334
187	0xbda7f4de	-0.082010016
188	0x3c2d294f	0.010568931
189	0xbd0b4d3e	-0.03400921
190	0x3c92ee7b	0.017935982
191	0xbd427232	-0.047472186
192	0xbd61147c	-0.054951176
193	0x3c9872b2	0.018609378
194	0x3d4db59f	0.050222035
195	0xbd45b657	-0.048269596
196	0x3d60ee7d	0.05491494
197	0x3d8fb985	0.07017807
198	0x3dcc0198	0.099612415
199	0xbd451614	-0.04811676
200	0x3d0eeade	0.034891956
201	0xbd53fc4b	-0.051754277
202	0x3db5a3a7	0.08869105
203	0xbd41c68b	-0.047308486
204	0x3d884a5a	0.066548064
205	0x3c83dcd3	0.016096508
206	0xbcab9e52	-0.020949516
207	0xbc85845b	-0.016298464
208	0x3aba06ea	0.0014192734
209	0x3d61daf0	0.055140436
210	0x3a1a6d88	0.0005890955
211	0x3c666b4c	0.0140636675
212	0xbd867252	-0.065647736
213	0x3d9e420d	0.07727442
214	0x3d814483	0.06311896
215	0x3db0b91e	0.08629058
216	0x3da0b6b9	0.078473516
217	0xbd9e5689	-0.07731349
218	0xbc9cf108	-0.019157901
219	0x3d8340bb	0.06408831
220	0xbda51009	-0.08059699
221	0x3dbbd897	0.091721706
222	0xbd642008	-0.05569461
223	0xbd4695a4	-0.048482552
224	0x3d67cb45	0.056590337
225	0xbd4ba409	-0.049716983
226	0xbd0914bb	-0.033467036
227	0x3d9ed1b5	0.07754842
228	0x3d663b35	0.056208808
229	0x3d8f4aed	0.06996713
230	0xbd00b676	-0.03142401
231	0xbd60e85b	-0.05490909
232	0x3d95d020	0.07315087
233	0xbd042115	-0.032258112
234	0xbd4d1206	-0.050066017
235	0x3bf92276	0.007602985
236	0xbd99d252	-0.075108185
237	0x3d358a78	0.044321507
238	0x3d2cf33e	0.04222416
239	0xbda59b53	-0.08086266
240	0xbdafd68c	-0.085858434
241	0xbcad5b70	-0.021161765
242	0x3cbff8a9	0.023434
243	0xbc859ed3	-0.016311085
244	0xbd6e542a	-0.058185734
245	0xbc3ce9ea	-0.011530379
246	0xbd8dc30a	-0.069219664
247	0xbd9bab72	-0.0760106
248	0xbd93d208	-0.07217795
249	0x3db04c48	0.086082995
250	0x3d835ace	0.06413804
251	0xbc85e17f	-0.016342876
252	0x3c8ee71c	0.017444186
253	0x3cd2abd7	0.025716705
254	0x3cc50990	0.024052411
255	0xbcfa774d	-0.030574465

bias f4 [32]
0	0xbd411224	-0.04713644
1	0x3c64b25a	0.013958538
2	0xbbc0ab18	-0.005879771
3	0x3d9525c0	0.07282591
4	0xbd7e6450	-0.062107384
5	0x3c828082	0.015930418
6	0xbcef5764	-0.029216476
7	0x3d2584e9	0.040409956
8	0x3da5bdfe	0.08092879
9	0x3d972fc5	0.07382158
10	0x3d2d9c98	0.042385668
11	0xbda62e22	-0.08114268
12	0x3cd48326	0.025941443
13	0xbd80fa5c	-0.06297752
14	0x3cc29c82	0.02375627
15	0x3b35f584	0.0027764747
16	0xbd767df5	-0.060178716
17	0xbd924068	-0.07141191
18	0xbd6965df	-0.056981917
19	0xbdb22a96	-0.08699529
20	0xbca6b361	-0.020349206
21	0xbcd9aad9	-0.026570724
22	0x3d503c48	0.05083874
23	0x3d02a98a	0.031899966
24	0xbd56bef9	-0.05242822
25	0xbc9c6be3	-0.019094413
26	0x3cd2ac1b	0.025716832
27	0xbc80d7ed	-0.015727961
28	0x3cd8844a	0.026430268
29	0x3bbbc7ec	0.0057306197
30	0xbd89dfdd	-0.06732152
31	0x3d8d3a69	0.068959065

weight f4 [1, 32]
0	0xbdfc7a3b	-0.12328001
1	0xbda1d16c	-0.07901272
2	0x3d04e973	0.032449197
3	0x3d47e420	0.04880154
4	0x3d6b03ea	0.05737678
5	0x3d587720	0.05284798
6	0xbe1fca72	-0.1560457
7	0xbe0c18d9	-0.13681354
8	0x3e277f04	0.16357046
9	0xbe250c81	-0.16118051
10	0xbd890701	-0.06690789
11	0x3dd5581c	0.10417196
12	0x3e18629a	0.14881364
13	0x3ddf2918	0.1089651
14	0xbd82b526	-0.063822076
15	0x3d77461c	0.060369596
16	0x3db87704	0.090070754
17	0xbde7c629	-0.11317093
18	0xbddfdb6b	-0.109305225
19	0x3b7fb24d	0.0039016188
20	0x3e2f4702	0.17116931
21	0xbd93f861	-0.07225109
22	0x3d62740b	0.05528645
23	0x3dfadbb0	0.12248933
24	0x3dec2b76	0.11531727
25	0x3d7af800	0.061271667
26	0xbd6f58ea	-0.058434404
27	0x3dde0503	0.108408
28	0xbe3b0012	-0.18261746
29	0x3cc36bb1	0.023855062
30	0x3d12ecfa	0.03587053
31	0xbd19f35f	-0.037585612
