Baseline_systems/SoMS/models/SoM_Mix_42/30_0.pth (torch, 19295 bytes, 3 tensors)

weight f4 [32, 129]
0	0x3d6edec6	0.058317922
1	0xbd82c8f1	-0.06385983
2	0x3c00f731	0.007871435
3	0x3ca394b5	0.01996837
4	0xbde22167	-0.11041527
5	0x3da38b56	0.079855606
6	0x3b88e1f6	0.0041773273
7	0x3d95c8d0	0.073136926
8	0xba83c8d2	-0.0010054356
9	0x3c7b3573	0.0153325675
10	0xbabece97	-0.0014557418
11	0xbcc41114	-0.023933925
12	0x3c311b53	0.010809737
13	0xbd468def	-0.048475202
14	0x3cb79db5	0.022414068
15	0xbc2532ea	-0.01008294
16	0xbc1d5096	-0.009601733
17	0x3c8ae73d	0.016955966
18	0x3dcebe7e	0.10094927
19	0x3bab48c8	0.005227182
20	0xbbda72ce	-0.006666518
21	0xbd47feb9	-0.048826907
22	0xbca75113	-0.020424401
23	0xbd1e7130	-0.038682163
24	0xbb6573f3	-0.0035011738
25	0x3ce202d4	0.02758924
26	0x3cde4e29	0.027136879
27	0x3cd0b3ae	0.025476303
28	0xbd7e765d	-0.0621246
29	0x3d9e7fdf	0.07739233
30	0x3d3d4987	0.0462127
31	0x3d76052f	0.060063537
32	0x3da6b70e	0.08140384
33	0xbdb46c91	-0.0880977
34	0xbd9ef38e	-0.07761298
35	0xbcf4cc05	-0.02988244
36	0x3dccf6b5	0.10007993
37	0x3c3afb62	0.011412473
38	0x3d87ff41	0.06640483
39	0xbd255d61	-0.040372256
40	0x3dd71838	0.10502666
41	0xbc79ed1d	-0.015254286
42	0x3d3bed9b	0.045880895
43	0x3cf577d5	0.029964367
44	0xbcae2a9d	-0.021260554
45	0x3d1abf1d	0.037779916
46	0xbd9009e0	-0.070331335
47	0x3ae14444	0.0017186482
48	0xbd42ad32	-0.047528453
49	0xbcb3d086	-0.021950018
50	0xbddb33f8	-0.107032716
51	0xbca8a602	-0.020586971
52	0x3cbbe1d2	0.022934828
53	0xbd16a1e1	-0.036775474
54	0x3de7a81f	0.113113634
55	0x3dc1a497	0.09455221
56	0xbb3eb5c8	-0.002910005
57	0xbd162cc9	-0.036663804
58	0x3cd1f826	0.025631022
59	0x3d5c00c0	0.053711653
60	0xbd0b1c5e	-0.0339626
61	0x3cebd19b	0.028786471
62	0x3ce0ad1e	0.027426299
63	0x3d61663e	0.055029146
64	0xbcd969a3	-0.02653963
65	0xbd01eb55	-0.03171857
66	0x3cd6e2c4	0.026231177
67	0x3d1cc934	0.03827782
68	0xbd23cecc	-0.03999214
69	0xbd107a84	-0.03527309
70	0x3d851e8c	0.06499967
71	0x3b601bf3	0.0034196347
72	0x3d548703	0.05188657
73	0x3ccfd0c4	0.025368102
74	0x3ce87d0d	0.028379941
75	0x3d19cc67	0.03754845
76	0x3d41adca	0.04728488
77	0x3d06a2c3	0.032870065
78	0xbdd1e44d	-0.10248623
79	0x3cb2a59d	0.021807486
80	0xbd0cc412	-0.034366675
81	0xbdb39f9f	-0.0877068
82	0x3bddf7ae	0.0067739105
83	0x3c47400c	0.012161266
84	0x3d5c9db6	0.053861342
85	0xbd974df0	-0.07387912
86	0xbd77a1cc	-0.060457036
87	0x3d9a381e	0.07530235
88	0xbccf23c7	-0.025285615
89	0x3d850200	0.06494522
90	0x3ba54c40	0.00504449
91	0xbdb012f4	-0.08597365
92	0x3cdbaca5	0.026815722
93	0x3d2d786e	0.04235118
94	0xbd133b38	-0.035945147
95	0xbcace791	-0.021106513
96	0x3d55e3f7	0.052219357
97	0x3c82933c	0.015939347
98	0xbc8a64d5	-0.016893784
99	0xbd476a74	-0.048685506
100	0x3d982605	0.07429127
101	0xbd26e7e7	-0.040748503
102	0x3d8d9372	0.069128886
103	0x3c692af7	0.014231435
104	0xbd9c1201	-0.076206215
105	0xbdb3bf44	-0.087767154
106	0x3d931a89	0.071827956
107	0xbc84fa38	-0.016232595
108	0x3d19b10a	0.037522353
109	0x3cb3643e	0.021898385
110	0x3d085c1f	0.03329098
111	0x3d2e7bc7	0.042598512
112	0x3d8653ae	0.065589294
113	0xbda4d188	-0.080477774
114	0xbb6df508	-0.003630938
115	0x3d367da4	0.044553414
116	0x3d2e8b2c	0.042613193
117	0x3d9d90c8	0.076936305
118	0xbda2e6c0	-0.07954168
119	0xbda7f885	-0.08201698
120	0xbd271373	-0.040790033
121	0xbc1cc3b9	-0.009568148
122	0x3de9fd16	0.114252254
123	0xbd1ea00e	-0.03872686
124	0x3cd0a7cf	0.025470642
125	0xbce4c748	-0.027927056
126	0xbd827c74	-0.06371394
127	0xbd298c2e	-0.04139345
128	0x3d9847fe	0.074356064
129	0x3de946b3	0.11390438
130	0xbda29ef9	-0.07940478
131	0x3d33a2ef	0.043856557
132	0x3d5652b9	0.052324984
133	0x3d052c92	0.03251321
134	0x3da4f91a	0.08055325
135	0x3db111bc	0.08645961
136	0x3dab7430	0.083717704
137	0xbbfccda8	-0.007714946
138	0xbd0f6d88	-0.035016567
139	0xbdcb2002	-0.099182144
140	0xbd880d67	-0.06643181
141	0xbd09ed67	-0.03367367
142	0xbd998149	-0.07495362
143	0x3d72e075	0.05929609
144	0x3cec6b2a	0.028859694
145	0xbd3323b5	-0.043735225
146	0x3d648171	0.055787507
147	0x3d58fe95	0.052977163
148	0x3cf5485f	0.029941736
149	0x3dad52cd	0.084630586
150	0xbcfd0bec	-0.030889474
151	0x3d8d6e51	0.06905807
152	0x3acd7c16	0.0015677239
153	0x3caf8ee3	0.021430438
154	0xbd7114e5	-0.058857817
155	0xbda6fc36	-0.08153574
156	0xbd99ae5e	-0.07503961
157	0xbc5b8ad0	-0.013399795
158	0x3db0f2ce	0.08640061
159	0xbbb00f31	-0.0053729047
160	0xbdb83e00	-0.089962006
161	0x3d6d2ddf	0.057905074
162	0x3c20d35e	0.009816019
163	0x3d496a99	0.049173925
164	0xbccde64d	-0.02513423
165	0x3d2fdb26	0.042933606
166	0xbbdbe12a	-0.0067101913
167	0x3bd0257a	0.006352124
168	0xbd661895	-0.056175787
169	0xbc214dc4	-0.009845201
170	0xbb5f7854	-0.003409882
171	0x3c67692a	0.014124194
172	0x3d302ab6	0.043009482
173	0x3d3e29ad	0.046426464
174	0x3d8fbcbe	0.070184216
175	0x3d7bdce5	0.06148996
176	0x3d12c58e	0.035832934
177	0xbcaa8a0e	-0.020817783
178	0xbda66058	-0.08123845
179	0x3d38378c	0.04497485
180	0x3ac4bfaa	0.0015010734
181	0xbd0384aa	-0.03210894
182	0xbdc6c8e4	-0.097062856
183	0x3be9c572	0.007134133
184	0xbd045341	-0.03230596
185	0x3dc1c0a6	0.09460573
186	0xbd56e1dc	-0.05246149
187	0xbdc49263	-0.095982336
188	0x3cb87385	0.022516022
189	0xbcc254ed	-0.023722136
190	0x3b95172e	0.0045498824
191	0xbd72cfdb	-0.059280258
192	0xbd85a23c	-0.065250844
193	0x3cecd845	0.02891172
194	0x3d2e3b90	0.042537272
195	0xbd136953	-0.035989117
196	0x3d84bbbb	0.06481119
197	0x3da670d2	0.081269875
198	0x3de409e3	0.11134698
199	0xbd281e0d	-0.041044284
200	0x3d35f73e	0.04442524
201	0xbd47bf9a	-0.04876671
202	0x3dc6c841	0.09706164
203	0xbd38e0ae	-0.045136146
204	0x3d97bdb1	0.07409228
205	0x3cb56ffd	0.022148127
206	0xbd1fad8f	-0.038983878
207	0xbcc5f305	-0.024163732
208	0xbbf708b3	-0.007538879
209	0x3d8a39eb	0.06749328
210	0xbc020266	-0.007935142
211	0x3ca8580b	0.020549795
212	0xbd5e4673	-0.054266404
213	0x3d9a570a	0.07536133
214	0x3d4c3e95	0.04986437
215	0x3dbfd154	0.09366098
216	0x3da9665d	0.08271477
217	0xbdc22bb1	-0.0948099
218	0xbc526b30	-0.012842938
219	0x3d610e21	0.054945115
220	0xbdb5d709	-0.08878905
221	0x3de03785	0.109480895
222	0xbd401c03	-0.046901714
223	0xbd21efd0	-0.039535344
224	0x3d855972	0.06511201
225	0xbd26e1ff	-0.04074287
226	0xbd00d655	-0.031454403
227	0x3daf4dfd	0.08559797
228	0x3d420e32	0.04737682
229	0x3d8c2f63	0.06844976
230	0xbd289678	-0.041159123
231	0xbd3f8de8	-0.04676619
232	0x3d82980b	0.06376656
233	0xbd245479	-0.040119622
234	0xbd8a72c8	-0.06760174
235	0xbc232ef1	-0.009959922
236	0xbdab31e0	-0.08359122
237	0x3d0fde7a	0.03512428
238	0x3d4b4715	0.049628336
239	0xbd894bb4	-0.06703892
240	0xbdc29282	-0.095006004
241	0xbce86213	-0.028367078
242	0x3c6ccde0	0.014453381
243	0xbd079315	-0.033099253
244	0xbd88b5e7	-0.0667532
245	0xbca396b2	-0.019969318
246	0xbd779a27	-0.060449746
247	0xbdbc92f6	-0.09207718
248	0xbda45215	-0.080234684
249	0x3dd458c2	0.10368492
250	0x3d66a189	0.056306396
251	0xbbc608b0	-0.006043516
252	0x3cc846f9	0.024447905
253	0x3c8ae4e9	0.016954856
254	0x3d0419c3	0.03225113
255	0xbcbadd29	-0.022810536

bias f4 [32]
0	0xbd1009e0	-0.035165668
1	0x3cfd75cc	0.030939959
2	0x3bd79bf1	0.006579869
3	0x3da5130a	0.08060272
4	0xbd7e6450	-0.062107384
5	0x3ceb0e1f	0.028693257
6	0xbc5acc00	-0.013354301
7	0x3d45dd72	0.04830689
8	0x3dbde836	0.09272806
9	0x3db4b699	0.0882389
10	0x3d68c1f8	0.056825608
11	0xbda62e22	-0.08114268
12	0x3d1a0a54	0.037607506
13	0xbd8d0462	-0.068856016
14	0x3d1b0cf5	0.037854154
15	0x3c00be6e	0.007857902
16	0xbd49578c	-0.049155757
17	0xbd993784	-0.07481292
18	0xbd5a71b3	-0.05333109
19	0xbdadc6c6	-0.08485179
20	0xbc1ca815	-0.009561558
21	0xbc2c5639	-0.010518604
22	0x3d7ad5e2	0.06123913
23	0x3cef3e56	0.029204529
24	0xbd266435	-0.04062291
25	0xbc51e22c	-0.012810271
26	0x3d28d3fb	0.041217785
27	0xbb894376	-0.00418895
28	0x3d2dc893	0.04242761
29	0x3c9af9fb	0.018918028
30	0xbd5dd10c	-0.05415444
31	0x3da407af	0.08009278

weight f4 [1, 32]
0	0xbe0ccd25	-0.13750131
1	0xbdc389a0	-0.09547734
2	0x3d44f8d9	0.048088882
3	0x3d7f2d23	0.062298905
4	0x3d6b03ea	0.05737678
5	0x3d8e37f9	0.0694427
6	0xbe306e14	-0.17229491
7	0xbe1634b6	-0.14668545
8	0x3e353f2e	0.17699882
9	0xbe35db96	-0.17759547
10	0xbda96a80	-0.082722664
11	0x3dd5581c	0.10417196
12	0x3e270ce7	0.16313516
13	0x3dd56e04	0.104213744
14	0xbda693b9	-0.081336446
15	0x3d8dcccf	0.0692383
16	0x3dd86831	0.10566748
17	0xbde11504	-0.109903365
18	0xbde120ed	-0.10992608
19	0x3c434382	0.011917951
20	0x3e3e390d	0.1857645
21	0xbdb54959	-0.088518806
22	0x3d90b239	0.07065243
23	0x3df6be58	0.12048024
24	0x3e049ff8	0.12951648
25	0x3d900f54	0.070341736
26	0xbd9bef7e	-0.07614039
27	0x3dfe6768	0.12422067
28	0xbe4b15b0	-0.19832492
29	0x3d2153c6	0.039386533
30	0x3d580f8e	0.05274921
31	0xbd5ac9ad	-0.05341499
