Baseline_systems/SoMS/models/SoM_GRU_22/45_1.pth (torch, 10975 bytes, 3 tensors)

weight f4 [32, 64]
00000000: 7715 c7bd b371 953d 1e64 1f3e 6405 023e
00000010: 46fb b93d 6ec1 6d3d c1fc 89bd fc2d 003d
00000020: ccf8 fd3d 5857 3b3d b68b d6bd 7ce0 c7bd
00000030: 388a 54bc 8c04 0b39 f885 d6bb 2481 21bd
00000040: 5be7 fdbd c02c b93d ea7d d83d 97b0 633c
00000050: 1a68 aebd 960d b6bd b82f aa3d 9e71 7dbd
00000060: 3ff9 5abd 0c45 423c 216b 5dbd 578f e7bb
00000070: 2820 4d3d d1d3 ccbd 2725 f5bd 687d b8bd
00000080: 48cc 58bd 3a88 973d 4a70 d03d aaeb 223e
00000090: cc69 213e e27b 76bd 1fcf 31bc ce9e 7f3d
000000a0: 2462 d2b9 fcd2 44bd 4f2a ef3d 1b70 acbc
000000b0: 632a 7d3d 87db 7eb9 9b91 f3bd 414d 313d
000000c0: 2051 e9bd 8a57 e33c 414d 67bd b1f5 643c
000000d0: 31d4 e03d c21e 1abc f929 c03d 4b4a 213e
000000e0: fd6d a0bd 36f4 ab3d 38d6 03bd 2a01 4ebd
000000f0: 3b94 003d 035e 0c3e 3fbb cdbc 5e9b 9ebc
00000100: 4b73 a9bd a044 8fbd c0c4 7f3c f845 853d
00000110: 4d24 733d a938 ddbd 6d83 c4bc bf18 8dbd
00000120: 7ddb 263e ba4a fe3d d152 123e 45e0 1b3e
00000130: 6fcb e63c 64ce 79bd bdfe ecbb eaec 2a3d
00000140: 6346 1d3d 1721 54bc 2dc1 ff3d a91e 513d
00000150: c68e 033e c09c 083e e378 653c 0fe3 a43d
00000160: 6100 4fbc 3aff fbbd 1f96 8dbd 646d 92bd
00000170: 614e 073b fa19 0dbe f772 3cbd 4ff2 09bc
00000180: 2d41 bdbc 1988 a3bd 7645 133e 825e 20be
00000190: 46ac 763d 109a c0bd c8a2 adbd ff3f 483d
000001a0: 6c00 ed3b 6888 703d d84f 0e3d 1b24 fdbb
000001b0: f21e ccbd 40f7 813d 0fef 32bd bd6d fdbd
000001c0: b060 e0bd 79fb 393d 6b61 8e3c 1bfd a33c
000001d0: 1f9c fe3d a248 e23b 1c2a 6ebb 7be3 e4bb
000001e0: 9a9c 51bd a25f 7cbc 0e2f 193e fd97 8cbb
000001f0: 2310 a1bd 1b72 d5bd 2478 053d 0f54 81bd
00000200: 6dc1 7d3d 4844 37bd a248 0d3e 7fb4 c63a
00000210: 9865 bf3d b1db b4bd 01b9 f63d 4253 df3c
00000220: eeab 5b3d 5bdd fcbd 0a76 8cbd c3ca 07bd
00000230: 52d0 e53c 8d75 d83b 43a6 37bd 979e 12be
00000240: 2e2b 10be d401 6c3d c1aa 84bd cbb5 8d3d
00000250: 3e85 f03c 3651 833d f20a 013c 44d5 d13c
00000260: 51cc 813c 839a 59bc 9497 7a3d 88f6 10be
00000270: cc0b 87bd dc63 0c3d fff9 5fbd c3b2 bbbd
00000280: 3f2a 2fbc 5ee7 a7bd 6c82 8cba 9a1d 013d
00000290: df43 173d 8df7 19be 6e9a 56bd 67e2 ddbd
000002a0: c1bb f8bd cc1a c03d deaf 183e 7e78 7ebd
000002b0: 342d 5ebd f2f6 d13b f9eb 1ebe 6826 e93c
000002c0: 2e50 53bc afcb a2bd 8f28 8cbd d32a a53d
000002d0: 9a53 453d 34fd bfbd 89a3 fd3d fa85 a23d
000002e0: 7c9e 7ebd b79b a93c f45e 1abe ff57 84bc
000002f0: f9e6 7b3d 761d b93d 821a c6bd 8176 e3bd
00000300: b48d 86bd 72e5 133d f0e2 f93d a56f 3c3d
00000310: 1006 f03d 5006 d53d d07f 1f3d 550d 1dbd
00000320: ed48 e03d 2d80 0ebc 2808 123e a9ac 183e
00000330: 10d6 3bbc 1b75 0e3d 3fc8 49bd 08b6 b43d
00000340: 8479 9bbd fee9 bbbd 5915 713d b588 0fbe
00000350: b99b 143e 3e31 053e d99f c93d 3f10 bc3d
00000360: d6cd 343d c7f9 11be a4c0 a93c a7e3 103e
00000370: 6466 283d 299a e8bd b811 8fbd 46d2 a43d
00000380: fd23 4dbd ed3c 21be 8703 ddbc b4ca 98bd
00000390: a1d0 47bd aebd f5bd 1303 d03c cc38 71bc
000003a0: 6e4f 27bc da01 e2bd c3a9 98bd 1e4d 813d
000003b0: d1f5 26bd 4308 503d b1be 793d 22f7 f8bd
000003c0: 3955 cdbd fa16 9d3d c2db 8c3d 0cd8 c53c
000003d0: 48d1 de3d ffef ad3d bbf1 1bbe b5b9 99bd
000003e0: 1404 ed3d 467d f5bd 1966 8a3d 53d0 1a3e
000003f0: 0294 32bd 0490 093e c08f 213e 5361 14be
-0.09720891 0.07297077 0.15565535 0.12697369 0.0908113 0.058045797 -0.06737662 0.031293854
0.1240097 0.045737594 -0.104758665 -0.09759614 -0.012972407 0.00013257767 -0.006546732 -0.0394298
-0.12397643 0.090417385 0.10570891 0.013897083 -0.085159495 -0.0888931 0.08309883 -0.061875932
-0.053460356 0.011857282 -0.054057244 -0.007066648 0.050079495 -0.10001338 -0.11969977 -0.09008294
-0.052929193 0.0739903 0.101776674 0.15910211 0.15763015 -0.060176738 -0.010852604 0.062407307
-0.00040127442 -0.048052773 0.116779916 -0.02104955 0.061808 -0.00024305108 -0.118930064 0.043286566
-0.113924265 0.027751703 -0.05647016 0.013974593 0.10977972 -0.009406747 0.09383006 0.15750997
-0.078334786 0.08396189 -0.032186717 -0.05029408 0.031391364 0.13707738 -0.0251137 -0.019361194
-0.082739435 -0.06995511 0.015610874 0.06507486 0.05936079 -0.10801823 -0.02398845 -0.068894856
0.16294666 0.12416597 0.14289404 0.15222271 0.028173177 -0.060987845 -0.0072325156 0.041729845
0.038397204 -0.012947342 0.12488017 0.05105463 0.12847432 0.13341045 0.014005872 0.080511205
-0.012634368 -0.1230454 -0.06913399 -0.07149771 0.0020646083 -0.1377944 -0.046008077 -0.008419587
-0.023102367 -0.07984943 0.14381966 -0.15661052 0.060222887 -0.09404385 -0.08478314 0.048889156
0.0072327163 0.058723837 0.034744114 -0.0077252514 -0.0996684 0.06345987 -0.043685015 -0.123744465
-0.10955942 0.04540584 0.017380437 0.020018151 0.124321215 0.006905631 -0.0036341017 -0.0069851256
-0.051174738 -0.01540366 0.14959356 -0.0042905794 -0.07864406 -0.104221545 0.03258528 -0.06314861
0.061952043 -0.044742852 0.13797238 0.0015159993 0.09345549 -0.08830965 0.120470054 0.02726138
0.05363076 -0.12346908 -0.06858452 -0.033152353 0.028053436 0.00660581 -0.044836294 -0.1431831
-0.14078972 0.05761893 -0.06477881 0.0691944 0.02936041 0.06411974 0.007876145 0.025614388
0.015844496 -0.013281467 0.061179712 -0.14156544 -0.06594047 0.03427492 -0.054681774 -0.091649555
-0.010691225 -0.08198427 -0.0010720021 0.03152237 0.03692996 -0.1503584 -0.05239337 -0.108341984
-0.12145186 0.09380111 0.14910838 -0.06212663 -0.054242328 0.006407612 -0.15519704 0.028460696
-0.012897534 -0.07949006 -0.068436734 0.08064809 0.04817543 -0.093744665 0.123847075 0.0793571
-0.06216286 0.020704133 -0.15075284 -0.016155241 0.06149957 0.09038822 -0.09673025 -0.11106587
-0.065699965 0.036107488 0.12201488 0.04600491 0.11719906 0.10401595 0.03894025 -0.038342793
0.109514095 -0.008697552 0.14260924 0.14909615 -0.011464611 0.03477965 -0.049263235 0.08823782
-0.07591537 -0.0917549 0.05885825 -0.14016993 0.14512528 0.13007066 0.09844942 0.09182786
0.044141613 -0.14255439 0.020721741 0.14149342 0.041113272 -0.11357529 -0.069858015 0.08047919
-0.05008315 -0.15745898 -0.026979221 -0.074605376 -0.04878295 -0.11999069 0.02539209 -0.014723014
-0.010211809 -0.110355094 -0.074542545 0.06313537 -0.040761773 0.05078913 0.060972873 -0.12156512
-0.100260206 0.07670398 0.06877853 0.02415087 0.10879761 0.08493041 -0.15228932 -0.07506124
0.115730435 -0.11986785 0.06757755 0.15118532 -0.043598182 0.13433844 0.15777493 -0.14490251

bias f4 [32]
00000000: 3de4 fa3c ed96 903b fc46 1a3e 7979 c33c
00000010: 1cdc afbd 476c fbbd dc64 20bd 2532 b23d
00000020: ed52 e5bb b03d 7c3d 5065 73bc eed2 d63b
00000030: a3d9 9c3d 9cf2 473d 1911 babd afe6 fd3d
00000040: ef71 ad3d 7682 c3bd 8b1a e1bc 1272 ac3d
00000050: ed66 be3d d8e0 88bd 8b72 0d3c f2a6 c83d
00000060: 3cc5 82bd 3411 4b3c 633d 163e ac95 a93c
00000070: cdd2 b03d 0641 773d 456b 5e3d cdfa 13bd
0.03062641 0.004412523 0.15066141 0.023861634 -0.085869044 -0.12276512 -0.039158687 0.087009706
-0.006998411 0.061582267 -0.014855698 0.0065559065 0.076586984 0.048815355 -0.09085292 0.12397515
0.08468997 -0.09546368 -0.027478477 0.08420195 0.09296975 -0.066835105 0.008633266 0.09797467
-0.06385276 0.012394238 0.14671855 0.020701252 0.08633957 0.060364746 0.05430152 -0.036127854

weight f4 [1, 32]
00000000: 33d5 493e 4415 52bd b715 4e3e 7c84 16be
00000010: a414 1a3d 3a67 1e3e 8a96 debd 296b 333e
00000020: dc1f 00be c362 33bd e952 39be 7736 10be
00000030: 217b 443e 11b5 13be 5faf 923c 9a85 093e
00000040: 3c0e a8bd 13ca 6ebd 6113 473d 3226 2c3e
00000050: a5da 193d ec54 d7bd 136d 473e c86b d0bd
00000060: 91e4 443e a29d 54be 7d6b 363e 187f b9bd
00000070: 1edb 373d 95e6 383e 33c4 573e 6846 00bd
0.19710235 -0.05128981 0.20125471 -0.14698976 0.03761734 0.15469065 -0.10868557 0.17521347
-0.12512153 -0.04379536 -0.18098034 -0.14083277 0.19187595 -0.1442454 0.01790589 0.13429871
-0.0820584 -0.05829818 0.048602466 0.16811445 0.03756203 -0.105142444 0.19475202 -0.10176808
0.19227816 -0.20763257 0.17814441 -0.09057444 0.0448867 0.1805671 0.21070938 -0.031317145
